experiments/model_repositories/robot/gender_classification/model_files/block_02.pth (torch, 306942 bytes, 6 tensors)

weight f4 [128, 64, 3, 3]
00000000: 9957 123d ac84 8e3a dcd1 373d 640b bdbd
00000010: bd55 36bc 6c17 b23d 039e b33d 30df 603d
00000020: c419 113d 6f57 7ebc 1182 a0bc fabe 8e3a
00000030: bd22 bb3c 9b7b 9a3c a03a 26bd bb79 6d3d
00000040: a3aa d8bc d76c 833d 0bbf d73b b0c8 88bc
00000050: 2afb 63bd b4bc 453c 3fa1 8dbb a765 9fbc
00000060: 4a3f 953d e63b 503d 141f 103d 8f16 95bb
00000070: 9f10 7b3c a700 9e3a 0380 123d 171f efbb
00000080: 4591 ccbc 7ee4 a6bc 4535 313d 196f b1bc
00000090: 6784 063c 8f0f 54bc 6e93 3fbd e17a 8d3d
000000a0: 1720 13be faf8 743c fe4a 943d 0bbb 093c
000000b0: 6989 a43d 5718 f43c a49d dbbc f2a7 25bd
000000c0: 16bc 613d 6467 3dbd 0ab6 5dbc 943a 62bc
000000d0: c1ac 393d 661e 823c e9c4 5abc 902f 16bc
000000e0: 09b6 98bd cb6f da3c 0153 e1bc 85d4 323d
000000f0: e6b8 203d 164b 2dbd 0867 283d e21f 05bd
00000100: 70d7 34bc b995 31bb f52c b9bd 37bc 3cbd
00000110: 3752 6d3b 225f f2bc a638 6abb b39d 743d
00000120: 83e9 12bc 0d73 c53c 2df6 1abd 5945 15bd
00000130: 2b70 113d c8da b23c c5c4 b93b 3f59 283d
00000140: 6ebb b6bc 6c64 963c 61cf f3bb a79d 68bb
00000150: c955 873d df81 943c 07a1 b6ba 7481 debb
00000160: 0a1c 4c3b 4222 0f3d 845e e0bc 23cf 803b
00000170: 7760 ebbb 621c 753c c07f 973c 6550 6c3d
00000180: 3c75 bf3c 1b48 2f3d 84cd 4fbd 653f 9eba
00000190: d673 553c da01 083b f5c0 57bd c26f b2bd
000001a0: c3b5 bdbb 30c1 4f3c 2ed4 c93d 4e4a 833c
000001b0: 7b17 8d39 b11e 9b3c b688 a93b ac52 dc3d
000001c0: a5e1 b7bc ade5 5a3c acde 4a3d 8a0d 2fbd
000001d0: 66ce 13bd f171 8abb c771 8f3c 8a93 a6bc
000001e0: 9558 2abd 00aa 2abd 2058 233d 0f40 bfbc
000001f0: ba88 a93d 8d14 f3bb 9967 7eb8 e718 e4bc
00000200: d40a ad3c bbca dabc 6441 63bc 0d29 053d
00000210: 0b65 0ebc 6d11 c33d b7d8 ed3c 46a4 f9bb
00000220: 4898 d63c 759d 99bb faeb 743b 9544 663d
00000230: e234 8dbb ee5d a4bc e9aa 123d 6ad6 ac3b
00000240: 5d6e 173d 8876 36bd 07fe a13d 696d a93b
00000250: 3c26 98bd e52d 233c 5313 44bc e7d1 e2bc
00000260: 8675 1cbd 7273 ddbc 3f40 c1bc a5d4 cfbd
00000270: fc65 e1bc ec6f 923d 9431 d8bb e082 13bd
00000280: 6207 c5bc a7c8 ac3c 9c16 0f3d 6b81 95bd
00000290: df7a 893c 4cd1 ae3c 6376 79bd 7687 6a3d
000002a0: 987b 453d 16a8 86bd 5fc9 ee3c db20 a2bc
000002b0: 3f3b 42bc 5a3f 993c 8e65 3d3d b984 56ba
000002c0: 1776 2bbc 2da7 3fbd 2307 2b3c 6dd9 14bd
000002d0: d8ba 00bd c98d 5e3c bfeb 34bd 4ee0 413d
000002e0: cc0f 9f3c b333 d6bc 3a3a 8b3c 000e 813d
000002f0: c650 d33c da07 58bd 077d 4ebd f392 953b
00000300: fbb4 1fbd 6aa4 db3d e754 7abc b204 50bd
00000310: f5cd 7bbd 8ac5 773c 93fe 243d ffad 01bc
00000320: 8e22 723d bcaa 8c3c 4c91 913d f9ff 043d
00000330: 9f21 94bd b44d 6cbd 19e9 aa3c 5bdf a53c
00000340: 1a9c 4a3d aaae 1e3d a8dd ab3c 85f7 0ebd
00000350: 7fe5 a03d c809 953c e88f 8a3d 11ed 4d3c
00000360: 14b5 e1bc 5160 17bd a8a5 ec3d ec44 c93c
00000370: 60ec 273b 10b3 b0bd 2ea6 a2bd c422 e439
00000380: b30a 043d 5bee 843d b086 a3bd b635 3abd
00000390: 6308 71bc 5acc cb3c 61e5 493c 0812 3abb
000003a0: bc34 ffbc 7a19 e73c a124 1bbd 4b66 313d
000003b0: 8e92 323d 6bcc 433d b66d 0abc c4a3 8bbb
000003c0: 4992 643c 956c b3bc 45d5 b3bc aa42 ee3a
000003d0: 7a9d bebc ce49 5fbc 3dd6 82bd 3f49 66bc
000003e0: 68df 01bc e66b 903d fdc9 d9bc 7e24 243d
000003f0: 10d7 e9bc c0dc c6bc 7723 373d b1a0 dabc
0.03572807 0.001087328 0.044877872 -0.09230688 -0.01112884 0.086958736 0.08770373 0.05490035
0.035424963 -0.0155237755 -0.01959327 0.0010890656 0.022843713 0.018857768 -0.040583253 0.05797742
-0.026448553 0.06417244 0.0065840534 -0.016697258 -0.05565945 0.012068916 -0.0043222005 -0.019457651
0.07287462 0.050838374 0.03518589 -0.0045498083 0.015323787 0.0012054638 0.035766613 -0.0072974074
-0.024971614 -0.020372625 0.043263692 -0.02165942 0.008210278 -0.012943163 -0.04677146 0.06908203
-0.1436771 0.014951939 0.07240866 0.008406411 0.080340214 0.029796762 -0.026808567 -0.04044337
0.055111013 -0.04624118 -0.013532171 -0.013807911 0.045330767 0.015883636 -0.013352611 -0.009166613
-0.074565955 0.026664635 -0.0275054 0.043659706 0.039238833 -0.042307936 0.041113883 -0.03250111
-0.011037692 -0.0027097298 -0.09041778 -0.046077933 0.0036212334 -0.029586378 -0.0035739332 0.059720706
-0.008966806 0.024102712 -0.037832428 -0.03644309 0.035507362 0.021832839 0.0056692087 0.041100737
-0.02230617 0.018358432 -0.007440493 -0.0035494359 0.06608159 0.018128334 -0.0013933488 -0.0067903344
0.0031144642 0.03494478 -0.027388819 0.0039309426 -0.0071831304 0.01496038 0.018493533 0.057693858
0.023371331 0.042793375 -0.050733104 -0.0012073336 0.013028106 0.0020753057 -0.052674253 -0.08712722
-0.00578949 0.012680337 0.09854923 0.016026642 0.0002691111 0.018935533 0.005173768 0.10757956
-0.022446463 0.013360423 0.049528763 -0.04273752 -0.03608551 -0.0042250087 0.017510308 -0.020334024
-0.041588385 -0.04166603 0.039878964 -0.023345975 0.08278032 -0.0074182213 -6.0654802e-05 -0.027843906
0.021123327 -0.026707998 -0.013870571 0.032509852 -0.008691083 0.09524808 0.029034002 -0.00761846
0.02619566 -0.00468796 0.0037372098 0.05621775 -0.0043092826 -0.02006432 0.035807524 0.0052745836
0.036970485 -0.044546634 0.0790978 0.0051705134 -0.07429168 0.009959673 -0.011967498 -0.02768798
-0.038198017 -0.027032588 -0.023590205 -0.101479806 -0.02751445 0.07150254 -0.006597707 -0.036013484
-0.024051372 0.021091772 0.03493367 -0.07300075 0.016782222 0.021340035 -0.060903918 0.057258092
0.04821357 -0.065750286 0.029148756 -0.019791057 -0.011854946 0.018706966 0.04623943 -0.00081832294
-0.0104651665 -0.04679029 0.010438713 -0.036340166 -0.031428188 0.013583609 -0.044170137 0.047333054
0.019416712 -0.026147699 0.016995538 0.063014984 0.025795352 -0.052741863 -0.050412204 0.004564637
-0.038990956 0.10724719 -0.015279031 -0.050785728 -0.061475713 0.015122781 0.040281843 -0.007915019
0.059114985 0.017171256 0.07107791 0.032470677 -0.07232975 -0.05769129 0.020863103 0.020248106
0.049465276 0.03874079 0.020979717 -0.03490402 0.07856273 0.01819314 0.06765729 0.012568728
-0.027552165 -0.03695709 0.11555034 0.024568997 0.0025623068 -0.086279035 -0.079418525 0.0004351345
0.032236766 0.06490775 -0.07984674 -0.04546138 -0.014711472 0.024877716 0.012322755 -0.0028392095
-0.031153075 0.02821039 -0.03787673 0.043310445 0.043596797 0.04780237 -0.008449009 -0.0042614657
0.013950893 -0.021902362 -0.02195228 0.0018177826 -0.02326845 -0.013628436 -0.06388519 -0.014055549
-0.007926799 0.0705183 -0.026585573 0.040073864 -0.028544933 -0.024275184 0.044711556 -0.026687952

bias f4 [128]
00000000: 19f6 00b1 19a8 0ab1 6323 9ab0 18df 20b0
00000010: b73c a9b1 dd0c 22b1 718e bbaf fc6b 9531
00000020: 0034 bbb0 bb58 1231 9a0c c131 117c 4b31
00000030: 25ac 74af f358 37b0 8d18 58b0 04e1 cd30
00000040: a2ae b431 f4e9 6b30 ff90 4c30 4a68 5cb1
00000050: e5bf 2632 0f88 6d31 fb70 84b0 f828 60b1
00000060: 5310 9db1 58f7 0b31 f056 f1b0 e27a 53b0
00000070: 812d 0fb1 66fe 1430 56fc faaf 9c18 9c2e
00000080: 65b5 45b1 3fc5 20b0 b0ae 04b1 9a43 8c31
00000090: 46b9 2a31 67a1 0eae 91c9 12b1 5d21 bdb0
000000a0: a00f 36b0 2069 5231 80ac d1ac e799 f430
000000b0: 7b18 b931 52f7 1731 0e76 68b1 5261 0cb1
000000c0: 7540 9a30 8270 e630 b444 e1b1 00e2 86af
000000d0: a684 4430 52f7 a331 0450 ceb0 6ab2 57b1
000000e0: 3c56 e730 ff78 e5b1 8cc4 3631 eadc 51b1
000000f0: 4833 b4b0 0640 69b0 0240 49b0 7c7f ccb0
00000100: 3208 ae30 fa07 88b0 a4aa 96b1 1b30 d5b0
00000110: f31a f630 ea39 31b1 c9da f72f 1230 cbad
00000120: 9896 e5ae 9cc8 d3b1 1211 8fb1 6d21 6d31
00000130: 809e 8d30 c34d 42b1 6c84 abaf 1a6f 4db0
00000140: 67ce 0031 c6a1 2231 714b a2af 7c4c ec30
00000150: c00a a530 80b0 86b0 e279 6031 aad0 63b1
00000160: fab1 70b0 8954 22b1 68f8 fe30 44ef b9b1
00000170: f8c4 1f31 4d87 c8b0 c071 8d30 c3d4 f4af
00000180: ac89 cfaf 577f 19b1 f25d 12b1 1821 cf30
00000190: c8d6 b72f 193c 9530 e76a 3331 d585 88b1
000001a0: 0d70 1eb2 3ffd 9d30 364d 1631 ae65 df31
000001b0: 6469 0faf 0aa0 a3ab d812 6db1 a063 7431
000001c0: f206 1a31 a513 7430 be3b b3b1 5c69 6231
000001d0: ec79 c730 505f 0031 60b0 ba31 1d4c c8b1
000001e0: 8b91 aa30 ad7d b4af 0895 5231 aa93 05b1
000001f0: cc48 b9b0 b1f3 2231 8460 78b0 07d7 e731
-1.8766342e-09 -2.0177195e-09 -1.1215032e-09 -5.8524696e-10 -4.92545e-09 -2.3581415e-09 -3.4116313e-10 4.348747e-09
-1.362082e-09 2.1296234e-09 5.618472e-09 2.9610912e-09 -2.2252829e-10 -6.6701417e-10 -7.861523e-10 1.4979666e-09
5.258543e-09 8.582497e-10 7.442082e-10 -3.2073495e-09 9.7061035e-09 3.456538e-09 -9.636375e-10 -3.2619578e-09
-4.5711572e-09 2.036776e-09 -1.7559767e-09 -7.693598e-10 -2.0835105e-09 5.420361e-10 -4.565403e-10 7.09843e-11
-2.8770384e-09 -5.8487964e-10 -1.9307826e-09 4.0822217e-09 2.4843572e-09 -3.2430416e-11 -2.1360373e-09 -1.3761042e-09
-6.623342e-10 3.0618779e-09 -5.9592886e-12 1.7797078e-09 5.3869917e-09 2.2113977e-09 -3.382755e-09 -2.0428002e-09
1.1223295e-09 1.6766679e-09 -6.5561725e-09 -2.453504e-10 7.149289e-10 4.7720414e-09 -1.5011214e-09 -3.1388034e-09
1.6831971e-09 -6.678533e-09 2.659621e-09 -3.0539078e-09 -1.3111299e-09 -8.485589e-10 -7.3214335e-10 -1.4879187e-09
1.2662495e-09 -9.897569e-10 -4.384974e-09 -1.5511462e-09 1.7906515e-09 -2.578981e-09 4.5084494e-10 -2.3099776e-11
-1.0440465e-10 -6.163715e-09 -4.1637884e-09 3.450704e-09 1.0304149e-09 -2.8274918e-09 -3.119881e-10 -7.473645e-10
1.8743778e-09 2.366606e-09 -2.9521233e-10 1.7192998e-09 1.2008385e-09 -9.799948e-10 3.2665572e-09 -3.315146e-09
-8.756441e-10 -2.3622155e-09 1.8551534e-09 -5.41141e-09 2.324951e-09 -1.459037e-09 1.029143e-09 -4.4534518e-10
-3.7750902e-10 -2.2336815e-09 -2.1299198e-09 1.5070638e-09 3.3440117e-10 1.0858258e-09 2.6108695e-09 -3.973336e-09
-9.222288e-09 1.149523e-09 2.1871762e-09 6.501714e-09 -1.3043217e-10 -1.1626266e-12 -3.449875e-09 3.5563303e-09
2.2413897e-09 8.87946e-10 -5.2163776e-09 3.2947218e-09 1.4513808e-09 1.868063e-09 5.433364e-09 -5.829419e-09
1.2410494e-09 -3.2831107e-10 3.0643736e-09 -1.9437985e-09 -1.3481212e-09 2.3712625e-09 -9.035903e-10 6.7474306e-09

weight f4 [128]
00000000: 5307 7e3f 71c8 7e3f 9544 7f3f 7694 7e3f
00000010: 2e53 7f3f 3623 803f 31eb 7f3f 6181 7f3f
00000020: eec1 7c3f 762c 7e3f 813b 7e3f c360 7d3f
00000030: 05c1 7f3f 7315 7f3f 193a 7f3f d961 7e3f
00000040: e839 7d3f 7339 803f 4b95 7f3f 3af1 7e3f
00000050: 6118 803f fbc9 7f3f ba12 7e3f 5830 7e3f
00000060: 2c5a 7f3f 8275 803f 1ede 7f3f 73bf 7f3f
00000070: 0ee2 803f 12c2 7e3f d372 7e3f d670 7f3f
00000080: f7d9 7e3f a132 7f3f ef02 803f 15af 7f3f
00000090: abd8 7d3f ec11 7d3f c104 7f3f 5e7d 7f3f
000000a0: f52c 7e3f 94e1 7f3f 91ab 7f3f 446f 7e3f
000000b0: f5aa 7e3f 0a5f 803f 7895 803f 2e58 7f3f
000000c0: f685 7d3f 7952 7f3f 9e06 803f 4af6 7f3f
000000d0: 9c7c 803f 3541 7f3f 5ac4 7f3f 72e8 7f3f
000000e0: de4f 7e3f 79fa 7f3f 68d3 7e3f f834 7f3f
000000f0: 0b03 7e3f 90d3 7d3f 384f 7f3f 7239 7d3f
00000100: 2030 803f 3b8e 7f3f 5d68 7e3f 92b3 7f3f
00000110: 1048 7f3f d5c9 7f3f e526 803f 51af 7e3f
00000120: de3b 803f 0840 803f 761c 7f3f 5782 7f3f
00000130: 3af9 7f3f 1577 803f 50cb 7e3f 768a 803f
00000140: 2e6c 7d3f 1b39 803f b8fa 7d3f 6b37 7e3f
00000150: 7058 803f 2b15 803f 3f06 803f ab09 803f
00000160: 12e8 7f3f 6e03 803f fe4b 7f3f e2eb 7f3f
00000170: e2b4 7f3f 9e62 7f3f 33d2 803f c31b 803f
00000180: 1b93 7e3f d5b7 7e3f fbe6 7e3f 5743 803f
00000190: 818d 7f3f 0fad 7e3f 2c28 813f 457b 7e3f
000001a0: f45d 803f 198d 7e3f 01de 7f3f 18b5 7e3f
000001b0: 2324 803f 270b 803f 180a 803f 8d64 7f3f
000001c0: 049c 7e3f 9198 7e3f 8176 7e3f 132b 803f
000001d0: 23ee 7e3f da87 803f 5778 803f a0f2 7f3f
000001e0: 4931 7e3f a5c9 7f3f bf19 803f 6b3c 7f3f
000001f0: 4d9e 7e3f 67e4 7f3f 5f44 803f 258b 7f3f
0.99229926 0.995246 0.9971402 0.99445283 0.997363 1.0010746 0.9996825 0.9980679
0.98733413 0.9928659 0.99309546 0.9897577 0.999039 0.99642104 0.99698025 0.99368054
0.9891648 1.0017532 0.9983718 0.9958683 1.000744 0.9991757 0.99247324 0.99292517
0.99746966 1.003586 0.999483 0.99901503 1.0068986 0.9951488 0.9939396 0.9978155
0.9955134 0.9968663 1.0000895 0.9987653 0.99158734 0.9885547 0.9961663 0.9980067
0.9928735 0.9995358 0.99871165 0.9938853 0.9947961 1.0029004 1.0045614 0.99743927
0.99032533 0.9973522 1.000202 0.9998518 1.0038028 0.99708873 0.99908984 0.9996406
0.9934062 0.99991566 0.9954133 0.996902 0.99223393 0.99150944 0.99730253 0.9891578
1.0014687 0.998264 0.99377996 0.9988338 0.99719334 0.99917346 1.001187 0.9948626
1.001827 1.0019541 0.996528 0.9980826 0.99989665 1.0036341 0.9952898 1.0042255
0.98993194 1.0017427 0.9921069 0.9930331 1.0026989 1.000646 1.0001906 1.000295
0.99963486 1.0001047 0.9972533 0.99969304 0.9988538 0.9975985 1.0064148 1.0008472
0.99443215 0.99499255 0.995712 1.002055 0.9982529 0.99482816 1.0090384 0.99406844
1.0028672 0.9943405 0.99948126 0.9949508 1.0011028 1.0003403 1.000308 0.99762803
0.9945681 0.9945155 0.9939957 1.0013145 0.9958212 1.0041459 1.0036725 0.9997959
0.99293953 0.9991706 1.0007857 0.99701566 0.994603 0.9995789 1.0020865 0.9982169

bias f4 [128]
00000000: 6415 92bb 550e 9bbb 9388 ba39 6c52 59bb
00000010: 750c 143a 4449 7ab9 edb4 9e3b 7d2a c7b9
00000020: c543 42bb 0ad5 85bb 5860 10ba 2123 10bb
00000030: 8055 9e3b 02f9 52bb aa77 ab3a 1bc1 e33a
00000040: 8d6a d5bb 110e 1d39 f5f8 c33a c3d9 15ba
00000050: 0851 36b9 0035 2db9 a7a1 33bb 8340 bdbb
00000060: 088d 2a3b cc25 083b fbe8 043c 6369 ff36
00000070: e0c6 333c 7768 b0ba 95d0 89ba fe9e 8c3b
00000080: bbbb 6cba aacb 4ab8 2e76 2ebb 70b9 d9b9
00000090: 2718 0fbc 1540 5bbb 4fb9 0eba 3ae9 4cba
000000a0: 3513 a5ba f24d 2e3b f986 573b 430e 71bb
000000b0: 2a29 94ba 4d8e 8e3b e14b c63b 66d6 c3ba
000000c0: 4589 43bb 2f91 a4b8 c341 b03b dbd6 bb3b
000000d0: 0e65 233b df6e 613a 7d7a 9c3b 75cb 0c3b
000000e0: 57f1 4abb bfa8 c33a 0ddf 94b9 2a9f 813b
000000f0: 27d2 c7ba e4a2 c339 9733 a53a 928f a5bb
00000100: 389c 62b9 7d88 9e39 6551 8e39 9875 c73b
00000110: d130 11bb 3ace 813b f5c3 9e3a ea67 eeba
00000120: b900 b33b 0441 ac3b 203f 4c3b 448a f4b9
00000130: ef5c 9cb9 a7f0 033c a880 333b dfa2 df3a
00000140: 571e d1b9 3dbd 36bb 01e7 11bb e338 fab9
00000150: c173 a53b 56cf 473b 8277 073b 8c05 bd3a
00000160: 2dbd d43a 0a13 a23b b50d f33a fe64 913b
00000170: e3a3 c83a 1746 1c3b 4405 833b 730f 363a
00000180: 1ec1 a0bb a43d fbba c070 10ba 91f3 613b
00000190: 8553 113b c73d 6a3a 5a9b af3b e9e1 17bb
000001a0: 1dea 0f3c 5677 f43a cf36 063a bd4a 22ba
000001b0: 72ed a03b af69 49bb 243c 743a 775f 743b
000001c0: f09f 943b ff49 feb9 dcc1 8739 826c 7a3b
000001d0: 66d2 5a3a 56d4 f73b e717 e43a f7c7 793b
000001e0: 71cc 573b 0007 7f3b d98a 953b 8c85 5a3a
000001f0: 7925 013b a395 f33a 5d26 333b 0271 37b7
-0.0044581164 -0.004731933 0.0003557844 -0.00331607 0.0005647608 -0.00023869151 0.0048433454 -0.00037987894
-0.0029642445 -0.004084234 -0.00055075204 -0.0021993595 0.0048319697 -0.0032191877 0.0013081927 0.0017376276
-0.006512946 0.00014977927 0.0014951514 -0.0005716348 -0.00017387059 -0.0001651831 -0.0027409585 -0.0057755127
0.0026024003 0.0020774482 0.0081121875 7.611861e-06 0.010972708 -0.0013458867 -0.0010514433 0.0042914143
-0.00090306596 -4.835023e-05 -0.0026620734 -0.00041527627 -0.008733786 -0.0033454944 -0.0005444483 -0.0007816736
-0.0012594225 0.0026596752 0.0032886846 -0.0036782182 -0.0011303772 0.0043504597 0.006051526 -0.0014941215
-0.0029836458 -7.847172e-05 0.005378933 0.0057324 0.002493206 0.000859959 0.004775344 0.0021483575
-0.0030966604 0.001492761 -0.00028394946 0.0039557414 -0.0015245125 0.0003731466 0.0012603876 -0.0050525153
-0.00021611236 0.000302378 0.00027144994 0.0060870163 -0.002215434 0.0039613517 0.0012112843 -0.0018188928
0.0054627326 0.005256774 0.0031165555 -0.00046642323 -0.0002982388 0.008052981 0.0027389918 0.0017062089
-0.0003988619 -0.002788379 -0.0022262933 -0.000477261 0.0050491993 0.0030488572 0.0020670597 0.0014421209
0.0016230695 0.0049461173 0.0018543514 0.004437088 0.0015307631 0.0023845488 0.0039984304 0.0006945051
-0.004905834 -0.0019168151 -0.0005509965 0.0034477452 0.0022175026 0.0008935597 0.0053590955 -0.0023175424
0.008783844 0.0018651288 0.00051198615 -0.00061909464 0.004911118 -0.0030733158 0.0009316823 0.0037288347
0.0045356676 -0.00048501787 0.00025893643 0.0038211648 0.0008347392 0.007563154 0.0017402143 0.0038113573
0.0032928253 0.0038914084 0.004563671 0.000833594 0.0019706173 0.0018584024 0.0027336099 -1.0933962e-05

running_mean f4 [128]
00000000: 9eda 413f 246c 6dbf 9250 f73e a017 74be
00000010: 928c 82bd 8f8f 4abf 9474 0cbf 6079 7abe
00000020: 14bb 363f bf18 0e3f de77 ed3e 7edd 96be
00000030: abd3 9c3e 3892 7cbf a222 82bf dfd0 a2bf
00000040: f7e4 a3be 6a3e 073f 7f3d 14be b16b e8be
00000050: f177 5abf bbcf e43c fecb ac3f 1ccf 1c3f
00000060: ad19 ccbf 9506 55be 779a 6fbe a580 543e
00000070: 19fa a0be 4d65 09bf 8bc1 a9bf 238a 3d3f
00000080: 1bdf 9fbe eaee d5be 7adb 03bf 490b 17bf
00000090: 6fbf 5ebf 4bd6 3ebc edb1 de3c 3414 37bf
000000a0: 8ad0 2fbe 48cc e0bc a370 03bf a489 f63e
000000b0: 4f1d 43bf 3a50 efbe 3e8f 7bbd bce4 d93e
000000c0: b77b f13d a6ec 913d 58df a1bd 9dbc 0cbf
000000d0: d7cb 31bf 5e42 f5bd 99d4 91be 80bd 573e
000000e0: 6578 df3e c081 313e f16e 093e 8a00 8cbe
000000f0: bf31 4f3e 72df d93e 73ee 083f bbda 113f
00000100: c1a5 12bf 7c97 55be 023f 5ebf 1e5c e0be
00000110: 2fe7 b0bf d3f8 1f3f c39d 803f e819 a3be
00000120: 15b4 11be 7fd1 6c3e 83c5 e3be e3ba 00bf
00000130: 3fb0 85bf 13be 0bbf 99c5 f43e 0748 d1bf
00000140: c463 4a3f cec3 ef3e 4930 bf3e b490 693e
00000150: b81d adbd 0046 bebe cb55 093d 5299 24bf
00000160: 9cc5 a4be 9302 0abe fcf7 063e 9211 0abe
00000170: d91a 943e 7f0b ebbd 48b0 93be 7248 0ebf
00000180: 2ee5 903e 9e2d 60bf bdb7 bc3e e1f6 11bf
00000190: ce35 82be b682 143f 83f2 323e 9070 dbbe
000001a0: 5dc6 9cbe a019 59be fce1 853f 729d 3cbe
000001b0: 26c5 32bf 4e34 6f3f 295d 2b3c a141 e73e
000001c0: 1e4a c1be f4b7 123e c741 08bf fc95 15bf
000001d0: 3c3e b93e e0af 633e ddbe 40bf 0c63 353e
000001e0: 6e18 2f3f 248c 95bf d323 90be c2f0 513f
000001f0: 07de 663d c1ad 0b3d c8e1 64bf 312e 0ebf
0.7572421 -0.92743134 0.48303658 -0.23837137 -0.06374468 -0.79125303 -0.54865384 -0.24460363
0.7137921 0.5550651 0.46380514 -0.2946586 0.3063024 -0.9866061 -1.0166819 -1.2719992
-0.32010624 0.5282961 -0.14476584 -0.45394662 -0.85339266 0.027931085 1.3499753 0.61253524
-1.5945336 -0.20803292 -0.23398767 0.20752199 -0.3144081 -0.536702 -1.326219 0.74038905
-0.31224903 -0.4178384 -0.5150677 -0.59001595 -0.87010854 -0.011647771 0.027184451 -0.715152
-0.17169395 -0.027441159 -0.51343745 0.48151886 -0.76216596 -0.46740896 -0.061415903 0.42557323
0.11791175 0.07125215 -0.079039276 -0.549753 -0.6945166 -0.11975549 -0.28482512 0.21068382
0.4364654 0.17334652 0.13421227 -0.2734416 0.2023382 0.42553288 0.53488845 0.5697438
-0.5728417 -0.20858568 -0.8681489 -0.4382028 -1.3820552 0.6248905 1.0048145 -0.31855702
-0.14228852 0.23126791 -0.44486627 -0.50285167 -1.0444411 -0.54586905 0.47807005 -1.6350106
0.7905848 0.46829075 0.37341526 0.22809106 -0.08452934 -0.3716278 0.033529084 -0.6429645
-0.32182014 -0.13477544 0.13180536 -0.13483265 0.28926733 -0.11476802 -0.2884543 -0.5557929
0.2829985 -0.87569606 0.3685893 -0.5701733 -0.25431675 0.5801195 0.17475323 -0.42859316
-0.3062009 -0.21201181 1.045959 -0.18419436 -0.69832075 0.93439186 0.010459223 0.45167258
-0.3775186 0.14327985 -0.5322537 -0.58431983 0.36180294 0.2223506 -0.75291234 0.17713565
0.6839665 -1.1683393 -0.28152332 0.8200799 0.056364086 0.03410125 -0.89407015 -0.5553923

running_var f4 [128]
00000000: 3ff0 693f c198 1e3f 8bb8 2d3f d622 ac3e
00000010: 7a46 0c3f 7f53 203f f7c8 1c3f 6ffd 2d3f
00000020: 6042 393f 7e71 2e3f ac79 063f 3971 d23e
00000030: ed9e 193f 533d 1b3f 2315 373f 7405 1d3f
00000040: 04b8 163f fb5a 463f 54ce 663f 8ffc 4b3f
00000050: 1227 3d3f 5c27 063f 89ed 4b3f 89dd 153f
00000060: a9dd 2b3f 799f af3e 2ed4 113f 0166 e13e
00000070: b5c9 da3e 03e1 de3e 1b7d 0b3f ed14 363f
00000080: 8832 233f ade1 de3e e9de 2f3f 35e5 193f
00000090: 2def 1c3f 2d83 ea3e 7740 1c3f e767 3f3f
000000a0: a25c 2f3f e837 213f e4e5 3c3f 8add 023f
000000b0: 7264 0b3f 4dfb 263f 26f4 183f 79e5 173f
000000c0: 4ad2 053f 053d 4b3f 2d76 463f 1fd2 6d3f
000000d0: 6d43 fd3e d77b 443f b901 d33e 2d77 4b3f
000000e0: 3699 ad3e 10a8 263f 136c 4b3f bfa7 413f
000000f0: 8e0c da3e 74b0 083f a4fa 873f 9955 303f
00000100: 504a e13e ab29 043f 4713 b33e ce6f 033f
00000110: d4a4 273f b92c ec3e 92fd 5e3f a4f3 413f
00000120: 97a5 e13e 0933 ab3e 7103 f53e 664e 0f3f
00000130: 8e56 193f 4d44 ef3e 64f5 083f efef 753f
00000140: e7ca 023f cafe 173f 4aab 143f 59b5 ba3e
00000150: 8dc4 ec3e f7f6 f93e fc65 c93e 57a4 ce3e
00000160: df5a f63e b079 1f3f 3223 2d3f 7232 cb3e
00000170: fc94 223f b807 fd3e 5d4b 3f3f f99e 173f
00000180: 1357 013f 5e17 213f ddca 583f a099 2e3f
00000190: cbca 433f bcf9 f63e 3df2 033f be44 e73e
000001a0: 972e 263f 06d1 f43e 17b8 133f 6119 b33e
000001b0: 0525 0e3f 4cc1 0d3f 8e3e 1f3f 032d 203f
000001c0: e7f1 663f 1e41 cb3e 9971 0d3f 83f0 193f
000001d0: 027c ca3e 33be db3e 7284 1b3f 1c4a a03e
000001e0: 147c 273f 936b 1b3f dbb7 023f bb16 213f
000001f0: d169 443f 0197 1b3f d9ca a13f f049 463f
0.9138221 0.61951834 0.67859715 0.33620328 0.5479504 0.62627405 0.6124415 0.67964834
0.72366905 0.68141925 0.52529407 0.41102007 0.60008126 0.6064045 0.7151663 0.61336446
0.58874536 0.77482575 0.9015858 0.7968225 0.7388774 0.5240381 0.79659325 0.5854116
0.671351 0.34301355 0.56964386 0.44023135 0.42732015 0.43531045 0.5448777 0.7112568
0.6374898 0.43531552 0.6869951 0.6011537 0.61302453 0.45803204 0.61035866 0.7476792
0.6850072 0.6297593 0.73788285 0.5111929 0.5445014 0.65227205 0.5974754 0.5933452
0.52274 0.79389983 0.7752407 0.92898744 0.49465504 0.76751465 0.41212252 0.7947872
0.33905953 0.65100193 0.79461783 0.75646585 0.42587703 0.53394246 1.0623364 0.6888061
0.44002008 0.5162608 0.34975645 0.51342475 0.6548588 0.4612787 0.8710567 0.7576239
0.44071648 0.33437374 0.47854188 0.55979 0.59897697 0.46731797 0.53499436 0.96069235
0.51090854 0.5937315 0.58073866 0.36466482 0.46243706 0.48821232 0.3933562 0.40359756
0.48116204 0.62295055 0.6763183 0.39686924 0.6350858 0.4941995 0.7472437 0.5922695
0.5052349 0.6292628 0.84684545 0.68203163 0.7648131 0.48237407 0.515415 0.45169634
0.6491484 0.47815722 0.57702774 0.349803 0.5552524 0.5537307 0.62204826 0.6256868
0.90212864 0.39698118 0.5525146 0.60132617 0.39547735 0.42918548 0.6074897 0.3130654
0.65423703 0.6071102 0.5106179 0.6292531 0.76723963 0.6077729 1.2640029 0.7745657
