experiments/model_repositories/robot_sound/age_classification/model_files/block_03.pth (torch, 311823 bytes, 10 tensors)

weight f4 [64]
000000 88 64 7c 3f d5 2f 7d 3f a5 d5 7c 3f 1a 7b 7b 3f
       0.985909 0.9890111 0.98763496 0.98234713
000010 e4 7e 7e 3f 42 8d 7e 3f 34 5a 7b 3f 8f 7c 7c 3f
       0.9941237 0.9943429 0.98184514 0.9862756
000020 14 ef 7e 3f c6 ff 7f 3f eb 2a 80 3f f4 d0 7e 3f
       0.99583554 0.99999654 1.0013098 0.9953759
000030 22 79 7b 3f 32 69 7c 3f 73 d3 7d 3f f0 2c 7e 3f
       0.9823171 0.98598015 0.9915077 0.9928732
000040 22 3a 7e 3f 2f 02 80 3f 89 5d 7f 3f 92 8c 7e 3f
       0.99307454 1.0000666 0.997521 0.99433243
000050 77 3d 7f 3f e5 6f 80 3f bc e2 7d 3f b5 dc 81 3f
       0.9970316 1.0034148 0.99174094 1.014548
000060 cf f9 7e 3f dc de 7d 3f 96 ab 7f 3f 25 06 81 3f
       0.9959993 0.9916818 0.99871194 1.008
000070 8b 7d 7f 3f a1 7d 80 3f 2f 4e 81 3f 1a 1f 7f 3f
       0.9980094 1.0038339 1.0101985 0.9965683
000080 ad ec 7d 3f 91 24 80 3f 6f c9 7d 3f 5b d7 7d 3f
       0.99189264 1.0011159 0.9913549 0.9915673
000090 2a ed 7d 3f 15 0d 80 3f ee 05 7c 3f 29 26 7e 3f
       0.9919001 1.0003992 0.9844655 0.9927698
0000a0 2d 63 7c 3f 7f da 7b 3f d4 13 7f 3f 14 c1 81 3f
       0.9858883 0.98380274 0.9963963 1.0137048
0000b0 30 71 7a 3f d0 d7 7b 3f e5 2d 7b 3f 28 be 7d 3f
       0.9782896 0.9837618 0.98116904 0.9911828
0000c0 fb 97 7e 3f cf a4 7f 3f b0 67 80 3f c0 f1 7f 3f
       0.99450654 0.9986085 1.0031643 0.99978256
0000d0 ca 36 7c 3f b8 90 7e 3f b2 ec 7f 3f 42 de 7d 3f
       0.985211 0.99439573 0.99970543 0.99167264
0000e0 8b 68 7f 3f e6 fb 7f 3f af fc 7e 3f f4 5e 81 3f
       0.99768895 0.9999374 0.99604315 1.0107102
0000f0 e9 1b 7b 3f 8a 3a 7f 3f b4 63 7d 3f f1 01 7d 3f
       0.9808946 0.996987 0.9898026 0.9883109

bias f4 [64]
000000 90 59 c0 3b 84 02 08 ba 59 41 62 3c 0f 33 8e 3c
       0.0058700517 -0.0005188363 0.013809525 0.017358331
000010 79 42 df ba b2 f2 68 3b 7d 53 b4 3b d3 d1 07 3c
       -0.001703336 0.0035545048 0.0055031166 0.008289772
000020 3c c0 93 ba 39 ea 1c 3c 66 56 91 3b ad bb 15 bc
       -0.00112725 0.009577327 0.0044353483 -0.009138984
000030 85 43 cd 3b 4b eb bc 3b ea 1f 71 3b 58 a9 8e ba
       0.0062641525 0.005765354 0.0036792704 -0.0010884209
000040 73 9b a8 bb 35 0e fd 3a ab 00 7f 3b 6e a6 80 3b
       -0.005145484 0.0019306602 0.003891031 0.00392609
000050 d1 4f 80 b8 5f c4 33 3c c4 88 82 3a c1 45 2f 3c
       -6.1183826e-05 0.0109721115 0.0009958972 0.010697783
000060 3f e4 8a 3c fc a5 94 3b 29 50 08 3a f8 35 4e 3c
       0.01695454 0.0045363884 0.0005199933 0.012586109
000070 87 12 14 3b b7 eb 2c 3c 60 b3 15 3c d7 c7 01 3c
       0.002259405 0.010554246 0.009137005 0.007921181
000080 cf ac b1 3b ab ce af 3b 26 b9 48 3c 6b 76 a3 bb
       0.0054222117 0.005365213 0.012251174 -0.0049884818
000090 d1 e4 24 3b ea 75 02 3c 65 67 a2 ba 0f a7 e2 bb
       0.00251608 0.007962683 -0.0012390433 -0.0069168876
0000a0 07 57 c4 3b 58 94 b3 3b af 26 3c 3c 94 e8 60 bb
       0.00599182 0.0054803304 0.011483832 -0.0034318315
0000b0 a4 07 06 bb a8 50 d0 3b 97 78 c1 bb 55 4e 8a 3b
       -0.0020451332 0.006357271 -0.005904268 0.0042207637
0000c0 33 ba dc ba 86 d2 33 3b 4d 66 21 3b 78 8f 9c 3a
       -0.001684016 0.0027438714 0.0024627626 0.0011944612
0000d0 71 45 9e 3b 23 31 24 bb 0d 2d af 3b 1a b0 8d bb
       0.0048300554 -0.0025053702 0.0053459466 -0.0043239715
0000e0 c0 eb c3 bb 27 d1 5c 3b 05 7a 88 b7 e9 fc fc 3b
       -0.0059790313 0.0033694 -1.6269283e-05 0.007720579
0000f0 68 27 04 3c b9 b3 4f bb b2 15 19 3c 4d c2 02 3c
       0.008066036 -0.0031692816 0.0093435515 0.007980895

running_mean f4 [64]
000000 02 1f 0e 3f 22 6f 8c bf ce 71 59 3e ba 00 67 be
       0.55516064 -1.0971415 0.2123482 -0.22558871
000010 f4 97 a8 be 9e d8 5d 3f 66 60 7c 3e c3 d4 5a bd
       -0.3292843 0.86658657 0.24646148 -0.05342556
000020 8d 99 ee bd 8c c2 16 3f a1 0d 9a bf 77 1e 0c 3f
       -0.11650381 0.58890605 -1.2035409 0.54733986
000030 77 26 10 ba cc bb eb 3d 94 15 c7 be e1 04 02 3f
       -0.0005498896 0.11510429 -0.3888365 0.50788695
000040 5d 14 e4 be a0 6e 66 bf 04 5e 9a be 8b d2 6e 3f
       -0.44546786 -0.9001255 -0.30149853 0.93290013
000050 14 2e 19 3f 5f 72 8d be 14 45 de bd b0 1d db bf
       0.59835935 -0.2762632 -0.10853019 -1.7118435
000060 b4 19 7d 3f 29 b7 96 bd 2e 7d d0 be 67 24 15 bf
       0.98867345 -0.07359154 -0.40720505 -0.5825867
000070 a4 b0 98 3e dd ca 2b bf 1b ce 49 3f 65 4d 90 bf
       0.29822266 -0.6710642 0.78830117 -1.1273619
000080 3e 62 ee 3e 2b 9b ad be a3 9c 75 3d fd 84 57 3e
       0.46559328 -0.33907446 0.059963834 0.21046825
000090 1f c4 c5 3e 8c be 3b 3f 8b c0 0d bf a7 04 ec 3e
       0.3862619 0.73337626 -0.5537192 0.460973
0000a0 ed b6 04 bd 8e f2 76 3e ae d8 81 3e f1 a7 7e 3d
       -0.032401014 0.24115965 0.25360626 0.06217188
0000b0 22 28 73 be db fa 39 bf 53 ff b3 bd 51 35 af 3e
       -0.23745778 -0.726484 -0.087889336 0.34220365
0000c0 26 1f 87 3e a1 4a 65 3f a1 0f 65 be 56 dd 01 3f
       0.26390952 0.89567 -0.22369243 0.50728357
0000d0 9f c2 11 bf 08 1a 4d 3f 42 2f c8 3e e6 02 45 3f
       -0.56937593 0.80117846 0.39098555 0.7695755
0000e0 0e c2 f8 3e bd 5c 0a bf 9b 89 f9 3d 8d 3a c9 3e
       0.48585552 -0.5404776 0.12184449 0.39302483
0000f0 8f 68 2d 3f 24 40 d9 be bc 9c 0b bf 0f 49 0d bf
       0.6773767 -0.42431748 -0.5453603 -0.55189604

running_var f4 [64]
000000 f1 39 81 3f 8e 01 5d 3f 87 e0 32 3f 7c 75 04 3f
       1.0095807 0.863305 0.6987385 0.51741767
000010 61 e5 20 3f 45 bd 2c 3f be df 2d 3f d8 00 13 3f
       0.62850004 0.674763 0.6791953 0.5742316
000020 0d d8 49 3f 12 d4 44 3f bf d4 62 3f 2b c9 79 3f
       0.7884529 0.76886094 0.88605875 0.9757258
000030 ea 94 83 3f 7e ff 71 3f 68 9c 93 3f e5 a0 82 3f
       1.027982 0.94530475 1.1532106 1.0205351
000040 21 3a 29 3f 14 fa 3b 3f f4 d0 61 3f 61 bd 49 3f
       0.6610432 0.73428464 0.8820946 0.78804594
000050 8c dd 43 3f 8c d6 36 3f 0a 0c 49 3f bc 78 35 3f
       0.7650993 0.7142112 0.78533995 0.7088735
000060 1a d4 33 3f a0 99 34 3f 6f bd 16 3f 81 d8 40 3f
       0.70245516 0.70546913 0.588828 0.7533036
000070 88 07 62 3f 6e 1c 76 3f 79 b8 37 3f 01 da b5 3f
       0.8829274 0.9613713 0.7176586 1.4207155
000080 e0 05 41 3f f1 d1 2e 3f 67 eb 36 3f f4 91 91 3f
       0.7539959 0.68289095 0.71452945 1.1372666
000090 b5 82 4e 3f 68 7f 7a 3f 41 14 46 3f 50 b2 a3 3f
       0.80668193 0.97850657 0.77374655 1.2788792
0000a0 bf 9e 0e 3f 5a f2 49 3f 98 31 50 3f 0c ae 37 3f
       0.5571098 0.78885424 0.81325674 0.7174995
0000b0 43 a4 23 3f f8 99 54 3f bd e0 f2 3e 7d 0a 26 3f
       0.6392252 0.8304744 0.47437087 0.64859754
0000c0 67 cf 70 3f c5 02 31 3f 64 ab 4c 3f f2 04 84 3f
       0.9406647 0.6914485 0.7994902 1.0314009
0000d0 5c d1 4f 3f 7e 8d 91 3f f5 b8 14 3f c3 55 a6 3f
       0.8117883 1.1371305 0.5809472 1.2994922
0000e0 cb 08 1e 3f bd 08 2c 3f eb 76 63 3f 62 1f 57 3f
       0.61732167 0.67200834 0.8885333 0.8403226
0000f0 d5 9c 67 3f 87 61 c3 3f b7 1c 64 3f 4e 4e 2f 3f
       0.9047368 1.5264138 0.89106315 0.6847886

weight f4 [64, 64, 3, 3]
000000 70 76 6d bc 61 ba ad bc 23 b6 5d 3c ff 54 bf 3c
       -0.01449357 -0.021207036 0.013532194 0.023355959
000010 17 fe 87 bd 80 94 e2 3b d1 59 65 bd c0 67 e7 3d
       -0.06640261 0.0069146752 -0.05599386 0.112990856
000020 30 7a 06 3c 8b 59 63 bd 99 be 11 3c 40 78 44 bb
       0.008207843 -0.055505317 0.00889554 -0.00299789
000030 cb 8e 14 bd 21 f9 e2 3c 2e 5d ac bc 55 66 a0 3d
       -0.03626899 0.027706685 -0.021040525 0.07832018
000040 c1 77 ca bc aa e5 47 bd 4e 84 ef bc 8d a1 9a 3d
       -0.024715306 -0.04880301 -0.029237892 0.075503446
000050 9d 73 d7 3c 33 ef b7 bc 46 32 56 3d 20 77 28 bc
       0.026300246 -0.022452926 0.05229404 -0.010282308
000060 20 c2 56 3d 6e ae 6b 3d 9e 66 c6 bc 52 7e 8c bd
       0.052431226 0.057539396 -0.024218854 -0.06860031
000070 0c 8a 57 bd f1 e5 a6 bc ee 95 67 3d 5e 99 88 bd
       -0.052621886 -0.020373316 0.05653947 -0.066698775
000080 10 86 e6 3d 47 fb 9e 3d f1 6d 45 bd 7b f1 e1 39
       0.11256039 0.07762771 -0.04820055 0.0004309526
000090 eb 63 75 bd 4d 72 e6 3b 80 50 11 bd b9 39 fc bb
       -0.059909742 0.0070326687 -0.03547716 -0.0076973108
0000a0 10 da 2b 3d 9d 78 22 bc d0 2b 63 bb fd e1 a7 3d
       0.041956007 -0.009916452 -0.0034663565 0.08197401
0000b0 9a 0a 7e 3c fe 0d ff 3c 40 14 ac bc 64 38 28 bd
       0.015505457 0.031134602 -0.02100575 -0.041069403
0000c0 5a 52 63 3d 9f b3 14 3e 09 25 3f 3d d4 93 74 3d
       0.05549846 0.14521645 0.04666618 0.059711292
0000d0 56 f4 cf 3c a1 0d 0b 3d 38 54 0e 3c 99 2b 2c bd
       0.025385063 0.033948544 0.0086870715 -0.042033765
0000e0 8f a5 bd bd 88 f7 f0 3c ef ed f0 3d 44 e0 f6 3c
       -0.092600934 0.029414907 0.11764132 0.030136235
0000f0 1e e2 1c be b6 a9 6a bd c9 a8 12 bc 7c e1 d4 3c
       -0.15320632 -0.057290755 -0.008951374 0.025986426
000100 0a a8 18 bd da 97 18 bc ac 11 15 3d 16 73 63 bd
       -0.03726963 -0.009313548 0.036393806 -0.055529676
000110 27 e3 cc bd cf 11 73 bc 9d a2 8e 3c 4c 0b 93 bc
       -0.10004263 -0.014835789 0.017411524 -0.017949723
000120 bb 3b 2f 3d e1 01 93 3d 51 77 a9 bd 82 9c 2b bc
       0.042781573 0.07178093 -0.08274711 -0.010474326
000130 4c f6 88 bd 68 1d 3a 3d ce 78 94 bd 59 60 34 bd
       -0.066876024 0.0454382 -0.07249604 -0.044037197
000140 41 dd 4c 3d 2c 5a 59 bd 1a 6a f4 3c c0 84 21 3d
       0.05001569 -0.05306451 0.02983575 0.03943324
000150 d1 cc 04 3d 6c 92 87 bd 76 e3 9e bd e9 f5 0c 3c
       0.03242189 -0.06619725 -0.077582285 0.008603551
000160 1e 33 2f 3d 61 83 9f bb ac 8a c6 3d f2 6b ab bc
       0.04277336 -0.0048679565 0.09694418 -0.020925496
000170 b2 dd 9f bd 8f 6e 09 bc 8a 99 9a 3d 0b 7f c0 bc
       -0.07805957 -0.008388176 0.075488165 -0.023498079
000180 b2 f1 73 bc 16 54 1c bd 01 83 ab 3d bf 00 3c 3c
       -0.014889168 -0.038166128 0.083745964 0.011474787
000190 0b 0c 14 bd a3 42 88 bd 85 e1 0b 3b 9a a6 0b bc
       -0.036144298 -0.06653335 0.0021344137 -0.008523608
0001a0 91 e2 dd 3d 49 e4 01 bb d8 8e 59 bd 3a d1 ce 3d
       0.1083423 -0.0019819906 -0.053114742 0.100985005
0001b0 10 41 3f 3d 8c 8c a1 3b be 25 af bc ac 65 f1 3c
       0.046692908 0.0049300846 -0.021380302 0.029467426
0001c0 d3 8e 54 3d be 29 9e bc 14 99 cf 3c 87 86 80 3c
       0.05189402 -0.019307014 0.025341548 0.015689148
0001d0 41 21 80 3c a7 ec 82 3d 4a a9 98 3b e5 e9 ee 3a
       0.015640857 0.06392794 0.0046588527 0.0018227665
0001e0 e0 8c 8d bc 82 3c 1a 3d e5 37 84 3d 64 fb 27 bc
       -0.017279088 0.03765536 0.064559735 -0.010252807
0001f0 1e e8 99 3c 3d 6e a4 39 6c c2 d7 bc b1 07 97 3d
       0.01878744 0.00031362651 -0.026337825 0.07374514
000200 a3 17 a0 bc 87 ac 65 bc 86 b4 cf b9 71 16 1b bd
       -0.01954252 -0.0140181845 -0.00039616617 -0.0378632
000210 b2 59 21 bd b5 c7 89 bb fa 4a 5f bd ca 16 26 3d
       -0.03939218 -0.004204715 -0.054514863 0.040549077
000220 61 51 c8 3d 86 1e 88 bd bf bb 0b 3e 4a ab 31 bd
       0.09781147 -0.06646447 0.13645838 -0.043376245
000230 b4 a2 24 3c 40 fd cf 3d 6c a4 a3 3b 0e 49 53 3d
       0.010048557 0.101557255 0.004993966 0.051583342
000240 f9 ab e3 bd 7c c2 27 3d c8 7f 3b bc 33 8f eb 3d
       -0.111167856 0.04095696 -0.01144404 0.115019225
000250 e4 d3 62 bd 73 22 9d 3c e3 c5 2e 3d e2 5f 32 3c
       -0.055377856 0.019181466 0.04266919 0.010887118
000260 33 b7 69 bc 51 94 7b 3d 73 9b 89 bd 79 07 d3 bb
       -0.0142648695 0.061420742 -0.06719103 -0.0064401
000270 dc 43 c9 bd 88 1f b2 39 bd ed 89 3d 98 90 d7 3b
       -0.09827396 0.00033974298 0.06734798 0.006578516
000280 68 14 ad bc ea b9 05 bd 85 8b 0f 3e 59 8f 66 3d
       -0.021127895 -0.032648005 0.14018066 0.05628905
000290 56 24 29 bc 9a 7e 94 3c 13 86 80 bd 4e 75 35 3c
       -0.010323605 0.018126775 -0.06275573 0.011075331
0002a0 ee fc 92 3c 43 9c 45 3d d8 e6 a4 3d e4 2d 76 3d
       0.017942872 0.048244726 0.080518425 0.06010236
0002b0 07 f3 ac bd 2f d6 16 3d 0c 6a a4 3d d3 c7 0f 3c
       -0.08444791 0.036825355 0.08028039 0.008775669
0002c0 d2 0f ec 3c 3d 1d c0 3d 4e b9 97 3d fd 04 b6 3c
       0.028816137 0.09380577 0.07408391 0.022219175
0002d0 26 40 1e 3d 26 a4 9c 3c 0e 73 47 bc cd 17 23 bd
       0.038635395 0.01912124 -0.012173427 -0.03981762
0002e0 b5 1a 43 bd be 66 d7 3c 94 0e ed bd 37 82 88 bd
       -0.04763289 0.026294108 -0.11575046 -0.066654615
0002f0 61 7f 67 bd 1f 5d 34 3e 53 da 0e bd aa 28 4e 3d
       -0.056517962 0.17613648 -0.03487618 0.05033175
000300 81 81 5c bd 71 de 7f ba 48 cb b8 bd e5 f1 41 3d
       -0.053834442 -0.00097606244 -0.09023148 0.04734983
000310 88 3c 33 3d 30 c3 2c 3d 58 dd 9b 3b fd cd 9d bb
       0.0437589 0.042178333 0.004756611 -0.0048158155
000320 b1 5f 0f 3e 7e 2e 45 3c f4 fa 68 3d 30 2e b2 3c
       0.14001347 0.01203501 0.056879953 0.02175054
000330 70 97 d4 bd 4a cc 0f 3d 53 a4 31 bd 7d ed f7 3c
       -0.10380447 0.035106935 -0.043369602 0.03026461
000340 69 5c 4c 3d 2c 68 eb bc 7a 41 8d bc f0 9f 04 3e
       0.049892817 -0.028736196 -0.017243136 0.12951636
000350 31 c3 d5 3c 3c e3 9e ba 16 7f a2 bd bb 95 e8 bc
       0.026094051 -0.0012122164 -0.07934396 -0.02839171
000360 21 d6 03 3e 79 eb e8 3c dc 57 9e 3c a3 82 1f bd
       0.12874652 0.028432595 0.019329004 -0.038942944
000370 ac bb 1b bd 81 ed 18 bc 60 de 23 bd d8 a2 3c bc
       -0.038020775 -0.009333969 -0.040006995 -0.011513434
000380 62 b2 1a bd 08 70 93 3d 87 83 5e bd ad 4c ae 3c
       -0.037767775 0.07199103 -0.054324653 0.021276796
000390 7f de 32 bd 07 1b e3 3b d4 97 10 bd e4 dd 1d 3c
       -0.04366922 0.006930712 -0.035301045 0.009635422
0003a0 bc ce e4 3c 92 b1 97 3d 72 a1 b8 3c 99 f0 61 3c
       0.02793061 0.07406916 0.02253792 0.013790273
0003b0 f2 f5 1d 3b 5c 6c 61 bb 10 25 d1 bd 4d b4 d8 3d
       0.0024102894 -0.0034396863 -0.10212147 0.10581265
0003c0 20 fd 7e 3c f9 af ad bd ef dd 87 bd fc a9 27 3d
       0.015563279 -0.0848083 -0.06634127 0.040933594
0003d0 5e 44 6f bd 8a 4c 79 bd 80 f4 0d 3c ae fe 0b 3d
       -0.05841481 -0.06086401 0.00866425 0.03417843
0003e0 d0 45 92 bd 61 dc 74 bd 8b 03 2c bd cb ea 80 3d
       -0.07142222 -0.059780482 -0.041995566 0.06294783
0003f0 ae 5b 73 3b 55 97 19 bd 73 29 89 3d a0 b9 30 3e
       0.0037133503 -0.037497837 0.06697359 0.1725831

weight f4 [64]
000000 f6 c8 7d 3f 73 02 7a 3f f3 5d 7a 3f 76 39 7e 3f
       0.9913477 0.9765999 0.97799605 0.9930643
000010 c5 68 7c 3f 5e 88 81 3f b4 1d 80 3f f8 5d 80 3f
       0.98597366 1.0119741 1.0009065 1.0028677
000020 8d e5 7d 3f 72 64 7e 3f 8f 61 7d 3f 61 15 7b 3f
       0.9917839 0.9937202 0.9897699 0.98079497
000030 95 f0 7e 3f d9 a6 7b 3f e7 9e 7b 3f 96 06 7d 3f
       0.9958585 0.98301464 0.9828934 0.98838174
000040 d0 62 7e 3f ea b9 7d 3f b5 a1 80 3f 1a b1 7c 3f
       0.99369526 0.9911181 1.0049349 0.98707736
000050 da 45 7e 3f 85 35 7e 3f b3 29 7f 3f 48 4f 7c 3f
       0.99325335 0.99300414 0.99673 0.98558474
000060 a4 61 7d 3f 5a ed 7d 3f 27 97 7d 3f 7f a6 7b 3f
       0.9897711 0.99190295 0.99058765 0.9830093
000070 0f d9 7e 3f 48 5e 7f 3f 37 4e 7d 3f 75 3b 7f 3f
       0.99549955 0.99753237 0.9894747 0.997001
000080 7a d4 80 3f 92 1c 7f 3f 1a 39 7e 3f c5 97 7a 3f
       1.0064843 0.9965297 0.9930588 0.9788783
000090 9d 4a 7e 3f fa 10 7c 3f a5 59 7e 3f 5f 49 7f 3f
       0.993326 0.98463404 0.99355537 0.9972133
0000a0 49 58 81 3f d4 60 7c 3f 15 e4 7e 3f 50 9f 7a 3f
       1.0105067 0.9858525 0.99566776 0.9789934
0000b0 d9 79 7d 3f 5a de 7b 3f 7f ad 7f 3f 8d 19 80 3f
       0.9901405 0.98386157 0.9987411 1.0007797
0000c0 40 d3 7b 3f 2a 9e 7a 3f 0f f8 7d 3f e0 65 7b 3f
       0.98369217 0.9789759 0.9920663 0.98202324
0000d0 b0 6d 80 3f e0 e8 7b 3f 60 0d 7e 3f 0d b2 7d 3f
       1.0033474 0.98402214 0.9923916 0.9909981
0000e0 6d 65 7d 3f 03 98 7a 3f e1 6c 7c 3f 6b 7a 7e 3f
       0.9898289 0.978882 0.98603636 0.99405545
0000f0 d5 1e 80 3f 1e 3e 79 3f 40 f9 79 3f 95 9c 7f 3f
       1.0009409 0.9736041 0.9764595 0.998483

bias f4 [64]
000000 9b a2 42 39 e5 52 87 b9 55 69 60 bc 55 88 24 3a
       0.00018561857 -0.00025810968 -0.013696988 0.00062764186
000010 63 d1 32 3b 4d ee 68 3c 02 af 14 3c 36 bf 93 3c
       0.0027285449 0.014216972 0.009074928 0.018035512
000020 ac cf e3 38 07 bc 8e 3a 7b 9d 45 3c c3 53 dc bb
       0.000108628854 0.0010889777 0.012061472 -0.0067238524
000030 d1 15 a0 bc 01 df 12 3a 71 7c 9c ba 83 0e 04 3c
       -0.019541653 0.0005602688 -0.0011938942 0.0080601005
000040 36 b5 37 bb b1 0c 93 3b f8 1b 21 3c f9 b3 8f bb
       -0.0028031594 0.004487597 0.009833328 -0.004385468
000050 a3 1d 9c 3a f9 81 46 bb 10 d1 e7 3b cc 30 6b 3b
       0.0011910688 -0.0030289872 0.0070744827 0.003588724
000060 af c6 b2 3b c2 ae ba bb 9e 42 84 bb 20 91 e5 3b
       0.005455814 -0.0056971023 -0.0040362617 0.0070058256
000070 4d 22 c3 bb 31 3e a4 3a dc 10 b4 bb c8 12 bf 3b
       -0.0059550167 0.0012530742 -0.005495174 0.0058310963
000080 4f 49 79 3c eb dd a5 3b eb 1a 94 bc 1a 84 2e bc
       0.015215232 0.005061855 -0.018079242 -0.010651613
000090 f9 df 18 3c ff 62 d1 bb 25 ec 39 3c c9 a6 3b 3b
       0.009330743 -0.006389975 0.011347805 0.0028633347
0000a0 b9 04 ac 3c 49 b1 74 3b 87 07 f0 3b b3 a2 8d bb
       0.020998346 0.0037337116 0.007325116 -0.004322374
0000b0 94 09 a2 3b 9e 5d f0 3a f7 81 45 3b 67 89 82 3c
       0.0049449895 0.0018338447 0.003013728 0.01593466
0000c0 e4 44 32 bb e0 d7 91 3b 37 f2 23 3c 53 15 66 3c
       -0.0027201707 0.004450783 0.010006479 0.01404317
0000d0 d4 1f f1 3b d5 3c 09 3b 16 00 34 bc 35 8a 8f 3b
       0.0073585305 0.00209408 -0.010986349 0.0043804892
0000e0 6b 51 43 3b c1 2d 08 bc ec e2 dc bb c3 ae 1b 3b
       0.0029803168 -0.00831169 -0.0067409184 0.002375529
0000f0 e2 ac 5f 3b 73 bc 4a 37 13 86 ce bb 4f a0 a7 bb
       0.0034130146 1.2084015e-05 -0.006302604 -0.005115546

running_mean f4 [64]
000000 57 2e 07 40 3b 67 4f bf 4f bf a5 bc 66 56 38 be
       2.1122034 -0.8101689 -0.020232825 -0.18001708
000010 74 3d bd bf 73 aa c1 3f c9 4a 06 40 9a d3 7e 3f
       -1.4784379 1.5130142 2.0983145 0.9954163
000020 2e 2b 02 40 d7 92 86 3e aa b0 b0 bf 52 ef ef 3f
       2.0338855 0.26283905 -1.3803914 1.874491
000030 4e 8c c0 bf ff 1f 66 bf 12 89 1b 40 33 96 ac 3f
       -1.5042818 -0.8989257 2.430241 1.3483337
000040 ce b1 39 c0 aa 35 c7 bf 95 89 1e c0 b9 64 9e 3f
       -2.9014773 -1.5563252 -2.4771473 1.2374488
000050 5f 5a f0 be 13 ab 29 c0 4b d3 9b 3f df 93 a0 3f
       -0.46943948 -2.6510665 1.2173856 1.2545127
000060 a7 ae 60 c0 5b 52 53 bf ce 35 32 c0 bb 4a 21 40
       -3.51066 -0.8254754 -2.784534 2.5201862
000070 5f 69 bf bf 25 4c fe 3e 36 70 10 c0 c9 6b 1f bf
       -1.4954032 0.4966747 -2.2568488 -0.6227384
000080 cd ae 20 3e f7 64 f9 bf d4 24 7b bf 3c 81 95 bf
       0.15691681 -1.9483937 -0.9810307 -1.1680064
000090 8b 51 fe bc f3 44 af bc 74 43 1b 3d e1 8c d2 bf
       -0.031044742 -0.021395182 0.037906125 -1.6449243
0000a0 08 5b 0c c0 9a 4f 99 3f ec 91 1d 40 32 c0 fc 3f
       -2.193056 1.1977417 2.4620314 1.9746153
0000b0 3b ed d5 3f 93 9c b4 3f 5d 59 68 40 ce d8 7a 3f
       1.6713022 1.4110283 3.6304543 0.9798707
0000c0 9e 41 47 bf 0a cd 3f 3f 48 5b ee be bb 7d 3f c0
       -0.778345 0.7492224 -0.46554017 -2.992049
0000d0 23 b0 1f c0 d8 d0 cc 3d b7 51 53 bf 41 23 2c c0
       -2.4951255 0.10000771 -0.8254656 -2.6896517
0000e0 52 fc cd c0 3f c0 4b c0 70 11 20 3f 56 d6 d3 bf
       -6.437051 -3.1836088 0.6252661 -1.6549785
0000f0 24 47 50 bf 94 8f 08 c0 d6 83 1f c0 a6 47 c8 3f
       -0.8135855 -2.1337633 -2.4924216 1.5646865

running_var f4 [64]
000000 41 44 70 40 c1 c0 99 40 07 05 9f 40 44 c6 2e 40
       3.754166 4.8047795 4.9693637 2.7308512
000010 73 fa 6f 40 c8 17 31 40 07 2c a9 40 42 e4 ab 40
       3.7496612 2.7670765 5.2866244 5.3716135
000020 1a 5f 2e 40 21 fc 84 40 85 19 e5 40 bf aa 8f 40
       2.7245545 4.1557775 7.159365 4.489593
000030 cd 65 44 40 9e d6 69 40 0d b6 c4 40 74 d4 2f 40
       3.0687134 3.6537242 6.147223 2.747342
000040 90 0f 86 40 b9 f4 78 40 8c 4e c1 40 fb 59 3e 40
       4.1893997 3.8899367 6.0408382 2.974242
000050 c1 84 d3 40 48 e1 5d 40 b6 4d 3f 40 a5 37 7f 40
       6.6099553 3.466875 2.989118 3.9877713
000060 eb cd 3d 40 ab 91 54 40 76 bc 92 40 1f ae 38 40
       2.9656932 3.3213909 4.5855055 2.8856275
000070 db 71 6b 40 af 79 74 40 9f 1a 6c 40 8a b6 52 40
       3.6788242 3.819927 3.6891248 3.2923913
000080 a2 99 1e 40 80 d7 70 40 7f 19 80 40 8c 75 49 40
       2.478127 3.763153 4.0031123 3.1477995
000090 98 b5 8f 40 b9 f0 46 40 7c 39 af 40 30 b1 8f 40
       4.490917 3.1084425 5.475767 4.4903793
0000a0 ec 8f 8e 40 c2 f9 02 41 b7 46 6a 40 03 c0 51 40
       4.4550686 8.185976 3.660566 3.2773445
0000b0 9a 1b 46 40 78 71 c2 40 73 19 25 40 0f 12 6e 40
       3.0954347 6.076351 2.5796783 3.7198522
0000c0 cd cf 6a 40 04 e1 3e 40 9c 68 88 40 0b 05 4d 40
       3.6689332 2.9824839 4.2627697 3.2034328
0000d0 03 45 67 40 e3 69 52 40 ed 56 5b 40 99 e7 9e 40
       3.6135871 3.2877128 3.4271805 4.965771
0000e0 27 ba 99 40 fd b1 38 40 f0 d4 1a 40 ae 4f a1 40
       4.8039737 2.8858635 2.4192467 5.0409765
0000f0 f7 d1 86 40 17 e4 50 40 4a 79 80 40 9d e9 6d 40
       4.2131305 3.2639215 4.014806 3.7173836

weight f4 [64, 64, 3, 3]
000000 b0 e6 a0 bd b5 52 21 3c 64 54 65 3d 84 83 2a bc
       -0.078565 0.009846379 0.055988684 -0.010407332
000010 e5 09 86 bb 4a 22 1d bb 10 7e d9 bc 00 46 1b bd
       -0.004090535 -0.0023976737 -0.02654937 -0.037908554
000020 44 23 8e 3d 55 dc a4 3d 80 f0 98 bc 88 ab b4 3c
       0.0694032 0.080498375 -0.018669367 0.022054449
000030 a7 99 3c 3d 55 7a 1a be 97 d0 0c bc 2d 13 cc bd
       0.04604497 -0.15085728 -0.008594654 -0.09964595
000040 a6 cc 74 3c ac f4 5b bd 8e 3e 08 3d 54 36 d4 bc
       0.01494137 -0.053700134 0.03326278 -0.025904812
000050 34 50 7b 3c ce d3 27 3a 73 5d 89 bd 13 17 13 3d
       0.015338946 0.0006402106 -0.06707277 0.035910677
000060 ad 32 20 be bb 0d d0 3c 0b 91 a7 bd 65 ba 23 be
       -0.15644331 0.025397172 -0.081819616 -0.15989073
000070 7a 18 49 3b c1 7c 1c 3d 21 67 05 3d 4d 56 29 bd
       0.0030684755 0.038204912 0.032569055 -0.04134207
000080 5c 87 37 bd 8e 45 41 3d 97 9d df bc 40 25 40 3d
       -0.044806823 0.047185473 -0.027296824 0.046910524
000090 d3 48 c5 bd f2 ff 53 be 1c 95 47 bc 37 b6 29 3c
       -0.09633031 -0.20703104 -0.012181547 0.010358385
0000a0 a6 05 64 3d 2c 07 c9 bd 67 90 ef 3c f8 f4 5e 3d
       0.05566945 -0.09815821 0.029243661 0.05443284
0000b0 56 77 d4 bc 42 bd 71 3d 80 04 4c 3d ea 4d 96 bd
       -0.02593581 0.05901838 0.04980898 -0.0733908
0000c0 0b d3 e2 bb 59 b6 38 3d fb 2f f0 bc bd 4a 65 bc
       -0.006922131 0.045095775 -0.029319754 -0.01399487
0000d0 94 c4 af 3d 28 4c 28 be 98 84 7f 3c 25 37 ff bd
       0.08582416 -0.16435301 0.015595578 -0.1246169
0000e0 eb e4 82 bd 9b b4 27 3c 9c 20 ab 3d 06 85 2a 3d
       -0.06391319 0.010235931 0.08355829 0.041630767
0000f0 0c 76 92 ba 05 d5 ba 3d ed 78 cd 3c 1a 6d ae bd
       -0.0011174097 0.091226615 0.025082076 -0.08516903
000100 cc 93 33 3d 18 42 95 3c f3 2c f4 bc 12 fd 73 3d
       0.043842122 0.018219993 -0.02980659 0.05956752
000110 d3 1c 7e 3b fd be a2 bc d3 d7 09 3d ae 91 6d bd
       0.0038774505 -0.019866461 0.03365309 -0.05800026
000120 97 39 61 3d d3 bc 15 bc 63 09 78 bd bd 21 da 3d
       0.054986563 -0.0091392575 -0.060555827 0.10650966
000130 c9 74 5d bd 3e f0 c2 3c c1 fc 7b 3d 61 50 8e bd
       -0.054066453 0.023796197 0.06152034 -0.06948925
000140 1b f1 3e 3d 10 13 19 bd 09 b4 7e 3c e3 25 a6 3c
       0.046616655 -0.037371695 0.015545853 0.020281738
000150 7d 0e 24 3d 91 cf 0c 3b 93 d1 50 3d 9e 6f c0 3b
       0.04005288 0.0021486024 0.050981116 0.005872681
000160 6e 9e 82 bb b3 85 6b 3d b4 82 05 3d cf 3e 4a bd
       -0.0039861714 0.057500552 0.03259535 -0.049376305
000170 07 47 56 3d e4 ef 17 3d 8a b4 bb 3c cb b1 3d bc
       0.05231383 0.037094012 0.022913236 -0.011578034
000180 a7 bc a3 bd 65 e0 dc 3c ca 78 7c bd 67 36 1c 3e
       -0.07994967 0.026962468 -0.06163863 0.15255128
000190 01 82 e0 3b 16 99 0b 3e 56 5a 0d bd 80 b9 21 bd
       0.006851435 0.13632616 -0.03450998 -0.039483547
0001a0 e3 f4 e4 bc c3 86 81 3c bd e4 39 3d 3f 8c 58 bd
       -0.027948802 0.01581133 0.045384157 -0.052868124
0001b0 66 7c 3d bd 96 7c 8a 3d 0b 74 cd bc 7f c4 88 bd
       -0.046261214 0.06762044 -0.025079748 -0.06678104
0001c0 2f 2f 0a 3c 98 79 a2 b9 cf 08 ee 3c d7 35 7f bc
       0.008434101 -0.00030989642 0.029056935 -0.015576801
0001d0 8b 0a 3a 3d cd d7 da bc ab 93 f2 3d f6 15 1c be
       0.04542021 -0.02671423 0.11844572 -0.15242752
0001e0 67 b3 3e bd b2 fb 86 bc a3 f1 0c 3e 52 bf be bb
       -0.04655781 -0.01647744 0.13764052 -0.005821147
0001f0 f6 f8 1a bd 7f 66 1b 3c 37 48 42 3d c5 71 1c bd
       -0.037835084 0.009484886 0.04743215 -0.038194437
000200 1a dd 43 bd ab 79 d2 3c 91 04 4f bd 8d 94 ac bc
       -0.04781828 0.025692781 -0.050541464 -0.021066928
000210 74 f9 9a ba 3c 90 17 bd b6 b8 ba 3c aa 64 75 bd
       -0.001182361 -0.037002787 0.022793155 -0.059910454
000220 59 08 e9 bc b4 11 95 3c 32 be e1 bd 3a a2 e6 bd
       -0.028446363 0.018196918 -0.11022605 -0.11261411
000230 94 28 ec 3d 13 dc 25 bd 0f 88 b0 bd 63 d4 a0 3d
       0.11531177 -0.040493082 -0.08619701 0.078530096
000240 8e 32 75 bc ae b7 cd bb 7d 5f cf 3d 8a 11 fe bc
       -0.014965666 -0.006278 0.10125635 -0.031014223
000250 f7 50 0f bd ec 09 5b 3d b0 88 86 ba 88 90 14 3d
       -0.034989323 0.05347626 -0.0010264125 0.03627065
000260 6e e8 62 3d cd d5 67 3d ad 11 66 bc 94 59 a8 3d
       0.055397443 0.05660038 -0.0140423 0.08220211
000270 e1 a6 6a bd 6e c4 4c 3c c1 f8 ad bd 3e 0a 01 be
       -0.057288054 0.012498004 -0.08494712 -0.12601563
000280 d8 5c 49 bb da 66 be 3d 60 21 f3 3d d1 d4 6a 3d
       -0.0030725505 0.09296961 0.118716 0.057331864
000290 ee e5 0c bd 84 9f ac 3d 1c 19 9e bb bb 3d 09 3a
       -0.034398966 0.08428863 -0.0048247706 0.0005235334
0002a0 ef 52 95 3d e1 4b c3 3c c2 49 b2 bc 21 81 50 bd
       0.07291209 0.023839893 -0.021763686 -0.050904397
0002b0 86 43 50 3d 53 55 c1 bd 40 f5 6a 3d 23 e3 05 bd
       0.050845645 -0.094401024 0.057362795 -0.032687318
0002c0 44 f4 f5 3c c0 83 e9 3d 97 16 cc 3a 59 db 45 bc
       0.030023701 0.114020824 0.0015570697 -0.012076222
0002d0 17 3b bc bd 23 dc 70 3d cb 17 af ba 95 94 94 3d
       -0.09190958 0.05880369 -0.0013358531 0.07254902
0002e0 8b 6d ca 3c cc 73 16 3d 4b 4c 6a 3d a6 b4 4a 3c
       0.024710437 0.036731526 0.057201665 0.0123721715
0002f0 9a 1c 0c be 36 71 68 3c e6 a3 73 3d e4 c8 85 3c
       -0.13682786 0.014187148 0.059482478 0.016331144
000300 4a 4f 62 3c 66 46 2a bc ff ad b9 bc 25 63 31 bd
       0.013812849 -0.010392761 -0.022665976 -0.043307442
000310 3b 6b 0a bb 4e f9 a4 bd e8 5f 4d bc 85 74 fe 3d
       -0.0021121043 -0.080553636 -0.012535073 0.12424568
000320 8c 37 83 bb 7c e6 d8 bb 3c 89 7e 3d 73 e4 41 3d
       -0.0040044244 -0.0066192728 0.062142596 0.047337007
000330 3d 9c be bc 5a b4 81 3c a3 05 1b bc d3 e1 ee 3c
       -0.02326786 0.015833069 -0.009461793 0.029160416
000340 e0 04 19 bd 2e d0 e8 bd 5f c9 b7 3c 40 43 5b 3d
       -0.037358165 -0.11367832 0.022434888 0.05353093
000350 f8 fc a1 bd c7 16 16 3d 52 6a 2d 3d d4 be 21 3d
       -0.07909578 0.036642816 0.042337723 0.03948863
000360 7c b1 66 3a 85 9f 64 3d 3b 0c c5 bc a3 87 a4 3c
       0.0008800251 0.055816192 -0.024053684 0.020084208
000370 bf bc e5 3c 9d 23 38 bc cf f1 0c 3d f2 76 b3 3c
       0.028044103 -0.01123896 0.034410294 0.021907303
000380 b2 26 35 bd ad 26 d7 3c 81 8e 8f bc 43 c3 a0 bd
       -0.044226356 0.02626356 -0.017524006 -0.07849743
000390 12 f5 98 bc b3 0b b3 bd 36 78 d7 bc 46 87 2e bd
       -0.018671546 -0.08742466 -0.026302438 -0.042609476
0003a0 b3 6c 8a 3d 2f 39 a8 3d b5 ba 5b 3d fa b3 f1 3c
       0.06759014 0.08214032 0.053644855 0.029504765
0003b0 7e 4e a0 3d 73 92 cc 3d ed 4c 36 3d 1b 86 d7 3b
       0.07827471 0.099888705 0.044506956 0.006577266
0003c0 7d 79 80 bd 19 95 9b 3c cd 0b 26 3d 84 dc 23 3d
       -0.06273172 0.018991994 0.040538598 0.040005222
0003d0 98 d7 cb 3c e8 c9 85 3a d1 d6 07 bc 89 28 fc 3d
       0.024883077 0.0010207267 -0.008290962 0.12312419
0003e0 bc 1b 2b 3b fb 41 45 bd 82 4b 5b bc 6b d1 52 3d
       0.002610906 -0.048158627 -0.013384702 0.051469248
0003f0 1f 6c 05 3d 49 e9 15 3d 9c 64 66 3d 6b 38 35 3d
       0.032573815 0.03659943 0.056248292 0.044243257
