experiments/model_repositories/robot_sound/age_classification/model_files/block_02.pth (torch, 311823 bytes, 10 tensors)

weight f4 [64]
000000 a4 74 7c 3f 35 9d 7e 3f 8f bd 7c 3f b1 aa 7d 3f
       0.9861548 0.9945863 0.98726743 0.9908858
000010 70 66 7e 3f 50 f1 7c 3f 79 29 81 3f b6 32 80 3f
       0.9937506 0.98805714 1.0090781 1.0015476
000020 84 44 7b 3f 26 88 7d 3f 32 e3 7f 3f e1 78 80 3f
       0.9815142 0.9903587 0.9995605 1.0036889
000030 a6 09 7f 3f 18 88 7f 3f 12 b8 7c 3f 12 8f 7d 3f
       0.996241 0.9981704 0.9871837 0.9904643
000040 d6 a2 7c 3f 56 8c 7f 3f 7d 91 7b 3f 7d c0 7e 3f
       0.9868597 0.9982351 0.9826887 0.99512464
000050 c4 f5 81 3f 42 56 80 3f 09 69 7e 3f 26 05 7e 3f
       1.0153127 1.0026324 0.9937902 0.99226606
000060 79 ae 7c 3f 68 ca 7d 3f 58 23 7c 3f da 32 7f 3f
       0.98703724 0.9913697 0.9849143 0.9968697
000070 08 c2 7e 3f 59 db 7f 3f e6 aa 7e 3f db e8 7b 3f
       0.9951482 0.9994407 0.9947952 0.98402184
000080 1a b2 80 3f 7d 48 82 3f 30 d7 7d 3f f8 5a 7e 3f
       1.0054352 1.0178372 0.99156475 0.9935756
000090 16 d7 79 3f 8e e7 7e 3f de cd 7e 3f 3a c7 7a 3f
       0.9759382 0.99572074 0.9953288 0.97960246
0000a0 71 82 7f 3f 06 8b 7e 3f 6e 11 7c 3f 21 48 7a 3f
       0.9980841 0.9943088 0.98464096 0.9776631
0000b0 8e 4d 7c 3f f6 c9 7c 3f 0e d2 7e 3f a5 22 7d 3f
       0.9855584 0.9874567 0.9953927 0.9888099
0000c0 3f 8f 7d 3f c6 8e 7d 3f 20 ab 7e 3f 27 a0 80 3f
       0.990467 0.9904598 0.99479866 1.0048875
0000d0 e2 c4 80 3f f2 fc 7d 3f b3 15 7c 3f 25 f1 7a 3f
       1.0060084 0.9921409 0.9847061 0.9802421
0000e0 3e f4 7e 3f 14 09 80 3f 48 6c 79 3f 25 7b 7c 3f
       0.99591434 1.000277 0.9743085 0.98625404
0000f0 75 18 81 3f 81 4e 7e 3f d5 a6 7d 3f b5 ee 81 3f
       1.0085589 0.9933854 0.9908269 1.0150973

bias f4 [64]
000000 33 c6 12 3c 7a 41 79 3b db 5c 96 3c 65 68 43 3c
       0.008958387 0.0038033412 0.018354824 0.011926745
000010 5d cd a7 ba e5 0a 47 3c ee 26 e1 3a 49 65 05 3c
       -0.0012802292 0.012148594 0.001717774 0.008141824
000020 85 3c 57 bb c4 a6 16 3b 3e b3 a8 3b c5 5e 45 bb
       -0.003284247 0.0022987584 0.0051483205 -0.0030116301
000030 6b a0 c1 ba a8 34 2b 3c f4 d9 0b 3c 6c 5d cf 3b
       -0.001477254 0.010449566 0.008535851 0.0063282754
000040 68 6a 04 bb e2 d5 05 bb 2d 46 d2 ba 83 e3 d0 ba
       -0.0020205025 -0.0020421674 -0.0016042643 -0.0015936944
000050 bc 37 5d 3b ff e0 1a 3c 03 65 1e 3c 9e be 39 3c
       0.0033755144 0.009453057 0.009667638 0.011336951
000060 bf 99 62 3c 9a 41 95 b9 3b ed 0c 3c 42 02 7b 3c
       0.013830601 -0.00028468372 0.008601482 0.0153203625
000070 0c d6 10 3c 8d cf 3e 3c 91 13 54 3c b0 7c 16 bc
       0.008840095 0.011646164 0.012944118 -0.009185001
000080 ef a8 8c 3b 55 aa d8 3b 3e bc 1f 3c 65 0d e0 bb
       0.0042925994 0.006612102 0.00974947 -0.0068375343
000090 52 a0 90 bb 4b f4 1c 3c 5d fe 78 bc 3f 86 7c bb
       -0.004413643 0.009579728 -0.015197364 -0.0038532165
0000a0 ce b8 f1 3b 93 5a 79 3b 49 45 01 3c e3 a9 20 3b
       0.0073767668 0.0038048371 0.007890054 0.0024515323
0000b0 d3 c4 61 bb 91 33 5c 3c 5f bf 9d 3b 02 0f 18 3c
       -0.0034449592 0.013440029 0.004814073 0.009280922
0000c0 f2 bd 00 bb 46 b6 81 3b 24 74 00 3c 67 1c 62 bb
       -0.0019644466 0.0039584963 0.00784019 -0.0034501792
0000d0 a6 d3 57 3b a4 12 05 3b 20 3e 98 bb aa d3 0d 3c
       0.0032932549 0.00203053 -0.0046460778 0.008656422
0000e0 2f ea 0a bb 09 a9 b4 bb 0b 43 f0 3b cc c3 f6 3b
       -0.0021196713 -0.0055133146 0.007332211 0.007530665
0000f0 4f 9f 9c 3c ac 45 b3 bb 79 3f b0 ba a1 c8 64 3c
       0.019118933 -0.005470952 -0.0013446651 0.013963849

running_mean f4 [64]
000000 f2 8a 4c 3b ad 06 c2 be 59 7e 98 be b2 75 07 3c
       0.0031210748 -0.37895718 -0.29783896 0.008267807
000010 97 12 66 3f 58 44 71 3f a3 59 fe 3e 07 60 8a be
       0.89872116 0.9424491 0.49677762 -0.27026388
000020 73 7e ce 3e af 4b 84 bf 60 3f 0b bf f6 b8 8f 3c
       0.40330848 -1.0335597 -0.5439358 0.017544251
000030 8b 45 03 3f b0 74 e8 bc 9a 84 16 3f c1 0a 83 bf
       0.5127799 -0.028375953 0.58796084 -1.0237657
000040 03 e5 a7 3e 21 66 70 bd 1c 55 47 3f 22 94 73 be
       0.3279191 -0.058691148 0.7786424 -0.23786977
000050 7d 3b c2 3d 6d e4 1c 3f 6c 7f 72 3e 65 90 f1 be
       0.09484003 0.6128605 0.2368142 -0.47180477
000060 ef e1 22 3f 03 65 e8 bd 6c a9 81 bf 37 f2 65 bf
       0.63626 -0.113473915 -1.0129828 -0.89822716
000070 8e 34 a3 3e d5 bb 66 bf 64 0a 9d 3f 8e 92 8e bf
       0.31876034 -0.9013036 1.2268796 -1.1138475
000080 55 43 e0 bd fd 21 0b 3c c8 55 64 3f b8 87 24 bf
       -0.109503426 0.00849199 0.8919339 -0.6426959
000090 52 f8 2d 3e df 4a be 3e 92 fb b5 3e 31 85 cd bd
       0.16989258 0.37166497 0.35543495 -0.1003517
0000a0 7e f4 b1 3e 98 aa 6e be ee b4 71 be 82 18 58 bf
       0.34756845 -0.23307264 -0.23604175 -0.84412396
0000b0 28 40 5f bf 17 ff 0c be b5 7a 76 bf 87 d7 ad be
       -0.8720727 -0.13769184 -0.96280986 -0.33953497
0000c0 1f 69 8a 3e f1 12 f7 bd 67 74 49 3f c4 6f a0 3c
       0.27033326 -0.1206416 0.7869324 0.019584544
0000d0 e5 cd 60 be c8 64 33 3f 2d 46 ee 3d af 33 38 3f
       -0.21953543 0.70075655 0.11634479 0.7195386
0000e0 3a d4 30 3f 1c 19 36 3f 2c 55 57 bf 14 5a a4 be
       0.6907383 0.71132064 -0.84114337 -0.32099974
0000f0 9b 76 ef bd 98 8a 12 3f 7f 3c 58 3f ea 4f 8d be
       -0.11692544 0.5724273 0.8446731 -0.27600032

running_var f4 [64]
000000 11 aa 7a 3f a9 1c 67 3f 15 6c 5e 3f 95 1d 6c 3f
       0.9791575 0.90278107 0.8688367 0.9223264
000010 aa 40 46 3f 24 5d b3 3f d4 04 6b 3f ac 16 80 3f
       0.7744242 1.4012799 0.9180424 1.0006919
000020 58 c7 61 3f c9 29 34 3f d7 86 96 3f 82 78 1f 3f
       0.881948 0.7037626 1.17599 0.62293255
000030 44 b3 75 3f 93 3a 74 3f 50 5d 46 3f 0b 0f 45 3f
       0.9597666 0.9540188 0.77486134 0.7697608
000040 d6 11 83 3f e8 c6 2c 3f c0 31 31 3f 5d 16 9f 3f
       1.0239818 0.67491007 0.6921654 1.24287
000050 cc 2e 31 3f e4 bf 52 3f da 5b 8e 3f 84 31 94 3f
       0.6921203 0.8232405 1.1121781 1.1577611
000060 6a e8 2c 3f 7b 2d 56 3f 0e eb 34 3f 3a 6f 8f 3f
       0.67542136 0.8366315 0.70671165 1.1205819
000070 3e 6d 63 3f 50 51 db 3f d3 82 27 3f 36 ba 8d 3f
       0.88838565 1.713419 0.65433997 1.1072452
000080 53 da b0 3f a3 2f 72 3f 9e db 98 3f e5 54 6b 3f
       1.3816627 0.9460394 1.1942022 0.91926414
000090 dc 6b 72 3f 19 eb 38 3f 1a 39 84 3f 77 9c 3d 3f
       0.9469583 0.7223373 1.0329926 0.7406687
0000a0 b2 cb 80 3f 02 1c 79 3f cc a6 9b 3f 3f b6 a4 3f
       1.0062163 0.9730836 1.2160277 1.2868117
0000b0 48 cb 12 3f 22 2a 15 3f 0c b4 84 3f bb 97 77 3f
       0.5734143 0.58267415 1.0367446 0.967159
0000c0 21 d7 4f 3f 69 79 1a 3f f0 6b 79 3f 01 c0 49 3f
       0.81187636 0.6034151 0.97430325 0.788086
0000d0 6b 14 81 3f 48 34 61 3f 6f 47 74 3f 1e 6d 77 3f
       1.0084356 0.879704 0.954215 0.96650875
0000e0 fd 22 8a 3f c5 c1 48 3f df 3f 0f 3f ba 14 95 3f
       1.0791928 0.7842067 0.55956835 1.164695
0000f0 ef 6d 5b 3f dd 91 85 3f 65 3a 74 3f 8a 0d 99 3f
       0.8571462 1.0435139 0.95401603 1.1957257

weight f4 [64, 64, 3, 3]
000000 3c ef 3c 3d 32 5e da 3d 51 53 d5 bd 6b cb 97 3c
       0.04612659 0.106624976 -0.10416282 0.018529614
000010 c9 62 49 bc f9 0e 9a 3d a5 2e bb 3c 86 b9 86 3c
       -0.012291619 0.07522387 0.02284939 0.016445886
000020 47 64 95 bc 3a e4 fb 3b c9 69 8e 3b 12 b5 1e bd
       -0.018236293 0.007687119 0.0043461067 -0.0387469
000030 87 69 fa bc 82 67 03 3d b6 46 38 3d 89 ab dc bb
       -0.030567897 0.032081135 0.04498931 -0.006734316
000040 2a 8d 95 3d 29 46 0b 3e ba f0 6c 3d b5 db 87 bd
       0.073023155 0.13600983 0.057846762 -0.06633703
000050 18 55 53 3d 2e 80 d8 bc 8b 36 2d 3d 82 c5 27 bd
       0.051594824 -0.026428308 0.042288344 -0.040959843
000060 a4 7e d6 bb f8 00 95 3c a8 78 86 bd 42 dc 55 3d
       -0.0065458585 0.018188938 -0.06565982 0.052212007
000070 f8 a0 0f 3d 62 59 c0 bd 67 7d 4c bd 60 65 a9 3d
       0.03506562 -0.093920484 -0.04992428 0.08271289
000080 86 d9 2d 3c 34 2b c2 bc 6d 01 14 bc 47 55 36 bd
       0.010610944 -0.023702241 -0.009033543 -0.04451492
000090 aa 22 5a 3d fd 69 df 3c cd 30 ab bd 94 82 5d bb
       0.053255714 0.027272219 -0.083589174 -0.0033799754
0000a0 75 27 ca 3b 05 45 e3 3c bf 3c af bd 07 96 40 ba
       0.0061692544 0.027742872 -0.08556508 -0.00073465746
0000b0 d5 fb 7c 3d 7b 43 95 3c 96 c6 ac bc 07 9b 6d bd
       0.061763603 0.018220654 -0.021090787 -0.058009174
0000c0 b6 2d 84 bd 71 28 e6 bd c0 9e 46 bd a7 6d 8c 3d
       -0.06454031 -0.11238182 -0.04849124 0.06856852
0000d0 46 26 51 bb e7 65 db bc 47 82 17 bd ff a1 57 bc
       -0.0031913682 -0.02678199 -0.036989477 -0.0131611815
0000e0 de 82 24 bb 0e 4f b4 bb 7c 45 60 bc c2 a1 ae 3c
       -0.0025102417 -0.005502588 -0.013688441 0.021317367
0000f0 65 27 50 bc 5e e9 f9 3c 2f 83 1e bc b9 b0 9f bc
       -0.012704705 0.030506786 -0.009674831 -0.019493448
000100 27 5d af 3a d2 42 83 3c 75 f7 17 ba 9b 7e 09 bd
       0.0013379202 0.016023073 -0.0005797067 -0.033568006
000110 6b ae 37 bd 2f 83 8e 3b b9 a2 ee 3b f9 b8 9a 3b
       -0.044844072 0.0043491344 0.0072825816 0.0047217575
000120 94 99 33 3d 6b 9e bf 3c c4 50 1d 3c 14 86 d8 bb
       0.043847635 0.02339097 0.009601776 -0.0066077802
000130 3c c4 c9 bd 64 fa 00 3d e6 0d c4 3c 06 86 24 bd
       -0.09851882 0.03148879 0.023932409 -0.040166877
000140 9f c6 44 bc 66 02 bc 3d fe d3 a9 bc c7 9e 67 3d
       -0.012010246 0.09180145 -0.020730969 0.056547906
000150 29 54 b2 ba c3 6d e9 bd 4d 1b b2 3c 3d aa 8a bd
       -0.0013605404 -0.113978885 0.021741534 -0.067707516
000160 52 50 26 bd 5f 97 7a 3b 30 a2 4b 3d 27 e6 82 bc
       -0.040603943 0.0038237197 0.04971522 -0.015978886
000170 d2 84 bf bd 1a b0 b6 bc f1 6c 03 be a9 e5 be bd
       -0.09351505 -0.022300769 -0.12834527 -0.09321148
000180 95 49 23 3d 40 8a 23 3c bd 4e fa 3d 76 56 4d 3d
       0.039865095 0.009981692 0.122220494 0.050131284
000190 d6 3e d9 bc 59 96 be 3c f5 96 12 bd 63 ea 72 3d
       -0.02651922 0.02326505 -0.035788495 0.05930556
0001a0 01 0b 39 bd 43 83 e0 bc 90 58 95 bd 18 57 f6 3a
       -0.04517651 -0.02740634 -0.072922826 0.0018794267
0001b0 ff 06 ae bc 9e f1 17 3d f9 9d cf 3c a9 d2 7c bd
       -0.02124357 0.03709566 0.025343882 -0.06172434
0001c0 fb f6 2b 3d b6 a9 cd bc 27 0a 87 bd 28 bb f5 3c
       0.041983586 -0.025105339 -0.06593733 0.02999647
0001d0 f5 07 0f 3d ea 64 f9 3c 05 49 90 bc eb 0d 76 bc
       0.034919698 0.030443627 -0.017612943 -0.015017967
0001e0 da 08 3f 3d 76 21 e7 ba 87 08 2c bd ce 60 6c 3d
       0.0466393 -0.0017633874 -0.04200032 0.057709508
0001f0 95 12 db bc af ae c5 3d 89 13 81 bd e0 a0 ef bb
       -0.026742259 0.09652459 -0.06302554 -0.007312879
000200 27 5e 9b bc 88 80 3f 3c 50 35 08 ba c3 41 8c bd
       -0.018965794 0.011688359 -0.00051959325 -0.068484806
000210 59 d1 e6 3d cc 2a 28 3b 0d 12 ca bc dc f8 76 bc
       0.11270399 0.0025660275 -0.02466681 -0.015073981
000220 5a 59 06 bd a2 2e 1f bc e2 c3 64 bc 3c 35 57 3c
       -0.032800056 -0.009715708 -0.013962718 0.013135251
000230 57 62 6c 3d 64 ef df 3d 06 29 e1 bc 75 d2 77 bc
       0.05771097 0.10934332 -0.027485382 -0.01512586
000240 fe e3 81 bd 48 8e 98 3c 3d 59 aa 3c 49 7d cc bd
       -0.06342314 0.018622532 0.020794505 -0.09984834
000250 6d bf 8c 3d 71 5f fb 3c df a7 a6 bd e0 0f 65 bc
       0.06872449 0.030685158 -0.081374876 -0.013980836
000260 2f 21 3a bc 75 e4 07 bd 61 a1 41 bd a5 fe c2 3d
       -0.011360451 -0.033176858 -0.047273044 0.09521226
000270 2b d8 94 3c 51 4d 8b bd 02 42 16 bd 7c d6 0d bd
       0.018169483 -0.06801856 -0.036684044 -0.034628376
000280 5c 31 03 3d 34 ed 2a 3d 79 cf e0 bb cd cc 93 3c
       0.032029495 0.04173012 -0.00686067 0.018041993
000290 d1 f5 91 bd b0 c6 b0 bd 1c 72 b7 bc a3 db 82 3d
       -0.07126964 -0.08631647 -0.022393279 0.06389549
0002a0 26 3a dd bb 46 a6 55 bc 67 e0 64 bd 30 33 1e 3d
       -0.0067513166 -0.013040131 -0.05587807 0.038623035
0002b0 ff bf 8b bc b0 02 c1 bd 78 0b 5b 3d 99 14 8f bb
       -0.017059324 -0.09424341 0.053477734 -0.004366469
0002c0 e7 22 80 ba 16 f2 83 bd a5 19 e4 bc 38 35 cd 3b
       -0.0009776027 -0.064426586 -0.02784426 0.0062624477
0002d0 06 f1 ab bd a9 b9 ae bd 50 16 ff bc e8 fb 35 3b
       -0.08395581 -0.085315056 -0.03113857 0.0027768556
0002e0 e2 ce b4 bd 39 e1 af 3d de 5a 3d bd 4d e6 09 be
       -0.08828522 0.0858788 -0.046229236 -0.13466759
0002f0 06 36 dc 3c bd 56 b6 3c 4d 2f 4e 3d 21 33 d3 3c
       0.02688123 0.022258157 0.05033808 0.025781216
000300 1e 97 5c bc 44 cc 9f 3d 10 f4 2b bd f5 34 b5 3c
       -0.0134637635 0.078026325 -0.041980803 0.022119978
000310 3c 85 2a bd a7 d2 a8 bb f7 4f 33 3d 4a fe ec bd
       -0.04163097 -0.005152065 0.043777432 -0.11571939
000320 06 12 d6 bb f4 1a 13 bd 82 64 fe bc 78 31 0f bd
       -0.0065329103 -0.035914376 -0.031053785 -0.034959286
000330 9a 9b 84 bc 7f 02 a0 bc 89 95 90 bc 99 d6 b8 3d
       -0.016187478 -0.01953244 -0.017649429 0.09025306
000340 90 9e 94 3d 5b 4b 2f 3c 0a 9d c7 bd b6 ef 9f 3d
       0.07256806 0.0106991185 -0.0974675 0.07809393
000350 68 59 19 3d 13 89 db 3c 50 9b 47 3b c7 ab 87 bc
       0.03743878 0.02679876 0.0030457564 -0.016561402
000360 a7 dd 31 3d 65 bc c4 3c 59 93 e2 bc e9 7c af 3c
       0.043424275 0.024015615 -0.027658151 0.021421866
000370 ca 39 08 3e 72 a1 04 bd 04 e8 fe 3d ab af 8e bc
       0.13303295 -0.03238053 0.12446597 -0.01741775
000380 86 92 80 3c d3 fc 83 3c f1 4f f5 3c b7 dd 2e 3d
       0.015694868 0.016111767 0.029945346 0.042691913
000390 80 7e 56 3d 44 ea 4f 3d 4e fd be bd 98 14 aa bd
       0.052366734 0.050760522 -0.09325658 -0.08304709
0003a0 00 29 07 bc b0 bd 9a bd fd f9 66 bc 52 48 ca 3d
       -0.008249521 -0.07555711 -0.014097688 0.09877075
0003b0 8f 53 e4 bd e9 63 be 3d 0c d0 ca 3c f1 5a 33 3c
       -0.1114875 0.092964 0.024757408 0.010946975
0003c0 0f d8 85 bd ff ab d9 bc 14 b9 92 3d c6 d6 20 3d
       -0.065353505 -0.026571272 0.07164207 0.039267324
0003d0 c1 70 bb 3d a6 e9 cf bc db 37 3d 3c 33 79 c1 bc
       0.091523655 -0.025379967 0.0115489615 -0.023617363
0003e0 c9 05 8e 3b 2a 36 89 3c 13 e4 50 3d ab 78 93 bd
       0.0043341857 0.01674946 0.05099876 -0.0720075
0003f0 14 41 92 bc ba 6d 5b 3d d2 8d 80 bd 89 3f 02 bd
       -0.017853297 0.05357144 -0.0627705 -0.031798873

weight f4 [64]
000000 6b 3a 7c 3f 13 86 7e 3f ab 12 7f 3f f6 a8 7e 3f
       0.9852664 0.9942333 0.9963786 0.99476564
000010 f0 08 81 3f e3 0c 7e 3f b4 f4 80 3f 98 d5 7d 3f
       1.0080853 0.99238414 1.0074677 0.99154043
000020 67 03 7f 3f 52 86 7d 3f 3f 27 7e 3f 79 15 7e 3f
       0.99614567 0.9903308 0.99278635 0.99251515
000030 31 13 82 3f 09 17 7b 3f ef 4e 79 3f 1b 6c 7d 3f
       1.0162107 0.98082024 0.9738607 0.9899308
000040 55 8a 80 3f e3 b0 7c 3f c9 ca 7d 3f dd b0 7d 3f
       1.0042216 0.9870741 0.9913755 0.99097997
000050 2f 60 7c 3f 1e 58 7d 3f 56 97 80 3f 7c 4c 7e 3f
       0.98584265 0.9896258 1.0046184 0.99335456
000060 29 dc 7e 3f 5b ed 7a 3f f3 eb 7c 3f a3 d7 7b 3f
       0.9955469 0.98018426 0.9879753 0.9837591
000070 16 0a 7a 3f 5b 74 7e 3f 32 cb 7b 3f aa 3e 7b 3f
       0.9767164 0.99396294 0.98356926 0.9814249
000080 f6 75 7b 3f 57 4d 7d 3f 66 61 7a 3f 92 76 80 3f
       0.9822687 0.98946136 0.9780487 1.0036185
000090 b4 c3 7c 3f 85 19 7e 3f 01 37 79 3f 7b b7 7f 3f
       0.9873612 0.9925769 0.97349554 0.99889344
0000a0 1e da 79 3f 2c 2d 7e 3f cf 1e 7f 3f 34 da 7e 3f
       0.97598445 0.99287677 0.99656385 0.995517
0000b0 03 35 7d 3f c8 66 80 3f d4 c4 7f 3f a5 b1 7c 3f
       0.98909014 1.0031366 0.9990971 0.98708564
0000c0 7f ba 7c 3f 6d 29 7b 3f f3 3d 81 3f 8b be 79 3f
       0.9872207 0.98110086 1.009703 0.9755637
0000d0 1a 79 80 3f da 0f 7a 3f 2c 96 7e 3f 95 a5 7c 3f
       1.0036957 0.9768044 0.99447894 0.9869016
0000e0 23 5b 79 3f 19 01 7f 3f fa 48 7d 3f e0 24 80 3f
       0.9740469 0.9961105 0.9893948 1.0011253
0000f0 05 97 80 3f 4e c1 7d 3f 34 15 7e 3f 03 bb 7a 3f
       1.0046088 0.99123085 0.99251103 0.9794161

bias f4 [64]
000000 f2 da db 3b 40 8f a4 3b 4c 9f 91 3b 72 95 2e bc
       0.00670945 0.0050219595 0.0044440385 -0.010655748
000010 3b 22 c9 3b 11 0c 9c 3a 05 7c 4d 3b 95 e7 c3 bb
       0.006138114 0.0011905452 0.003135444 -0.0059785345
000020 e7 b3 e3 b9 da c1 15 bc b1 ce 01 3c e2 aa d2 3a
       -0.00043430852 -0.009140456 0.007922814 0.0016072656
000030 38 bc 78 3c 23 7a a6 ba 23 7d d3 3a ab 66 99 3b
       0.015181594 -0.0012701195 0.0016135316 0.0046814284
000040 38 0e 4f 3c 96 af 99 bb 1c 1e 0d bb 9f fc 73 3a
       0.012637667 -0.004690121 -0.002153284 0.0009307358
000050 1e 55 3a 3c 2b 53 9f bb ea b2 5a bb 30 c7 51 3c
       0.011372833 -0.0048622093 -0.0033370801 0.012803838
000060 e0 31 36 3b 48 a4 21 bc 92 4a fc 3b 91 7c 24 bc
       0.0027800724 -0.009865828 0.007699319 -0.010039465
000070 3e aa f8 3b c1 88 29 3b f3 18 e3 bb c1 0d 2b bc
       0.007588654 0.0025868865 -0.0069304644 -0.010440291
000080 4f f5 f6 ba 04 b9 8e 3c 6a 53 6e 3b bb 6a 9d 3b
       -0.0018841418 0.017422207 0.0036365637 0.004803983
000090 97 bc c5 bb 6e da 20 3c 3f 53 31 bc 9f cf f6 3b
       -0.0060344446 0.009817703 -0.01082307 0.0075320746
0000a0 2d 60 e5 bb 4a 58 ce 3b 69 72 5f 3c 37 6f 7a 3b
       -0.0069999904 0.006297146 0.013638117 0.0038213262
0000b0 1d 7d 7d 3b de fe 8b bb ce eb 58 3c 00 87 3e 3b
       0.003867931 -0.004272326 0.013239814 0.0029072165
0000c0 1d b8 8c 3b fe 7c ab bb d5 b9 b2 bc 39 f8 a9 3a
       0.004294409 -0.005233406 -0.021817127 0.0012967653
0000d0 85 a5 9f 3c fc c2 fe bb e9 04 84 bb e7 a0 44 bb
       0.019488106 -0.007774709 -0.0040289056 -0.0030003132
0000e0 75 67 70 bc 77 8c a1 39 aa fe 05 bc 06 32 59 bc
       -0.014673104 0.00030812967 -0.008178392 -0.013256555
0000f0 c3 c2 bf 3b 68 e4 99 ba 49 3e bb bb 72 22 99 bb
       0.005852075 -0.0011741044 -0.005714212 -0.0046732957

running_mean f4 [64]
000000 05 a8 82 bf e9 ce 1b 40 da 37 84 3b e8 cc 24 bf
       -1.0207525 2.4345038 0.0040349783 -0.6437516
000010 81 a4 f4 be 42 ad 17 3f e0 e1 65 be 61 df 59 3f
       -0.47781757 0.59248745 -0.22449446 0.85106474
000020 87 86 b4 be 9f 62 a7 bd 75 c0 81 bf b4 ae 8d 3f
       -0.35258886 -0.08173107 -1.0136858 1.106894
000030 99 ca 1e c0 74 2e 11 bf c2 c1 78 3f 67 7c 44 bf
       -2.4811156 -0.56711507 0.9717065 -0.7675232
000040 e5 64 37 bf df 0c 8a bf 59 ce f2 3f da 75 c9 bf
       -0.7163833 -1.0785178 1.8969222 -1.573909
000050 2e 49 e4 bf 90 aa 38 3f ff c8 d6 bf 32 db fd bf
       -1.7834833 0.7213526 -1.6780089 -1.9832518
000060 08 a3 e0 be 3f 00 be be 4b 89 19 c0 6c 6c 10 40
       -0.43874383 -0.37109563 -2.3990047 2.2566175
000070 45 3a 57 bf 96 80 97 bf 3d 87 aa 3c 7f 9f 60 3e
       -0.8407329 -1.1836116 0.02081644 0.21935843
000080 54 75 36 3f 8f 25 09 bf 16 85 7d 3f af 1a c4 3d
       0.7127278 -0.53572935 0.990312 0.09575402
000090 6e 67 7c bf 46 1f bd be 46 7c af be f7 4d 56 bf
       -0.9859532 -0.36937922 -0.342745 -0.83712715
0000a0 14 ea 08 40 69 87 97 bf 52 9a 99 3f af 37 a5 3e
       2.139287 -1.1838199 1.200022 0.32269046
0000b0 cb 1f ea bf df b7 0e 3f 23 7d 2b bf a1 37 ad bf
       -1.8290952 0.55749315 -0.6698782 -1.3532602
0000c0 e8 0e 7e 3f 9f 2d 9f be e9 c2 71 bf 6a 22 ae bf
       0.99241495 -0.31089494 -0.94438034 -1.3604252
0000d0 7f b0 78 be d1 26 34 be 65 47 b7 3d 4d d3 5b bf
       -0.24286078 -0.17592932 0.08949164 -0.85869294
0000e0 1d 2e 99 3f fb a2 b4 bf 8e 49 f1 be fd e6 4b bf
       1.1967198 -1.4112238 -0.4712643 -0.79649335
0000f0 b0 63 0e 3f 29 35 0a 3f 5d 9a 0e bf b9 e5 aa 3e
       0.5562086 0.53987366 -0.5570429 0.3337839

running_var f4 [64]
000000 70 47 51 40 66 fd 34 40 18 83 30 40 da 6f 2a 40
       3.2699852 2.8279662 2.7580013 2.6630769
000010 ec ac 49 40 ac 53 f2 3f ba 70 c2 3f 22 4a e4 3f
       3.1511793 1.8931785 1.5190651 1.7835124
000020 77 72 a9 3f 23 e8 3a 40 e6 6a d8 3f be 67 4b 40
       1.3238057 2.9204185 1.6907623 3.178207
000030 f6 c6 50 40 0e a5 10 40 34 1e f4 3f 31 04 ce 3f
       3.2621436 2.2600741 1.9071717 1.6095029
000040 4c 8a 44 40 3b 2d e6 3f 22 51 01 40 d0 e7 0a 40
       3.070941 1.7982553 2.020577 2.1703987
000050 86 c2 1c 40 9a ea fc 3f ff f7 0b 40 18 19 10 40
       2.4493728 1.9759095 2.1870115 2.2515316
000060 0a ca 26 40 2f b9 e7 3f b7 af 20 40 88 b3 09 40
       2.6060815 1.8103389 2.5107248 2.1515827
000070 d6 e0 02 40 7b 17 0f 40 2d 4c db 3f 2d ba 01 40
       2.044973 2.2358081 1.7132622 2.0269883
000080 41 8b 1b 40 a0 19 f0 3f 83 2e 52 40 26 0e f8 3f
       2.4303744 1.875782 3.2840889 1.9379318
000090 8e 4a 80 40 50 8d ea 3f b8 ee f9 3f 17 7b 4e 40
       4.009101 1.8324375 1.9525976 3.2262628
0000a0 b4 d6 18 40 d6 0a 49 40 43 34 d5 3f 78 84 10 40
       2.3881044 3.1412864 1.6656574 2.2580853
0000b0 be 76 a8 3f bf 6a fd 3f 5f 1e f5 3f 75 d0 e3 3f
       1.3161237 1.9798201 1.9149894 1.7797991
0000c0 dc 0e e3 3f 9e d3 09 40 99 fc db 3f f9 58 e6 3f
       1.773891 2.153541 1.7186462 1.7995902
0000d0 c2 5f 5c 40 c4 64 4a 40 24 de de 3f d6 4d 1a 40
       3.4433446 3.1624002 1.7411542 2.4110007
0000e0 dc 03 30 40 95 3c 34 40 e6 3e da 3f 04 2c 29 40
       2.7502356 2.8161976 1.7050445 2.6433115
0000f0 ba 59 19 40 4d 55 03 40 4b 14 01 40 3f 1b 3a 40
       2.3961015 2.0520813 2.0168636 2.907913

weight f4 [64, 64, 3, 3]
000000 c1 1f 0a bd e9 57 4a 3c 34 aa c1 3c 4e d7 91 3d
       -0.03372169 0.012350061 0.02364073 0.07121144
000010 f3 9b 2e bd 85 58 68 bd fc 49 e2 3c 9e 1e 47 bd
       -0.042629194 -0.056725044 0.02762317 -0.048613183
000020 66 ef f2 bd 89 35 99 bd a2 eb 4e 3c f4 ea 06 3e
       -0.11862068 -0.07480914 0.012629421 0.13175565
000030 df d3 f8 bb 61 78 09 bd 2f 91 10 be 06 bd b9 bb
       -0.0075936164 -0.033562068 -0.14117883 -0.0056682853
000040 42 e4 0b 3c d9 38 a5 bc c7 db 43 bc 8a 58 07 3d
       0.008538308 -0.020168709 -0.0119542545 0.03304342
000050 3f c7 4a 3c 7d d5 22 3d 32 22 62 bd 27 78 11 3c
       0.0123766055 0.03975438 -0.055208392 0.008878744
000060 3c 96 95 bc 48 1c ec 3c f9 a6 82 bd ca cf 44 3d
       -0.018260114 0.02882208 -0.06379504 0.048049726
000070 47 c3 8a 3d 36 dd 3e bb ca 43 3f 3d df a3 14 bd
       0.067755274 -0.0029123551 0.046695508 -0.036289092
000080 dd ad d9 3d 51 fb 1c 3d a5 a6 ad bd d4 31 d4 3b
       0.10628865 0.03832561 -0.084790505 0.0064756665
000090 18 65 cd 3c 27 01 02 3e 6c fd 6d bd b4 be 85 bd
       0.02507262 0.12695752 -0.05810301 -0.06530514
0000a0 b4 f2 f1 3d eb b8 9f bc 3f 7c 09 3d 83 11 94 bd
       0.1181387 -0.019497355 0.033565756 -0.072299026
0000b0 0e a0 2a 3d 34 1c 3e 3d 07 cf 2b bd 95 e9 b4 bc
       0.041656546 0.046413615 -0.041945484 -0.022084037
0000c0 ce 1e 57 3d cb 5c 6d 3d a0 b0 96 3c c9 b2 4e bc
       0.052519612 0.057949822 0.018394768 -0.012615868
0000d0 c6 db 10 bd 8c 87 bd bd 7e 36 bf bc 9c ba 90 3c
       -0.035365842 -0.09254369 -0.023341414 0.017667107
0000e0 91 db 67 3b 63 f8 f7 bc 3b 3f 7a bd 1d 01 43 bd
       0.0035378675 -0.030269807 -0.061095458 -0.047608484
0000f0 18 94 57 3c ca 97 76 3d 1c 59 a0 3d be 71 22 bb
       0.013157867 0.06020335 0.07829496 -0.0024787034
000100 37 de ab 3c fd e3 80 bd 65 b1 56 bd b5 63 ba 3d
       0.020979984 -0.06293485 -0.05241527 0.09101049
000110 f1 85 65 3c ca ad 77 bd 04 9d 3e bd e8 b2 0c 3d
       0.014008985 -0.060468473 -0.04653646 0.034350306
000120 55 b3 ce bc 99 9b 6e bd eb 1a 2a 3d 16 6e 3f bd
       -0.025231997 -0.05825386 0.041529577 -0.046735846
000130 b8 27 82 bc 96 69 52 3b 78 8b d7 3c bc a6 95 3c
       -0.01588808 0.003210639 0.026311621 0.018267982
000140 59 48 de 3c 9d 61 07 be 71 0f 92 bb 5c 54 43 bc
       0.027134107 -0.1322083 -0.004457407 -0.011921968
000150 c5 90 3f bd 5a 08 8a 3d e4 77 b1 bc 5e a8 e6 bc
       -0.046768922 0.06739874 -0.021663614 -0.028156456
000160 46 f4 95 bd 05 2b 97 ba bb 81 dd bc c2 05 b0 bd
       -0.07321982 -0.0011533207 -0.0270394 -0.08594848
000170 61 d6 3c 3d 05 dd 9b bd 93 46 4b bd 7f 80 9a bc
       0.046102885 -0.076105155 -0.04962785 -0.0188601
000180 05 8b d0 3d e8 5d 9c bd 88 75 0f ba b0 e0 c4 bc
       0.10182766 -0.07635099 -0.00054725306 -0.02403292
000190 17 8e 0e 3e b0 03 a5 3d 77 94 87 bd 3c 0c 80 3d
       0.1392139 0.08057344 -0.06620114 0.062523335
0001a0 31 b0 8b bd 91 37 cb 3c 54 95 ca bd 5b da 77 bd
       -0.06820715 0.02480677 -0.09891763 -0.060510974
0001b0 e2 ba 6c bd 85 bc 93 3d ea 9c 66 3c 97 d0 62 3d
       -0.057795413 0.072136916 0.014075497 0.055374708
0001c0 3e 29 b7 bd ff ee bc 3d 53 2d c2 3c 13 50 67 3d
       -0.08943413 0.092252724 0.023703253 0.05647285
0001d0 e0 54 f5 bc 20 25 82 3d 77 99 39 3d 9c 9a 08 bd
       -0.029947698 0.06354737 0.04531237 -0.033350572
0001e0 ba e4 c1 bd 59 87 e9 bd b0 f4 05 be 79 eb 22 bc
       -0.09467454 -0.11402769 -0.13081622 -0.009943836
0001f0 e3 a0 53 bd 4b 3b fd bc a6 17 4b 3d ed 64 18 3d
       -0.051667105 -0.030912062 0.0495831 0.037205625
000200 a1 52 54 bd 86 0e 0e 3d 27 f9 a0 bb 50 71 9a bc
       -0.051836614 0.03468182 -0.004912514 -0.01885286
000210 fc 27 9b bd 4e 1b 91 bd b3 0a aa bd 8c 1a 52 bc
       -0.07575986 -0.07085286 -0.08302822 -0.012823712
000220 9a e8 90 3d 8c d0 00 bd 51 57 14 3d 4b cd f9 bc
       0.07075615 -0.031448886 0.036216084 -0.0304934
000230 c8 19 8c 3c df a7 32 bc 47 fd 0e bc 96 27 b7 3c
       0.017102137 -0.010904281 -0.008727378 0.022357743
000240 40 92 64 bd 96 78 33 bd fb 56 1c 3d 31 bf 40 bd
       -0.055803537 -0.04381617 0.03816889 -0.047057334
000250 1f 67 1e be 64 db 12 bd 85 c5 53 3d 4f 04 7d bd
       -0.15469025 -0.03585376 0.05170204 -0.061771687
000260 78 d7 2b bd 02 df 8a bd 0d ce e6 3c 87 d2 6d bd
       -0.041953534 -0.067808166 0.028174425 -0.058062103
000270 c3 ca b7 3c b2 45 04 bd d9 18 22 bd 5c 80 59 3a
       0.022435552 -0.03229303 -0.039574478 0.000829702
000280 8f a1 e0 bc 56 aa 1d 3d 69 56 b4 3d 45 30 c1 3c
       -0.027420787 0.038492523 0.08805544 0.023582587
000290 b5 e3 01 3d 2b 0a 32 bd 2e 45 d4 bd 84 fe a6 bc
       0.0317113 -0.04346673 -0.103647575 -0.020385034
0002a0 08 2f b8 bc 1d 03 5a bd c6 a4 c1 bd cb 98 91 bc
       -0.022483364 -0.053225625 -0.09455256 -0.017773053
0002b0 13 2e e7 3d bc 4b 40 3d 78 f8 9a 3d a4 d4 97 bc
       0.11288085 0.046947226 0.07566923 -0.018534012
0002c0 e6 f8 0a bd 76 90 41 3d 25 04 21 bd 4a 3d 59 bd
       -0.033928774 0.04725691 -0.039310593 -0.053036965
0002d0 58 36 43 3d 30 19 d6 bd 81 da a8 3d 45 ba b9 bc
       0.047659248 -0.10454023 0.08244801 -0.022671828
0002e0 f8 e7 f8 3c a7 5b 07 bd 30 2e 6a bd d7 39 42 bd
       0.030384049 -0.03304639 -0.057172954 -0.04741844
0002f0 72 7f a0 3c b2 19 93 bd 72 a6 69 bd db 03 bb 3d
       0.01959202 -0.07182635 -0.0570435 0.09131595
000300 cb 1c d3 bc c2 9a 17 3c f9 84 c8 3d 49 d8 8a 3d
       -0.025770565 0.009253206 0.097909875 0.06779534
000310 84 8b 07 3e 77 2b 45 3d 72 bd 0d 3e a2 c9 a7 3c
       0.13236815 0.048137154 0.13841799 0.020481888
000320 89 e9 22 3d 45 b1 21 bd 9f f5 71 3d 04 e4 a4 bd
       0.039773498 -0.039475698 0.059072133 -0.08051303
000330 59 73 e1 3c c2 3a c8 bc 87 60 69 bb 56 68 68 3b
       0.027520822 -0.02444208 -0.0035610513 0.003546258
000340 47 d3 92 3d a6 35 9b 3d a0 37 6a bc 54 79 f7 bc
       0.07169204 0.07578592 -0.014295489 -0.030209221
000350 1e 9d 01 3e 6c e7 9a bd 13 62 ea 3b 5e d5 9d bd
       0.12657592 -0.075636715 0.0071528046 -0.07706712
000360 bc 25 5e bd c1 cd e8 bd 58 5e d3 bc 8d 8f b6 3c
       -0.054235205 -0.113673694 -0.025801823 0.022285247
000370 6e ef fa bd af 89 22 3d 2d 28 0d bd c0 dc da bc
       -0.12252699 0.039682087 -0.034462143 -0.02671659
000380 0b 58 26 3d ba fa 94 bd bc e7 46 3d ac a7 f4 bc
       0.040611308 -0.07274385 0.048560843 -0.029865108
000390 a9 60 40 bd 26 9b d7 3d 85 6e b7 bc 67 8e 47 bd
       -0.046967182 0.10527639 -0.022391567 -0.04871979
0003a0 4e b6 a8 3d c6 8d 0f bd 96 2f 44 bc b1 4a 89 bc
       0.08237897 -0.035047315 -0.011974236 -0.016759248
0003b0 57 e8 33 3d 91 ce 4c bd 97 50 e6 3b a5 33 02 3d
       0.04392275 -0.050001685 0.00702865 0.031787533
0003c0 9e d2 f8 3c 95 76 9c bd 5c 19 11 bd 78 31 ba 3c
       0.030373868 -0.07639805 -0.035424575 0.022728667
0003d0 32 6e b8 bd fb 8d 99 3c 7a f5 f3 bc 12 1a 5b bb
       -0.09005393 0.01874446 -0.029780138 -0.0033432287
0003e0 5c 45 00 3d 82 20 24 3e e1 4f 23 be 70 60 03 bc
       0.031316146 0.16028026 -0.1594844 -0.008018598
0003f0 b3 c0 83 3d b3 24 20 bd 23 4e c2 3d 72 8f 25 bd
       0.06433239 -0.0390975 0.0948756 -0.040420003
