experiments/model_repositories/uav/wildfire_detection/model_files/block_02.pth (torch, 11971 bytes, 5 tensors)

weight f4 [16, 32, 1, 1]
-0.009623415 0.061594747 -0.06425758 0.16909538 -0.010542351 0.7101132 0.21357219 -0.02736136
-0.037983354 0.005135741 -0.0069357995 0.20314687 0.06294183 -0.10438657 -0.0017293954 -0.00451087
-0.003967529 0.0021560732 0.43994018 -0.32424602 -0.18781784 -0.007555522 -0.08204313 -0.0047136913
0.15143527 0.23776865 0.06843919 0.025173677 0.025978042 0.072394826 0.25707716 0.19275008
0.01672545 0.033713445 -0.56138974 -0.10032132 0.11700513 -0.014367677 -0.057018258 0.081896655
0.09126616 -0.00012931622 0.13483047 -0.0143013485 -0.10351186 0.19618827 0.0009899732 0.001555062
0.003419553 -0.0019114594 0.12308016 0.40560907 0.20459878 -0.03584749 -0.11884109 0.00025449606
-0.1261254 0.07654581 -0.20276664 0.3276606 -0.12405008 -0.03638924 0.23212889 -0.095730886
-0.01104488 0.55841494 0.10887245 0.40901616 -0.25673527 -0.18170205 -0.2535635 0.06324395
-0.17040305 -0.0011511833 0.0024226527 0.33700326 0.060554046 -0.049725827 0.003529667 0.005470708
0.008661931 0.0039692298 0.058879863 0.05170871 0.015054598 0.5379679 0.06527609 -0.0003302498
-0.001278907 -0.33978322 -0.04166211 0.48269212 0.076441176 0.015877249 -0.12919642 -0.006229287
0.034897108 -0.05435714 -0.12550156 0.11725393 0.515295 -0.48133802 0.050742656 0.11787955
-0.24569143 -0.00075179245 0.008743824 -0.45255238 0.25518286 0.30560723 0.002709231 0.0018091183
0.00557728 0.010227948 -0.0765193 -0.36215708 -0.29312706 0.39168534 -0.0903988 0.0016078689
-0.15454254 -0.012784199 -0.3723141 -0.42277318 -0.27925977 0.30225945 -0.0069816806 -0.050478492
-0.020114088 -0.3191299 0.25305268 -0.016529512 0.23471677 -0.60789657 0.073365524 -0.26056185
0.15203021 -0.0075974525 0.13304661 -0.022727607 -0.21955132 -0.03832885 -0.0048615937 0.007907399
-0.003272102 0.00029389648 0.38519356 0.1193974 -0.1683299 0.3016722 -0.19657812 -0.0018208052
0.05483633 0.12918681 0.19423486 0.018395305 0.0567524 -0.04221125 0.40870783 0.3406832
-0.0008629168 -0.22785617 -0.035382908 -0.54877496 -0.3341654 -0.211555 0.38936183 0.43410134
0.40722504 0.002521884 0.049614344 0.45862165 -0.033579808 0.06116025 -0.00023011168 0.003467066
-0.009220387 -0.002403261 -0.011455428 -0.037504613 -0.13878682 0.38572407 -0.070247635 -0.0045183874
0.11111348 0.12855725 -0.12324057 0.25628272 0.015169115 0.067564204 -0.5443133 -0.04936925
0.00012714353 0.41827735 -0.146288 -0.38934508 -0.39542714 0.01920462 0.046351995 -0.82593846
0.17507093 0.0016582905 -0.06211635 0.20220928 -0.1244383 0.16817698 0.00015875355 -0.0026867455
0.007183692 0.005850012 -0.27796304 0.0070918268 0.0017052019 0.35010102 0.12749493 -0.0049405913
0.10833033 0.19004638 -0.25785062 0.04217551 0.08093925 0.2062801 0.17811528 0.19683184
-0.04422096 0.0736504 0.17854361 -0.035669506 0.45250842 0.5065331 -0.2031943 0.18808971
-0.11851147 -0.002463281 0.15807666 -0.53942925 -0.21643974 -0.0028669308 0.00057982956 0.0005129592
0.00050400675 -0.0002285629 -0.14211431 0.35557604 -0.14507227 0.5195956 -0.18585283 -0.0038182735
0.269282 0.045046847 0.05894712 0.26254237 0.3629508 0.09294947 -0.15289767 -0.1513811
00000000: 87ab 1dbc c64a 7c3d 7a99 83bd 5727 2d3e
00000010: d3b9 2cbc fbc9 353f abb2 5a3e ee24 e0bc
00000020: 6f94 1bbd b849 a83b b445 e3bb bc05 503e
00000030: a5e7 803d a0c8 d5bd e1ac e2ba eccf 93bb
00000040: 0c02 82bb e84c 0d3b d73f e13e 9303 a6be
00000050: 5253 40be 5094 f7bb 3b06 a8bd 4f75 9abb
00000060: d911 1b3e a079 733e d929 8c3d 0739 ce3c
00000070: e7cf d43c bd43 943d 9e9f 833e 4760 453e
00000080: d003 893c 1c17 0a3d 3db7 0fbf 4475 cdbd
00000090: 63a0 ef3d 6866 6bbc fa8b 69bd 6fb9 a73d
000000a0: c1e9 ba3d 0f99 07b9 0011 0a3e 3450 6abc
000000b0: 07fe d3bd 94e5 483e fdc1 813a 39d3 cb3a
000000c0: 941a 603b ef89 faba 7311 fc3d feab cf3e
000000d0: 5882 513e d1d4 12bd f562 f3bd e26d 8539
000000e0: 0427 01be 0dc4 9c3d 0fa2 4fbe 21c3 a73e
000000f0: f80d febd e20c 15bd 32b3 6d3e 8e0e c4bd
00000100: 96f5 34bc 48f4 0e3f 85f8 de3d 916a d13e
00000110: ce72 83be 1a10 3abe 13d3 81be 0b86 813d
00000120: 237e 2ebe 4de3 96ba 5ec5 1e3b b18b ac3e
00000130: 8507 783d 4fad 4bbd fc51 673b a043 b33b
00000140: c6ea 0d3c 5010 823b 032c 713d 83cc 533d
00000150: 90a7 763c 44b8 093f 78af 853d 6125 adb9
00000160: ffa0 a7ba 11f8 adbe e3a5 2abd 6c23 f73e
00000170: 318d 9c3d 0111 823c 114c 04be 0c1f ccbb
00000180: 45f0 0e3d 98a5 5ebd 7b83 00be d422 f03d
00000190: 60ea 033f f071 f6be 88d7 4f3d d56a f13d
000001a0: 8996 7bbe f013 45ba 4242 0f3c f2b4 e7be
000001b0: 54a7 823e 8d78 9c3e 5b8d 313b f01f ed3a
000001c0: 9ec1 b63b 2093 273c 27b6 9cbd a76c b9be
000001d0: c014 96be fb8a c83e 0223 b9bd 21bf d23a
000001e0: 6640 1ebe d174 51bc f49f bebe ba75 d8be
000001f0: 23fb 8ebe c0c1 9a3e 95c6 e4bb 89c2 4ebd
00000200: 4dc6 a4bc ff64 a3be 1f90 813e e668 87bc
00000210: 9859 703e 1c9f 1bbf aa40 963d 5d68 85be
00000220: cfad 1b3e 0df4 f8bb 5f3d 083e 3f2f babc
00000230: 10d2 60be b6fe 1cbd 014e 9fbb 098e 013c
00000240: c370 56bb 1e16 9a39 1738 c53e a086 f43d
00000250: ac5e 2cbe c774 9a3e c64b 49be 16a8 eeba
00000260: 0f9c 603d 8c49 043e 81e5 463e c0b1 963c
00000270: 3475 683d b4e5 2cbd 2742 d13e 076e ae3e
00000280: 5e35 62ba 2153 69be abed 10bd 847c 0cbf
00000290: ba17 abbe e0a1 58be 6f5a c73e 8842 de3e
000002a0: cd7f d03e 3146 253b 6938 4b3d 75d0 ea3e
000002b0: fb8a 09bd 2c83 7a3d 224a 71b9 b737 633b
000002c0: 1b11 17bc 0780 1dbb 8caf 3bbc 709e 19bd
000002d0: 221e 0ebe a07d c53e fedd 8fbd fb0e 94bb
000002e0: 778f e33d 83a4 033e 8d65 fcbd 7d37 833e
000002f0: e187 783c 1a5f 8a3d 1e58 0bbf 6937 4abd
00000300: d551 0539 7328 d63e 85cc 15be 3d58 c7be
00000310: 6d75 cabe 0253 9d3c 97db 3d3d b470 53bf
00000320: cb45 333e ff5a d93a b76d 7ebd f30f 4f3e
00000330: 82d9 febd 9636 2c3e 1577 2639 1c14 30bb
00000340: 2d65 eb3b 75b1 bf3b 2c51 8ebe 8e62 e83b
00000350: 1581 df3a 7140 b33e 088e 023e afe4 a1bb
00000360: 4bdc dd3d 859b 423e ff04 84be 3ac0 2c3d
00000370: 7ac3 a53d 173b 533e da63 363e 498e 493e
00000380: 0a21 35bd 05d6 963d 23d4 363e 301a 12bd
00000390: 2faf e73e 27ac 013f 2b12 50be 979a 403e
000003a0: 24b6 f2bd ff6e 21bb d9de 213e 0918 0abf
000003b0: 61a2 5dbe 1ee3 3bbb b4ff 173a 1c78 063a
000003c0: 521f 043a 63aa 6fb9 6a86 11be 100e b63e
000003d0: d38d 14be 3804 053f 3450 3ebe 003c 7abb
000003e0: 55df 893e 0b83 383d 8972 713d f46b 863e
000003f0: b0d4 b93e 4b5c be3d 3591 1cbe a603 1bbe

weight f4 [16]
0.4741173 0.5326096 0.5890189 0.47148633 0.58450145 0.60966045 0.5755001 0.5562485
0.45997944 0.51179475 0.4492906 0.5502006 0.6674465 0.57773036 0.665871 0.52042645
00000000: 81bf f23e 1a59 083f f1c9 163f a866 f13e
00000010: e3a1 153f b512 1c3f f953 133f 4d66 0e3f
00000020: 6d82 eb3e fb04 033f 6b09 e63e f2d9 0c3f
00000030: c6dd 2a3f 23e6 133f 8676 2a3f ab3a 053f

bias f4 [16]
-7.5779008e-06 1.0644022e-05 -7.696353e-06 1.4603562e-05 -6.4177366e-06 -4.1249223e-06 -1.5599348e-05 -3.7699103e-06
-1.028406e-05 5.207944e-06 -2.161844e-06 9.588487e-06 1.433353e-05 -1.1699192e-05 -3.911777e-06 -1.054207e-05
00000000: ac45 feb6 ba93 3237 961f 01b7 d201 7537
00000010: f057 d7b6 d068 8ab6 58db 82b7 91fe 7cb6
00000020: b489 2cb7 e6bf ae36 3214 11b6 3dde 2037
00000030: 0b7a 7037 a647 44b7 e941 83b6 d9dd 30b7

running_mean f4 [16]
1.8760141 -0.30388322 0.9084955 -1.0262002 0.19751412 0.4069348 0.6218601 1.4320328
0.5113316 1.5486406 -1.8575268 0.34746557 0.5743917 0.14659633 -1.4294627 -1.1361532
00000000: 3b21 f03f 9596 9bbe 2993 683f 875a 83bf
00000010: 2441 4a3e c259 d03e 3932 1f3f da4c b73f
00000020: a1e6 023f db39 c63f 70c3 edbf 02e7 b13e
00000030: 560b 133f 591d 163e a2f8 b6bf 786d 91bf

running_var f4 [16]
0.20608348 0.12379263 0.17417467 0.16312595 0.14412916 0.2883414 0.433645 0.19131987
0.100826725 0.25361085 0.19018057 0.19339073 0.30425724 0.3300684 0.314547 0.18061708
00000000: 8c07 533e fe86 fd3d d85a 323e 7d0a 273e
00000010: 9896 133e 7ca1 933e b806 de3e 5be9 433e
00000020: 3e7e ce3d 48d9 813e b2be 423e 3808 463e
00000030: 9bc7 9b3e bafe a83e 4e0c a13e aff3 383e
