experiments/model_repositories/uav/wildfire_detection/model_files/block_23.pth (torch, 242425 bytes, 5 tensors)

weight f4 [576, 96, 1, 1]
00000000: 04c7 033d f1ca 673d e280 3bbd c545 12be
00000010: e3b2 98bc 714c 0b3d a19c 893d b84f 8e3d
00000020: e353 153a 8694 aabd b34b 063c b490 173e
00000030: 237f cdbd 57d3 c43c 1af2 91bd f559 4f3b
00000040: ef72 8abd e02f bd3d cd4b 7bbc 8deb 54bd
00000050: 0978 1bbd f59d 93bd 8f28 bc3d 31d2 4abc
00000060: 8f73 d23d 4d3b afbd 1b5b 053d 0083 a13c
00000070: e30e 5a3d bb07 a6bc fb42 b53b 234e 9a3c
00000080: 88c8 093b 6c13 00bd a6aa 1dbc 15bb 223d
00000090: b9e1 cbba 94e9 44bd 33f4 413c 2f83 293c
000000a0: ca75 86bd 9fce 133d dda0 15bd e6c2 963b
000000b0: 0e91 2c3b 1852 74bc 8442 cabd ec17 e73b
000000c0: 4b03 373b 5f4c 95bd b2a4 9cbd 7b8f a13c
000000d0: 86c1 fdbb b4dd b5bd 794a 233d d2da 8d3c
000000e0: ac22 94bc 82de c23c 4ac6 7cbd 4331 cd3d
000000f0: 6473 a4bc 5246 873d d514 d7bc 2b1d 323c
00000100: 6ccc a4bc c8ec d73d d5e7 af3d d688 a23d
00000110: 62a6 7dbd 9e88 55bb 6c88 583d c636 14be
00000120: bfa9 b3bc e3df 82bd 27fe 163d f13b b93d
00000130: a2c2 a6bd 7ab3 e33c f431 b13d 757b df3d
00000140: 6956 993b 1549 643b d64a aebb c474 8e3d
00000150: f72d 02bd a46c cabd 3981 493d bf63 b43d
00000160: 9255 30bd 7957 e5bb c45f 59bd e08c 183b
00000170: e648 43bd a20f 643d 6736 9ebc 5129 e1bc
00000180: 6980 dfbc 5004 e33d 7fd2 473c 30c2 a7bd
00000190: 8fa8 333d 195d 0b3d 93f2 cb3d 6f8f b93d
000001a0: dcd9 9e3d cc0c 70bd 8223 cdbd 0410 173b
000001b0: d38d 763d 7547 7e3d 26a2 5ebc dfda b9bd
000001c0: 31b3 9c3d fc74 083e 6bc8 cebc 6ccc c03d
000001d0: d119 0fbd 40a3 b13c 625f 31bc 3830 9b3c
000001e0: 17fe 073d a77c 1bbd 3a0d d7bc 4206 6b3c
000001f0: 8d56 d0bc 8161 8b3d 4b6e 59bc 8738 483c
00000200: d871 b83c 15dc 80bd 6f5d 3bbb b1f2 3f3d
00000210: 2059 07bd 14db 0abd aff9 37bd 3a32 f23c
00000220: e77d 05bd 1790 373d 329b 9cbd 0e10 41be
00000230: 1ef3 143d 6f5f 5c3c 3b9a c93c 5a3d de3d
00000240: 3887 af3c 61a4 ddbd 2504 3b3c 93e3 cd3b
00000250: 4921 35be b379 b93c 193a 853b 637e ddbc
00000260: abb8 493c 1b4d 8fbe 6975 e1bc 183c d83b
00000270: 5990 81bd 3ef4 51bd 0f6a 9f3d 6390 b9bd
00000280: 66c3 ccbb 6b77 a8bd 6372 843d 376d 44bd
00000290: 6ed0 2a3d afc5 aa3b 40af e2bb 3d42 43bd
000002a0: f4b0 a4bc e59b e9b7 91ad b5bc fa16 f03c
000002b0: 592c 82bd 2382 883d 7e25 35be abad 77bc
000002c0: 722c 643d 59fb 4dbd 59a2 9f3c 3038 10bd
000002d0: f1d2 e43b 2e98 573d 906b 03bd 83e8 1cbc
000002e0: b8d7 e9bb 10e8 9c3d 6b49 1fbd 7887 3a3d
000002f0: 3fa6 a43b fa48 6c3d 5fde 0d3d b992 203d
00000300: e237 a13d 75b4 0b3d 2be6 aa3d f730 d83c
00000310: f1e1 693b 9b70 c53d bc9d b63d c59b 55bd
00000320: 7961 9fbd abe8 06bc 4c05 b03c 876f 3abd
00000330: be08 513c 0e41 ce3c f747 853d 8470 34bd
00000340: 2e4b 433b 693a 13be 916d 4dbd a8e1 1e3e
00000350: 7150 cd3d 5c1f 2b3d 20d2 6ebc d153 003e
00000360: de45 613d 27aa d03d fa0b 013e f10a 3bbd
00000370: 5e35 f4bd 599d 80b9 751e 823d 46d0 f0bd
00000380: 6e83 543e 3f73 d839 d99d dbbc 9396 24be
00000390: 9df7 b1bc df77 063e 87c8 1ebd 1840 813b
000003a0: d67f 9d3c a438 fe3c ac15 ea3d 84fa 9abd
000003b0: a905 133d 9606 bdbd 5d8c 64bd 1dd6 9bbd
000003c0: 5b80 6a3c a1d5 a4bc 4978 ff3c dbdf 9a3d
000003d0: 5c96 cf3d 9ead 09bd 3565 d13d 5fa3 1a3d
000003e0: 7796 80bd bf71 0bbe 1604 523e 5672 cb3b
000003f0: 191a d13b bb2c 10bd c92b 123c 62d7 29bd
0.032172218 0.056590024 -0.04577721 -0.14284427 -0.018639987 0.034008447 0.06719328 0.06948799
0.0005696399 -0.0832911 0.008196759 0.14801294 -0.10034015 0.024026556 -0.07126255 0.0031639312
-0.06760203 0.09237647 -0.0153378965 -0.05198245 -0.03795627 -0.07207862 0.091874234 -0.012379215
0.10275947 -0.085562326 0.032557588 0.019715786 0.053236853 -0.020267358 0.0055316663 0.018836087
0.0021024067 -0.031268522 -0.009623205 0.039729197 -0.0015554941 -0.04807432 0.011838007 0.010346218
-0.06565435 0.03608572 -0.036530364 0.0046008704 0.0026331577 -0.014912151 -0.09875968 0.0070524123
0.0027925547 -0.07289957 -0.07648601 0.019721737 -0.007744017 -0.08880177 0.039865945 0.017316256
-0.01808294 0.02378774 -0.06171254 0.100191616 -0.020074554 0.066052094 -0.02625505 0.010871212
-0.020117007 0.10543209 0.0858914 0.07936256 -0.061926253 -0.003258265 0.052864477 -0.1447402
-0.021931527 -0.06390359 0.036863472 0.09044636 -0.08142592 0.027795542 0.08652106 0.109122194
0.0046794903 0.00348336 -0.0053189797 0.06955865 -0.031782117 -0.09884003 0.049195502 0.088080876
-0.043050356 -0.006998953 -0.053069845 0.0023277327 -0.047676943 0.05567897 -0.01931305 -0.027485522
-0.02728291 0.11084807 0.012196182 -0.08191335 0.043861922 0.03402433 0.09958377 0.09060561
0.07756397 -0.058605954 -0.10016538 0.0023050318 0.060193848 0.062079865 -0.013588464 -0.090749495
0.076513655 0.13325876 -0.025242051 0.094139904 -0.03493673 0.021684289 -0.010825964 0.01894389
0.033201303 -0.037960675 -0.026251424 0.014344754 -0.025431896 0.06805707 -0.013270925 0.012220508
0.022515222 -0.06291977 -0.0028589626 0.046862308 -0.03304398 -0.033900335 -0.04491585 0.029564966
-0.032590773 0.04481515 -0.07646789 -0.1885378 0.036364667 0.0134504875 0.024609676 0.10851546
0.021426782 -0.108223684 0.011414562 0.0062832325 -0.17688479 0.022641039 0.0040657637 -0.027037805
0.012312095 -0.27988514 -0.027521806 0.0065989606 -0.0632636 -0.051258318 0.07783901 -0.09060743
-0.0062488792 -0.08225902 0.0646713 -0.047955718 0.04170268 0.005211554 -0.006917864 -0.04767059
-0.02010391 -2.7848359e-05 -0.02217749 0.029307831 -0.06356115 0.066654466 -0.17690083 -0.015117089
0.05570645 -0.050288532 0.019486593 -0.035209835 0.006983154 0.052635364 -0.032085 -0.0095769195
-0.0071363114 0.0766145 -0.038888376 0.04553935 0.005024701 0.057686783 0.034635898 0.039202426
0.07871987 0.034107644 0.08344682 0.026390536 0.003568765 0.096406184 0.08916804 -0.052150507
-0.07782263 -0.008234183 0.0214869 -0.045516517 0.012758432 0.025177505 0.06507867 -0.044052616
0.002979945 -0.1437775 -0.05015332 0.15515769 0.100251086 0.041777954 -0.014576465 0.12531973
0.05499827 0.10188704 0.12602225 -0.04566473 -0.119242415 -0.00024531296 0.063534655 -0.11758475
0.20753261 0.00041284595 -0.026808666 -0.16073065 -0.021724517 0.13131665 -0.038765457 0.003944408
0.019225996 0.031032868 0.11429915 -0.07567313 0.03589407 -0.09229772 -0.055797923 -0.07609198
0.014312829 -0.020121397 0.031185286 0.07562228 0.10136101 -0.03361284 0.10224382 0.03775346
-0.06278699 -0.1361761 0.20509371 0.0062086983 0.006381285 -0.03519891 0.008921572 -0.04146517

weight f4 [576]
00000000: fefa f23d e56a 3e3e 057b 7f3e f91f 5a3e
00000010: 21b2 443e bfaf 003e 06b8 1f3e dd89 6b3e
00000020: bb97 3a3e b43f 5d3e 23cc 5b3e 8bd5 233e
00000030: 7bfd 4f3e 605f 0f3e dec5 403e 4bab 2c3e
00000040: 7e51 ba3d 4e92 1d3e 360e 3d3e ce1f 623e
00000050: 7eac 3e3e ab35 683e a330 523e fe54 4a3e
00000060: 9e65 0c3e 903b 773d 8ca0 1b3e 6164 1e3e
00000070: c463 3c3e c3e6 5e3e 6771 2e3e 539c 263e
00000080: f212 3f3e b1ab 4c3e fc18 693e 38fb 313e
00000090: 1e99 2a3e 2acb 3f3e 48c5 623e 430d 343e
000000a0: bb9a 933d c003 373e 8b79 493e f532 4c3e
000000b0: 4e1c 2f3e 061b 3c3e 4c44 3b3e 6363 073e
000000c0: 7a9f 463e 9c89 2f3e 6552 4b3e e2c5 5e3e
000000d0: a61f 3a3e cee1 1a3e 83e7 373e 23b3 443e
000000e0: be62 233e 93cf 403e 075b 393e 090a 403e
000000f0: 560f 413e 7a6a 383e 6042 293e c9fc 1a3e
00000100: 6fc1 1a3e 4d08 363e e317 463e 18d1 2c3e
00000110: 198e 193e 7985 253e 06ff 1d3e 29dc 593e
00000120: 2efd 443e c551 153e 984e 653e c2c7 553e
00000130: 07c7 3f3e ef28 583e 5c32 b33d 1993 dc3d
00000140: 309e 3c3e 84f3 9e3d 0a8f 463e 7e0e 443e
00000150: 3326 283e a84b 1f3e c95d 253e 2c7a 5c3e
00000160: a770 1b3e 425f 303e 15b9 223e 6024 4e3e
00000170: 9609 763e 431e 3d3e 3e06 353e 25a5 4a3e
00000180: cc4b f13d a880 b83d 6b89 3a3e 7537 323e
00000190: 4a1e 7c3e 227d 6b3e 7849 4e3e 19c2 7a3e
000001a0: 6014 6d3e 6fa1 543e 2b02 4e3e 30d0 543e
000001b0: 3370 613e 3df7 413e 64ca 423e cc6f 733e
000001c0: 6fa7 693e d1ff b23d da9e 2b3e 2b8b 3e3e
000001d0: 4dc1 383e 099f 3f3e 0c13 623e 6bdb 873e
000001e0: dfa1 473e c6ca 593d 2dac 6a3e 161f 073e
000001f0: a441 3a3e 8fce 143e f195 513e 3f55 1d3e
00000200: 50f6 2f3e 10b1 d13d d5cb 0d3e d75f 4c3e
00000210: fea6 513e a1ef 403e 024c 823d bf75 753d
00000220: 0abf 413e a8ac 363e 2163 463e 2fd4 283e
00000230: a177 593e 66ca 5f3e 768c ec3d 4216 4c3e
00000240: e614 153e 0ceb 4b3e 9787 293e c2e9 a33d
00000250: 83a6 453e 86db 243e 84ab 3c3e 90cf 1d3e
00000260: 54a0 5e3e be41 523e b5e6 7c3e 5eb9 193e
00000270: 51b5 4d3e ddba 6a3e 8da2 263e aace 453e
00000280: 676a 423e 8126 403e 7ed7 3a3e c8c9 143e
00000290: 07f9 433e 0c2c 4f3e f4c6 143e 1a12 0d3e
000002a0: 2015 503e 5ebd 693e 3f1b 343e e08b 8b3e
000002b0: 27e2 1b3e e75c 353e 7037 203e 42b3 1c3e
000002c0: 6bcf 443e 18ba 243e 8cd7 323e a524 423e
000002d0: 41ca 883d 34a0 db3d 4061 383e d25b 483e
000002e0: 48de 2f3e 6378 383e 4972 493e 0bcc 2c3e
000002f0: 73fa 873e dbca 2a3e 93df 2b3e 49fa d33d
00000300: 26aa 063e 9c24 0a3e 9a58 4e3e 87a1 0f3e
00000310: e6be 2f3e f959 e63d 5327 c23d 2ce3 263e
00000320: ca40 3b3e 365e 6b3e 5334 3b3e 5ba6 703e
00000330: ff45 683e bbdf 0d3e 6056 463e c043 273e
00000340: ee36 493e d0e4 273e dc17 553e e7e0 4f3e
00000350: b774 0e3e d894 7c3d 33cf 5c3e fc44 063e
00000360: b42a 303e 5134 493e dcf2 383e 5536 833e
00000370: 73fc ea3d 2abd 193e adc0 543e 321b 553e
00000380: 0075 5e3e 22e5 663d fefe 4d3e 70c6 453e
00000390: f499 603e 3e25 163e 7ebe 643e 474a 263e
000003a0: f564 413e 9660 8b3e 4675 273e 2223 133e
000003b0: 0676 5a3e 7451 363e 108d 6e3d 50e3 213e
000003c0: e468 303e 98c6 403e 071e 373e 6a84 383e
000003d0: 51e3 223e 9747 373e 45b1 e03d f3f0 3c3e
000003e0: 0ea9 1e3e 5889 223e e47e be3d a696 233e
000003f0: af76 853e bb2e 333e 9ef3 5a3e 2c91 a73d
0.11864279 0.18595465 0.24949272 0.21301259 0.19208576 0.12567042 0.15597543 0.2300181
0.18221943 0.21606332 0.2146459 0.15999429 0.20311539 0.14001226 0.1882548 0.16862218
0.09097575 0.15387842 0.18462452 0.22082445 0.18620488 0.22676723 0.20526366 0.19758984
0.13710639 0.060359538 0.15197963 0.15467979 0.18397433 0.21767716 0.17035447 0.1627057
0.18659571 0.1998737 0.22763437 0.17380989 0.16659972 0.18729845 0.2214557 0.17583184
0.07207247 0.17872524 0.19675271 0.19941314 0.17100641 0.18369684 0.18287772 0.13221507
0.19396773 0.17142338 0.1985565 0.21755174 0.18176135 0.151252 0.17959408 0.1920896
0.15955636 0.18829183 0.1810113 0.18753828 0.18853506 0.18009368 0.16529226 0.15135492
0.15112852 0.17776604 0.1934505 0.16876638 0.14995612 0.16164197 0.15429315 0.2127539
0.19237205 0.14581974 0.22393262 0.20876983 0.18728267 0.21109365 0.0874984 0.10770244
0.18419719 0.07761291 0.19390503 0.19146153 0.16420822 0.15556204 0.16149057 0.2153098
0.15179692 0.17223838 0.15890916 0.20131063 0.24027094 0.18468575 0.17678162 0.1978956
0.11782035 0.09008914 0.18216483 0.17403968 0.2462093 0.22996953 0.20145214 0.24488105
0.23152304 0.20764707 0.20118015 0.20782542 0.22015457 0.1894197 0.19022518 0.23773116
0.22817777 0.08740199 0.16759816 0.18607776 0.18042488 0.18713011 0.22077578 0.2653459
0.19495343 0.053171895 0.22917242 0.13195452 0.18189102 0.14531921 0.20467354 0.1536455
0.17183805 0.1023885 0.13847287 0.19958435 0.20473859 0.18841411 0.063621536 0.059926745
0.18920532 0.178393 0.19373752 0.16487192 0.21237041 0.21854553 0.11550228 0.19930366
0.14558753 0.19913882 0.1655563 0.0800357 0.193018 0.16099367 0.18424803 0.1541121
0.21740848 0.20532891 0.24697383 0.15012118 0.20088698 0.22922845 0.16272946 0.19317117
0.18985902 0.18764688 0.18246266 0.14530098 0.19137965 0.20231646 0.1452902 0.13776436
0.20320559 0.22826144 0.17588519 0.27255154 0.15222989 0.1771122 0.15646148 0.15302756
0.19219749 0.16086614 0.17465037 0.18959291 0.06679202 0.10723916 0.18005848 0.19566277
0.17174637 0.18014674 0.19672503 0.16874711 0.26558265 0.16678946 0.16784506 0.103504725
0.13150844 0.13490528 0.20150986 0.14026462 0.17162666 0.1124763 0.09480157 0.16297597
0.18286434 0.22985157 0.18281679 0.2350096 0.22682951 0.13854878 0.19368887 0.16334438
0.1964986 0.16395879 0.20809883 0.20300637 0.1391171 0.061665386 0.21563415 0.13112253
0.1720379 0.19648863 0.18061393 0.2562739 0.11473932 0.15013567 0.20776625 0.20811155
0.2172432 0.05637086 0.20116803 0.19313979 0.21933728 0.14662644 0.22338292 0.16239272
0.18886168 0.27222127 0.1635333 0.14368871 0.21334085 0.1780451 0.058239996 0.15809369
0.17227513 0.18825758 0.17882548 0.18019262 0.15907027 0.17898403 0.109713115 0.1845129
0.15494177 0.15872705 0.09301546 0.15975437 0.2606711 0.17498295 0.21381995 0.08181986

bias f4 [576]
00000000: c9c3 d23d 5164 333b 7518 9fbe 3929 09be
00000010: a88c e1bd 92e6 4b3d b6a2 16be 9196 33be
00000020: fe50 2ebe 1792 3ebe c953 7fbe add8 6f3b
00000030: 916c 21be 7e5e 903c 638c d2bd da45 65be
00000040: c14c 143e 197d 203d 022a 3abe df04 63be
00000050: 9fd7 60bd 8d50 27be 5947 0ebc 88ac b0bd
00000060: 4929 033d 20cf 2f3e c62f 34be e5ba c23b
00000070: ab0d a4bd a5a3 1cbe 3eeb 88bc 5b04 883c
00000080: 4431 eebd 5938 80be 8e8e eabd 7e28 ea3c
00000090: aeed fabc 7c82 adbd ca8f e83c 853d 08bd
000000a0: 3ced 243e e1de 32be 55be 12be 6030 06be
000000b0: 3c46 a2bc 3240 20be 8b05 39be f429 1b3d
000000c0: 58fa 25be aeba 81be 0e5d 73bd 0521 ffbd
000000d0: cc3d 95bd 0a3e 3f3d ce9a 3ebd 542e 0abe
000000e0: 36a6 18be 3582 86bd 74af 17be 8f89 24be
000000f0: 02b3 1fbe bae0 02be aa78 f7bd afa7 13bc
00000100: 233f 383d 8ddb 99bd 857c f3bd 951d 8e3d
00000110: af1c 99bd 85ad 3abd 87e5 573c 05cf 5dbe
00000120: f706 f3bd 5bde 42bb 0385 1dbe e85a 26be
00000130: 943f 01bd 18de f2bc af94 963d 955c ae3d
00000140: 81f5 c3bd 673c 0b3e bfaa 39be 46b7 7bbe
00000150: 2efd 1dbe 37ae af3d 17b7 99bd 184c 2bbe
00000160: 9ab6 e8bd 9fd8 9abc 77f8 1bbe c723 4fbe
00000170: 32fd 2abe 8788 53be 15a9 60bd 4dac 15be
00000180: acb5 cd3d b4e4 4e3e 5949 0ebe 0c30 0f3e
00000190: a624 07be 049e 7abe 0bb7 5fbe 277c b8be
000001a0: 0dcc f4bd ad0c 35be 393b 2cbe e9bb 71be
000001b0: eba9 4ebe 8063 7dbe b8e4 17be 1639 78be
000001c0: a7ca 00be 57d5 e23d d460 12bd 4cf5 2cbe
000001d0: 045b dabd 7924 f6bd c0af 3fbe 0c5a 4ebe
000001e0: 6f32 0ebe 0c40 673e 3f74 7abe b2a9 05bd
000001f0: 96fc adbd afc2 3a3d 9a70 46be 7a5a d13c
00000200: 71c6 1dbe 2d5d 573d af09 ccbd 34a9 cbbd
00000210: 9075 79be da58 eabd 0650 2b3e a7cd 243e
00000220: c05d 2bbe ab83 8ebd d47e 6dbe a28f 3bbd
00000230: 317c c7bd ae6e d7bd 82f2 673d f3d1 dcbd
00000240: 4bb5 d7bc 743c d8bd b516 7bbe 7f71 093e
00000250: 690f fcbd 5948 703c 73f3 edbd 5267 1b3d
00000260: 3f34 70be 6456 28be 31f3 e4bd a362 6dbe
00000270: a911 c5bd 0b2e 5abd 0a6a eabc c4cd 34be
00000280: de72 01be ee15 dfbd 368b f4bd 866e a33d
00000290: 43a3 4dbe c391 09be f5eb 293d b012 2f3e
000002a0: a289 bfbc a73e 39be 1ad0 ef3b 1565 0bbe
000002b0: e029 36bc 45a7 f3bd 8f83 c83b d779 b3bd
000002c0: 2dfa c6bd 1bfa 163b c4ab 063d fa0b fabd
000002d0: 9202 de3d 73c1 c73d 36e9 efbd c509 b1bd
000002e0: d425 f53c 6370 37be 8bba 68bd 31e6 f0bd
000002f0: 4193 a4bc e0f0 64bd 6b19 7e3d aa06 f13d
00000300: 9fcf 08be 6c65 9f3d 6b22 f23c cb00 b1bd
00000310: d11e 02bd a901 ec3d 0df1 3e3e 841a 633d
00000320: c720 02be 8cff 4fbe 516b a7bd 59d9 03be
00000330: b313 3abe 80ef 0a3d ae88 d1bd 2591 8abd
00000340: e27e d93b c5d5 d6bc 21d9 d6bd ca9f 43be
00000350: d932 983d 0777 2e3e b6d2 e9bd 5f90 df3d
00000360: 23cd c6bd 8156 48be 8222 8ebd 41fc 3abe
00000370: 7e52 0c3e 58d1 69bc 94e1 08be 9c15 67be
00000380: f6e0 febd 0ca1 0f3e 564e 14be 19a9 3bbe
00000390: 33ff 08be 7f33 8d3c 0908 2ebe 075c 05be
000003a0: 789b 0abd 27f7 72be 6a84 393c b04f 853d
000003b0: 826c 84be 5986 acbd 4c37 183e e33b 9c3c
000003c0: f1e2 0fbe 0a5b 21be 3ef6 1fbe 25a1 06be
000003d0: c8dc d8bd 1729 d4bd 40e7 c83d f09e 36be
000003e0: 6451 31bd 3340 f0ba 4d4b ce3d a464 d13c
000003f0: 2b05 4cbe cfe3 e3bd e19a 3bbe ce6f 043e
0.10291249 0.0027373026 -0.31073347 -0.13394631 -0.11013156 0.049780436 -0.14710507 -0.17537905
-0.17023084 -0.18610416 -0.24934305 0.0036597655 -0.15764071 0.017623182 -0.10280683 -0.22389928
0.14482404 0.039181802 -0.18180087 -0.22169827 -0.054893132 -0.16339321 -0.008684003 -0.08626658
0.032021794 0.17168856 -0.17596349 0.0059426897 -0.080104195 -0.152968 -0.016713735 0.01660364
-0.116304904 -0.2504299 -0.114529714 0.028583761 -0.030630913 -0.084721535 0.028388876 -0.033261795
0.16106123 -0.17467834 -0.14330418 -0.13104391 -0.019808881 -0.15649489 -0.1806852 0.037881806
-0.1620878 -0.25337738 -0.059414916 -0.1245747 -0.072871774 0.046690024 -0.046534352 -0.13494235
-0.14907154 -0.06567804 -0.14813024 -0.160681 -0.1559563 -0.12781039 -0.12083562 -0.009012147
0.044982087 -0.07512579 -0.118889846 0.06939236 -0.07476174 -0.045575637 0.013177282 -0.21661003
-0.11866563 -0.0029734585 -0.15382771 -0.16245615 -0.031554773 -0.029646918 0.07352578 0.08513752
-0.095683105 0.1359726 -0.1813154 -0.24581632 -0.15428612 0.08578151 -0.07505625 -0.16728246
-0.113629535 -0.018902121 -0.152315 -0.20228492 -0.16698149 -0.2065755 -0.05484875 -0.14616509
0.10044417 0.20204431 -0.13895167 0.13983172 -0.13197574 -0.2447434 -0.21847169 -0.3603222
-0.11952982 -0.17680617 -0.16819467 -0.23606838 -0.20182006 -0.24744987 -0.14833343 -0.24240527
-0.12577306 0.110758476 -0.035736874 -0.16890448 -0.10661891 -0.12018675 -0.18719387 -0.20151538
-0.13886426 0.22583026 -0.24458407 -0.032632537 -0.084954426 0.04559582 -0.19378892 0.025555838
-0.1540773 0.052579094 -0.099627845 -0.09944382 -0.24361253 -0.11442728 0.16729745 0.16094075
-0.16734982 -0.069587074 -0.23192912 -0.045791276 -0.097404845 -0.10519157 0.056627758 -0.10782232
-0.026331564 -0.105584055 -0.24520381 0.13422202 -0.12307627 0.0146656865 -0.116187 0.03794033
-0.2345743 -0.16439205 -0.111791976 -0.23182158 -0.09622509 -0.053266566 -0.028615016 -0.17656618
-0.12641475 -0.10892855 -0.11940615 0.07980065 -0.2008181 -0.1343451 0.04148479 0.17096972
-0.023381058 -0.18090306 0.007318509 -0.13612778 -0.011118382 -0.118971385 0.0061191986 -0.087634735
-0.09715686 0.0023037258 0.032878652 -0.122093156 0.10840334 0.097536944 -0.11714403 -0.086444415
0.029925264 -0.17913966 -0.056818526 -0.117626555 -0.020089747 -0.05589378 0.06203596 0.11768849
-0.13360451 0.077830166 0.029557427 -0.08642729 -0.03176767 0.11523754 0.18646641 0.05544521
-0.12707816 -0.20312327 -0.08174766 -0.1287588 -0.18171577 0.03391981 -0.10231148 -0.06765965
0.00663744 -0.02622498 -0.10490633 -0.19103923 0.074315734 0.17037593 -0.11417143 0.109162085
-0.097070955 -0.19564249 -0.069401756 -0.1826029 0.13703343 -0.014271103 -0.13367301 -0.22566837
-0.12445252 0.14026278 -0.14483008 -0.18326224 -0.13378601 0.01723647 -0.16995253 -0.13023387
-0.033839673 -0.23727094 0.011323074 0.0650934 -0.25864035 -0.08424062 0.14864844 0.019071525
-0.14051415 -0.15757385 -0.15621278 -0.1314741 -0.10588986 -0.103594 0.098097324 -0.17834067
-0.04329051 -0.001832968 0.10072956 0.025560685 -0.19923846 -0.111274354 -0.183208 0.12933275

running_mean f4 [576]
00000000: ddb0 b835 2faa abb6 5322 ceb6 c7a9 b6b6
00000010: 7d39 e135 85c5 f6b5 c3dc 00b6 03bc 3bb7
00000020: b448 3eb6 7ab0 f4b6 e96c 7833 befd b235
00000030: dd37 00b7 c915 2ab5 5bff c4b6 1104 eeb6
00000040: 9906 a136 9595 e3b6 d62c 12b7 2222 18b7
00000050: d771 f3b6 c3da 18b7 163b a4b4 80d8 2eb7
00000060: ca16 beb5 a27f a636 bc9b 26b7 c955 a636
00000070: 65e1 87b6 b374 45b7 d730 8db6 b7a4 9a35
00000080: f4fd dfb4 b83f d8b6 13ec cdb6 d713 03b7
00000090: 4eb1 e4b5 84e5 4936 daea e0b6 7564 5a36
000000a0: d46b ed35 80c1 9db6 0a71 c6b6 f95a 9cb6
000000b0: 7d2c ad35 8756 5334 4859 15b7 0f12 6c36
000000c0: 7c57 fbb6 0652 bcb6 802b 80b5 d1a5 22b7
000000d0: fc31 99b6 5bbc 3eb6 26eb 01b7 9fbc edb6
000000e0: 149f d3b6 f242 2db6 8e11 c6b6 d6b4 43b6
000000f0: b977 97b6 84ae dcb6 4f55 46b6 8274 3fb6
00000100: 209a 87b6 ef68 ae35 5e05 23b6 7a79 4435
00000110: 3a62 f333 15a2 d6b6 2b85 28b5 c7db e3b6
00000120: 65cf 92b6 4e16 bfb6 97d3 c9b5 2d15 42b7
00000130: f379 7db6 1991 9db6 9321 bab6 844d e234
00000140: 2396 ac35 0337 2fb4 5180 13b7 b912 a3b6
00000150: b97a bbb6 fc5c d935 a50b 9db6 52c7 e1b6
00000160: 9849 15b7 f497 29b7 a8f2 10b6 7838 e7b5
00000170: b4c8 d9b6 99da b5b6 46f5 8936 26e3 40b6
00000180: fdce 15b6 e8f3 ab36 9d3d d4b6 fe74 d034
00000190: 601d 26b7 40fb 94b6 fa15 f5b6 780c 17b7
000001a0: 5732 c3b4 aa7f 33b7 d6f2 3d35 fb79 d1b6
000001b0: 6c39 25b7 b752 83b6 1f12 dcb6 18f2 9fb6
000001c0: ec38 b8b6 9b9c c4b5 3746 41b6 4ac4 04b7
000001d0: a882 e3b6 ec54 16b7 094a 2bb7 fbe5 bfb6
000001e0: 55c7 ccb6 2415 61b6 8974 06b7 e6dc fe35
000001f0: 7d6e ecb4 f4f9 36b6 dc7a f9b6 1e2b cb36
00000200: 8697 40b7 efb3 8bb6 fdb5 3ab6 dec2 d7b6
00000210: 2771 43b6 9073 a3b6 9fda c335 f6dc d736
00000220: 42a2 a1b6 ac57 dd35 ed75 41b7 24cf cbb6
00000230: 6be8 90b6 6e43 90b6 60a6 03b5 3925 01b6
00000240: 0037 c6b4 d25b f5b6 b8b2 d0b6 be98 0936
00000250: ff38 beb6 5bf3 5936 b8cf 1eb7 ca12 6b36
00000260: 1182 5cb6 7a39 26b6 f0fd ceb6 f010 90b6
00000270: d07b a5b4 7c6f 29b6 b10b bcb6 2356 71b5
00000280: 47f3 1ab7 a2f0 92b5 b884 33b7 b37d 81b3
00000290: 2332 01b7 b5d5 f6b6 af10 d5b6 d444 3db6
000002a0: 19d5 5bb6 415c b8b6 a962 6135 85e4 46b7
000002b0: 4911 81b4 731c 40b6 1a7a d3b2 1649 03b7
000002c0: 7c3a 72b4 dc56 15b6 69b4 05b7 b84e eeb6
000002d0: 9e8f e6b5 f5f9 d7b5 6100 30b4 5fe7 d0b6
000002e0: 9647 06b5 1c7c bfb6 234f e3b6 aafd 46b6
000002f0: bb73 d2b6 fd74 90b6 3a82 5835 0faf 54b5
00000300: 14a0 10b6 4ee6 7336 ea37 f8b6 6129 01b6
00000310: 2799 b2b6 8a6a cf34 073b c5b4 ec70 c5b6
00000320: bea3 e8b5 7e9c 45b7 201f a3b6 cc89 33b6
00000330: eb08 3db7 50b8 2136 38c5 93b6 a619 19b6
00000340: 93b5 36b6 dd2e 0337 60d0 18b7 2278 00b7
00000350: 57bd 8c36 8737 da33 439b eeb6 74d2 eb35
00000360: ee5d a5b6 5ce9 3fb7 1abf 6bb6 e2ac ccb6
00000370: 2b24 c533 f399 5ab6 8c76 c2b6 f2a0 3fb6
00000380: 5a38 27b7 1e7f 9bb6 6330 ffb6 9f99 76b6
00000390: 4eef b534 20bc 8eb6 da15 0ab7 ed84 49b6
000003a0: ec8a adb6 14db dbb6 7454 06b5 58be aab6
000003b0: a1fd 99b6 df43 07b6 3e22 3535 8328 bab6
000003c0: 6e84 60b6 d1be e3b5 2a6b abb6 6fa5 eab6
000003d0: a43b e3b6 9dee 69b6 bb98 02b6 3b1b 6db6
000003e0: e5e5 c5b5 7a66 f3b4 f674 84b5 8112 deb6
000003f0: 7e49 16b7 811a 05b7 9001 50b6 0e78 7cb5
1.3760542e-06 -5.116009e-06 -6.1432743e-06 -5.4437874e-06 1.6780538e-06 -1.8385914e-06 -1.9201987e-06 -1.11898435e-05
-2.8354525e-06 -7.2923112e-06 5.7841053e-08 1.3335882e-06 -7.642401e-06 -6.3361637e-07 -5.8709825e-06 -7.093426e-06
4.798942e-06 -6.782541e-06 -8.712717e-06 -9.067853e-06 -7.255217e-06 -9.11084e-06 -3.059037e-07 -1.0421616e-05
-1.4162736e-06 4.962044e-06 -9.930631e-06 4.957172e-06 -4.049553e-06 -1.1769286e-05 -4.207813e-06 1.1521832e-06
-4.1721762e-07 -6.4447195e-06 -6.1369587e-06 -7.812828e-06 -1.7038926e-06 3.008493e-06 -6.7030605e-06 3.2543005e-06
1.7689258e-06 -4.701491e-06 -5.9140193e-06 -4.659753e-06 1.2902452e-06 1.9682385e-07 -8.9018795e-06 3.5177252e-06
-7.4905674e-06 -5.6123854e-06 -9.549403e-07 -9.69456e-06 -4.5655743e-06 -2.8421844e-06 -7.743749e-06 -7.085109e-06
-6.306809e-06 -2.5817976e-06 -5.9029035e-06 -2.9162525e-06 -4.5140882e-06 -6.576827e-06 -2.9553955e-06 -2.8529034e-06
-4.041256e-06 1.299455e-06 -2.4292017e-06 7.319246e-07 1.13334366e-07 -6.396566e-06 -6.277866e-07 -6.7907126e-06
-4.375283e-06 -5.69484e-06 -1.5037248e-06 -1.15682315e-05 -3.7770922e-06 -4.695856e-06 -5.5471405e-06 4.215218e-07
1.2858694e-06 -1.6318158e-07 -8.791759e-06 -4.859958e-06 -5.587321e-06 1.6194822e-06 -4.68032e-06 -6.7287265e-06
-8.898227e-06 -1.0108564e-05 -2.1598917e-06 -1.7227276e-06 -6.490469e-06 -5.4196685e-06 4.1114718e-06 -2.8742447e-06
-2.2323213e-06 5.1245916e-06 -6.325265e-06 3.8828142e-07 -9.90121e-06 -4.439993e-06 -7.3041274e-06 -9.0032045e-06
-3.6358207e-07 -1.06989555e-05 7.076136e-07 -6.242886e-06 -9.848136e-06 -3.9137335e-06 -6.5586205e-06 -4.7667527e-06
-5.490254e-06 -1.4648716e-06 -2.8800112e-06 -7.913515e-06 -6.7803376e-06 -8.960469e-06 -1.0209632e-05 -5.719017e-06
-6.102879e-06 -3.3539918e-06 -8.014155e-06 1.8988765e-06 -4.4038816e-07 -2.7265605e-06 -7.435081e-06 6.054891e-06
-1.1479371e-05 -4.16347e-06 -2.782209e-06 -6.430185e-06 -2.9123128e-06 -4.871232e-06 1.4592259e-06 6.4332226e-06
-4.817063e-06 1.6491299e-06 -1.1531153e-05 -6.073986e-06 -4.3185914e-06 -4.2993843e-06 -4.904341e-07 -1.9244164e-06
-3.6920392e-07 -7.3122583e-06 -6.2196887e-06 2.0503498e-06 -5.6690765e-06 3.2477171e-06 -9.465897e-06 3.5028665e-06
-3.2858263e-06 -2.4769383e-06 -6.1688406e-06 -4.293506e-06 -3.082373e-07 -2.5247855e-06 -5.6041977e-06 -8.990484e-07
-9.235758e-06 -1.0947881e-06 -1.0700132e-05 -6.029895e-08 -7.7006725e-06 -7.35625e-06 -6.349837e-06 -2.8203258e-06
-3.2757582e-06 -5.494367e-06 8.39626e-07 -1.1854926e-05 -2.40407e-07 -2.862679e-06 -2.4619158e-08 -7.825225e-06
-2.2559283e-07 -2.225329e-06 -7.969423e-06 -7.102117e-06 -1.7178133e-06 -1.6091495e-06 -1.6391415e-07 -6.225818e-06
-5.002306e-07 -5.706692e-06 -6.77434e-06 -2.965195e-06 -6.2719605e-06 -4.3051537e-06 8.0655775e-07 -7.92309e-07
-2.155085e-06 3.6343877e-06 -7.397485e-06 -1.9246584e-06 -5.3226427e-06 3.8634272e-07 -3.6737057e-07 -5.8842033e-06
-1.7333002e-06 -1.1778551e-05 -4.861402e-06 -2.6753287e-06 -1.1267354e-05 2.4098154e-06 -4.4039007e-06 -2.2813706e-06
-2.7225803e-06 7.81912e-06 -9.108422e-06 -7.657365e-06 4.194367e-06 1.01615164e-07 -7.1110276e-06 1.7570114e-06
-4.928318e-06 -1.143882e-05 -3.5128965e-06 -6.0998e-06 9.180106e-08 -3.2574142e-06 -5.795451e-06 -2.85549e-06
-9.967096e-06 -4.6341584e-06 -7.605225e-06 -3.6746276e-06 3.3887994e-07 -4.2538304e-06 -8.230529e-06 -3.0028707e-06
-5.1719744e-06 -6.5522127e-06 -5.0041785e-07 -5.0885537e-06 -4.5892816e-06 -2.0156074e-06 6.7477583e-07 -5.547948e-06
-3.3455685e-06 -1.6968353e-06 -5.1086727e-06 -6.9930024e-06 -6.7720703e-06 -3.4858597e-06 -1.946041e-06 -3.5331602e-06
-1.4744552e-06 -4.533684e-07 -9.868807e-07 -6.6182697e-06 -8.957808e-06 -7.933589e-06 -3.0995325e-06 -9.405202e-07

running_var f4 [576]
00000000: 686c d63d 1aa4 103e ea7e b03e 0cad b33e
00000010: 3db4 933e b7f0 443e 979b 263e 795c 3b3f
00000020: 90ff d33e 6162 bc3e cbb0 863e d677 513e
00000030: d2fa a93e 7cd0 193e b4a7 883e ef92 fd3e
00000040: 677e 0e3e 0092 673e 432a b13e 6ec0 bc3e
00000050: 28a4 6d3e 14d2 7e3e f77a 0f3e f3c2 a93e
00000060: a599 273e db52 573e 8e95 563e 645d 7f3e
00000070: aba0 bc3e 165d de3e d30b 923e 8ba2 783e
00000080: ddad 7c3e 1a57 f63e 95ba 883e 8433 613e
00000090: ca88 1f3e b71a a53e ebf1 593e 16a4 843e
000000a0: 4d72 fa3d 7faf 883e aa63 a43e fbe4 7d3e
000000b0: 7c2f 4f3e 96b5 693e 5989 ae3e dc56 6c3e
000000c0: 508d a43e 10f0 a73e 7d0a 8b3e f4dd ae3e
000000d0: 4d4a 4c3e 046e 303e 1c2f 293e 4cac 8b3e
000000e0: 19ee 3c3e eaf1 323e f46d 8a3e fb8f b73e
000000f0: b06a 963e 8093 a13e f816 653e 2235 3e3e
00000100: 2703 1b3e c3df 623e cc87 103f ca1f 463e
00000110: e79a 8a3e 512d 403e f29f 2c3e 3ffa a53e
00000120: 58ca f23e 4fe7 5f3e 7d74 543e 5eb8 193f
00000130: d060 a53e e395 f33e 5a42 653e ef14 d63d
00000140: e8ea 983e d7f3 073e 2cd4 873e 542c af3e
00000150: a929 3f3e 9b35 cc3e 90f0 103e e9dc d33e
00000160: 3c56 e53e dff8 b33e 7387 4f3e 4018 423e
00000170: 7b60 213f d96e 623e 7164 383e 454c a03e
00000180: 836d 1c3e 6d2a 143e 5c2f c73e 730c 353e
00000190: 302b b43e 38e2 b53e 41e7 103f a636 063f
000001a0: d830 113f b07e 043f b3eb d13e f208 063f
000001b0: c76f 9a3e 5b13 3a3e 7524 a73e b1ab 813e
000001c0: d4d1 e73e b65d ce3d ebbe 6e3e 8d52 923e
000001d0: 1d7d 9b3e c2eb ac3e 10b0 be3e e39f 193f
000001e0: 2107 d03e 3cfd bd3e ef0c 603e bce2 203e
000001f0: 420a cb3e e461 973e cebd dc3e 65b6 973e
00000200: 3b4a 843e b8b4 bb3d b3a6 973e 5945 c93e
00000210: 1b48 023f 074a 063f 2a13 0c3e e543 d43d
00000220: 9c3f a83e 25f8 823e bbc9 953e 697e 583e
00000230: ef78 d43e 79f2 de3e 0903 e23d e207 c73e
00000240: 315a 873e 9e60 9d3e aeac 873e 564d 653e
00000250: 8fd8 853e b86d 483e e926 933e dc57 a23e
00000260: 767a 103f 60a8 aa3e ab4f da3e 0a5e 833e
00000270: f562 de3e e86d 1b3e 9327 3e3e eced 0a3f
00000280: 18f9 b03e c470 843e e676 7f3e 6e3f 2f3e
00000290: f45e ba3e 55ef 883e 8471 463e 9be4 883e
000002a0: 7fdb 863e 96d7 103f 6981 8b3e 5784 eb3e
000002b0: 73c7 5e3e 3953 9d3e b929 8c3e c097 3e3e
000002c0: 3130 c43e 6f94 453e 34d2 893e fbb1 723e
000002d0: 684b 1f3e 5351 513e 3b59 b33e bd68 843e
000002e0: 540e 7d3e bc99 403e 5a10 9d3e 7f05 893e
000002f0: 7761 c03e 8642 463e 4308 683e 93fb 173e
00000300: 8b29 183e 0860 0d3e a0af 483e 6545 453e
00000310: 0a01 bb3e 35e9 363e 64c6 003e 8574 b13e
00000320: bc64 893e ed8b ed3e 7539 4b3e 2c7d 2b3f
00000330: be85 373f f84c 813e 77d3 8a3e 49eb 173e
00000340: 8e2b 443e 8ca2 a43e 7bc8 063f f0dc b03e
00000350: 7b25 823e 5dee c03e d4f5 cb3e 94f6 933e
00000360: 3ea4 863e 8af6 ad3e bd67 9f3e 3d9e d53e
00000370: 0291 363e 3736 273e 032a ca3e a697 be3e
00000380: 156e 6f3e ba5c 0b3e 2fcb 843e d658 5e3e
00000390: 9e35 f33e ae3f d63d fc93 b53e 515c 633e
000003a0: 4a55 563e e4e0 073f cb89 7e3e eadd 553e
000003b0: 0569 913e c7f4 763e d40d dd3d 49b1 343e
000003c0: b59f 093e f834 613e 4e0f 8c3e f820 9f3e
000003d0: 760b 6a3e b0d4 683e e1e4 d93d beb1 403e
000003e0: f903 7c3e 397a 853e 0a50 e03d 6e6f 1e3e
000003f0: 7eac 023f a14c 733e 4509 e13e b15e 443e
0.104698956 0.141251 0.34471828 0.35092962 0.28848448 0.1923245 0.1627029 0.7318798
0.41405916 0.36793807 0.26306757 0.2045587 0.33199173 0.15020937 0.26690447 0.49526164
0.13915406 0.22614288 0.34602556 0.36865562 0.23207152 0.24884826 0.14011751 0.33156547
0.16367204 0.210277 0.20955488 0.2493797 0.3684133 0.43430394 0.28524646 0.24280755
0.24675699 0.48113328 0.2670485 0.21992308 0.15579525 0.32246944 0.2128369 0.25906438
0.122288324 0.26696393 0.32107288 0.2479438 0.20232958 0.22823176 0.34089163 0.23080009
0.32139063 0.3280034 0.2715644 0.34153712 0.19950218 0.17229468 0.16521877 0.2727989
0.18450202 0.17475095 0.27037013 0.35852036 0.2937827 0.31557846 0.22372043 0.18574956
0.15137921 0.22155671 0.5645721 0.19348064 0.27071306 0.18767287 0.1685789 0.32417485
0.4742 0.21865581 0.20747562 0.60046947 0.32300425 0.47575292 0.22388592 0.104532115
0.2986672 0.13276611 0.26529062 0.34213507 0.18668236 0.39884648 0.14154267 0.4137948
0.44792354 0.3515081 0.20266514 0.18954563 0.6303784 0.22112598 0.18007065 0.3130819
0.1527615 0.14469309 0.3890332 0.1768053 0.351892 0.35524154 0.56602865 0.52427137
0.56715155 0.5175581 0.41000137 0.523574 0.30163404 0.18171446 0.32645002 0.25326303
0.45277274 0.10076468 0.23315017 0.28578606 0.3036889 0.3377362 0.372437 0.6000959
0.4063044 0.37107265 0.21879934 0.15711492 0.39656264 0.29566872 0.4311356 0.29631343
0.25837883 0.09165329 0.2961937 0.3931072 0.50891274 0.52456707 0.13679186 0.10364512
0.3286103 0.25579944 0.2925547 0.21141972 0.41498515 0.43544367 0.11035735 0.38873202
0.26435998 0.30737776 0.26498932 0.22392783 0.26141784 0.19573104 0.28740624 0.31707656
0.5643686 0.33331585 0.42638907 0.25657684 0.43434873 0.15178645 0.18569784 0.5426929
0.34565043 0.25867283 0.249477 0.1711404 0.36400568 0.26745096 0.1937924 0.26736912
0.26339337 0.5657896 0.2724717 0.45999405 0.21755771 0.30727556 0.27375582 0.18612576
0.38318017 0.19294904 0.26918185 0.23700707 0.15556109 0.20441179 0.35029015 0.2586116
0.24712497 0.18808645 0.30676538 0.26762006 0.3757436 0.19361314 0.22659402 0.14842062
0.14859597 0.13806164 0.19598246 0.19264753 0.3652423 0.17862399 0.1257568 0.3465921
0.26834667 0.46395817 0.19846137 0.6698787 0.7168845 0.25254035 0.2711446 0.14835848
0.1915724 0.32155263 0.5264966 0.34543562 0.2541922 0.37681857 0.3983599 0.28899062
0.26297182 0.33977157 0.31133834 0.4172229 0.17828754 0.16329275 0.39485177 0.37225074
0.23381837 0.13609591 0.25936267 0.21713576 0.47501844 0.10461365 0.35464466 0.22203185
0.20930973 0.5307753 0.24857251 0.20885435 0.28400436 0.24116813 0.10793653 0.17645754
0.1343983 0.21992862 0.27355427 0.3107984 0.22855935 0.22737384 0.10639358 0.18817803
0.2461089 0.2606981 0.10952766 0.15472195 0.5104445 0.237597 0.43952385 0.19176747
