experiments/model_repositories/robot/face_detection/model_files/block_13.pth (torch, 22009 bytes, 5 tensors)

weight f4 [192, 1, 3, 3]
0	0x3d2a6c05	0.04160692
1	0x3d9ae726	0.07563619
2	0x3d87d2f3	0.06632032
3	0x3d9ea72c	0.07746729
4	0x3e34146a	0.17585912
5	0x3e192ae2	0.14957765
6	0x3d885fdf	0.06658911
7	0x3e0543e0	0.13014174
8	0x3df22f13	0.11825385
9	0xbd21ce15	-0.039503176
10	0xbd9bd4a4	-0.07608917
11	0xbd770528	-0.06030765
12	0xbd9cda4a	-0.07658823
13	0xbe152887	-0.14566241
14	0xbdf02a85	-0.1172686
15	0xbd622fd5	-0.055221397
16	0xbdf0dae9	-0.11760504
17	0xbdc15a2b	-0.09441026
18	0xbd5adec8	-0.053435117
19	0xbd98d960	-0.07463336
20	0xbd4dc4bc	-0.05023645
21	0xbdf73c32	-0.12072028
22	0xbe536234	-0.2064293
23	0xbdcb9594	-0.09940639
24	0xbda4addd	-0.08040974
25	0xbe077d0f	-0.132313
26	0xbd326e59	-0.043562267
27	0x3d3e42f7	0.04645058
28	0x3dba0235	0.09082452
29	0x3d906bc9	0.070518084
30	0x3dd64ea1	0.10464216
31	0x3e40d893	0.18832617
32	0x3e175d4e	0.14781687
33	0x3da58fbe	0.08084057
34	0x3e1027b5	0.14077647
35	0x3dd95121	0.10611177
36	0xbcc27468	-0.023737147
37	0xbd88a363	-0.066717885
38	0xbd53c58f	-0.05170208
39	0xbd758332	-0.05993957
40	0xbe56e916	-0.20987353
41	0xbe31c852	-0.17361572
42	0xbd3b818e	-0.04577785
43	0xbe3cafc8	-0.1842643
44	0xbe2b31f9	-0.16718282
45	0xbd0f6e3b	-0.035017233
46	0xbd91c6d8	-0.071180046
47	0xbd15785a	-0.03649173
48	0xbd720a5c	-0.05909191
49	0xbe163ab8	-0.14670837
50	0xbdca8498	-0.098885715
51	0xbd45cb33	-0.04828949
52	0xbddc1f47	-0.10748153
53	0xbd97f52f	-0.07419812
54	0xbd116474	-0.03549619
55	0xbda479f8	-0.08031076
56	0xbd7bd872	-0.061485715
57	0xbd82e6aa	-0.06391652
58	0xbe1629be	-0.14664361
59	0xbdfb4aba	-0.12270112
60	0xbd689c35	-0.056789596
61	0xbdee7c14	-0.1164476
62	0xbdc96ce0	-0.098352194
63	0xbce73d22	-0.028227393
64	0xbdac78dc	-0.084214896
65	0xbd45e19a	-0.048310854
66	0xbdb137e5	-0.08653239
67	0xbe18e9cc	-0.14932936
68	0xbded46c2	-0.115857616
69	0xbd8028b0	-0.062577605
70	0xbdd6d07c	-0.10488984
71	0xbd9a5fdd	-0.07537816
72	0xbd8ddeab	-0.06927236
73	0xbdca0a85	-0.09865288
74	0xbda81208	-0.08206564
75	0xbdb5c87d	-0.08876131
76	0xbe19df11	-0.150265
77	0xbdf0947e	-0.11747073
78	0xbd8943e6	-0.06702404
79	0xbdda1e0c	-0.10650262
80	0xbd89845d	-0.067146994
81	0xbd0fab6f	-0.0350756
82	0xbd9863c2	-0.07440902
83	0xbd61cc84	-0.055126682
84	0xbd8223a7	-0.063544564
85	0xbe2ee36b	-0.1707894
86	0xbe04a684	-0.12954146
87	0xbd79fe53	-0.061033558
88	0xbe02df11	-0.12780406
89	0xbd9863fb	-0.07440945
90	0xbd4f715d	-0.05064522
91	0xbda9ed90	-0.082972646
92	0xbd422abd	-0.04740404
93	0xbdca3727	-0.09873801
94	0xbe1f0ce8	-0.15532267
95	0xbd9760d0	-0.073915124
96	0xbd553c0a	-0.05205921
97	0xbdc4b27c	-0.09604356
98	0xbd2cf983	-0.04223014
99	0xbd0e62f4	-0.034762338
100	0xbd99ed31	-0.07515944
101	0xbd90d951	-0.070727
102	0xbdae4c99	-0.085107036
103	0xbe2c1acc	-0.16807097
104	0xbe1649c3	-0.14676575
105	0xbda0c01e	-0.078491434
106	0xbe1c5b16	-0.15269122
107	0xbdd0b682	-0.101910606
108	0xbd269629	-0.040670548
109	0xbda73f0f	-0.08166324
110	0xbd78f30d	-0.060778666
111	0xbd9c6543	-0.07636502
112	0xbe45042d	-0.19239874
113	0xbe0a1815	-0.13485749
114	0xbd76369e	-0.06011068
115	0xbe0f7935	-0.1401108
116	0xbddb36e9	-0.10703833
117	0xbc305744	-0.010762993
118	0xbd4eab81	-0.050456528
119	0xbd3981d2	-0.045289822
120	0xbd7774c5	-0.060414094
121	0xbe12565b	-0.14290754
122	0xbdf27487	-0.11838632
123	0xbd610b9f	-0.054942723
124	0xbdde62ed	-0.10858712
125	0xbd921189	-0.07132251
126	0xbc928e8c	-0.017890237
127	0xbd6c70ae	-0.057724647
128	0xbd2c4218	-0.04205522
129	0xbda9cd69	-0.08291132
130	0xbe3861e1	-0.18006088
131	0xbdb99f09	-0.09063537
132	0xbdb71310	-0.08939183
133	0xbe2820d5	-0.16418774
134	0xbd9f3805	-0.07774357
135	0x3d1f5d77	0.038907494
136	0x3d970b3c	0.0737519
137	0x3d91724d	0.07101879
138	0x3d9d7491	0.07688249
139	0x3e25ec7a	0.1620349
140	0x3e0bf021	0.1366582
141	0x3d8a20ae	0.067445144
142	0x3e15aae5	0.14615972
143	0x3e00ef34	0.12591249
144	0xbca129ff	-0.019673346
145	0xbcf46399	-0.029832648
146	0xbcfb3ab9	-0.03066765
147	0xbd92b7be	-0.07163952
148	0xbdf6fb5c	-0.12059662
149	0xbda3f0d9	-0.080049224
150	0xbd6c83dc	-0.05774294
151	0xbda78f01	-0.08181573
152	0xbd4e2f8f	-0.050338324
153	0x3d07283a	0.032997347
154	0x3d947537	0.072489195
155	0x3d887bfa	0.06664272
156	0x3d5fc6fe	0.054633133
157	0x3e434897	0.1907066
158	0x3e2e3724	0.17013222
159	0x3d3e5c89	0.046474967
160	0x3e109b53	0.14121751
161	0x3e0c5bdc	0.13706917
162	0xbc3cf891	-0.011533872
163	0xbda6d3e7	-0.08145886
164	0xbde2c112	-0.110719815
165	0xbdc9ebee	-0.09859453
166	0xbe25e7d0	-0.1620171
167	0xbdd71698	-0.10502356
168	0xbdf0d544	-0.11759427
169	0xbdf14ed9	-0.11782617
170	0xbc9c597d	-0.01908564
171	0x3d4313c3	0.047626268
172	0x3d9b64cd	0.075875856
173	0x3d9a03a1	0.075202234
174	0x3d90886b	0.0705727
175	0x3e382fc4	0.17986971
176	0x3e253d72	0.16136721
177	0x3d8c5eee	0.06854044
178	0x3e072564	0.13197857
179	0x3dfd376c	0.123640865
180	0x3cf99e78	0.030471072
181	0x3d7bf27f	0.06151056
182	0x3d68c208	0.056825668
183	0x3d829df7	0.06377786
184	0x3e321f26	0.17394695
185	0x3e11ce51	0.1423886
186	0x3d700644	0.058599725
187	0x3e14ffda	0.14550725
188	0x3e0004cb	0.12501828
189	0xbcf10bec	-0.02942463
190	0xbd84844c	-0.06470546
191	0xbd755090	-0.059891284
192	0xbd8d7fc3	-0.06909134
193	0xbe0064c5	-0.1253844
194	0xbde34a22	-0.11098124
195	0xbd6736a0	-0.05644858
196	0xbdd4613f	-0.10370111
197	0xbdb99ccb	-0.09063109
198	0x3c8b3272	0.016991828
199	0xbd0d48f1	-0.03449339
200	0xbe0e55ec	-0.13899964
201	0x3d6f4573	0.05841584
202	0xbd52e297	-0.051485624
203	0xbe8b942a	-0.27261478
204	0x3d58b126	0.052903317
205	0x3d4ad5ad	0.049520183
206	0xbdb77be0	-0.08959174
207	0x3c7d1668	0.015447237
208	0x3dd8fc9e	0.10595058
209	0x3ddc85ee	0.107677326
210	0x3dde3e71	0.108517535
211	0x3e735bc7	0.23765479
212	0x3e2b4b1a	0.16727868
213	0x3dee072f	0.11622464
214	0x3e38572f	0.18002008
215	0x3d914c8d	0.07094679
216	0xbdd60788	-0.10450655
217	0xbdb0d5ba	-0.08634515
218	0xbc942632	-0.01808462
219	0xbdbd74f6	-0.09250824
220	0xbdd7acb7	-0.105309896
221	0xbdc13fbc	-0.094359845
222	0xbcc2e0ff	-0.023788927
223	0xbdddcec2	-0.108304515
224	0xbdd83e46	-0.10558753
225	0xbd82e686	-0.06391625
226	0xbd5b4c07	-0.053539302
227	0x3dfb588a	0.12272747
228	0xbde67e59	-0.11254568
229	0xbe00aae9	-0.12565197
230	0x3e4fae89	0.20281424
231	0xbdb41f56	-0.08795039
232	0xbdd3a85a	-0.10334845
233	0x3de9b13e	0.114107594
234	0xbd98ed88	-0.074671805
235	0xbdebc8bd	-0.11512897
236	0xbd0f327f	-0.034960266
237	0xbdd9af9c	-0.10629198
238	0xbe72bc94	-0.2370475
239	0xbe145006	-0.14483652
240	0xbcd0fea0	-0.02551204
241	0xbe05d491	-0.13069369
242	0xbe04205f	-0.12902974
243	0xbd321ead	-0.043486286
244	0xbdd84b02	-0.105611816
245	0xbd9f32a4	-0.07773331
246	0xbda064f7	-0.078317575
247	0xbe14e6d1	-0.14541174
248	0xbe047e9a	-0.1293892
249	0xbd7ea8e5	-0.06217279
250	0xbdc98019	-0.09838886
251	0xbda6ed2f	-0.08150708
252	0xbd048959	-0.032357547
253	0xbd886ab9	-0.06660981
254	0xbd3e0fe3	-0.04640187
255	0xbda7710c	-0.08175859

weight f4 [192]
0	0x3e1d478f	0.15359329
1	0x3e1a56bb	0.15072148
2	0x3e93dc28	0.28878903
3	0x3e66722e	0.22504494
4	0x3e445b7a	0.1917552
5	0x3e7f0cc6	0.24907216
6	0x3e3f0be1	0.18656875
7	0x3e9a6a6c	0.30159318
8	0x3dc583a3	0.09644248
9	0x3e7876a8	0.24264014
10	0x3e41b081	0.18914987
11	0x3e956c47	0.29184172
12	0x3e10b726	0.14132366
13	0x3e66d846	0.2254344
14	0x3e75aa79	0.23990811
15	0x3e6097ef	0.21932958
16	0x3e727510	0.23677468
17	0x3e8108fe	0.25202173
18	0x3ed61c19	0.41818312
19	0x3e32f080	0.17474556
20	0x3e280462	0.16407922
21	0x3e7ee319	0.24891318
22	0x3e5ef1fb	0.21771996
23	0x3e9a89b9	0.301832
24	0x3eb6535f	0.35610482
25	0x3e8403bd	0.25784102
26	0x3e9d47d5	0.30718866
27	0x3e494dae	0.19658539
28	0x3e047fda	0.12939397
29	0x3e763c15	0.24046357
30	0x3e1bacf4	0.15202695
31	0x3e69d809	0.22836317
32	0x3e3be857	0.1835035
33	0x3e711b03	0.2354546
34	0x3e23d45d	0.15998979
35	0x3e83725e	0.25673193
36	0x3e51f045	0.20501812
37	0x3e6fd998	0.23422849
38	0x3e0246b5	0.12722285
39	0x3e5f8d08	0.21831143
40	0x3e525b6d	0.20542689
41	0x3e8fd151	0.28089383
42	0x3e3a2b7a	0.18180647
43	0x3e83d886	0.25751132
44	0x3e4d11b7	0.20026289
45	0x3e7a885b	0.24466078
46	0x3e793993	0.24338369
47	0x3e80721c	0.2508706
48	0x3e50bfcd	0.20385666
49	0x3e7cf985	0.24704559
50	0x3e1c3092	0.15252903
51	0x3e906d67	0.28208467
52	0x3e5bb74f	0.21456645
53	0x3e4085ad	0.18800993
54	0x3e540f87	0.20709048
55	0x3e7ba1d4	0.24573451
56	0x3e82e6da	0.2556675
57	0x3e3b79ff	0.18308257
58	0x3e1d0f6d	0.15337916
59	0x3e749afd	0.23887248
60	0x3e50b036	0.20379719
61	0x3e9227f6	0.28546113
62	0x3e272b3f	0.16325091
63	0x3e696ee4	0.22796208
64	0x3e787a53	0.24265413
65	0x3e616749	0.22012056
66	0x3e54744d	0.2074749
67	0x3e2b51dc	0.16730446
68	0x3e794edd	0.2434649
69	0x3da16b0b	0.07881745
70	0x3e78f940	0.24313831
71	0x3e17aa6f	0.14811109
72	0x3e92e61a	0.2869118
73	0x3e5cee35	0.21575244
74	0x3e40007a	0.18750182
75	0x3e6c0f10	0.23052621
76	0x3e87cda2	0.26524073
77	0x3e23aad3	0.15983133
78	0x3e84f2d6	0.2596652
79	0x3e55e55b	0.20888273
80	0x3e6ec339	0.23316659
81	0x3e8004f3	0.25003776
82	0x3e592430	0.2120521
83	0x3e708dd5	0.23491605
84	0x3e1f10d5	0.15533765
85	0x3e924122	0.28565317
86	0x3e8a2045	0.26977745
87	0x3e8175c7	0.2528517
88	0x3e2cf49c	0.16890186
89	0x3e7f9ba3	0.24961714
90	0x3e058c86	0.13041887
91	0x3e87c9a5	0.2652103
92	0x3e127883	0.14303784
93	0x3e5ac651	0.21364714
94	0x3e3af819	0.18258704
95	0x3e4c3ade	0.19944331
96	0x3e03cae0	0.1287036
97	0x3e09c642	0.13454536
98	0x3e6ec111	0.23315836
99	0x3e46339b	0.19355623
100	0x3e21730e	0.15766546
101	0x3e7bbaab	0.24582927
102	0x3e274d89	0.16338171
103	0x3e4a801b	0.19775431
104	0x3e51ff41	0.20507528
105	0x3e479611	0.1949084
106	0x3e9cf87a	0.30658323
107	0x3e4c49b3	0.19949989
108	0x3e67b62a	0.22628084
109	0x3eb2c145	0.34913078
110	0x3e490212	0.19629696
111	0x3e3dc4ff	0.1853218
112	0x3e2b004a	0.16699329
113	0x3e9a0b26	0.3008663
114	0x3e2cf90a	0.16891876
115	0x3e8b7e95	0.27245012
116	0x3e3c39ec	0.1838147
117	0x3e62aa80	0.22135353
118	0x3e91af7f	0.28454205
119	0x3e2a0996	0.16605219
120	0x3e47d92b	0.19516437
121	0x3e2f95fe	0.17147061
122	0x3e86eb68	0.26351476
123	0x3e2a6d3f	0.16643237
124	0x3eaed9e9	0.34150627
125	0x3e1c65d1	0.15273215
126	0x3e113014	0.14178497
127	0x3e8ee0a7	0.2790577
128	0x3e924a88	0.28572488
129	0x3e5c15eb	0.21492736
130	0x3e6a8042	0.22900489
131	0x3e2436e4	0.16036564
132	0x3e36d418	0.17854345
133	0x3e465d49	0.19371523
134	0x3e450487	0.19240008
135	0x3e8d2a2a	0.2757123
136	0x3e284b46	0.16434965
137	0x3e4de885	0.2010823
138	0x3e8dbf61	0.27685073
139	0x3e391682	0.18074992
140	0x3e71b594	0.23604423
141	0x3e5ad31e	0.21369597
142	0x3e2a9258	0.16657388
143	0x3e2315c7	0.15926276
144	0x3e3f9e40	0.18712711
145	0x3e827509	0.25479916
146	0x3e520a01	0.20511629
147	0x3e485336	0.19562992
148	0x3e24d7e2	0.16097978
149	0x3e81b9b7	0.25337002
150	0x3e8d081b	0.27545246
151	0x3e490742	0.19631675
152	0x3e6e1eec	0.23253983
153	0x3e574d5f	0.21025608
154	0x3e5ea4f8	0.21742618
155	0x3e70f40f	0.23530601
156	0x3e8d45be	0.27592272
157	0x3e7dcda8	0.24785483
158	0x3e47831d	0.1948361
159	0x3e0838b5	0.13302882
160	0x3e2cc4c9	0.16871943
161	0x3e846474	0.2585789
162	0x3e2c1092	0.16803196
163	0x3e313fb8	0.17309463
164	0x3e6134e8	0.21992838
165	0x3e8f7d31	0.280252
166	0x3e89ae28	0.26890683
167	0x3e9f9bef	0.31173655
168	0x3e4f099b	0.20218508
169	0x3e14422a	0.14478365
170	0x3e46bf54	0.19408923
171	0x3ea68f9a	0.32531434
172	0x3e201d36	0.15636143
173	0x3e299ff8	0.1656493
174	0x3e360459	0.17775096
175	0x3e5e4410	0.21705651
176	0x3e09da43	0.13462166
177	0x3e1bffdc	0.15234321
178	0x3e8d43d9	0.27590826
179	0x3e3721ae	0.17883942
180	0x3e6efcbd	0.233386
181	0x3e255a42	0.16147712
182	0x3e6a3f38	0.22875679
183	0x3e52642a	0.20546022
184	0x3e33077d	0.17483325
185	0x3e8394ef	0.25699565
186	0x3e679031	0.22613598
187	0x3e65d52b	0.22444598
188	0x3e53adf6	0.2067183
189	0x3e41f873	0.18942432
190	0x3e7b4091	0.24536349
191	0x3e297f35	0.16552432

bias f4 [192]
0	0x3e4d461f	0.2004628
1	0x3effdc2b	0.49972662
2	0x3e977082	0.29578024
3	0x3e2eb7fd	0.17062373
4	0x3f1bbd0e	0.6083535
5	0x3c484887	0.012224323
6	0x3efc552c	0.4928373
7	0x3dc99e24	0.09844616
8	0x3f0343b3	0.51275176
9	0x3deced60	0.11568713
10	0x3eaa7709	0.33293942
11	0x3e93d44c	0.28872907
12	0x3e8cb591	0.27482274
13	0x3d911a94	0.070851475
14	0x3e23414f	0.15942882
15	0x3e28f237	0.16498648
16	0x3ce45eec	0.027877294
17	0x3e08001e	0.13281295
18	0xbdb14b3f	-0.0865693
19	0x3ec503da	0.384795
20	0x3e061037	0.13092123
21	0x3de13686	0.10996728
22	0x3e371b67	0.17881547
23	0x3e3e8a64	0.1860748
24	0x3d1e38c6	0.038628362
25	0xbd38d1de	-0.04512202
26	0x3ebd9c38	0.37033248
27	0x3f16fbe8	0.5897813
28	0x3f2f56d8	0.6849189
29	0x3e64e0ae	0.22351333
30	0x3e6d1052	0.23150757
31	0x3eb3432f	0.35012195
32	0x3e20ff84	0.15722471
33	0x3e57fa98	0.21091688
34	0x3e21d7db	0.15804999
35	0x3f2a1dfa	0.6645199
36	0x3f1e950d	0.61946183
37	0x3e2857e9	0.16439785
38	0x3ef5d89f	0.4801683
39	0x3f08bd0f	0.5341348
40	0x3cf34e22	0.029700343
41	0xbcc233de	-0.023706373
42	0x3d7ff9c2	0.062494047
43	0x3e9caa49	0.30598667
44	0x3e4c4f66	0.19952163
45	0xbcb27c89	-0.021787899
46	0x3e4669aa	0.19376245
47	0x3e6291a3	0.22125868
48	0x3e7f1686	0.24910936
49	0x3f086765	0.5328277
50	0x3e2c322d	0.16816016
51	0x3e9a304b	0.3011497
52	0x3ebba11f	0.36646363
53	0x3f0f812e	0.5605649
54	0x3dd0af12	0.10189642
55	0x3d337801	0.043815617
56	0x3e06ec4f	0.13176082
57	0x3e2508a5	0.16116579
58	0x3f0a3a4b	0.539952
59	0x3e24bfcb	0.16088788
60	0x3eabc338	0.33547378
61	0x3ce026ec	0.02736231
62	0x3e9b2cb5	0.30307546
63	0x3e1423bf	0.14466761
64	0x3ebdbf32	0.37059933
65	0x3e36d427	0.17854367
66	0x3e91dcd7	0.284888
67	0x3dd05335	0.101721205
68	0x3e22daea	0.15903822
69	0x3e9c1295	0.30482927
70	0x3e4a7ea6	0.19774875
71	0x3e1acdc3	0.15117554
72	0x3e65eba2	0.22453168
73	0x3f0a62ed	0.540572
74	0x3e844882	0.2583657
75	0x3e8371a6	0.25672644
76	0xbd6ce0a7	-0.057831433
77	0x3f0efb27	0.5585198
78	0x3ed44f23	0.41466627
79	0x3e81db61	0.25362685
80	0x3ebd69f4	0.36994898
81	0x3e817a8c	0.25288808
82	0x3e743cfb	0.23851387
83	0x3da75fb1	0.081725486
84	0x3e99e1ba	0.30055028
85	0xbd1434e5	-0.036183257
86	0x3e3a7a69	0.18210758
87	0x3e8de82a	0.2771619
88	0x3f090629	0.53525025
89	0x3e4b0ddb	0.19829504
90	0x3ecf382b	0.4047254
91	0x3ea4ea18	0.3220985
92	0x3e38f190	0.18060899
93	0x3e19f883	0.15036206
94	0x3f17402a	0.5908228
95	0x3c1bc21d	0.009506729
96	0x3e4274b1	0.18989827
97	0x3e86c2b9	0.26320437
98	0x3df809c5	0.121112384
99	0x3e95d1bf	0.29261586
100	0x3e496ba8	0.19669974
101	0x3f1214bb	0.5706288
102	0x3de214db	0.11039134
103	0x3e981f16	0.29711217
104	0x3e17dc5c	0.14830154
105	0x3e347fae	0.17626831
106	0x3dae057e	0.08497141
107	0x3f007aa9	0.50187165
108	0x3e03603c	0.12829679
109	0x3dca85e0	0.09888816
110	0x3df75f1e	0.12078689
111	0x3f096d02	0.5368196
112	0x3f221b3a	0.63322794
113	0x3e0a8b2e	0.13529655
114	0x3e54959e	0.207602
115	0x3d56e6a8	0.052466065
116	0x3e51b39f	0.20478676
117	0x3e048a8d	0.12943478
118	0x3c090ec4	0.008365337
119	0x3e067789	0.13131537
120	0x3e9b72eb	0.30361113
121	0x3e6ed0fb	0.23321907
122	0x3e0812c8	0.13288414
123	0x3e8a4e46	0.27012843
124	0x3d420419	0.04736719
125	0x3f034bf3	0.51287764
126	0x3e8e1c82	0.27756125
127	0x3e8aeb70	0.2713275
128	0x3d0f3258	0.03496012
129	0x3e469edd	0.19396539
130	0x3e6ed359	0.2332281
131	0x3da12a8a	0.07869442
132	0x3e37f8f0	0.17966056
133	0x3e4890a1	0.19586422
134	0x3e46e08b	0.19421594
135	0x3ebfbe2f	0.37449786
136	0x3e5bb77b	0.21456711
137	0x3e726608	0.23671734
138	0x3ec9caea	0.39412624
139	0x3b6a1be7	0.0035722197
140	0x3dd41d94	0.10357204
141	0xbbc2893c	-0.00593677
142	0x3c97bcde	0.018522676
143	0x3e11e1c4	0.14246279
144	0x3e3105c4	0.17287356
145	0x3eb5ea95	0.35530534
146	0x3e9a0374	0.3008076
147	0x3e5ba06e	0.21447918
148	0x3e364c8d	0.1780264
149	0x3e19d1f5	0.15021499
150	0x3e6acf9a	0.22930756
151	0x3e7f91f6	0.24958023
152	0x3e45104e	0.19244501
153	0x3e28cda7	0.164847
154	0x3ed10e6a	0.4083131
155	0x3e71dcf0	0.23619437
156	0x3ef4d22c	0.47816598
157	0x3e6f4f18	0.23370016
158	0x3df4bd7c	0.11950204
159	0x3f1f6c17	0.62274307
160	0x3ec52587	0.38505194
161	0x3e1b35e5	0.15157278
162	0x3dc6f835	0.097153105
163	0x3e21d732	0.15804747
164	0x3e532729	0.20620407
165	0x3e4c9479	0.19978513
166	0x3dfd99ee	0.123828754
167	0x3d8f3fbd	0.06994579
168	0x3eb78759	0.3584545
169	0x3e71dde4	0.23619801
170	0x3e199709	0.14999022
171	0x3b850325	0.0040592127
172	0x3d861839	0.06547589
173	0x3e6633cf	0.22480701
174	0x3d85a16f	0.06524932
175	0x3e238b1c	0.15971035
176	0x3e0ebc09	0.13938917
177	0x3e97c8c7	0.29645368
178	0x3e4a2972	0.19742373
179	0x3f0dc472	0.55377877
180	0x3e28ef61	0.16497566
181	0x3de07d6c	0.10961422
182	0x3df2f3c1	0.118628986
183	0x3e16a498	0.14711225
184	0x3dd0e6f7	0.10200303
185	0xbcd2e7c6	-0.025745284
186	0x3e708343	0.23487572
187	0xbcd1c55c	-0.025606804
188	0x3de69e0a	0.11260612
189	0x3eab322d	0.3343672
190	0x3f2f7900	0.68544006
191	0x3dbe6eb6	0.0929846

running_mean f4 [192]
0	0x3d9a5f6b	0.07537731
1	0xbda2c137	-0.07947009
2	0xbe4ee72c	-0.20205373
3	0x3d2ec58a	0.042668857
4	0xbe65aa12	-0.22428158
5	0xbdf7d8f7	-0.1210193
6	0xbcef76aa	-0.029231388
7	0xbd7ef993	-0.06224973
8	0xbd90e8a6	-0.07075624
9	0xbe18fc2a	-0.14939943
10	0xbd9ad244	-0.07559636
11	0xbd92f300	-0.07175255
12	0xbe43e941	-0.19131948
13	0xbdcf420d	-0.1012002
14	0xbe1eec58	-0.15519845
15	0x3d3b3bc3	0.04571129
16	0xbd70761a	-0.05870638
17	0x3ce754b9	0.028238641
18	0xbe56f191	-0.20990588
19	0x3e2d1c2c	0.16905278
20	0x3d59435b	0.05304275
21	0xbdaff413	-0.08591475
22	0xbdd4dd1e	-0.10393737
23	0x3d56f561	0.052480105
24	0xbd89b01e	-0.06723045
25	0xbc5fed7b	-0.01366746
26	0xbe47f679	-0.19527616
27	0xbd38ce55	-0.04511865
28	0xbd649fbc	-0.055816397
29	0x3d60caae	0.05488079
30	0xbd75db8f	-0.06002384
31	0x3e10b265	0.14130552
32	0x3d13fdb4	0.036130622
33	0x3d1d1ef9	0.038359616
34	0x3d28af36	0.04118272
35	0x3d012902	0.03153325
36	0xbcbfe31b	-0.023423722
37	0x3d30d8ec	0.043175623
38	0xbd7f4354	-0.06232007
39	0xbea36367	-0.31911775
40	0xbe134d87	-0.14385043
41	0xba81676d	-0.0009872742
42	0x3ca7e55b	0.020495107
43	0x3e0d811d	0.13818784
44	0x3d981e33	0.07427635
45	0x3c197b6b	0.009367804
46	0x3d2d88cc	0.042366788
47	0x3da5271e	0.08064102
48	0x3d9ec742	0.07752849
49	0xbe4361d8	-0.19080293
50	0x3d7f6ca9	0.062359486
51	0xbdb5cd17	-0.088770084
52	0x3cfe56f3	0.03104732
53	0xbbf360f7	-0.0074273306
54	0xbd7d9b7d	-0.061915863
55	0xbd84cec1	-0.06484748
56	0xbdcc82f4	-0.09985915
57	0x3d1c5c5d	0.038174022
58	0xbdd11d2d	-0.10210643
59	0xbd8b4976	-0.06801121
60	0x3e01af30	0.12664485
61	0x3c97405e	0.01846331
62	0xbcea5447	-0.02860464
63	0x3d06eb10	0.032939017
64	0xbe0a773e	-0.1352205
65	0x3d3416ab	0.04396693
66	0xbd9d78ce	-0.07689057
67	0x3c1782e9	0.00924752
68	0x3d404375	0.046939332
69	0xbcd65127	-0.026161743
70	0x3d4d7f1b	0.050170045
71	0x3d664e0f	0.056226786
72	0x3dbe8d69	0.093043156
73	0xbdecd9d6	-0.115649864
74	0x3d409c21	0.047023896
75	0xbe2d3971	-0.16916443
76	0xbc4cf60f	-0.012509837
77	0xbc0feaa2	-0.008783968
78	0xbc035000	-0.008014679
79	0x3d6896d1	0.056784455
80	0xbde72eae	-0.112882
81	0x3d902499	0.070382304
82	0x3d75cf6c	0.060012266
83	0x3c0be13a	0.008537585
84	0x3e05a872	0.13052538
85	0xbb627caf	-0.003455918
86	0xbda734a2	-0.08164336
87	0x3d88a651	0.06672347
88	0xbd458ddd	-0.048230994
89	0x3daf36a9	0.085553475
90	0xbd095ffe	-0.03353881
91	0xbd7cd1e5	-0.06172361
92	0x3dacf7a3	0.084456705
93	0x3d28e852	0.041237183
94	0x3c4ca04d	0.012489391
95	0x3c46919b	0.012119676
96	0x3d4094db	0.04701696
97	0x3e214de3	0.15752368
98	0x3cc80e90	0.024421006
99	0x3e0e5350	0.13898969
100	0x3dcb07e5	0.09913615
101	0x3e7b6901	0.24551775
102	0x3cac0ebc	0.02100312
103	0xbdaee4c8	-0.0853973
104	0x3cb9b85f	0.022670923
105	0x3d8aeeaf	0.067838065
106	0xbd7e1ac7	-0.062037256
107	0xbe345435	-0.17610247
108	0x3d1ac086	0.03778126
109	0xbd64b490	-0.05583626
110	0xbe2798ae	-0.16366836
111	0xbe69a627	-0.22817288
112	0xbde2482d	-0.11048923
113	0xbe2f567e	-0.17122838
114	0x3da56249	0.08075387
115	0xbdb27043	-0.087128185
116	0xbd97103f	-0.073761456
117	0x3ce83aea	0.028348405
118	0xbdc105d3	-0.09424939
119	0x3d17b1ee	0.03703492
120	0xbd500641	-0.050787214
121	0x3d866359	0.06561918
122	0xbe094dbe	-0.13408563
123	0xbd7c1a57	-0.061548557
124	0xbd857115	-0.06515709
125	0xbd8fa1c1	-0.07013274
126	0xbe731469	-0.23738255
127	0xbde0aa41	-0.10969973
128	0xbdfff0bc	-0.12497088
129	0x3d147559	0.036244724
130	0x3d96e702	0.0736828
131	0x3bd5b181	0.0065214043
132	0x3d4aed9a	0.049543
133	0xbdd17422	-0.10227229
134	0x3d54a310	0.05191332
135	0x3d38881a	0.04505167
136	0x3e097bd5	0.13426144
137	0xbd488a84	-0.048960224
138	0x3e0deae8	0.13859141
139	0x3bb0a31d	0.0053905384
140	0xbde533f6	-0.111915514
141	0xbbfbb243	-0.0076811626
142	0xbc451566	-0.012029028
143	0x3d1c6e07	0.038190868
144	0x3d3ed071	0.046585504
145	0xbe42a738	-0.19009101
146	0x3e3b752b	0.18306415
147	0x3d7c7c27	0.06164184
148	0x3d1c8cfc	0.03822039
149	0x3d3a2c09	0.04545215
150	0x3d214997	0.03937682
151	0x3d8f2d41	0.069910534
152	0xbd44b871	-0.04802746
153	0x3cef5a7c	0.029217951
154	0xbcf6d786	-0.030132066
155	0xbd4a182d	-0.049339462
156	0xbc3c4df8	-0.011493199
157	0x3dab269f	0.08356976
158	0xbe1b61a3	-0.15173964
159	0xbdba3182	-0.09091474
160	0xbd3b56c4	-0.045737043
161	0x3db25422	0.08707453
162	0x3c99e8ac	0.018787704
163	0x3ce2bb25	0.027677128
164	0x3d6bbf65	0.057555575
165	0x3d9df672	0.07713021
166	0x3d1b6547	0.037938382
167	0xbe7fb982	-0.2497311
168	0xbd9bba94	-0.07603946
169	0xbdbabc89	-0.091179915
170	0xbdf4eaa3	-0.11958816
171	0xbe427b49	-0.18992342
172	0x3b8e0f96	0.004335354
173	0xbd5ca53f	-0.05386853
174	0xbe2e9cd2	-0.1705201
175	0x3c485cef	0.012229188
176	0x3d3178d9	0.04332814
177	0x3dc72f8b	0.09725865
178	0x3d5c9633	0.05385418
179	0xbe3b293b	-0.18277447
180	0xbd8820a4	-0.06646851
181	0x3ce01862	0.027355377
182	0xbd792885	-0.060829658
183	0x3c9cc73f	0.019137977
184	0xbe138b4c	-0.14408606
185	0xbe13484c	-0.14383048
186	0x3d8a6f7d	0.06759546
187	0xbc4a4063	-0.012344453
188	0xbd82962e	-0.06376301
189	0x3de28186	0.11059861
190	0xbdd13729	-0.10215599
191	0x3c24659b	0.01003399

running_var f4 [192]
0	0x3c4470c0	0.011989772
1	0x3b1bb678	0.0023759883
2	0x3b6714ab	0.0035260122
3	0x3bc3a9c6	0.0059711663
4	0x3c6ae990	0.014337912
5	0x3b2a33aa	0.0025970736
6	0x3a251398	0.000629717
7	0x3ba9ba16	0.005179654
8	0x3b721c63	0.003694319
9	0x3b826dec	0.003980389
10	0x3b02c4d1	0.0019953738
11	0x3c0e97ac	0.008703154
12	0x3b33f2cc	0.002745795
13	0x3af47d25	0.0018653019
14	0x3b9ade05	0.004726174
15	0x3b91bb26	0.0044473587
16	0x3af4b35e	0.0018669178
17	0x3b3470af	0.0027532985
18	0x3b9e8135	0.00483718
19	0x3c19c5d5	0.009385546
20	0x3b5701ea	0.0032807537
21	0x3bb8a81e	0.0056352755
22	0x3a7af3b3	0.0009573057
23	0x3c188d88	0.009311087
24	0x3bcb273a	0.0061997445
25	0x3a62a3ff	0.0008645653
26	0x3c63274e	0.013864351
27	0x3b70e6aa	0.003675858
28	0x3af22e56	0.0018476944
29	0x3bbcd7cb	0.005763029
30	0x3b8eea5d	0.0043614344
31	0x3c8b9f8d	0.017043853
32	0x3b319481	0.0027096572
33	0x3b0d2ce0	0.002154164
34	0x3b57ede8	0.00329482
35	0x3b4b2bd6	0.003100147
36	0x3ac74f46	0.001520612
37	0x3baddb1f	0.0053056623
38	0x3ae08678	0.0017129919
39	0x3c3109b0	0.010805532
40	0x3b9d4eea	0.004800667
41	0x39b9d0c2	0.00035441486
42	0x3b17bf29	0.0023154712
43	0x3c28ab29	0.010294714
44	0x3bf3ad30	0.007436417
45	0x3a83f39e	0.001006711
46	0x3b392424	0.0028250301
47	0x3c22f6ef	0.009946569
48	0x3bcf3517	0.0063234675
49	0x3b9d4d03	0.0048004403
50	0x3bf0d17e	0.007349192
51	0x3c26285c	0.010141458
52	0x3b5ebab3	0.0033985793
53	0x3b365665	0.0027822491
54	0x3b343fbe	0.0027503814
55	0x3b412190	0.0029469468
56	0x3ba495f5	0.005022759
57	0x3b5b3166	0.0033446192
58	0x3b9982c9	0.0046847803
59	0x3bb55425	0.0055337125
60	0x3baa5471	0.0051980545
61	0x3a100208	0.0005493467
62	0x3ac78350	0.0015221629
63	0x3b4976a7	0.0030740888
64	0x3c0d3ca7	0.008620418
65	0x3b681476	0.0035412586
66	0x3bb98645	0.005661758
67	0x39abb41d	0.00032749856
68	0x3ba4e390	0.0050320104
69	0x3aa0736f	0.0012241433
70	0x3b486f65	0.0030583974
71	0x3be77fda	0.0070648016
72	0x3c84a3a1	0.016191306
73	0x3ba1a3c9	0.004932855
74	0x3b1a7b80	0.0023572147
75	0x3b93edba	0.004514423
76	0x39f5c705	0.00046878323
77	0x3afaa8bf	0.0019123777
78	0x3aca243e	0.0015422178
79	0x3b2bdbbd	0.0026223504
80	0x3b7a28d5	0.003817131
81	0x3bd8dbd7	0.006618004
82	0x3c09b024	0.008403812
83	0x3aa23bc0	0.0012377426
84	0x3bd385bd	0.006455152
85	0x3a7a2be0	0.0009543281
86	0x3bafc1ef	0.005363695
87	0x3bc6350e	0.006048805
88	0x3b297e30	0.0025862567
89	0x3c788855	0.015169223
90	0x3b198ce7	0.0023429932
91	0x3b6eaa01	0.0036417248
92	0x3c25bd14	0.0101158805
93	0x3b69e983	0.0035692162
94	0x3b6ea215	0.0036412526
95	0x3a27201d	0.00063753297
96	0x3aa1b8d7	0.0012338412
97	0x3cd3b0d0	0.025841147
98	0x3b4ee1a1	0.003156759
99	0x3c86b78e	0.016444948
100	0x3c89b9bd	0.0168122
101	0x3ba3dddd	0.0050008134
102	0x3ae5a267	0.0017519713
103	0x3b49612c	0.0030728085
104	0x3aae87e2	0.0013315643
105	0x3c0a5e89	0.0084453905
106	0x3b4d52a2	0.003132977
107	0x3b2afb0a	0.0026089572
108	0x3af7c485	0.0018903172
109	0x3b969dc3	0.0045964434
110	0x3b581642	0.003297225
111	0x3b1777f6	0.0023112274
112	0x3bae2f23	0.0053156777
113	0x3b8387b1	0.0040139784
114	0x3b2cbb8b	0.0026356902
115	0x3b817caf	0.003951631
116	0x3be54e20	0.0069978386
117	0x3b343a13	0.0027500435
118	0x3a842345	0.0010081312
119	0x3b406318	0.002935594
120	0x3b4a70aa	0.0030889907
121	0x3b179daf	0.0023134758
122	0x3bb111d4	0.0054037366
123	0x3afef940	0.0019452944
124	0x3b9a7b1e	0.0047143837
125	0x3bd1e2c4	0.0064052064
126	0x3be7aa8b	0.007069891
127	0x3b9bd8ef	0.004756085
128	0x3c05a15f	0.00815615
129	0x3b440032	0.0029907343
130	0x3bfac87c	0.007653294
131	0x3985b72d	0.00025504213
132	0x3b90c403	0.0044178977
133	0x3b1f0d2c	0.0024269326
134	0x3b655c0a	0.0034997487
135	0x3b970d73	0.0046097576
136	0x3ccf2643	0.0252868
137	0x3b40fa7c	0.0029446175
138	0x3c0349b5	0.008013179
139	0x3a55f76c	0.0008162174
140	0x3b7d164c	0.0038618026
141	0x3a969ea1	0.0011491367
142	0x3a841f7c	0.0010080184
143	0x3b26b796	0.0025439016
144	0x3b79f850	0.003814239
145	0x3c5738ef	0.013136133
146	0x3c9a7cf6	0.018858414
147	0x3bce8d52	0.006303468
148	0x3b2723d5	0.0025503535
149	0x39ef7a08	0.00045676553
150	0x3b090bbe	0.002091154
151	0x3b62f946	0.0034633442
152	0x3b73d436	0.0037205345
153	0x3ab668cb	0.0013916729
154	0x3b046173	0.0020199686
155	0x3b04c90f	0.0020261442
156	0x3b43c973	0.0029874712
157	0x3c376622	0.011193784
158	0x3b4a9238	0.0030909907
159	0x3c09203e	0.008369504
160	0x3b06a897	0.0020547265
161	0x3bafb7c8	0.0053624846
162	0x3a669376	0.0008795777
163	0x3b3ec753	0.0029110506
164	0x3b84ee9f	0.004056766
165	0x3c3846fc	0.011247393
166	0x3baf8624	0.005356567
167	0x3c963789	0.018337028
168	0x3b3b0db6	0.0028542108
169	0x3b3c3d0b	0.0028722908
170	0x3ba63db5	0.005073274
171	0x3b01091c	0.0019689268
172	0x38828d80	6.2252395e-05
173	0x3b7f50e6	0.0038958131
174	0x3be7daf5	0.0070756623
175	0x3a0be4c2	0.0005336517
176	0x3bb2f9b9	0.005461898
177	0x3b808db5	0.003923143
178	0x3be58c01	0.007005215
179	0x3c89bb98	0.016813084
180	0x3b69fdab	0.0035704176
181	0x3bcf3aa9	0.0063241315
182	0x3b7e1917	0.003877228
183	0x3a9f4f52	0.0012154377
184	0x3bc30aff	0.0059522386
185	0x3bbf6e8d	0.005842036
186	0x3b285c64	0.0025689835
187	0x3a4f05cc	0.0007897287
188	0x3b34ea32	0.0027605412
189	0x3b96852a	0.004593511
190	0x3bc3423a	0.0059588226
191	0x3a196b8d	0.0005852513
