experiments/model_repositories/robot/face_detection/model_files/block_10.pth (torch, 86439 bytes, 15 tensors)

weight f4 [32]
0.34637162 0.24542466 0.33648315 0.28706965 0.42712128 0.19753997 0.33973736 0.3666015
0.26885724 0.41098863 0.57390136 0.24658996 0.2557168 0.32131243 0.23575564 0.37751588
0.56768334 0.31674853 0.2745537 0.510373 0.42590842 0.21895318 0.3452451 0.57860523
0.30427477 0.28322473 0.25091767 0.44070062 0.27952293 0.43751112 0.31721812 0.43020296
00000000: 9f57 b13e 9a50 7b3e 8547 ac3e cbfa 923e
00000010: a4af da3e eb47 4a3e 0ef2 ad3e 31b3 bb3e
00000020: a8a7 893e 1a6d d23e 33eb 123f 1482 7c3e
00000030: 50ed 823e 1083 a43e ed69 713e c349 c13e
00000040: b253 113f dd2c a23e 4d92 8c3e cea7 023f
00000050: ab10 da3e 4335 603e f7c3 b03e 791f 143f
00000060: e7c9 9b3e d502 913e 4878 803e 83a3 e13e
00000070: a11d 8f3e 7501 e03e 6a6a a23e 9043 dc3e

bias f4 [32]
-2.1185656e-07 2.4495102e-06 1.0783264e-06 -7.026625e-07 -3.0402444e-07 -1.6733791e-06 3.5667318e-07 -1.2048748e-07
1.9812464e-06 4.852827e-07 -1.678322e-06 -1.0534208e-06 1.6192731e-06 3.546305e-08 -2.7577613e-07 1.485446e-06
8.192534e-07 -1.5219704e-06 -8.951904e-07 -1.2467266e-06 3.5554685e-08 2.7290837e-06 -3.380992e-06 7.299407e-07
-3.1777552e-07 9.82492e-07 -1.9592862e-06 -1.8436954e-06 6.159823e-07 4.8480877e-07 -2.2752442e-06 -6.0966846e-07
00000000: b07a 63b4 4462 2436 03bb 9035 999e 3cb5
00000010: cd38 a3b4 de98 e0b5 ca7c bf34 595f 01b4
00000020: 8ef5 0436 6044 0235 b442 e1b5 4363 8db5
00000030: cd55 d935 0950 1833 620e 94b4 895f c735
00000040: aaea 5b35 8146 ccb5 044d 70b5 3355 a7b5
00000050: cab4 1833 4d25 3736 00e5 62b6 25f1 4335
00000060: bc9a aab4 2bde 8335 487c 03b6 e474 f7b5
00000070: fb59 2535 ce23 0235 66b0 18b6 19a8 23b5

running_mean f4 [32]
-0.006533013 -0.11170427 0.15774661 -0.33435783 0.035173018 0.015727043 -0.0765962 0.14836097
0.23203042 -0.020285167 -0.022405794 0.10546556 0.24830024 0.25006986 0.008421617 0.13393591
-0.13197358 0.08320867 -0.0888315 -0.1594935 -0.334156 0.18565942 -0.077965766 0.15429063
-0.050111778 0.064350836 0.19525468 -0.20326947 -0.25322676 0.06580054 0.05852934 -0.071902595
00000000: e312 d6bb 35c5 e4bd 5488 213e f330 abbe
00000010: 9511 103d 00d6 803c 78de 9cbd f0eb 173e
00000020: 6299 6d3e 142d a6bc 5b8c b7bc 54fe d73d
00000030: 6b42 7e3e 2809 803e d2fa 093c 7f26 093e
00000040: 1524 07be 4f69 aa3d 4aed b5bd 4452 23be
00000050: 7f16 abbe 811d 3e3e 84ac 9fbd 5dfe 1d3e
00000060: 0242 4dbd 5fca 833d d8f0 473e df25 50be
00000070: f0a6 81be 6fc2 863d 76bc 6f3d ab41 93bd

running_var f4 [32]
0.025937514 0.017796531 0.028852772 0.020530416 0.034472883 0.013691441 0.03748069 0.02484384
0.015127107 0.027621105 0.047856785 0.030274164 0.021730922 0.024661222 0.025826944 0.021991396
0.056938376 0.028932314 0.018723937 0.036265954 0.046098746 0.018486382 0.018060418 0.059974864
0.028618507 0.025727779 0.017350757 0.040208414 0.0275188 0.055071544 0.017748531 0.036322646
00000000: e97a d43c 08ca 913c a65c ec3c 672f a83c
00000010: 7033 0d3d 1152 603c 5a85 193d 4f85 cb3c
00000020: afd7 773c a845 e23c 7a05 443d 8601 f83c
00000030: 0c05 b23c 5506 ca3c 0793 d33c 4d27 b43c
00000040: 3738 693d 7603 ed3c f162 993c 9c8b 143d
00000050: 0ad2 3c3d c170 973c 71f3 933c 34a8 753d
00000060: 5c71 ea3c 10c3 d23c 2d23 8e3c 94b1 243d
00000070: 1b6f e13c b392 613d 5e65 913c 0ec7 143d

weight f4 [32, 192, 1, 1]
-0.0718136 0.09687 -0.041739177 -0.04361997 0.06688241 0.18705341 -0.08562005 0.07262993
-0.030089334 0.08983175 0.05746273 0.16949525 -0.024426393 -0.046249393 -0.011735061 -0.006501887
-0.061881714 0.085106395 0.05812435 0.108037725 -0.15387346 0.06558633 0.20446597 0.07429527
0.114247285 -0.121261306 -0.02527581 -0.017238596 -0.07468409 -0.16323829 0.023087341 0.111399464
-0.009697014 0.0036161523 0.040574662 -0.06070447 -0.029158184 -0.02791457 -0.025251357 -0.0812469
-0.07394023 -0.010536554 -0.06257674 0.11382728 0.022567023 -0.08300753 0.07532643 0.09108327
0.05999465 0.11535611 0.024435567 0.07747245 -0.018652378 -0.0046955757 0.18180437 -0.0934324
-0.13588649 0.024095431 -0.18521687 -0.028609313 -0.093609 0.013701903 0.20422052 0.07714114
0.0069928113 -0.045580234 0.06594728 0.04077456 0.103869654 -0.19760273 -0.015024354 -0.03232476
-0.0005796674 0.03514749 0.01710814 0.07231981 -0.12765566 -0.043836966 -0.05694451 0.08453203
-0.02939412 -0.06327449 -0.028712705 0.11631727 -0.07837154 0.023343468 -0.083947435 0.041643288
0.062407106 0.012473992 0.002512287 -0.071476124 0.09889256 0.10883442 0.022072297 0.07321457
0.06895987 -0.05448815 0.02787975 0.09428987 -0.09033212 -0.017566351 -0.091562405 0.06264466
-0.058131225 -0.026983881 0.07660586 -0.0742652 -0.024501376 -0.052856334 -0.1987156 -0.051304527
0.098314464 0.011719064 -0.007095078 -0.072034635 0.0855053 0.10408977 -0.11705983 0.08969087
-0.015980488 0.04265986 0.01764906 0.0592028 -0.03606313 -0.028111858 0.00040575172 -0.04512732
0.102000706 0.06636833 -0.11428201 0.056785677 0.013690208 0.08225972 -0.0072025387 -0.106415205
0.07548003 -0.11612889 0.004519102 -0.014591007 -0.096013 0.08879596 -0.122999564 -0.048007477
0.18108623 -0.05876382 -0.14058258 0.0025605126 -0.11872182 0.085748546 -0.057315685 -0.019761026
0.056845456 0.073262446 -0.006604351 0.17881171 0.0009696421 -0.0091424845 -0.049702626 -0.012514483
0.10018787 0.096541524 0.06657324 0.039255887 -0.07338887 0.04658894 0.022423297 -0.15610434
0.10702843 -0.0031164119 0.049296025 0.06579856 0.08327036 0.07674405 0.007805126 0.09244035
0.050920542 -0.007955942 0.009968753 -0.014407133 0.18152505 0.20188116 0.058224663 0.09255331
0.070052855 -0.051472485 0.020289948 0.10101841 -0.08252657 -0.046663165 0.08983357 -0.019158194
0.062136363 0.016004905 0.028191987 -0.06231373 -0.026689375 -0.013163634 0.123752184 -0.003403793
0.06335549 -0.08552527 -0.0011109475 -0.06136787 0.03114482 -0.009151693 0.049271222 -0.07611009
0.09197359 -0.112401776 -0.11420671 -0.014234794 0.15990101 0.20235032 0.13722573 -0.016750978
-0.013489973 0.014049208 -0.06992734 0.10823125 0.017562503 -0.08301595 -0.08123891 0.021981813
0.10257723 0.11097725 0.017837072 0.04387124 0.03637233 0.013369055 0.04269827 -0.011722595
-0.018110825 0.0357062 -0.0487564 0.0355289 -0.11978146 0.021303289 0.068065956 -0.051417246
0.06188348 0.08282765 -0.020106975 0.009730358 -0.028643142 -0.034983948 -0.16512907 0.09307812
0.09258804 0.1081318 0.024578488 0.045284078 -0.07678703 -0.036513302 -0.11405995 -0.19399828
00000000: 0213 93bd c763 c63d b3f6 2abd dbaa 32bd
00000010: a5f9 883d ee8a 3f3e 9159 afbd 00bf 943d
00000020: e87d f6bc b5f9 b73d 0a5e 6b3d 2a90 2d3e
00000030: dc19 c8bc 0170 3dbd 6a44 40bc c80d d5bb
00000040: ae77 7dbd 434c ae3d cc13 6e3d e242 dd3d
00000050: 0191 1dbe 2052 863d 875f 513e 1e28 983d
00000060: 7bfa e93d d957 f8bd 370f cfbc f537 8dbc
00000070: f9f3 98bd f027 27be aa21 bd3c 6725 e43d
00000080: 39e0 1ebc f8fc 6c3b 9e31 263d 40a5 78bd
00000090: 25dd eebc 19ad e4bc efdb cebc c664 a6bd
000000a0: fa6d 97bd 83a1 2cbc 3c28 80bd 471e e93d
000000b0: 7ade b83c daff a9bd be44 9a3d de89 ba3d
000000c0: f3bc 753d d33f ec3d 192d c83c e0a9 9e3d
000000d0: dfcc 98bc 58dd 99bb ed2a 3a3e 7c59 bfbd
000000e0: d425 0bbe c863 c53c 7ea9 3dbe 145e eabc
000000f0: 13b6 bfbd f27d 603c 2f1f 513e 2dfc 9d3d
00000100: f423 e53b 57b2 3abd 5e0f 873d 3a03 273d
00000110: 9db9 d43d 5f58 4abe b528 76bc f866 04bd
00000120: d2f4 17ba d1f6 0f3d 5f26 8c3c 691c 943d
00000130: 2ab8 02be 648e 33bd a63e 69bd 211f ad3d
00000140: f0cb f0bc 0e96 81bd e836 ebbc c037 ee3d
00000150: 4281 a0bd cd3a bf3c a2ec abbd 2792 2a3d
00000160: 989e 7f3d b75f 4c3c 2fa5 243b 1362 92bd
00000170: 2f88 ca3d 95e4 de3d f6d0 b43c 85f1 953d
00000180: d53a 8d3d f72e 5fbd 1364 e43c 0c1b c13d
00000190: 0c00 b9bd 4fe7 8fbc 1285 bbbd d84b 803d
000001a0: 021b 6ebd 4d0d ddbc 88e3 9c3d 5a18 98bd
000001b0: 1cb7 c8bc e27f 58bd 1a7c 4bbe b224 52bd
000001c0: 1859 c93d 5101 403c d47d e8bb e586 93bd
000001d0: 671d af3d 042d d53d 10bd efbd d9af b73d
000001e0: 83e9 82bc 1bbc 2e3d c394 903c a37e 723d
000001f0: efb6 13bd d74a e6bc 13bb d439 6dd7 38bd
00000200: bfe5 d03d 1eec 873d b00c eabd 1998 683d
00000210: e54c 603c c977 a83d 4603 ecbb 37f0 d9bd
00000220: 4695 9a3d fcd4 edbd fa14 943b 1e0f 6fbc
00000230: 77a2 c4bd a8da b53d 32e7 fbbd 7da3 44bd
00000240: ab6e 393e 55b2 70bd e1f4 0fbe 46ce 273b
00000250: 6d24 f3bd ef9c af3d dac3 6abd e0e1 a1bc
00000260: c8d6 683d 9f0a 963d 5069 d8bb 6b1a 373e
00000270: 942f 7e3a 5cca 15bc fb94 4bbd 8c09 4dbc
00000280: 4c2f cd3d 90b7 c53d 8d57 883d c8ca 203d
00000290: e74c 96bd 0bd4 3e3d 10b1 b73c d1d9 1fbe
000002a0: b931 db3d b73c 4cbb a1ea 493d 65c1 863d
000002b0: a789 aa3d fc2b 9d3d 24c2 ff3b 5e51 bd3d
000002c0: 0f92 503d a459 02bc fb53 233c e50b 6cbc
000002d0: b4e1 393e efb9 4e3e fc7c 6e3d 978c bd3d
000002e0: df77 8f3d d0d4 52bd 1b37 a63c bde2 ce3d
000002f0: b103 a9bd e021 3fbd aafa b73d a5f1 9cbc
00000300: b382 7e3d b81c 833c e2f2 e63c af3c 7fbd
00000310: ada3 dabc 48ac 57bc c971 fd3d 2c12 5fbb
00000320: 86c0 813d df27 afbd 369d 91ba e05c 7bbd
00000330: 6c23 ff3c fcf0 15bc 9fd0 493d 9bdf 9bbd
00000340: a65c bc3d e732 e6bd 35e5 e9bd 0e39 69bc
00000350: 17bd 233e ec34 4f3e e784 0c3e 5939 89bc
00000360: 0c05 5dbc a62e 663c 1136 8fbd 58a8 dd3d
00000370: 3ddf 8f3c 4404 aabd 9660 a6bd 3413 b43c
00000380: 0314 d23d 0a48 e33d 0d1f 923c 54b2 333d
00000390: 27fb 143d e209 5b3c 62e4 2e3d 2110 40bc
000003a0: 275d 94bc aa40 123d cab4 47bd c086 113d
000003b0: fb4f f5bd 3c84 ae3c 2a66 8b3d e49a 52bd
000003c0: 8879 7d3d 8ba1 a93d 62b7 a4bc 146c 1f3c
000003d0: 06a5 eabc 544b 0fbd 9817 29be be9f be3d
000003e0: cc9e bd3d 3574 dd3d d358 c93c cc7b 393d
000003f0: 8542 9dbd f98e 15bd 4398 e9bd 7ca7 46be

weight f4 [192]
0.22130804 0.16043799 0.24818128 0.17461506 0.10873572 0.27438384 0.18893516 0.21665306
0.11227436 0.19378577 0.30992493 0.3293907 0.19420385 0.16761614 0.15231752 0.12607631
0.26660627 0.24548548 0.15451907 0.244389 0.35343006 0.36575428 0.15304266 0.21517973
0.23320311 0.28398553 0.14739066 0.17814709 0.25136107 0.05054937 0.15547146 0.17144376
0.109204896 0.15359062 0.15807049 0.23166464 0.26974028 0.24270934 0.25127906 0.20614925
0.24154904 0.25041336 0.3086734 0.17255948 0.21248624 0.19780448 0.20749807 0.22197342
0.328185 0.20883061 0.22812289 0.20418474 0.25669363 0.15092874 0.26861802 0.29092896
0.15462302 0.27622688 0.11571655 0.12989336 0.313078 0.16977647 0.20147802 0.2360342
0.091321945 0.21727304 0.18332577 0.18923788 0.10017701 0.089105375 0.2519833 0.162645
0.12300668 0.1253725 0.18483467 0.2638298 0.23289895 0.22066279 0.1751247 0.14194565
0.18040821 0.20357901 0.15989994 0.3907297 0.2129754 0.1773833 0.22540665 0.1504243
0.16805892 0.24794175 0.16156575 0.20797937 0.15618756 0.26349294 0.15726632 0.10079072
0.22164004 0.2821501 0.22148064 0.27204603 0.17580251 0.21821837 0.15206541 0.2186149
0.16601671 0.19785225 0.18872833 0.21376003 0.25042602 0.22998357 0.19318649 0.21676071
0.21922041 0.2182375 0.16940705 0.16290249 0.07412885 0.19034521 0.27660316 0.2403837
0.15997589 0.17106067 0.15453458 0.19330133 0.12278837 0.21500054 0.109773345 0.1923246
0.1948576 0.24771763 0.25367633 0.16866854 0.21747969 0.25751925 0.23038763 0.15183516
0.25207117 0.20165509 0.18002303 0.20053619 0.10402401 0.15666166 0.16798334 0.28231433
0.19246969 0.24629189 0.17927408 0.24812376 0.19003832 0.2010629 0.24262094 0.18364488
0.18464817 0.18424277 0.29897377 0.5683288 0.22566503 0.38891533 0.24898615 0.22600387
0.24570093 0.2512845 0.30357647 0.1951396 0.23490238 0.16490237 0.17550108 0.25828087
0.17747785 0.22103128 0.0765114 0.23518625 0.2482213 0.2353779 0.11955211 0.22344753
0.19998796 0.14801072 0.15452918 0.17414144 0.14626414 0.20295048 0.2165442 0.21747589
0.20059112 0.3093336 0.2823401 0.2674835 0.2870178 0.21549664 0.23132877 0.18527852
00000000: 939e 623e db49 243e 3c23 7e3e 4ace 323e
00000010: d5b0 de3d 0a7c 8c3e 3878 413e 4dda 5d3e
00000020: 1af0 e53d c76f 463e 7bae 9e3e e6a5 a83e
00000030: 60dd 463e 91a3 2b3e 20f9 1b3e 261a 013e
00000040: 9e80 883e 8c60 7b3e 3f3a 1e3e 1c41 7a3e
00000050: c9f4 b43e 2544 bb3e 37b7 1c3e 1358 5c3e
00000060: cccc 6e3e 8d66 913e 94ed 163e 316c 363e
00000070: 66b2 803e db0c 4f3d e933 1f3e f48e 2f3e
00000080: d1a6 df3d dc46 1d3e 3bdd 213e 7f39 6d3e
00000090: 661b 8a3e cc88 783e a6a7 803e ca18 533e
000000a0: a258 773e 2e36 803e 710a 9e3e 6fb3 303e
000000b0: fe95 593e 428d 4a3e 607a 543e 004d 633e
000000c0: dd07 a83e b1d7 553e 0c99 693e ce15 513e
000000d0: 596d 833e 108d 1a3e 4d88 893e a4f4 943e
000000e0: 7f55 1e3e 9c6d 8d3e ccfc ec3d c402 053e
000000f0: c24b a03e e2d9 2d3e 4150 4e3e f3b2 713e
00000100: 0007 bb3d d37c 5e3e c0b9 3b3e 93c7 413e
00000110: 9b29 cd3d e17c b63d f503 813e 698c 263e
00000120: edea fb3d a661 003e 4d45 3d3e b314 873e
00000130: 107d 6e3e 6df5 613e e453 333e 335a 113e
00000140: eebc 383e 0477 503e cfbc 233e b90d c83e
00000150: 3916 5a3e f8a3 353e 00d1 663e d408 1a3e
00000160: a317 2c3e 71e4 7d3e 7e71 253e 8bf8 543e
00000170: a2ef 1f3e 8ce8 863e 6c0a 213e 5d6b ce3d
00000180: 9bf5 623e fa75 903e d2cb 623e 9e49 8b3e
00000190: 9305 343e a374 5f3e 09b7 1b3e 96dc 5f3e
000001a0: 4900 2a3e c899 4a3e 0042 413e e9e3 5a3e
000001b0: d737 803e d080 6b3e aed2 453e 85f6 5d3e
000001c0: 517b 603e a779 5f3e 0b79 2d3e e9cf 263e
000001d0: ded0 973d dbe9 423e ee9e 8d3e 2527 763e
000001e0: b8d0 233e 872a 2f3e 503e 1e3e c9f0 453e
000001f0: 7878 fb3d 1a29 5c3e d9d0 e03d bdf0 443e
00000200: c088 473e b1a9 7d3e dde1 813e 72b7 2c3e
00000210: ffb2 5e3e 90d9 833e bcea 6b3e ad7a 1b3e
00000220: 790f 813e ac7e 4e3e f557 383e 5c59 4d3e
00000230: 8a0a d53d ea6b 203e d303 2c3e 818b 903e
00000240: c616 453e f133 7c3e a093 373e 2814 7e3e
00000250: 6899 423e 6fe3 4d3e a071 783e 670d 3c3e
00000260: 6914 3d3e 23aa 3c3e 1713 993e ff7d 113f
00000270: bc14 673e e91f c73e 3af6 7e3e 8f6d 673e
00000280: 0699 7b3e 5da8 803e 606e 9b3e add2 473e
00000290: 408a 703e 2bdc 283e 8eb6 333e 643d 843e
000002a0: c1bc 353e 0656 623e 02b2 9c3d aad4 703e
000002b0: b92d 7e3e e706 713e bdd7 f43d 6ecf 643e
000002c0: a5c9 4c3e 1f90 173e e63c 1e3e 2252 323e
000002d0: 44c6 153e 40d2 4f3e c3bd 5d3e 00b2 5e3e
000002e0: c267 4d3e f960 9e3e e28e 903e 99f3 883e
000002f0: fff3 923e 27ab 5c3e 73e1 6c3e a7b9 3d3e

bias f4 [192]
-0.09471782 -0.042514917 -0.06445721 -0.059110846 0.0043526953 -0.01751197 0.014631213 -0.07624381
0.09990098 0.18659979 -0.13501142 -0.26110822 -0.15876691 -0.034412477 0.033907596 0.2068337
-0.11727893 0.0016392459 -0.014663217 -0.00811913 -0.04284879 -0.2720256 0.28558707 -0.014982749
-0.015751243 0.069997214 -0.0461693 -0.060264323 -0.019009825 0.44257754 -0.0064513637 -0.07257954
0.36832693 -0.010890436 0.03938751 0.20883809 -0.026040457 -0.28282732 -0.09766996 0.06259459
-0.01819479 0.25899842 -0.075610444 -0.081458256 0.10355275 -0.034357667 -0.067988254 -0.029490441
-0.04080962 -0.045122594 -0.04220066 0.021983527 -0.012157412 0.024508981 0.15070222 -0.0077915136
0.32869038 -0.16938527 0.122007966 0.012626347 -0.08571037 0.0075850333 -0.02884071 -0.01968424
0.063567646 -0.12304352 -0.022981977 0.1267456 0.401161 0.49361017 -0.02630763 -0.10797561
-0.0014384225 0.06916493 0.06273165 0.0009360875 0.022659825 -0.024501244 0.043027524 -0.03721685
-0.0027235744 0.0326504 -0.07749277 -0.32058406 -0.050684 -0.05981884 -0.26321688 0.033491645
0.24738072 0.0055423835 -0.054088727 -0.23267418 -0.016130855 -0.25866938 0.20282105 0.32550916
-0.10348384 -0.15090616 0.01633184 -0.030339692 -0.012196982 0.020702297 0.08005188 -0.017223943
-0.06177857 -0.1930637 -0.001571289 -0.0049814684 -0.09564259 0.053902816 -0.124119 -0.022531059
0.044394754 0.043236304 0.17022996 0.3026625 0.34202293 -0.010896796 -0.1373807 -0.05121883
-0.045850012 0.0990536 -0.0889356 -0.032446638 -0.00031415172 -0.013477717 0.021620769 -0.0019857571
-0.009699942 -0.19223762 -0.027453534 -0.065014094 -0.037007336 0.0032917212 0.09428435 -0.024933405
-0.09100897 0.091604084 -0.037068672 -0.056040473 0.39183968 0.009411897 -0.006591185 -0.2272793
-0.015622033 -0.1877144 -0.04063672 -0.05024515 -0.023235634 -0.023420453 -0.005342387 0.16788103
-0.008506217 -0.015657425 -0.38592482 -0.4025247 -0.06782752 -0.35718098 -0.013983914 -0.012371645
-0.15357803 -0.12608571 -0.25715885 0.049749393 -0.018784994 -0.0008131706 -0.00038736753 0.010641572
-0.0030342245 -0.18618043 0.4354382 -0.034514837 -0.14164285 -0.09309237 0.095577285 -0.011429148
0.19836429 -0.11896561 -0.062913865 0.046594 -0.016425053 -0.043966234 -0.017057823 -0.011723192
0.007624503 -0.37042472 -0.08588609 -0.0038847518 -0.030452978 0.04166411 0.020924393 0.034574762
00000000: 6bfb c1bd 1f24 2ebd 2402 84bd 371e 72bd
00000010: 0ea1 8e3b 4375 8fbc c1b7 6f3c b725 9cbd
00000020: e398 cc3d 0414 3f3e 6f40 0abe faaf 85be
00000030: cb93 22be 19f4 0cbd b1e2 0a3d 37cc 533e
00000040: f02f f0bd f7db d63a fd3d 70bc 1906 05bc
00000050: 3682 2fbd f046 8bbe 7838 923e 347a 75bc
00000060: c008 81bc b35a 8f3d 051c 3dbd b9d7 76bd
00000070: 7eba 9bbc 8699 e23e f665 d3bb 95a4 94bd
00000080: 5995 bc3e cd6d 32bc cc54 213d a7d9 553e
00000090: cc52 d5bc bece 90be 3007 c8bd 9831 803d
000000a0: 3e0d 95bc 719b 843e a6d9 9abd 96d3 a6bd
000000b0: 7713 d43d a0ba 0cbd 6d3d 8bbd f095 f1bc
000000c0: fd27 27bd 78d2 38bd 99da 2cbd cc16 b43c
000000d0: e22f 47bc 0fc7 c83c af51 1a3e f44f ffbb
000000e0: 1b4a a83e 5573 2dbe 50df f93d bdde 4e3c
000000f0: eb88 afbd df8b f83b 5a43 ecbc d840 a1bc
00000100: c12f 823d 3efe fbbd b344 bcbc 99c9 013e
00000110: f964 cd3e 79ba fc3e 1983 d7bc 5122 ddbd
00000120: 7389 bcba 58a6 8d3d 7479 803d c563 753a
00000130: 19a1 b93c d5b6 c8bc a13d 303d b270 18bd
00000140: ff7d 32bb 6dbc 053d 88b4 9ebd 9823 a4be
00000150: 079a 4fbd 9a04 75bd 5dc4 86be 892e 093d
00000160: 5f51 7d3e e29c b53b 248c 5dbd 2442 6ebe
00000170: db24 84bc 5070 84be 52b0 4f3e 23a9 a63e
00000180: 56ef d3bd 2587 1abe 5aca 853c f28a f8bc
00000190: dad5 47bc dd97 a93c 3df2 a33d 3a19 8dbc
000001a0: 870b 7dbd 7eb2 45be b6f3 cdba 963b a3bb
000001b0: 43e0 c3bd 33c9 5c3d 1a32 febd 0e93 b8bc
000001c0: 46d7 353d 8d18 313d c350 2e3e 94f6 9a3e
000001d0: a11d af3e 7a88 32bc 87ad 0cbe d6ca 51bd
000001e0: 39cd 3bbd 9ddc ca3d de23 b6bd c4e6 04bd
000001f0: bbb4 a4b9 a4d1 5cbc 0a1e b13c 7a23 02bb
00000200: 81ec 1ebc f0d9 44be 3ce6 e0bc 1c26 85bd
00000210: 0195 17bd ebb9 573b 2718 c13d 2441 ccbc
00000220: e962 babd ec9a bb3d 52d5 17bd b28a 65bd
00000230: 369f c83e 5b34 1a3c defa d7bb e8bb 68be
00000240: 8ef3 7fbc 3438 40be b072 26bd dccd 4dbd
00000250: a858 bebc 40dc bfbc 310f afbb 01e9 2b3e
00000260: a95d 0bbc 0044 80bc f097 c5be b817 cebe
00000270: 28e9 8abd 6de0 b6be c91c 65bc 71b2 4abc
00000280: 8f43 1dbe 9d1c 01be 53aa 83be 05c6 4b3d
00000290: fde2 99bc f52a 55ba 9717 cbb9 fd59 2e3c
000002a0: d7d9 46bb 15a6 3ebe c1f1 de3e 6e5f 0dbd
000002b0: d30a 11be 36a7 bebd 06be c33d 5241 3bbc
000002c0: 0220 4b3e 3ea4 f3bd fcd8 80bd 5ad9 3e3d
000002d0: d58d 86bc f015 34bd d9bc 8bbc a212 40bc
000002e0: f8d6 f93b 4fa8 bdbe 0ce5 afbd 5297 7ebb
000002f0: 8678 f9bc fca7 2a3d a269 ab3c 449e 0d3d

running_mean f4 [192]
0.011643057 0.0053187897 -0.013835309 0.04834539 0.0040791067 -0.05358468 -0.004918776 -0.00043648612
-0.015194391 0.024364395 -0.006970927 -0.012661431 -0.0017357878 -0.0029978005 0.004203187 0.009960531
-0.016440276 -0.017703295 0.006710796 0.013038167 -0.018859467 -0.058199704 -0.030575277 -0.11330129
-0.012891618 -0.010910463 0.007482509 -0.0014977225 -0.0033239287 -0.00790609 -0.019143932 0.0029318011
0.0031879623 0.0008579857 0.005621663 0.019379918 0.002365532 -0.04423626 -0.0056858025 -0.00019553362
-0.07577614 0.036237836 -0.001161134 -0.017561318 -0.006037812 0.0070720054 0.014844646 -0.0013327389
0.0025440902 -0.0043437276 -0.0013928919 -0.013604617 -0.0016816761 0.014628622 -0.04056559 0.00017404245
-0.036847226 -0.042003132 -0.02340776 0.0031107292 -0.0170873 0.011327586 -0.010860388 4.8195627e-05
-0.0081110075 -0.088906586 0.0070119975 -0.003725099 0.00067579787 -0.002102602 -0.0022545164 0.005931866
-0.027764907 -0.019813359 -0.02454168 -0.016163858 -0.012407688 0.008668204 -0.063150674 -0.0033582018
-0.0018041794 -0.08841299 0.009432475 -0.05612082 0.034125153 -0.039642252 0.07100317 -0.004915812
0.008474588 -0.014915436 0.009151432 0.0015205916 0.007564971 -0.027271688 -0.021772852 -0.017458003
-0.028753396 0.006896602 -0.00068300805 -0.035486177 0.008705427 0.034964073 -0.048838526 0.0065052207
0.008523575 0.022740189 -0.09312872 0.013232671 -0.06149348 -0.0013709513 0.033384923 -0.008850006
0.022092294 -0.06778501 -0.032704093 0.0047133905 -0.012443937 -0.00026304208 0.012263295 0.0006977158
-0.005240724 0.021558136 0.006072128 0.003092471 0.0006782861 0.011893807 0.01041048 -0.02251034
0.0011465742 0.012095627 -0.0029452904 0.0038847483 0.0025942333 -0.0017242398 -0.061987612 0.00024603703
-0.06081016 0.017133625 0.0024736398 -0.008026168 0.0038088213 0.0048276787 -0.034528963 -0.07580203
-0.0051363185 0.02073279 0.03084877 -0.007997273 0.009434815 -0.019639635 -0.0016860153 -0.12256455
-0.005632489 -0.00054605067 -0.087574914 -0.069099724 0.0075526787 -0.168744 0.0058890022 -0.017142698
-0.018622318 -0.02983341 -0.054091252 0.005993083 0.016381197 0.019874953 0.001986743 0.14291094
-0.0009181859 -0.035087235 -0.008080771 -0.010085775 0.0053038 -0.012017909 -0.02953034 0.004622611
-0.055985406 0.010252835 0.0028529477 0.0013808797 0.0069259135 -0.011710348 0.0077498797 0.021345204
-0.0066222465 -0.059567127 -0.050424267 0.032339476 -0.0043147686 -0.07446405 -0.08046488 0.001227823
00000000: 85c2 3e3c 3e49 ae3b 7ead 62bc d105 463d
00000010: 07aa 853b 9c7b 5bbd af2d a1bb 2dd8 e4b9
00000020: e5f1 78bc d797 c73c 606c e4bb e471 4fbc
00000030: 6083 e3ba bf76 44bb e3ba 893b 7f31 233c
00000040: c2ad 86bc 8006 91bc 3de6 db3b 099e 553c
00000050: 2b7f 9abc d062 6ebd 0179 fabc 820a e8bd
00000060: 5d37 53bc ccc1 32bc d62f f53b 3a4f c4ba
00000070: 45d6 59bb 8b88 01bc bcd3 9cbc 7623 403b
00000080: 22ed 503b 72ea 603a ed35 b83b a2c2 9e3c
00000090: 0b07 1b3b 1531 35bd f84f babb 2808 4db9
000000a0: 8530 9bbd 206e 143d 3131 98ba c1dc 8fbc
000000b0: d7d8 c5bb 48bc e73b f536 733c 4caf aeba
000000c0: c0ba 263b d455 8ebb b291 b6ba e6e5 5ebc
000000d0: b06b dcba e3ac 6f3c 1b28 26bd 2a7f 3639
000000e0: 1eed 16bd 7a0b 2cbd a1c1 bfbc 60dd 4b3b
000000f0: aafa 8bbc 5797 393c c5ef 31bc a925 4a38
00000100: 08e4 04bc a814 b6bd e6c4 e53b ca20 74bb
00000110: 0728 313a cfcb 09bb 82c0 13bb 1960 c23b
00000120: 3b73 e3bc a04f a2bc a20b c9bc 116a 84bc
00000130: 9e49 4bbc 1505 0e3c 2455 81bd 4715 5cbb
00000140: 377a ecba df11 b5bd ab8a 1a3c f2de 65bd
00000150: d1c6 0b3d ea5f 22bd 1c6a 913d d214 a1bb
00000160: 00d9 0a3c df5f 74bc e3ef 153c 964e c73a
00000170: 94e3 f73b e068 dfbc fb5c b2bc 1604 8fbc
00000180: 3e8c ebbc e4fc e13b e50b 33ba f459 11bd
00000190: 35a1 0e3c 7d36 0f3d e80a 48bd bf29 d53b
000001a0: 77a6 0b3c a249 ba3c 45ba bebd d8cd 583c
000001b0: 96e0 7bbd 7eb1 b3ba a1be 083d 9eff 10bc
000001c0: e6fa b43c ded2 8abd baf4 05bd c972 9a3b
000001d0: a8e1 4bbc e9e8 89b9 fdeb 483c eae6 363a
000001e0: 61ba abbb b09a b03c b4f8 c63b 0eab 4a3b
000001f0: 02cf 313a 3ede 423c b890 2a3c 9b67 b8bc
00000200: a548 963a bd2c 463c c605 41bb 4397 7e3b
00000210: 0304 2a3b e3ff e1ba b9e6 7dbd 88fe 8039
00000220: 1314 79bd d15b 8c3c ca1c 223b 3080 03bc
00000230: 6b9d 793b 8131 9e3b 3e6e 0dbd 183e 9bbd
00000240: 904e a8bb d0d7 a93c 8fb6 fc3c fe06 03bc
00000250: 7b94 1a3c 4de3 a0bc 49fd dcba 1f03 fbbd
00000260: be90 b8bb d724 0fba 7a5a b3bd 2884 8dbd
00000270: 767c f73b 3acb 2cbe 88f8 c03b d86e 8cbc
00000280: d58d 98bc 3265 f4bc ca8e 5dbd a061 c43b
00000290: dc31 863c ccd0 a23c 0434 023b 3f57 123e
000002a0: 6ab2 70ba a2b7 0fbd 3665 04bc ce3e 25bc
000002b0: 80cb ad3b c4e6 44bc 9de9 f1bc 4679 973b
000002c0: f450 65bd 82fb 273c 85f8 3a3b a2fe b43a
000002d0: c6f2 e23b c2dc 3fbc b4f2 fd3b 23dc ae3c
000002e0: 6eff d8bb a9fc 73bd ad89 4ebd 6676 043d
000002f0: e762 8dbb 9c80 98bd c5ca a4bd e7ee a03a

running_var f4 [192]
0.0005453341 0.00037646992 0.00076686504 0.0008026136 0.00010822816 0.0007320868 0.0011937139 0.0012298523
0.00016885146 0.0031329459 0.0013762182 0.0018607558 0.00045625985 0.0010104589 0.0003899333 0.00092127605
0.0006955583 0.0028979494 0.00049167156 0.0017928412 0.0015032147 0.0035922788 0.0023596133 0.0018981625
0.0007337939 0.0011859287 0.0004307188 0.00089549227 0.0004436174 0.00050594023 0.0005864537 0.00054233155
5.765985e-05 6.900334e-05 0.0003874199 0.0006513383 0.0008748544 0.0009471946 0.0005874127 0.0022771999
0.0040749214 0.0032279727 0.00062943576 0.0006689242 0.001085454 0.0016735232 0.00026770102 0.000558063
0.00048522415 0.0011688115 0.0007386652 0.0006665131 0.0029238327 0.000988441 0.0006781906 0.0012178508
0.0013263959 0.0022846246 0.0003557951 0.00066754007 0.00070044125 0.0018958588 0.001239351 0.0006743258
0.00029935004 0.00031072527 0.001026662 0.00075105135 0.0008762234 0.002087077 0.0013732633 0.00018808917
0.00029967967 0.0004343018 0.0010527429 0.0010068753 0.00039559044 0.0019111214 0.0011544182 0.00017387918
0.0008165637 0.003137072 0.00026937778 0.0033033583 0.0011937906 0.0006599785 0.0010718154 0.0004428465
0.000706572 0.0025343027 0.00054846506 2.310155e-05 0.0011665031 0.0010858442 0.0017826434 0.0005436807
0.001159451 0.00024169106 0.002314455 0.0012171883 0.00058987195 0.0006260365 0.0006765977 0.0016800783
0.00030826393 0.0013466068 0.0038556056 0.0032337375 0.0019401077 0.00045936264 0.0013441494 0.0012081387
0.0017750767 0.00066520047 0.0010772016 0.001201587 0.0013804801 0.00084800186 0.00052200066 0.0013093444
0.00042060565 0.00039096244 0.00026086756 0.00046200716 9.281675e-05 0.0013242072 0.00023079546 0.0006081098
0.0008877166 0.00027564864 0.0016388908 0.0008092705 0.0006159505 0.0007810202 0.0008729712 2.3915189e-05
0.00025986164 0.00040448847 0.0007516936 0.001218482 0.00050234626 0.00058890093 0.00022155864 0.003827477
0.0011880741 0.0006915982 0.00078827137 0.0004070173 0.0013132971 0.00064795493 0.00065303146 0.0015055178
0.0010229026 0.00079261174 0.0014682801 0.004740137 0.00067746174 0.0033477156 0.0047601373 0.0028370435
0.00084974564 0.0004960002 0.0018184686 0.001524644 0.001125793 0.00044511244 0.00048422557 0.0051514967
0.00040545405 0.0009671022 0.0007102056 0.0009305372 0.0009101161 0.000755772 0.0008557568 0.001060746
0.00086031307 0.0001338694 0.00013084689 0.00031383516 0.00014632408 0.00067162456 0.00063859776 0.0013173308
0.0004510859 0.0017521762 5.0321083e-05 0.00045646165 0.0012366757 0.003696588 0.001324284 0.0013737606
00000000: c0f4 0e3a f060 c539 7107 493a 7d66 523a
00000010: 8df8 e238 83e9 3f3a 6476 9c3a ff32 a13a
00000020: b80d 3139 1c52 4d3b 3862 b43a 9be4 f33a
00000030: 2936 ef39 6071 843a f66f cc39 ca81 713a
00000040: 2156 363a 86eb 3d3b 85e3 003a c5fd ea3a
00000050: 8407 c53a 706c 6b3b bea3 1a3b c4cb f83a
00000060: 135c 403a 2a71 9b3a 19d2 e139 78bf 6a3a
00000070: 5295 e839 13a1 043a 3ebc 193a 412b 0e3a
00000080: cbd7 7138 e3b5 9038 9e1e cb39 93be 2a3a
00000090: 7c56 653a 274d 783a 99fc 193a 133d 153b
000000a0: eb86 853b 658c 533b b800 253a be5a 2f3a
000000b0: cb45 8e3a 1f5a db3a 395a 8c39 f94a 123a
000000c0: af65 fe39 ce32 993a fca2 413a f0b8 2e3a
000000d0: c69d 3f3b 948e 813a 9ac8 313a 4ba0 9f3a
000000e0: 76da ad3a a4b9 153b 038a ba39 dbfd 2e3a
000000f0: d19d 373a 777e f83a b871 a23a 3dc5 303a
00000100: 15f2 9c39 d7e8 a239 0f91 863a 34e2 443a
00000110: 5bb2 653a 57c7 083b 12ff b33a cd39 4539
00000120: 531e 9d39 00b3 e339 31fc 893a 21f9 833a
00000130: 4067 cf39 987e fa3a d94f 973a 5653 3639
00000140: aa0e 563a 5697 4d3b 463b 8d39 287d 583b
00000150: f778 9c3a 6802 2d3a 287c 8c3a da2d e839
00000160: 3f39 393a 8b16 263b dec6 0f3a 33ca c137
00000170: 59e5 983a e352 8e3a 96a7 e93a cb85 0e3a
00000180: b8f8 973a 736e 7d39 1dae 173b 108a 9f3a
00000190: a3a1 1a3a 991c 243a b45d 313a 1336 dc3a
000001a0: 7c9e a139 a080 b03a 54ae 7c3b 1ded 533b
000001b0: 364b fe3a 9cd6 f039 2b2e b03a 685a 9e3a
000001c0: b1a9 e83a d960 2e3a e330 8d3a 927e 9d3a
000001d0: 3af1 b43a 714c 5e3a dfd6 083a 4f9e ab3a
000001e0: bc84 dc39 17fa cc39 0dc5 8839 8d39 f239
000001f0: 9da6 c238 0591 ad3a af01 7239 8f69 1f3a
00000200: a7b5 683a ef84 9039 0dd0 d63a 3925 543a
00000210: bd77 213a 61bd 4c3a 1bd8 643a 7a9d c837
00000220: 0a3e 8839 8611 d439 4e0d 453a 79b5 9f3a
00000230: e3af 033a 7960 1a3a 3252 6839 69d6 7a3b
00000240: 27b9 9b3a 5f4c 353a ffa3 4e3a f064 d539
00000250: f022 ac3a 85db 293a 3330 2b3a cb54 c53a
00000260: ea12 863a 46c7 4f3a 4e73 c03a 2753 9b3b
00000270: b097 313a 5965 5b3b edfa 9b3b b1ed 393b
00000280: 77c1 5e3a 0306 023a ae59 ee3a 90d6 c73a
00000290: 588f 933a fb5d e939 a8df fd39 e3cd a83b
000002a0: 1f93 d439 2185 7d3a 172d 3a3a 4bef 733a
000002b0: dc94 6e3a 001f 463a de54 603a bb08 8b3a
000002c0: a286 613a 4b5f 0c39 f233 0939 3e8a a439
000002d0: 926e 1939 f60f 303a 9267 273a 49aa ac3a
000002e0: ba7f ec39 47a9 e53a da0f 5338 3f51 ef39
000002f0: f317 a23a 7542 723b 9993 ad3a c20f b43a

weight f4 [192, 1, 3, 3]
0.09531797 -0.01860131 -0.033639904 0.03519196 -0.3319866 0.16221534 -0.01635027 0.080425695
0.14109154 0.012405871 0.15499918 0.052824125 0.037214387 0.14907904 0.021362152 -0.05478139
-0.16235752 -0.104193546 0.17641866 0.10442447 0.023997953 0.06570364 -0.1042737 -0.18167207
0.088265315 -0.20842832 -0.02966765 -0.03371012 0.025376143 0.052053712 0.01061594 0.18007167
0.18836147 -0.00883882 0.04523382 0.022439161 -0.0657882 -0.056350555 -0.021355681 0.029700555
0.06744445 0.081010774 0.026464466 0.17666137 0.0061325403 0.004679883 -0.0007309572 -0.03758
-0.10839248 -0.31984037 -0.076809265 -0.027388794 0.33879867 -0.02070142 -0.12415403 -0.20292653
-0.02972425 -0.16755643 0.050664242 0.1278938 0.007291536 0.23735894 0.0675879 0.050939295
0.29409322 0.08604716 0.033366032 -0.19375639 -0.056025706 0.018095102 -0.16754165 -0.062145356
-0.03767157 -0.059004184 -0.0621624 -0.026202047 -0.025178622 -0.0099419495 -0.04627573 -0.0592138
-0.032503437 -0.045570306 -0.04160969 -0.0042002187 -0.046769623 0.45110312 -0.015080681 -0.0032061734
0.045372736 -0.011757735 -0.0011398916 -0.012484514 -1.9486391e-05 -0.0077207945 -0.22803019 -0.14345379
-0.0067422492 0.30459267 0.06467726 -0.04919563 -0.08925418 -0.023478026 -0.13458289 0.44932187
-0.07792256 -0.010950971 -0.12503469 -0.07142702 -0.12028807 -0.04211642 0.04799507 -0.053834558
0.31976897 -0.024106488 0.01690684 -0.0035096547 -0.16703682 0.03355249 0.061778802 0.012847112
0.24155541 0.028545849 -0.207239 0.029994998 -0.09642843 -0.115443364 0.058060218 0.12148033
0.07642671 0.09635687 -0.46332565 0.019438587 0.070206046 0.03235201 0.09464579 0.03900278
-0.020550555 0.30110678 -0.0067715626 -0.1506556 0.049780026 0.28013152 0.0020343491 -0.009615598
-0.05532599 -0.12451844 -0.060439322 -0.100840874 0.35873953 -0.0009812507 -0.04978885 0.00568568
-0.087133214 -0.057151206 -0.04963128 0.05626574 -0.29922986 -0.054486632 0.32816622 -0.10489886
-0.0019089086 0.08776868 0.12834045 0.12910134 0.027994486 0.061202083 -0.22534332 -0.013160712
0.031641874 -0.03033236 -0.0129097765 -0.07621708 -0.27421385 -0.048002247 0.013123086 -0.014014317
0.009949719 0.07756955 0.30887377 0.06239179 -0.008212136 0.03751257 -0.044131324 0.488467
-0.4272896 -0.060350586 0.062920265 -0.021914158 -0.08750734 -0.04772869 -0.14927678 -0.075745486
-0.15882249 0.40516114 -0.07328459 -0.11749317 -0.10960459 -0.05218731 -0.08125681 -0.14820677
-0.07616954 -0.1578614 0.63425565 -0.10396997 -0.0343971 -0.09766313 -0.101406984 -0.05864985
-0.12695354 -0.05391896 -0.11673201 0.3731123 -0.15702818 -0.054294262 -0.064289965 -0.15455562
-0.07558766 -0.20017782 -0.06438711 -0.0076498464 -0.08097446 -0.01888807 0.10807617 0.22972961
0.04333729 -0.023444032 -0.022245832 -0.0018401843 0.3887246 -0.34484258 -0.0068678684 0.08286509
-0.11995188 0.008923754 -0.020361846 0.032005426 -0.053906064 0.0155075295 0.23399264 0.060524814
-0.047287565 0.05946774 -0.052375887 0.20304528 0.14424796 0.035335515 0.059398886 -0.22961427
-0.058584332 -0.0010596998 -0.11590487 -0.04294636 -0.058296274 0.071715355 0.056319967 0.015894404
00000000: 1136 c33d c661 98bc ffc9 09bd 7225 103d
00000010: 26fa a9be c71b 263e 00f1 85bc 3ab6 a43d
00000020: 4d7a 103e ff41 4b3c 1bb8 1e3e 1c5e 583d
00000030: 1d6e 183d 2da8 183e aeff ae3c 7362 60bd
00000040: 0d41 26be 6d63 d5bd 18a7 343e 7fdc d53d
00000050: 5b97 c43c a18f 863d 738d d5bd 3e08 3abe
00000060: 72c4 b43d 3c6e 55be 9209 f3bc 9f13 0abd
00000070: a1e1 cf3c 4636 553d 7bee 2d3c b564 383e
00000080: d4e1 403e b3d0 10bc 1947 393d 55d2 b73c
00000090: f7bb 86bd d7cf 66bd 1cf2 aebc 944e f33c
000000a0: 5120 8a3d fae8 a53d 02cc d83c b8e6 343e
000000b0: 7af3 c83b b459 993b b59d 3fba 7ced 19bd
000000c0: e0fc ddbd 1ec2 a3be 2d4e 9dbd 775e e0bc
000000d0: 0577 ad3e 0696 a9bc 7844 febd f9cb 4fbe
000000e0: 4580 f3bc ea93 2bbe 4f85 4f3d 98f6 023e
000000f0: d6ed ee3b 390e 733e 866b 8a3d b9a5 503d
00000100: 6393 963e 7e39 b03d d2aa 083d 1368 46be
00000110: 367b 65bd 2e3c 943c 0a90 2bbe 218c 7ebd
00000120: 814d 1abd 5fae 71bd 009e 7ebd ada5 d6bc
00000130: 6643 cebc 8fe3 22bc 9f8b 3dbd 2b8a 72bd
00000140: 5322 05bd eea7 3abd ec6e 2abd fda1 89bb
00000150: 8191 3fbd fdf6 e63e f614 77bc aa1e 52bb
00000160: c3d8 393d 84a3 40bc 6a68 95ba d98b 4cbc
00000170: b576 a3b7 b8fe fcbb bf80 69be 8de5 12be
00000180: 16ee dcbb 92f3 9b3e 8375 843d 5b81 49bd
00000190: e5ca b6bd fd54 c0bc 19d0 09be 840d e63e
000001a0: dd95 9fbd b46b 33bc 1809 00be 5448 92bd
000001b0: 9759 f6bd 4482 2cbd 7b96 443d a081 5cbd
000001c0: c2b8 a33e f87a c5bc 3780 8a3c 3c02 66bb
000001d0: b30b 2bbe 566e 093d c50b 7d3d b17c 523c
000001e0: 4d5a 773e fcd8 e93c 7636 54be 12b8 f53c
000001f0: 457c c5bd 926d ecbd 8dd0 6d3d aeca f83d
00000200: 9b85 9c3d c056 c53d 0539 edbe ac3d 9f3c
00000210: 30c8 8f3d 8b83 043d a7d5 c13d 61c1 1f3d
00000220: a359 a8bc ab2a 9a3e fce3 ddbb 7645 1abe
00000230: 24e6 4b3d 666d 8f3e b752 053b be8a 1dbc
00000240: 819d 62bd 8603 ffbd 398f 77bd a985 cebd
00000250: b5ac b73e 4f9d 80ba 65ef 4bbd f14e ba3b
00000260: e672 b2bd 6217 6abd 2b4a 4bbd e876 663d
00000270: a834 99be 602d 5fbd 6705 a83e 37d5 d6bd
00000280: 5834 faba 11c0 b33d ae6b 033e 2433 043e
00000290: b154 e53c 09af 7a3d 66c0 66be 07a0 57bc
000002a0: e99a 013d 927b f8bc 8783 53bc b317 9cbd
000002b0: c265 8cbe 019e 44bd 3602 573c 4e9c 65bc
000002c0: 2504 233c c9dc 9e3d b424 9e3e 898e 7f3d
000002d0: 328c 06bc c8a6 193d 0cc3 34bd 5918 fa3e
000002e0: b4c5 dabe 2d32 77bd 57dc 803d 5285 b3bc
000002f0: 0c37 b3bd 297f 43bd 03dc 18be 7320 9bbd
00000300: 5da2 22be 4871 cf3e 3b16 96bd 42a0 f0bd
00000310: 5f78 e0bd 5cc2 55bd f869 a6bd 84c3 17be
00000320: c7fe 9bbd 6ba6 21be 945e 223f 35ee d4bd
00000330: f9e3 0cbd 9b03 c8bd 77ae cfbd d33a 70bd
00000340: 1c00 02be 21da 5cbd 3111 efbd 9308 bf3e
00000350: ffcb 20be a963 5ebd 75aa 83bd d443 1ebe
00000360: b4cd 9abd 6afb 4cbe 64dd 83bd 90ab fabb
00000370: f0d5 a5bd 27bb 9abc 0a57 dd3d 3d3e 6b3e
00000380: 7182 313d b30d c0bc e43c b6bc 5732 f1ba
00000390: e906 c73e 358f b0be db0b e1bb 2cb5 a93d
000003a0: 55a9 f5bd f034 123c e3cd a6bc 1f18 033d
000003b0: 9bcc 5cbd 4b13 7e3c c49b 6f3e dee8 773d
000003c0: 9bb0 41bd 7294 733d 1988 56bd 1aeb 4f3e
000003d0: bdb5 133e f9bb 103d 3f4c 733d 0120 6bbe
000003e0: 20f6 6fbd a0e5 8aba 885f edbd 86e8 2fbd
000003f0: 13c8 6ebd 80df 923d c4af 663d fb34 823c

weight f4 [192]
0.13931976 0.1462271 0.07213167 0.10362666 0.1781368 0.06511844 0.0889736 0.117501244
0.16650684 0.19873132 0.08974367 0.16263947 0.09337843 0.100934885 0.20353508 0.16031379
0.113168314 0.13321099 0.09806272 0.10266843 0.07926886 0.17210469 0.09721674 0.103567936
0.07960577 0.07621511 0.11539653 0.13331833 0.06842858 0.1737733 0.14599001 0.112137735
0.17823912 0.19505572 0.12901875 0.077568024 0.099611245 0.113283105 0.07420432 0.122155406
0.1904393 0.16673404 0.074775584 0.097932935 0.14276454 0.11111655 0.0731027 0.080504894
0.091044426 0.1542757 0.097364545 0.12681136 0.1551229 0.16062762 0.049879987 0.08715625
0.08776714 0.16156901 0.10624882 0.13355161 0.074324846 0.19909827 0.10501637 0.07129205
0.18183783 0.052573856 0.10731768 0.058727626 0.16850114 0.15488489 0.074961916 0.1688486
0.12144487 0.1506334 0.15835246 0.091088414 0.05419911 0.12318998 0.12442439 0.11670286
0.14596105 0.15755887 0.117562376 0.16217475 0.18091011 0.12295146 0.07147988 0.14488709
0.15206629 0.116123416 0.1348268 0.12355094 0.13590804 0.13166969 0.22557138 0.12773933
0.16706362 0.06875618 0.105768904 0.06265212 0.11834948 0.07366681 0.11074555 0.12015831
0.108990744 0.11982304 0.17463964 0.14228961 0.1566357 0.081468694 0.122214355 0.101663664
0.16273282 0.06307036 0.1421965 0.12958992 0.1548401 0.11385316 0.07157022 0.12663607
0.10287932 0.07216203 0.14571947 0.13134019 0.1666949 0.10628732 0.1273447 0.10054023
0.08898037 0.13707927 0.13667034 0.13141324 0.09466079 0.057185404 0.07835021 0.15367211
0.042185884 0.085560985 0.15460792 0.15181082 0.13605951 0.12041305 0.061843105 0.19694127
0.107690595 0.21794565 0.11761859 0.07333074 0.10431538 0.072721906 0.06063959 0.085835025
0.109305866 0.116815075 0.10226083 0.30434924 0.1350574 0.12526144 0.13223602 0.1380871
0.12511437 0.060249694 0.13074145 0.20720726 0.09378642 0.098177664 0.13352045 0.13042004
0.107430376 0.13697395 0.16075327 0.119911194 0.10695036 0.1164879 0.13874875 0.09933797
0.07540167 0.11876189 0.14157595 0.13250495 0.13722947 0.10869492 0.1064372 0.10757407
0.06917063 0.13666356 0.016542701 0.033579074 0.100455545 0.2019578 0.10657658 0.14277421
00000000: d7a9 0e3e 8fbc 153e c5b9 933d 373a d43d
00000010: 7e69 363e d15c 853d ca37 b63d 7ea4 f03d
00000020: c580 2a3e 3980 4b3e 87cb b73d f68a 263e
00000030: 313d bf3d f3b6 ce3d 806b 503e 4c29 243e
00000040: cac4 e73d 7668 083e 1bd5 c83d d343 d23d
00000050: b657 a23d 363c 303e 9219 c73d 6d1b d43d
00000060: 5a08 a33d ab16 9c3d 0455 ec3d 9a84 083e
00000070: 4924 8c3d a1f1 313e 687e 153e 78a8 e53d
00000080: 5184 363e b0bc 473e 7e1d 043e fcdb 9e3d
00000090: fb00 cc3d f900 e83d 6ff8 973d 9d2c fa3d
000000a0: 8502 433e 54bc 2a3e f123 993d 1091 c83d
000000b0: de30 123e 1391 e33d deb6 953d c0df a43d
000000c0: 8075 ba3d 73fa 1d3e 1067 c73d d6da 013e
000000d0: 8ad8 1e3e 917b 243e f54e 4c3d fa7e b23d
000000e0: 42bf b33d 5972 253e fb98 d93d c1c1 083e
000000f0: a037 983d 6be0 4b3e d312 d73d 9101 923d
00000100: b233 3a3e af57 573d 5fc9 db3d 618c 703d
00000110: 908b 2c3e 259a 1e3e a285 993d a6e6 2c3e
00000120: 17b8 f83d a43f 1a3e 2627 223e 908c ba3d
00000130: e3ff 5d3d 074b fc3d 37d2 fe3d e901 ef3d
00000140: d076 153e 1d57 213e 8bc4 f03d 2311 263e
00000150: 8040 393e facd fb3d 0b64 923d 485d 143e
00000160: 44b7 1b3e 1dd2 ed3d 0910 0a3e 4608 fd3d
00000170: 7a2b 0b3e 6bd4 063e 2ffc 663e 19ce 023e
00000180: ba12 2b3e 0ad0 8c3d 5e9d d83d c14f 803d
00000190: 3661 f23d a0de 963d 90ce e23d 8f15 f63d
000001a0: 8a36 df3d c865 f53d bcd4 323e 5eb4 113e
000001b0: 1c65 203e 0fd9 a63d 854b fa3d 0a35 d03d
000001c0: 6fa3 263e 082b 813d f69b 113e 38b3 043e
000001d0: 678e 1e3e d82b e93d 6893 923d e3ac 013e
000001e0: 65b2 d23d b0c9 933d 7c37 153e 0b7e 063e
000001f0: 11b2 2a3e 2bad d93d a666 023e 09e8 cd3d
00000200: 573b b63d 825e 0c3e 4ff3 0b3e 3191 063e
00000210: 84dd c13d 3e3b 6a3d 1376 a03d 395c 1d3e
00000220: 1bcb 2c3d 993a af3d 8a51 1e3e 4c74 1b3e
00000230: 2f53 0b3e 1e9b f63d 324f 7d3d f9aa 493e
00000240: e38c dc3d 252d 5f3e 04e2 f03d 6d2e 963d
00000250: 4da3 d53d 39ef 943d 3861 783d 46ca af3d
00000260: c1db df3d be3c ef3d 206e d13d aad3 9b3e
00000270: 7d4c 0a3e 8944 003e e168 073e b466 0d3e
00000280: fb1d 003e 62c8 763d 16e1 053e 242e 543e
00000290: 1813 c03d 5f11 c93d 96b9 083e d58c 053e
000002a0: 7504 dc3d e642 0c3e 819c 243e 0094 f53d
000002b0: ca08 db3d 3591 ee3d 2714 0e3e b571 cb3d
000002c0: 316c 9a3d 6f39 f33d 49f9 103e 61af 073e
000002d0: e285 0c3e 719b de3d bffb d93d cb4f dc3d
000002e0: 55a9 8d3d 88f1 0b3e 8f84 873c 368a 093d
000002f0: a3bb cd3d 07ce 4e3e d244 da3d 6733 123e

bias f4 [192]
0.08671135 -0.015889307 0.19511646 0.08617444 -0.11399143 0.21107359 0.22173427 0.19961429
-0.04049025 0.0010564663 0.1672627 0.1466531 0.14834923 0.17007202 -0.043667037 -0.10570139
0.1663063 0.19644386 0.08811805 0.20955871 0.27911028 0.15265405 0.24284223 0.29323792
0.17727992 0.19199122 -0.041116234 0.0495778 0.16495104 -0.10406317 0.00454431 0.11583965
-0.11680911 -0.13181634 -0.06739753 0.15521823 0.20316416 0.20232335 0.19267619 0.16772568
0.18236035 0.19828574 0.15092395 0.14745463 0.11345973 0.18360272 0.2013586 0.17808017
0.13559166 0.0553271 0.16849072 0.171168 0.16085224 -0.024602469 0.21282198 0.25929108
0.21621767 0.13814536 0.19408485 0.07513892 0.14725834 -0.03749165 0.18793052 0.17469938
-0.07874408 0.2283817 0.16972992 0.22515182 -0.036964938 0.1236964 0.17826493 -0.12827463
0.061458774 0.019058459 0.018759247 0.2043988 0.13981037 0.18413252 0.2186136 -0.0009089222
0.021842308 0.23661953 0.030035244 0.12649123 0.013566254 0.109338626 0.12448761 0.049209505
-0.07151969 0.2413631 0.032109488 -0.09908274 0.09957098 0.12074734 -0.06701919 0.08147118
0.123709515 0.20930918 0.2051869 0.27705324 0.045536976 0.14051513 0.13243274 0.15476264
0.011259631 0.02973111 0.22424483 0.1932847 0.1786255 0.123059034 0.04600132 0.20101684
0.07572945 0.15979923 0.14970142 0.11247492 0.06720207 0.18786055 0.2722201 0.15057628
0.120174035 0.18467702 -0.021928309 0.066237405 -0.15021251 0.19120367 -0.049167514 0.12790407
0.18882793 0.05849351 0.14308949 0.1250576 0.18262261 0.17006795 0.2383212 -0.15999383
0.14637256 0.08483322 0.056330457 0.037619803 0.017565724 0.06008785 0.14151312 0.20040907
0.1922392 -0.054163165 0.075370565 0.12248765 0.1812668 0.2045816 0.21397357 0.36927447
0.16710956 0.11544604 0.27885023 0.10164708 0.13925785 0.36451092 0.27442396 0.17138861
0.15560375 0.1564945 0.20467585 -0.06613772 0.20710525 0.0635889 0.008043766 0.18175654
0.109755255 0.14410554 -0.077097535 0.104821235 0.13919234 0.20658015 0.06811241 0.14590074
0.39778396 -0.02233123 -0.07091005 0.009074848 -0.044734906 0.105436295 0.09974936 0.18735182
0.17289826 0.28176272 0.12589377 0.20669149 0.2115745 0.23130366 0.28118297 0.039903603
00000000: b895 b13d 4b2a 82bc 9ccc 473e 3a7c b03d
00000010: 5774 e9bd ad23 583e 4f0e 633e b067 4c3e
00000020: 1bd9 25bd 2079 8a3a ea46 2b3e 3b2c 163e
00000030: dce8 173e 5c27 2e3e 35dc 32bd f879 d8bd
00000040: 334c 2a3e 9428 493e 3c77 b43d 8f96 563e
00000050: 8be7 8e3e 5851 1c3e a2ab 783e 4823 963e
00000060: de88 353e 5999 443e 7f69 28bd 1712 4b3d
00000070: ede8 283e 121f d5bd 6fe8 943b 573d ed3d
00000080: 9d39 efbd ddfa 06be b707 8abd 87f1 1e3e
00000090: 440a 503e da2d 4f3e e84c 453e 48c0 2b3e
000000a0: acbc 3a3e 6b0b 4b3e cf8b 1a3e 59fe 163e
000000b0: 935d e83d 5a02 3c3e f330 4e3e a65a 363e
000000c0: 8ad8 0a3e ab9e 623d d588 2c3e aa46 2f3e
000000d0: 73b6 243e 1e8b c9bc 01ee 593e cdc1 843e
000000e0: 2a68 5d3e fa75 0d3e 2ebe 463e 6fe2 993d
000000f0: e4ca 163e d890 19bd dc70 403e 65e4 323e
00000100: 9444 a1bd e4dc 693e aecd 2d3e 338e 663e
00000110: 8c68 17bd 8a54 fd3d 158b 363e 6d5a 03be
00000120: 32bc 7b3d 7c20 9c3c feac 993c eb4d 513e
00000130: 732a 0f3e 3c8d 3c3e 3edc 5f3e bc44 6eba
00000140: a4ee b23c 644c 723e 790c f63c eb86 013e
00000150: fe44 5e3c eeec df3d 5cf3 fe3d e88f 493d
00000160: ea78 92bd e327 773e 3d85 033d e4eb cabd
00000170: dfeb cb3d 624a f73d 5b41 89bd 5dda a63d
00000180: 6a5b fd3d 2555 563e 841c 523e ecd9 8d3e
00000190: fb84 3a3d 33e3 0f3e 739c 073e 197a 1e3e
000001a0: 517a 383c a88e f33c 70a0 653e 6dec 453e
000001b0: 9ae9 363e 6006 fc3d e16b 3c3d 5cd7 4d3e
000001c0: 0b18 9b3d 69a2 233e 544b 193e 4059 e63d
000001d0: 3da1 893d 845e 403e 6f60 8b3e ab30 1a3e
000001e0: ce1d f63d f91b 3d3e ffa2 b3bc 7aa7 873d
000001f0: 4fd1 19be e5ca 433e e063 49bd 49f9 023e
00000200: 1c5c 413e e496 6f3d 0d86 123e 190f 003e
00000210: 6c01 3b3e 4b26 2e3e 790a 743e 6cd5 23be
00000220: b0e2 153e 0abd ad3d c4ba 663d 3917 1a3d
00000230: fee5 8f3c ad1e 763d d1e8 103e 0938 4d3e
00000240: 5ada 443e 32da 5dbd e25b 9a3d ceda fa3d
00000250: 019e 393e d77d 513e e31b 5b3e 8b11 bd3e
00000260: c51e 2b3e f96e ec3d 75c5 8e3e 582c d03d
00000270: 9c99 0e3e 2da1 ba3e 4c81 8c3e 7f80 2f3e
00000280: 9756 1f3e 1840 203e 8c96 513e 3773 87bd
00000290: 6613 543e e63a 823d 00ca 033c 631e 3a3e
000002a0: 5dc7 e03d 6790 133e 50e5 9dbd 84ac d63d
000002b0: 7088 0e3e bf89 533e 857e 8b3d 0167 153e
000002c0: 57aa cb3e fcef b6bc 4a39 91bd acae 143c
000002d0: f33b 37bd fcee d73d 6449 cc3d 28d9 3f3e
000002e0: 3e0c 313e 3443 903e 4cea 003e efa6 533e
000002f0: fca6 583e deda 6c3e 37f7 8f3e f671 233d

running_mean f4 [192]
-1.8804554e-06 -2.0390796e-06 -1.1114611e-06 -1.2771235e-06 3.6424822e-06 -2.9795896e-07 -2.554841e-06 -1.8737932e-06
8.980077e-07 7.841985e-07 6.830875e-07 -1.3557981e-06 7.3519743e-07 -1.5623953e-06 -4.8388307e-07 7.446418e-07
3.1595637e-06 -5.986292e-07 -2.3899138e-06 1.7750854e-06 8.976727e-07 8.3677855e-07 -2.3237299e-06 1.5560925e-06
9.571949e-07 1.708511e-06 1.157371e-06 1.1918062e-06 1.4763083e-07 1.5050082e-07 -1.8485122e-06 -1.6811852e-06
-1.3962397e-06 -1.7841825e-06 4.35403e-06 -8.7811134e-07 -1.3886676e-06 5.759422e-07 -2.7420426e-06 -1.9851798e-06
2.9139554e-07 7.884428e-07 1.3858752e-07 -1.9292615e-06 1.0972956e-06 1.4264599e-07 1.5820615e-06 -2.3434218e-06
5.3040054e-07 1.6963464e-06 -2.2014167e-06 -8.33802e-07 -1.3191925e-06 -1.4811772e-07 -7.6474055e-07 -3.5343928e-07
4.574846e-07 9.261542e-07 -9.117206e-08 3.49787e-07 1.651078e-06 -5.325979e-07 -2.3585596e-06 6.201442e-07
2.551614e-07 -5.903344e-07 -1.9002239e-06 3.3489576e-07 1.7108685e-07 -1.0020049e-06 5.179045e-07 4.2714905e-06
-1.6684738e-06 -1.696056e-06 4.601558e-06 -1.6725551e-06 -1.9814772e-06 -5.3574394e-07 3.076224e-06 -2.4654908e-06
1.6991336e-06 -2.2367004e-07 -2.2699352e-07 -1.7159343e-07 -3.2289532e-07 -1.2717867e-06 2.0113043e-06 -2.7640276e-08
1.0916414e-06 -9.91697e-07 4.896586e-06 -1.3587988e-06 -1.564294e-06 6.020326e-07 -1.8201042e-07 -4.719044e-08
1.4940679e-07 -1.226492e-06 -2.0114785e-06 1.3626867e-06 1.1507839e-06 3.0855133e-06 -5.7043025e-07 9.892686e-07
2.432883e-07 3.0341146e-06 -4.7813484e-07 -2.0696241e-07 3.1013258e-07 -2.222416e-06 2.1471812e-06 -8.1145055e-07
1.9781683e-06 4.2587953e-07 -8.978871e-07 4.080441e-07 2.9157243e-06 -4.966651e-07 -1.9078565e-08 1.869314e-06
1.114114e-06 -1.2646498e-06 4.93108e-06 2.090449e-06 -1.7306348e-06 2.6427094e-06 -7.198986e-07 -8.541614e-07
-5.3497075e-08 -1.9129714e-06 9.902767e-07 -6.4782176e-07 -1.3790348e-06 3.6071883e-06 -1.4518423e-09 4.2198647e-07
5.2721134e-06 -1.3606601e-06 2.1446144e-06 -3.4522313e-07 -2.0563825e-06 6.4827964e-07 6.956914e-07 -1.4841811e-06
1.2293543e-06 -2.4407443e-06 6.618317e-07 1.292923e-06 -6.4512655e-08 1.049709e-06 1.055397e-06 3.816323e-07
1.302727e-06 6.6355575e-08 4.5336424e-07 -9.5227125e-07 -2.3936288e-06 -1.6642908e-06 2.5774807e-06 1.1162099e-06
2.5701406e-06 1.5798003e-06 -2.2908787e-06 -1.4732082e-06 5.918624e-07 -1.7442659e-06 -1.1124532e-06 2.025735e-06
-8.320063e-09 3.734804e-06 1.2813836e-06 8.1387975e-07 7.536077e-07 -9.4955453e-07 1.552435e-06 2.541667e-06
1.0380367e-06 -3.8225558e-06 -2.8442478e-06 -4.1671896e-07 2.0555829e-06 -3.3302335e-06 1.2028028e-06 -7.843587e-07
3.6664296e-08 1.7600977e-06 9.616455e-07 1.0314949e-06 -1.1591454e-06 -3.8608164e-08 -2.1573203e-06 1.2673268e-06
00000000: f563 fcb5 1fd7 08b6 832d 95b5 a169 abb5
00000010: 5e71 7436 2bf7 9fb4 d673 2bb6 0b7f fbb5
00000020: 9f0e 7135 b681 5235 6a5d 3735 def8 b5b5
00000030: 625a 4535 7eb3 d1b5 31e4 01b5 65e3 4735
00000040: e408 5436 7cb1 20b5 6862 20b6 783f ee35
00000050: 99f7 7035 fc9e 6035 60f1 1bb6 eeda d035
00000060: f778 8035 fe4f e535 f756 9b35 26f6 9f35
00000070: 7484 1e34 5a99 2134 651a f8b5 15a5 e1b5
00000080: 6e66 bbb5 0b78 efb5 d518 9236 5ab7 6bb5
00000090: 4162 bab5 729a 1a35 ef03 38b6 2139 05b6
000000a0: 1971 9c34 60a5 5335 a6ce 1434 7678 01b6
000000b0: ca46 9335 3b2a 1934 3857 d435 ae43 1db6
000000c0: d960 0e35 05ae e335 0dbc 13b6 70d2 5fb5
000000d0: 1c0f b1b5 4a0a 1fb4 9248 4db5 53c0 bdb4
000000e0: 349c f534 d59c 7835 5fca c3b3 5cca bb34
000000f0: 9c9a dd35 d9f7 0eb5 bf47 1eb6 fc77 2635
00000100: 1efd 8834 7977 1eb5 320b ffb5 b9cb b334
00000110: ffb3 3734 a07c 86b5 2006 0b35 d353 8f36
00000120: 53f0 dfb5 0aa4 e3b5 1567 9a36 8e7c e0b5
00000130: 85f9 04b6 0bd0 0fb5 2071 4e36 cf74 25b6
00000140: c90d e435 f429 70b4 81bb 73b4 3e3f 38b4
00000150: 655a adb4 42b2 aab5 f2f9 0636 9c6d edb2
00000160: 8384 9235 731a 85b5 5a4d a436 f95f b6b5
00000170: bcf4 d1b5 5e9b 2135 a56e 43b4 70ae 4ab3
00000180: a06c 2034 f29d a4b5 f0fc 06b6 8fe5 b635
00000190: a274 9a35 b710 4f36 ab1f 19b5 03c7 8435
000001a0: 4a9d 8234 b19d 4b36 2d59 00b5 6539 5eb4
000001b0: 4c80 a634 d124 15b6 4b18 1036 75d2 59b5
000001c0: acc0 0436 70a4 e434 5506 71b5 2711 db34
000001d0: c3ab 4336 9152 05b5 35e2 a3b2 24e5 fa35
000001e0: aa88 9535 09bd a9b5 a875 a536 a449 0c36
000001f0: 2948 e8b5 6759 3136 0e3f 41b5 8649 65b5
00000200: a8c4 65b3 9960 00b6 a6e9 8435 f9e5 2db5
00000210: 4617 b9b5 0613 7236 298a c7b0 618d e234
00000220: 1ce7 b036 ed9f b6b5 32ec 0f36 1b57 b9b4
00000230: 6200 0ab6 7005 2e35 8dbf 3a35 1334 c7b5
00000240: 4b00 a535 abcb 23b6 baa8 3135 7f88 ad35
00000250: 358a 8ab3 bae3 8c35 2aa7 8d35 25e3 cc34
00000260: 5cd9 ae35 5d7f 8e33 e865 f334 959f 7fb5
00000270: 3ba2 20b6 9960 dfb5 c8f8 2c36 aed0 9535
00000280: ae7a 2c36 8609 d435 ffbc 19b6 0cbb c5b5
00000290: 79e0 1e35 851c eab5 9a4f 95b5 ddf1 0736
000002a0: 06f0 0eb2 72a3 7a36 01fc ab35 6479 5a35
000002b0: 874b 4a35 e4e4 7eb5 435d d035 8291 2a36
000002c0: ab52 8b35 8143 80b6 cedf 3eb6 6bb9 dfb4
000002d0: a5f2 0936 fa7c 5fb6 fd6f a135 b88c 52b5
000002e0: d278 1d33 7f3c ec35 e311 8135 e571 8a35
000002f0: ef93 9bb5 20d2 25b3 7bc6 10b6 0419 aa35
