experiments/model_repositories/robot/face_detection/model_files/block_03.pth (torch, 19705 bytes, 5 tensors)

weight f4 [96, 16, 1, 1]
00000000: 6d41 2a3e b7b9 303d 97ed 073e b3f2 afbd
00000010: 9b53 fbbd 58ce eb3b ed16 a63e eaf9 2e3d
00000020: 7ca0 bbbc 354d a6be 9be3 edbc b9f5 10bc
00000030: 6c94 d33e d36c 21be 9c49 3abe 043a 77be
00000040: 06a1 323d 4170 973d ce6b e73d 5920 f13d
00000050: 6fb4 22be 98bb 9abe 1c1c afbd 7f9b eebd
00000060: c908 5fbe 394b 52be 1d83 81bd d626 ab3d
00000070: c911 29be f490 963d f369 503c e2d1 a8bd
00000080: a5ff 9cbd 692b 76bd 81e0 10be b59b ae3d
00000090: 9c42 083c b4be 8b3d 2e23 abbe fc95 083e
000000a0: 7a52 49bd 9c6d 643d 2cdc 31bd aa5f e3bd
000000b0: 8c43 2c3d c12c 0abe 3052 2bbe 0927 ed3d
000000c0: 6d2e dabc fdfa 583e dc76 8b3d 459f 11bf
000000d0: 542c 6bba 291b efbd 1d9d 7cbe 049a d2be
000000e0: 4739 803e 2ad9 f63d ee7b 1bbe 824a b83e
000000f0: a62a cf3d 7088 303e b39e a2be 38ef 5f3e
00000100: 3622 5f3d 1708 71bd 2168 d13d 261b 94be
00000110: 62ff ddbd d577 313e c635 683d e83e 42be
00000120: eec0 81bd e6ec 873c 00b3 243e a33f 413e
00000130: c79e 513c b9dc ac3d 0263 8e3d 7f78 d3bc
00000140: f3c4 75bd 7aae 643c b17d 053d 0a52 dfbd
00000150: 216a b23c 8da3 213e 9beb 3d3e 3672 2ebe
00000160: 45a8 4ebd d257 9cbd ae06 f8bd 9867 373b
00000170: 8a67 21be 0f69 39be c0c6 7a3e 3787 b5bd
00000180: de76 143d dff8 063e ee5b e03d 6332 cd3d
00000190: 0b29 f9bd 0e60 95be a262 3dbe b7e1 8eba
000001a0: bb30 4bbe e6e0 13be d440 9dbd dc9c 923e
000001b0: 955c 68be 6180 483e 8d00 bcbb 091c 08be
000001c0: af14 633c 47d4 473e 3de0 8c3d b032 09bd
000001d0: a7bc 233c c2c5 df3d ff20 55bd b7a6 0d3e
000001e0: 1990 c6bc 70c9 283e b513 be3b 46ad 333e
000001f0: ba2a 89bc 6e9f 8d3d 7174 95bd d9b2 c9bd
00000200: 5b63 a3be 5f65 aabd ae9f b13e 4b6e 643c
00000210: a88f 52bd 478d 24bd c88c 1fbe d1c2 15bd
00000220: d844 063d 867a d43e a260 463e 0d81 9ebb
00000230: 4917 01bf 3c86 87bd a1e4 4c3e 80f8 5e3e
00000240: d254 ea3c fb76 843e 69eb a5bc 23e9 293e
00000250: 9ab4 27be 6cd6 dabc e174 393d 5c99 9abd
00000260: f9e6 03be d67c 8dbc 27dd 893c f6ca b23d
00000270: a0f6 4fbd a61f e23d 4d6d 68bc 937e 9c3d
00000280: bd50 9f3d 98ae 03be 09c3 46bc 016f c3be
00000290: 7f3d 373d b2da 07bd 6f11 8cbd 307d 023e
000002a0: bfa3 80be 281b dc3d b21b 783e 1d4e 16bd
000002b0: 692f 973d b990 453e f495 3e3d ba4a 2d3c
000002c0: f273 a1bd cce8 30bc b4d5 d5bd 5d9c 863e
000002d0: 619d 48bd 1f68 fbbd 381a 81be 7669 6a3e
000002e0: 262f 393d eb56 643e 6b77 ac3d a8a9 c6bd
000002f0: 7ed1 efbd 1421 5b3e 1747 8dbe b8db d73d
00000300: 16f0 f23d 8c74 b03d 0fe0 cabd 9d0b e1bb
00000310: a99a cf3d cf0d 313e 176d 40bb 983c ad3d
00000320: ceb8 0d3e 462c edba f889 cabc ba96 8b3d
00000330: 6c58 883c f4a7 873b 0a25 d63d 61d5 3d3e
00000340: e275 ee3d 888b 29be 9e76 8fbb da1a d8bd
00000350: c775 86be d9aa 2f3e ee08 2c3d 74dd 413e
00000360: 3139 473d a59d 6abe 99d4 f6ba 2754 11be
00000370: 67ee e5bd 5a64 933e 3085 ad3d 8eea 163e
00000380: a5de 5cbe 46bb ccbd 7245 d23d 5a7b 883e
00000390: c49b 513e ca91 283e 3611 59b9 109b 94be
000003a0: 1ca2 2bbe 8311 c6bc c3bd 453d b2f8 1a3e
000003b0: 1357 353e 4829 ec3b dc9e e5bd 4cd3 d53d
000003c0: 85c6 163d 17b1 cc3d 94a9 1f3e 2c16 233e
000003d0: f8d3 a7be 67eb e0bd 4523 933c 977f 46be
000003e0: e2a1 01be 6bf6 f53d 6ab3 db3d 5cd6 9fbe
000003f0: 1e85 4dbd cb30 ee3d 08f8 cabe 155e 80be
0.1662652 0.04314586 0.13274227 -0.08591213 -0.12271806 0.007196229 0.32439366 0.042718805
-0.022903673 -0.3248078 -0.029039195 -0.008847647 0.41324174 -0.1576417 -0.18192142 -0.24143225
0.043610595 0.073944576 0.11299859 0.11773748 -0.15889142 -0.30221248 -0.08550283 -0.11650752
-0.21780695 -0.20536508 -0.06323836 0.08357017 -0.16510691 0.07351866 0.012720573 -0.08243157
-0.07665948 -0.060099993 -0.14148141 0.085257925 0.008316662 0.06823483 -0.33425277 0.13338464
-0.04915092 0.055768594 -0.043422863 -0.11102231 0.042056605 -0.13493635 -0.16730571 0.11579711
-0.026633466 0.21189494 0.0680978 -0.5688365 -0.0008971144 -0.11675102 -0.24669309 -0.4113313
0.250437 0.120531395 -0.15183994 0.35994345 0.101155564 0.17239547 -0.31761703 0.21868598
0.054475985 -0.058845606 0.10224939 -0.28926963 -0.10839726 0.17330869 0.056691907 -0.1896931
-0.063356265 0.016592454 0.16083908 0.18871932 0.012794203 0.08440537 0.06952478 -0.025814293
-0.06000228 0.013957614 0.03259057 -0.109043196 0.021779122 0.15785046 0.18546908 -0.17035756
-0.050453443 -0.07633938 -0.12110649 0.002798533 -0.15762153 -0.18106483 0.2448988 -0.08863681
0.036246173 0.13180874 0.10955034 0.10019376 -0.121660315 -0.29174846 -0.18494657 -0.0010901008
-0.19842808 -0.1444126 -0.076783806 0.286353 -0.22691567 0.19580223 -0.0057373703 -0.13291945
0.013859912 0.19514571 0.068787076 -0.033495605 0.009993709 0.10926391 -0.05203342 0.13833128
-0.024238633 0.16483092 0.005800689 0.17546567 -0.016744006 0.069151744 -0.072976 -0.098485656
-0.3191174 -0.08320116 0.34692138 0.0139423115 -0.051406533 -0.040173795 -0.15581048 -0.036562745
0.0327805 0.41499728 0.193728 -0.0048371614 -0.50426155 -0.066174 0.2000909 0.21774483
0.028604899 0.25872025 -0.020253854 0.16592841 -0.16377488 -0.026713572 0.04527748 -0.07548782
-0.12881078 -0.01727144 0.016829086 0.08730118 -0.05077231 0.11041193 -0.014186216 0.076413296
0.077790715 -0.12859571 -0.012131461 -0.38170627 0.04473638 -0.03316755 -0.06839263 0.12743068
-0.25124928 0.10747367 0.24229315 -0.03669559 0.0738209 0.19293489 0.046529725 0.010576898
-0.07883443 -0.010797691 -0.10441151 0.2629117 -0.048978213 -0.12275719 -0.25215316 0.22891793
0.04521098 0.22298782 0.08421215 -0.09700328 -0.11709879 0.21399337 -0.275933 0.10539955
0.11862199 0.086159796 -0.09906017 -0.0068678395 0.10136921 0.17290424 -0.0029361898 0.08458823
0.13840029 -0.001809486 -0.024723992 0.06815858 0.016643725 0.0041398946 0.104562834 0.18538429
0.11643578 -0.16557133 -0.004378154 -0.105519965 -0.26261732 0.17155017 0.042000704 0.18932134
0.048638526 -0.22911699 -0.001883167 -0.14192258 -0.11227112 0.287875 0.08472669 0.14737913
-0.21569307 -0.09996657 0.10267152 0.2665661 0.20469576 0.16461864 -0.00020701144 -0.29024553
-0.16761059 -0.024178272 0.048276674 0.15133932 0.17708997 0.0072070695 -0.11211941 0.10440692
0.036810417 0.09994715 0.15592033 0.15926427 -0.32778907 -0.109823994 0.017961154 -0.19384609
-0.1265941 0.12009891 0.1072758 -0.3121823 -0.05017578 0.116304 -0.39642358 -0.2507178

weight f4 [96]
00000000: 1edc ee3e 8fac b03e e90c 043e e394 3d3e
00000010: 479c 2e3e 574d 343e 8a88 8c3e 326d e73d
00000020: c207 e53e e646 fb3d 0295 513e 2d14 c03e
00000030: fd36 963d ae2a e33d 3a69 113e f09c e33e
00000040: 4c6e 333e e21c 123e 0efd a13e 4ddd 2b3e
00000050: 83d0 013e e1d9 e93d 52a9 d83d 1466 bc3d
00000060: b34c 513e b691 e73e 5f10 263e c3cf 893e
00000070: 1a26 803d 03be e53d aa5f fa3e 3e17 a83d
00000080: 76cf 153e 1bf6 9f3e 8930 dd3e e634 453e
00000090: 392a 8e3e 8f97 b03e e1bb a83d cf83 af3e
000000a0: d2a6 ed3e 0e77 003e 1f3c 243e 8713 ac3d
000000b0: 0c24 1f3e 2935 ea3e 4c46 9e3e b7e4 023e
000000c0: 8ad3 d73d 3a46 953d 4cd5 953e cf4b ce3e
000000d0: 6a3d f13e 531f 783e a524 503e 49c6 c03d
000000e0: 9d57 da3e 8ebf 1a3e 9c51 0d3e d2f6 9f3e
000000f0: cd0c ce3e 63bb d53e 2abf a23d 98b4 1f3e
00000100: 6aae 013f fad9 f23d c00f e03d 6066 a03e
00000110: b7e7 603e 85d8 2b3e 3c9c 1f3e 4dbb 033f
00000120: e4b3 d03c 8f67 693e 2d66 de3d 1ddf 4e3e
00000130: 872c 943e 98ad 833e bd24 bd3d 2c59 813e
00000140: 724d 053f d0e2 883e 1ce3 7a3e f901 cf3e
00000150: 7aba 0d3f d621 0f3f 1506 453d e7ce f73e
00000160: 8279 893e f505 153e 820f d33d cdef 033f
00000170: 917b d53e 6940 b33e 4a2c 073e 55e6 0e3e
0.4665231 0.34506652 0.1289555 0.18513827 0.17051803 0.17607628 0.2744792 0.11300124
0.4473248 0.12269382 0.20466998 0.37515393 0.07334707 0.11092125 0.14200297 0.4445567
0.17522544 0.1426883 0.31638378 0.16783638 0.12677197 0.1141851 0.1057917 0.09199157
0.20439415 0.45228356 0.16217183 0.26916322 0.06257267 0.112178825 0.4890111 0.08207558
0.14629921 0.3124245 0.43201092 0.1925846 0.27766588 0.3449063 0.0823896 0.3428025
0.46416336 0.12545416 0.1603856 0.08402162 0.15541095 0.45743683 0.30913007 0.1278256
0.10538395 0.07288785 0.29264295 0.40292212 0.47117168 0.24230699 0.20326479 0.0941282
0.4264497 0.15112135 0.13800663 0.31242996 0.4024414 0.41744527 0.07946618 0.15596235
0.5065676 0.11857982 0.10940504 0.31328106 0.21963392 0.16781814 0.15586942 0.51457673
0.025476404 0.2279341 0.10859332 0.20202298 0.28940222 0.2571838 0.09235523 0.25263345
0.520713 0.26735544 0.24500698 0.40431193 0.55362666 0.55911005 0.048101503 0.4840004
0.26850516 0.14553054 0.10305692 0.5153778 0.41695836 0.3501008 0.13200489 0.13955052

bias f4 [96]
00000000: a1f1 21bb 39e0 0ebd d6bd 693e 434f b93e
00000010: eb0a 853e d03b 363e 2ab1 be3d d3b5 873d
00000020: 1413 8cbd 0633 1f3e 7337 6cbd 88eb 5e3d
00000030: b506 4a3e 9a16 5d3e 6f76 4b3e f877 a8bb
00000040: 0182 e9bc 639f 933e ffb3 ca3d 69fd ba3e
00000050: 932e d03e 2b29 213e 8949 863e c6f3 923e
00000060: f22d b53d 7791 edbc cb2e d03d 20d8 a5be
00000070: def0 923e 8c9c 643e ebc7 3cbd 9ca3 6b3e
00000080: c472 253e 428d 863c 5a35 b3bb 6342 313e
00000090: d8e4 8b3d 503d 1c3d 685a 8b3e 5da3 b53d
000000a0: fd8a 203d 0926 543e f14e 813e 7a0d 6e3e
000000b0: 88c4 253e 4bbb f3bb c4e2 463e e44b 3e3e
000000c0: 568b 643e 6497 403e a253 d9be 170b a1bd
000000d0: 30e0 ae3d 7e20 f23c 26c1 a8bd 7fd4 803e
000000e0: 35f7 703c 6fc3 353f 8811 823e 9308 0fbc
000000f0: 768a a33b b89a 15bd ccab 713e 4bf1 763e
00000100: b15c 6fbd 72ca 673e 44ea aa3e 8860 8dbc
00000110: a8b4 d43a 79a9 ca3d d110 0a3e d903 443e
00000120: 1a9c b23e a8f8 443d b431 563e 2bd3 3d3e
00000130: 4a00 033d 6b67 9b3d e959 be3e faa9 da3d
00000140: 9b9b 85bd 2431 8f3d 2ad1 333d 4dc0 6d3c
00000150: b2ca 173e 92cc c2bc 495b 6d3e 7f3a 233d
00000160: 702d 893d 60ca 293e 3b05 6d3e afdf fabd
00000170: 0fa1 51bd f9ae f5bc 5bed 933e 032d 053e
-0.0024710672 -0.034881804 0.22826323 0.36193284 0.25984892 0.17796254 0.09311135 0.06626477
-0.06839576 0.15546808 -0.057670068 0.05442384 0.19729121 0.21590653 0.19869398 -0.0051412545
-0.028504374 0.2883254 0.09897613 0.36521462 0.40660533 0.1573836 0.26227978 0.2870161
0.08846654 -0.029000027 0.10165175 -0.32391453 0.28699392 0.22325343 -0.046089094 0.23011631
0.16157061 0.016424779 -0.0054690065 0.17310481 0.06830758 0.03814441 0.27217412 0.0886905
0.03919505 0.20717634 0.2525554 0.23247328 0.16188252 -0.0074380985 0.19422442 0.18583637
0.22318777 0.18807751 -0.4244662 -0.07863443 0.08538854 0.02955651 -0.08239965 0.25162122
0.014707376 0.71001333 0.25404 -0.008730072 0.004990871 -0.036524504 0.23600692 0.24115483
-0.058438007 0.2263582 0.33381855 -0.017257944 0.0016228156 0.098956056 0.13482977 0.19142093
0.3488472 0.0480887 0.20917398 0.18537585 0.031982698 0.07588085 0.3717797 0.10676952
-0.0652382 0.06991795 0.043900646 0.01451118 0.14823416 -0.023779187 0.23179354 0.039850708
0.0669812 0.16581106 0.23146527 -0.122496955 -0.051178988 -0.02999066 0.28892025 0.13005452

running_mean f4 [96]
00000000: 9aa7 76b5 97ff 9436 9837 d3b5 e580 cbb6
00000010: c25a 18b5 2c13 4c35 2c0d a736 190b cd34
00000020: 36e8 8936 c204 8136 9946 1035 f640 1435
00000030: 8355 00b5 387a eb34 cd1d 9335 fc1c a3b5
00000040: e288 0433 54cd 88b6 d77f a6b5 351b 4236
00000050: 6114 47b6 5784 5bb6 b7b3 8ab4 cf76 b933
00000060: 801b 3136 06f2 27b6 453f 0136 74fe b335
00000070: 7e3f 03b6 7e72 34b5 1dd7 eeb5 598e 98b5
00000080: d7f5 a1b5 9f8c 5436 350b 3837 4dcf d436
00000090: 584d 3eb6 f8d1 98b5 3302 9e35 5442 d0b6
000000a0: a711 24b7 013d 61b5 63ae 82b6 8f4c 1034
000000b0: b0f5 8236 c751 60b4 0538 5036 b45d 9b35
000000c0: 78fd 82b3 432e 8eb6 ede7 1635 474f c436
000000d0: cdf7 bd36 e979 6e33 e28c 09b6 fa5e 52b5
000000e0: 2b72 2035 4045 4eb6 b403 da36 8324 60b5
000000f0: 04b8 7836 f6dd da35 96e6 8bb5 7e1b 4536
00000100: fc94 8536 5bc2 7ab5 9fe1 87b5 5bc8 5736
00000110: 9b39 04b5 fb14 37b6 570a 7d35 c969 a4b6
00000120: 88fe a5b6 a239 d2b5 efe5 59b4 d781 07b6
00000130: be67 58b6 6e80 3bb6 2a44 79b6 fe7b ab36
00000140: 370b 0b37 e0ab df35 fd84 81b6 520e c7b6
00000150: b357 3eb5 9d3e e736 d065 8335 591f 3ab7
00000160: 3e16 8836 d2bd 4e36 8970 67b5 b5e8 2e36
00000170: 4444 ceb5 9bfd ff35 794a 27b6 49a1 be33
-9.1886034e-07 4.4404983e-06 -1.5736905e-06 -6.0648767e-06 -5.675648e-07 7.602382e-07 4.9785212e-06 3.81923e-07
4.109951e-06 3.8450535e-06 5.3746913e-07 5.5228827e-07 -4.780815e-07 4.3861087e-07 1.0961027e-06 -1.2152882e-06
3.085814e-08 -4.077019e-06 -1.240517e-06 2.892409e-06 -2.9665173e-06 -3.2710575e-06 -2.5835263e-07 8.636345e-08
2.6391062e-06 -2.5025815e-06 1.9259326e-06 1.3410595e-06 -1.9557478e-06 -6.7221833e-07 -1.7794988e-06 -1.1366311e-06
-1.2066984e-06 3.1672314e-06 1.0969864e-05 6.3422253e-06 -2.8357226e-06 -1.1385991e-06 1.1772557e-06 -6.2066047e-06
-9.779272e-06 -8.3907804e-07 -3.894603e-06 1.3438897e-07 3.9029037e-06 -2.0891376e-07 3.1027023e-06 1.1575671e-06
-6.0997024e-08 -4.2373154e-06 5.621685e-07 5.8504843e-06 5.6614867e-06 5.552457e-08 -2.0496595e-06 -7.8369305e-07
5.977078e-07 -3.07367e-06 6.4973374e-06 -8.3499634e-07 3.706199e-06 1.6306865e-06 -1.0423416e-06 2.937129e-06
3.981053e-06 -9.341508e-07 -1.0123948e-06 3.2154119e-06 -4.925766e-07 -2.7281337e-06 9.426489e-07 -4.899896e-06
-4.9470145e-06 -1.5662993e-06 -2.0293349e-07 -2.0192144e-06 -3.2246894e-06 -2.7939927e-06 -3.7143568e-06 5.1106317e-06
8.287657e-06 1.6664817e-06 -3.8599815e-06 -5.9323293e-06 -7.0908135e-07 6.8916256e-06 9.789892e-07 -1.1093763e-05
4.055705e-06 3.0806882e-06 -8.6217966e-07 2.6063474e-06 -1.5368064e-06 1.9072789e-06 -2.4928288e-06 8.876902e-08

running_var f4 [96]
00000000: 3d0c 8c3e 345a 1e3e ecaa 0c3e 6fd6 703e
00000010: a3a2 bb3d cc70 bc3d 7e49 383e fb2b 983c
00000020: ae91 9b3e f018 a33d f5af 1f3d 7f00 5b3e
00000030: 7990 753d 4f21 ad3d 6afc 173e 1cbc b43e
00000040: eddd 483d c221 543d 6fe2 dd3d ee47 3d3e
00000050: d448 0c3e f8b9 913d 61e6 b23d a9bc a23d
00000060: cf49 f83d 0522 533e ad28 df3d 10c6 823d
00000070: 267c a83d 0fbf 693d cd00 cf3e d29f de3d
00000080: 198c e93d 34d7 313e 7779 903e c236 5d3e
00000090: e1da ca3d 412a 503e 8f96 5f3d 2712 633e
000000a0: fd62 ab3e e938 443d 7ab5 f23d 4920 e23d
000000b0: 437b e03d e249 d43e 9316 693e 8e63 1b3e
000000c0: c81f 593d c40a 663d 95f1 8f3d 7ce8 493e
000000d0: b8e8 be3e eba8 3d3e b813 f83c 90a1 c63d
000000e0: 5cee bf3e 3b00 e43d dd42 4c3e 1f0a 093e
000000f0: 523e 3f3e 17ec 773e 8b1d 9e3d 430a cb3d
00000100: b282 ce3e b260 ca3d 565c c33d 712b 033e
00000110: 9994 7c3d 92e7 a93d c159 a03d 9bc8 c53e
00000120: 71a9 a83d 2bbe 8c3d 0738 9b3d c24a fa3d
00000130: 9516 f33d e074 993d b750 e03d eeb5 403e
00000140: 77e9 e33e f950 9b3d 3e26 a73d 0e6a a13e
00000150: b99a a43e 8953 153f 06eb 723d 9175 853e
00000160: f01e 323d 33ad 023e 8d8a 803d 5ec3 d93e
00000170: a0a7 253e 1913 113e a926 bb3d 2d2a b93d
0.27353087 0.15464097 0.13737077 0.235193 0.0916188 0.09201202 0.17996785 0.018575659
0.30384582 0.07963741 0.038986165 0.21386908 0.059952233 0.08453619 0.14842382 0.35299766
0.04903977 0.051790006 0.108342044 0.1848447 0.13699657 0.07115549 0.087353475 0.0794614
0.12123453 0.20618446 0.1089643 0.06385434 0.082268044 0.057066973 0.40430298 0.10870327
0.11403675 0.1736725 0.2821767 0.2160292 0.09905029 0.20328619 0.054586943 0.22174893
0.3347396 0.047905836 0.1185102 0.11041314 0.1096101 0.41462618 0.22762518 0.15174696
0.053008825 0.05616261 0.070285 0.19717592 0.37286925 0.18521468 0.03028284 0.09698784
0.3748654 0.111328565 0.19947381 0.13382767 0.18676117 0.24211155 0.077204786 0.09914067
0.40334088 0.098817244 0.09539096 0.1280954 0.06166515 0.08296122 0.07829619 0.38629612
0.082354434 0.06872209 0.07579046 0.1222129 0.118695416 0.07492995 0.10952895 0.188194
0.44514057 0.07583804 0.08161591 0.31526226 0.32149294 0.5833059 0.059306167 0.2606626
0.043486536 0.12761383 0.062764265 0.42531866 0.16177225 0.14167441 0.09138233 0.090412475
