experiments/model_repositories/robot/face_detection/model_files/block_04.pth (torch, 17017 bytes, 5 tensors)

weight f4 [96, 1, 3, 3]
0	0xbdb1f6b1	-0.08689631
1	0xbe0fda02	-0.14048007
2	0xbda72ee8	-0.081632435
3	0xbe276fe2	-0.16351274
4	0xbe22f14c	-0.1591236
5	0xbde91eb4	-0.11382809
6	0xbd14b7a7	-0.036307957
7	0xbdca10a1	-0.09866453
8	0xbd06c2e4	-0.032900706
9	0xbe05c860	-0.13064718
10	0xbd8e46d5	-0.06947104
11	0xbc28b869	-0.010297873
12	0xbe3fb7ff	-0.18722533
13	0xbd935999	-0.07194824
14	0xbc80c002	-0.015716556
15	0xbe25091e	-0.16116759
16	0xbe11e60e	-0.14247915
17	0xbd3a2a97	-0.045450773
18	0xbe018f2b	-0.1265227
19	0xbda471fa	-0.08029552
20	0x3d4403d8	0.04785523
21	0x3e363c9f	0.17796563
22	0x3eb4b329	0.35292938
23	0x3e2a0bdc	0.16606086
24	0xbc49eabb	-0.0123240305
25	0xbe18e435	-0.14930804
26	0xbeb3d083	-0.3512002
27	0x3e02780d	0.12741108
28	0x3e64b940	0.22336292
29	0xbc8e5cc3	-0.017378217
30	0x3e400f57	0.18755852
31	0x3f00181e	0.500368
32	0x3c4116c3	0.011785212
33	0x3d2e2fc0	0.042526007
34	0x3e15f832	0.1464546
35	0xbdb73814	-0.08946243
36	0xbd7e142f	-0.062030967
37	0xbe6f8a2f	-0.23392557
38	0xbe04215c	-0.1290335
39	0xbdaa90b6	-0.08328383
40	0xbde8ac93	-0.11361041
41	0xbbd5d182	-0.0065252194
42	0x3e18f744	0.14938074
43	0x3ecc6667	0.39921877
44	0x3e29776b	0.1654946
45	0x3d11588e	0.035484843
46	0x3e805090	0.25061464
47	0x3e65b610	0.22432733
48	0xbdaa5ccf	-0.08318483
49	0xbdd9db8d	-0.10637579
50	0x3d4f0eec	0.05055134
51	0xbddbf65a	-0.10740347
52	0xbe4183bb	-0.18897907
53	0xbdfea201	-0.124332435
54	0xbbd1c35d	-0.006401463
55	0xbd8b16c2	-0.0679145
56	0xbdbff842	-0.09373523
57	0x3d0ef3ce	0.03490048
58	0xbe43bb4d	-0.19114418
59	0xbe669c20	-0.22520494
60	0x3d1db0ba	0.038498618
61	0xbe3f3b62	-0.18674996
62	0xbe79b3b8	-0.24384964
63	0xbe028716	-0.12746844
64	0x3d87b870	0.066269755
65	0xbdf64f46	-0.12026839
66	0xbdf71dae	-0.12066208
67	0x3e1946c5	0.14968403
68	0xbe115138	-0.14191139
69	0xbe1bbba1	-0.15208293
70	0x3dd1946b	0.102333866
71	0xbde891db	-0.11355945
72	0x3d860606	0.06544118
73	0x3dea3b7b	0.11437126
74	0x3d993c34	0.07482186
75	0x3e0117c9	0.1260673
76	0x3e92f7f1	0.2870479
77	0x3e6b2d57	0.22966515
78	0x3dad8974	0.08473483
79	0x3e3e41ed	0.18579836
80	0x3e10e711	0.14150645
81	0xbddbfb32	-0.10741271
82	0x3e52efb7	0.20599256
83	0xbd86f6dc	-0.065900534
84	0xbd05fb6b	-0.032710474
85	0x3ddfb4fd	0.10923193
86	0xbd87b0a7	-0.06625491
87	0x3e06c4dc	0.13161033
88	0xbea61f6e	-0.32445854
89	0x3e01cb68	0.1267525
90	0x3ca75966	0.02042837
91	0x3c8c8e42	0.017157678
92	0x3c2954cb	0.010335158
93	0x3dbc3dd5	0.09191481
94	0x3e029615	0.12752564
95	0x3daebb4a	0.08531816
96	0x3da537fd	0.080673195
97	0x3e14a2f6	0.1451529
98	0x3d9d66d2	0.07685627
99	0xbd2d8ee3	-0.042372596
100	0xbe2b6c0e	-0.16740438
101	0xbe478677	-0.19484888
102	0xbd066f73	-0.03282113
103	0xbe63c1f7	-0.2224196
104	0xbe563770	-0.20919585
105	0xbb6a0baa	-0.0035712519
106	0xbcac90b2	-0.02106509
107	0xbd1bb316	-0.038012587
108	0xbdcc75f1	-0.09983433
109	0x3ddfe3ea	0.10932143
110	0xbc49f45c	-0.012326326
111	0x3e3b88c0	0.18313885
112	0xbea15fd3	-0.3151842
113	0x3dd8c8f1	0.105852015
114	0xbdcb1474	-0.099160105
115	0x3e6cb7c4	0.23116976
116	0xbdc58713	-0.09644904
117	0xbdebb11e	-0.11508392
118	0xbd06c130	-0.03289908
119	0x3de44bb0	0.11147249
120	0xbe6e4a00	-0.23270416
121	0x3ea43b19	0.32076338
122	0x3dbf335c	0.09335968
123	0x3d812c0c	0.063072294
124	0x3e5d9960	0.21640539
125	0xbd8ec2aa	-0.06970723
126	0xbd116d27	-0.035504486
127	0xbdb594d6	-0.08866279
128	0xbd7b06aa	-0.061285652
129	0x3dde0ef2	0.10842694
130	0x3ebf234e	0.37331623
131	0x3dc442a6	0.09583025
132	0xbd166237	-0.03671476
133	0xbe8a7bd8	-0.2704761
134	0xbbb72d29	-0.0055901003
135	0xbd84b2aa	-0.0647939
136	0xbdd1fcc0	-0.10253286
137	0xbd034fbd	-0.032058466
138	0xbe343b6d	-0.17600794
139	0xbe50345d	-0.20332475
140	0xbdb9bf98	-0.09069747
141	0xbdb7f67d	-0.08982561
142	0xbe4316d2	-0.19051674
143	0xbdc768ca	-0.09736784
144	0xbe284745	-0.16433437
145	0xbe281174	-0.16412908
146	0xbd8b9e66	-0.068173215
147	0xbd0a8f21	-0.033827905
148	0x3d808866	0.06276016
149	0x3e075724	0.13216835
150	0x3ced8dbf	0.028998254
151	0x3ddb25ad	0.107005455
152	0x3e41bced	0.18919726
153	0x3de0ba9f	0.10973095
154	0x3e594027	0.21215878
155	0x3d99a850	0.07502806
156	0x3e0e093a	0.13870707
157	0x3e04022a	0.1289145
158	0x3b34d33b	0.0027591723
159	0x3d75d748	0.06001976
160	0x3dc4c308	0.09607512
161	0x3d26a27f	0.040682312
162	0xbc05d78a	-0.008169064
163	0xbd9b404c	-0.07580623
164	0x3c3536c8	0.011060424
165	0x3cbbbe82	0.02291799
166	0xbeb1edad	-0.34751645
167	0xbd90f652	-0.07078232
168	0x3b2fb82b	0.0026812654
169	0xbe23105b	-0.15924208
170	0x3d2dc097	0.042419996
171	0xbbf98fb3	-0.0076160072
172	0xbd818e22	-0.06325938
173	0xbd4e31b0	-0.050340354
174	0xbdbc720c	-0.0920144
175	0xbe895656	-0.26823682
176	0xbe46d259	-0.19416179
177	0xbc0a819f	-0.008453756
178	0xbe4f8a09	-0.202675
179	0xbe08c77b	-0.13357346
180	0x3e1c4473	0.15260486
181	0x3e340a90	0.17582154
182	0x3d1f2842	0.038856752
183	0x3e3b0134	0.18262178
184	0x3ebf89ec	0.37409914
185	0x3c5733d6	0.013134917
186	0x3deb526d	0.11490331
187	0x3de4946a	0.1116112
188	0xbd4e1510	-0.050313056
189	0xbdba0fee	-0.090850696
190	0xbcfa7272	-0.03057215
191	0x3dfbf49b	0.12302514
192	0xbdaed6a5	-0.08537034
193	0xbe4bfabd	-0.19919868
194	0x3ea05b9f	0.313199
195	0xbcb29517	-0.021799607
196	0xbe3e2c04	-0.18571478
197	0x3e220235	0.15821154
198	0x3da57703	0.0807934
199	0xbe72dc8e	-0.23716947
200	0x3ded6b8c	0.115927786
201	0xbe70f736	-0.23531803
202	0x3ecbd2f9	0.39809397
203	0xbe0c4522	-0.13698247
204	0x3e349f5c	0.17638916
205	0xbe22cb44	-0.15897852
206	0x3cfe1edc	0.031020574
207	0xbd25bbeb	-0.040462416
208	0x3d049314	0.032366827
209	0xbc6f3e2b	-0.014602224
210	0x3d783614	0.060598448
211	0xbecf2d98	-0.40464473
212	0x3ea5efae	0.32409424
213	0xbcd7083f	-0.02624905
214	0x3ebafd1f	0.3652124
215	0xbe8c2282	-0.27370077
216	0xbd54669f	-0.05185568
217	0xbdd7e919	-0.10542507
218	0x3e0329df	0.12808941
219	0x3d6721c5	0.05642869
220	0xbe2cb282	-0.1686497
221	0xbea1ac77	-0.31576893
222	0x3d7c93b9	0.061664317
223	0x3e8a24d8	0.26981235
224	0x3d8f39f1	0.06993473
225	0x3cda9178	0.026680693
226	0x3ded37f8	0.11582941
227	0x3d87785c	0.066147536
228	0x3dc71b84	0.09722045
229	0x3ea6acb0	0.32553625
230	0x3e254783	0.16140561
231	0x3e05e202	0.13074496
232	0x3e7e1ea9	0.24816383
233	0x3dfd58bb	0.123704396
234	0x3cda95bc	0.026682727
235	0xbd56bc46	-0.052425645
236	0xbc29b769	-0.01035867
237	0x3e32a798	0.17446744
238	0x3e9a928b	0.30189928
239	0x3e43de4d	0.1912777
240	0xbc8e0531	-0.01733646
241	0xbd69387a	-0.056938626
242	0x36a4363f	4.893896e-06
243	0x3d2af0c0	0.041733503
244	0x3de0cc1e	0.10976432
245	0x3df7bcdb	0.12096568
246	0x3d0d5668	0.03450623
247	0x3df73eac	0.120725006
248	0x3e22be20	0.1589284
249	0xbc892cdd	-0.016745025
250	0x3d909fc1	0.07061721
251	0x3db722c8	0.08942181
252	0x3ddbe9de	0.10737966
253	0x3e2b6087	0.16736041
254	0x3db91eba	0.09039064
255	0x3dd9070c	0.10597047

weight f4 [96]
0	0x3f068d27	0.5255913
1	0x3ea44852	0.32086426
2	0x3eab2b41	0.33431438
3	0x3e8384f3	0.2568737
4	0x3ea682d6	0.32521695
5	0x3eab4dc7	0.33457777
6	0x3e298518	0.16554677
7	0x3ea92629	0.33036926
8	0x3e86573d	0.26238433
9	0x3e8a22eb	0.26979765
10	0x3e171f9e	0.14758155
11	0x3ee27457	0.44229385
12	0x3ebd088b	0.3692058
13	0x3e91b688	0.28459573
14	0x3e6b005b	0.22949354
15	0x3eddec2d	0.4334425
16	0x3e512358	0.20423639
17	0x3e7c57b5	0.24642833
18	0x3ef97f4a	0.48729926
19	0x3ed54855	0.41656747
20	0x3e977f91	0.29589513
21	0x3e7e63bc	0.24842733
22	0x3ecd25c6	0.4006788
23	0x3edcfd68	0.43162084
24	0x3e9ee788	0.3103602
25	0x3e90d568	0.28287816
26	0x3e95dc9a	0.29269868
27	0x3df2d3cc	0.11856803
28	0x3e7f361e	0.24922988
29	0x3eaf7112	0.34265953
30	0x3f036eb9	0.51340824
31	0x3e635a0d	0.2220232
32	0x3e9dfc6e	0.3085665
33	0x3e6b7147	0.2299243
34	0x3e4f6573	0.20253544
35	0x3eb0f2e6	0.34560317
36	0x3e5c6cbc	0.21525854
37	0x3e935b6a	0.2878068
38	0x3ec80622	0.3906718
39	0x3e9403eb	0.2890924
40	0x3edb6696	0.42851704
41	0x3df4f946	0.11961608
42	0x3eb31c40	0.3498249
43	0x3eaf58b5	0.34247366
44	0x3ea9e083	0.331791
45	0x3e958580	0.29203415
46	0x3eb1a986	0.3469965
47	0x3e65e496	0.2245048
48	0x3e590267	0.21192323
49	0x3ebd86d6	0.37016934
50	0x3daf1865	0.08549575
51	0x3e6919cb	0.22763745
52	0x3ef6127c	0.48060977
53	0x3e5beeae	0.21477768
54	0x3debeab9	0.11519379
55	0x3eecf185	0.46278015
56	0x3ea8ea39	0.32991198
57	0x3e6c31a9	0.23065819
58	0x3eb6daf7	0.35713932
59	0x3ec07e08	0.37596154
60	0x3ea8d010	0.3297124
61	0x3e98b4f1	0.29825547
62	0x3eb5c5f3	0.35502586
63	0x3e548119	0.20752372
64	0x3f104df4	0.5636895
65	0x3ed09239	0.4073656
66	0x3e529138	0.20563209
67	0x3e376440	0.17909336
68	0x3e8ce56d	0.27518788
69	0x3ea6ab0d	0.32552376
70	0x3e7e79d6	0.24851164
71	0x3f55af92	0.83471024
72	0x3ed6a848	0.41925263
73	0x3e17b283	0.1481419
74	0x3eaf9a40	0.3429737
75	0x3e6f5e81	0.23375894
76	0x3ea1e6d9	0.31621435
77	0x3e122576	0.14272103
78	0x3ee7a3be	0.45242113
79	0x3eb2c798	0.34917903
80	0x3f02724d	0.5095566
81	0x3e250fa5	0.16119249
82	0x3e943672	0.28947788
83	0x3eade13f	0.33960912
84	0x3f26ddcc	0.65182185
85	0x3e9fb4a7	0.31192514
86	0x3e7e753a	0.24849406
87	0x3e8fead5	0.2810885
88	0x3e2630ad	0.16229506
89	0x3eb5a6ce	0.35478824
90	0x3ebef52c	0.37296426
91	0x3ed201d0	0.41017008
92	0x3e3588ff	0.17728041
93	0x3dcde226	0.100529
94	0x3e5265c2	0.2054663
95	0x3eaf781f	0.34271333

bias f4 [96]
0	0xbd4f65a7	-0.050634053
1	0x3e0b7d5f	0.13622044
2	0xbc18412c	-0.009292882
3	0x3f12cace	0.57340705
4	0x3e12f7c8	0.14352334
5	0x3df89251	0.12137283
6	0x3f35d18f	0.71022886
7	0xbed51be8	-0.41622853
8	0x3e8ebfa4	0.27880585
9	0xbc91956f	-0.01777145
10	0x3d889550	0.06669104
11	0x3dd6ae06	0.10482411
12	0x3c9349bf	0.0179795
13	0xbc11c21a	-0.008896375
14	0xbcb017ce	-0.021495726
15	0x3d84a18d	0.06476126
16	0x3d1f9d77	0.03896853
17	0xbc1b5ef1	-0.009483085
18	0x3d559309	0.052142177
19	0x3d5d85e5	0.05408277
20	0x3f24ebe5	0.64422446
21	0x3a96780a	0.0011479866
22	0x3c01d3d8	0.007924043
23	0xbb9d4288	-0.004799191
24	0xbc945f57	-0.018111868
25	0x3e7b8eed	0.2456624
26	0x3d4b2c0b	0.04960255
27	0x3d0d68f3	0.034523915
28	0x3d3c2c3b	0.04594062
29	0xbca6beb0	-0.020354599
30	0x3cf04f27	0.029334618
31	0x3bbebf71	0.0058211614
32	0xbc0b302e	-0.008495374
33	0x3f20ec50	0.62860584
34	0x3f86e92e	1.0539911
35	0xbb9446e6	-0.0045250533
36	0x3eb12f47	0.34606382
37	0x3e1d217b	0.15344803
38	0xbc801023	-0.015632695
39	0x3e59d6a9	0.21273293
40	0x3e119915	0.14218552
41	0x3d428a60	0.047495246
42	0xbb473efb	-0.003040253
43	0x3c87f056	0.016594093
44	0x3bf3f756	0.007445256
45	0x3e9399c4	0.2882825
46	0x3d11d34c	0.0356019
47	0x3af3f2b6	0.0018611762
48	0xbc62648a	-0.013817916
49	0xbc432a4a	-0.011911938
50	0x3d2ad9f1	0.04171175
51	0x3f40630f	0.7515115
52	0xbd04f429	-0.03245941
53	0x3dfdc112	0.12390341
54	0x3f2b7834	0.6698029
55	0xbca7b640	-0.020472646
56	0x3e85dc25	0.2614452
57	0x3ea053b4	0.3131386
58	0x3d10dc9b	0.035366636
59	0x3df1eb45	0.11812452
60	0x3e4fba6f	0.20285963
61	0x3e63266e	0.22182629
62	0xbca2d21f	-0.019875584
63	0x3daaf7f9	0.08348078
64	0xbd762618	-0.060094923
65	0x3be5694c	0.0070010778
66	0x3c5269ae	0.012842579
67	0x3e6b4823	0.22976737
68	0x3e10583a	0.14096156
69	0x3c0a1ea0	0.008430153
70	0x3dc0bd2f	0.09411084
71	0xbe315486	-0.173174
72	0xbaab87e0	-0.0013086759
73	0x3ef0211f	0.4690027
74	0xbb941115	-0.004518638
75	0x3ed19e97	0.40941307
76	0x3da3c0db	0.07995769
77	0x3e95075d	0.2910718
78	0x3c9b386e	0.018947806
79	0x3dfa866f	0.122326724
80	0xbc9244c2	-0.017855052
81	0x3e64390b	0.22287385
82	0x3ea21423	0.31655988
83	0x3e80b315	0.2513663
84	0xbdcbf659	-0.099590965
85	0x3e92fe36	0.28709573
86	0x39e6f069	0.00044048138
87	0x3e9071c3	0.28211793
88	0x3df915c0	0.121623516
89	0x3c9d3b09	0.01919319
90	0x3c3dfe6e	0.011596305
91	0x3de1bde1	0.11022545
92	0x3fac45a9	1.3458759
93	0x3e0470d8	0.12933671
94	0x3e193347	0.14960967
95	0xbd37d029	-0.04487625

running_mean f4 [96]
0	0xbdc45e25	-0.09588269
1	0xbd60d5f7	-0.054891553
2	0x3bef5f3f	0.0073050554
3	0x3ed424ee	0.41434425
4	0x3cc8e692	0.024524007
5	0xbc2a1f47	-0.010383434
6	0xbe038ca3	-0.12846617
7	0xbcd6a101	-0.02619982
8	0x3dc11165	0.09427146
9	0xbb83bf93	-0.00402064
10	0x3cf71408	0.030160919
11	0xbdf9a47c	-0.12189576
12	0x3aaf1849	0.0013358678
13	0x3d9e19a8	0.07719737
14	0x3c72a3af	0.014809533
15	0xbdd4ddef	-0.10393893
16	0x3c000ca1	0.007815511
17	0x3e7e8dda	0.248588
18	0xbdbe4670	-0.09290779
19	0xbec17d5a	-0.37790948
20	0x3ee6e323	0.45095167
21	0xbb511450	-0.0031902976
22	0x3c13c822	0.009019883
23	0x3bde8620	0.0067908913
24	0xbbd7e1b3	-0.0065881847
25	0x3de449b8	0.11146873
26	0x3d85e6a0	0.06538129
27	0x3b783c61	0.0037877786
28	0x3e607217	0.21918522
29	0x3abfdfba	0.0014638819
30	0xbddead8d	-0.10872946
31	0x3d909abf	0.070607655
32	0x3d1ebc17	0.038753595
33	0xbd88cdd1	-0.06679881
34	0xbdf786a0	-0.120862246
35	0x3b7c4453	0.0038492873
36	0xbdd0313a	-0.10165639
37	0xbd3b463d	-0.04572128
38	0xbbb90aff	-0.005647063
39	0x3e189a66	0.14902648
40	0xbe0591bf	-0.13043879
41	0x3e3a6b88	0.18205082
42	0xbc8e8afe	-0.017400261
43	0x3d2ccd2c	0.042187855
44	0x3cb39d5e	0.021925624
45	0x3e1d872e	0.15383598
46	0xbe45268f	-0.1925299
47	0x3af9f2f0	0.0019069593
48	0x3c0d36fc	0.008619066
49	0xbc6aa142	-0.014320673
50	0x3bd099d5	0.0063659945
51	0xbd8d8b58	-0.06911343
52	0xbe17eded	-0.14836855
53	0x3d19c66b	0.03754274
54	0xbcca66af	-0.024707166
55	0x3c047041	0.008083404
56	0x3e27dcaf	0.16392778
57	0xbf703215	-0.9382642
58	0x3c19ac30	0.009379432
59	0xbd0e9417	-0.0348092
60	0x3e0341fc	0.1281814
61	0x3de39edf	0.11114287
62	0xbc076bf7	-0.008265487
63	0xbe25d8ec	-0.1619603
64	0xbdba1c69	-0.0908745
65	0xbbc460ee	-0.005993
66	0xbd1d3500	-0.038380623
67	0xbd4edbeb	-0.0505027
68	0xbbad3175	-0.0052854368
69	0xbc1144cf	-0.008866503
70	0x3deb30f2	0.11483945
71	0xbe6b8156	-0.22998556
72	0xbc8b43fc	-0.01700019
73	0xbd297f70	-0.0413813
74	0xbbbd2342	-0.0057720253
75	0xbe1fdbf6	-0.15611252
76	0xbd13465a	-0.035955764
77	0xbdc6cded	-0.09707246
78	0xbcce0c7a	-0.025152434
79	0xba092c5c	-0.00052327453
80	0xbdc650e2	-0.09683396
81	0x3dc3b86e	0.095566615
82	0xbd29523a	-0.041338183
83	0x3e1527cc	0.14565963
84	0xbe7a3ab1	-0.24436451
85	0x3e0fc24e	0.14038965
86	0x3c13f0d7	0.009029589
87	0x3e34f0b4	0.17669946
88	0xbda225aa	-0.0791734
89	0x3c12c05e	0.008956997
90	0xbbf2a9b1	-0.0074054827
91	0xbd9a3d0c	-0.07531175
92	0xbdb5355d	-0.08848069
93	0x3da24fa4	0.079253465
94	0xbe707038	-0.23480308
95	0x3b81d849	0.003962551

running_var f4 [96]
0	0x3d24b4a6	0.040211342
1	0x3c2e1c89	0.0106269205
2	0x3b64e7ff	0.003492832
3	0x3d042c85	0.03226902
4	0x3c16995e	0.009191839
5	0x3bc50887	0.0060129794
6	0x3c38dc60	0.01128301
7	0x3afcb161	0.0019278937
8	0x3cd75017	0.026283307
9	0x3a8d07aa	0.001075973
10	0x3b37aea4	0.0028027678
11	0x3cd824c4	0.026384719
12	0x3a57b075	0.0008227893
13	0x3a8dc94c	0.0010817437
14	0x39c7b2d5	0.00038089478
15	0x3d218541	0.03943372
16	0x3ae558a4	0.001749773
17	0x3c0d2de6	0.0086169
18	0x3cd2c1c8	0.025727168
19	0x3c617019	0.013759636
20	0x3c6bdee3	0.014396402
21	0x3b045b3a	0.0020195977
22	0x3b035960	0.0020042285
23	0x3b017086	0.0019750907
24	0x3b51c19e	0.0032006274
25	0x3d93f2e3	0.07224061
26	0x3bae05c1	0.0053107445
27	0x39c5cd3d	0.00037727683
28	0x3aba6b05	0.0014222568
29	0x3aa279bd	0.00123959
30	0x3d37aa58	0.044840187
31	0x39d337e2	0.00040286692
32	0x3b9315b4	0.004488671
33	0x3c5de4e6	0.013543343
34	0x3d18602a	0.037201084
35	0x3bf0ebf6	0.0073523475
36	0x3d0d8db5	0.03455897
37	0x3c63329e	0.013867049
38	0x3ab09c16	0.0013474252
39	0x3d82b6d3	0.06382527
40	0x3d62289e	0.055214517
41	0x3c068f7d	0.008212921
42	0x3bdaad47	0.0066734883
43	0x3b0ee097	0.0021801346
44	0x3b5af75d	0.00334116
45	0x3d85a358	0.06525296
46	0x3c3635fa	0.011121267
47	0x39853094	0.0002540393
48	0x3a282e72	0.00064156123
49	0x3a0098b0	0.0004905565
50	0x39f7bc49	0.00047251795
51	0x3c87604b	0.016525408
52	0x3c8ee18a	0.01744153
53	0x3b517501	0.003196061
54	0x3b342860	0.0027489886
55	0x3abd2601	0.0014430882
56	0x3d995bdb	0.07488223
57	0x3cd8b495	0.026453296
58	0x3bb110f8	0.005403634
59	0x3c80d2b5	0.015725473
60	0x3d21bc3d	0.03948616
61	0x3d6071da	0.054796077
62	0x3aba660b	0.0014221085
63	0x3b482fc9	0.003054606
64	0x3cd2c2b6	0.025727611
65	0x3b17d777	0.0023169199
66	0x3a627e09	0.00086399965
67	0x3b92afbb	0.004476515
68	0x3be4fd84	0.006988229
69	0x3b88422b	0.0041582785
70	0x3bbb4859	0.0057154116
71	0x3de97491	0.113991864
72	0x39d54163	0.00040675243
73	0x3b547954	0.003242095
74	0x3b11e91e	0.0022264193
75	0x3c13b5b8	0.009015493
76	0x3c843e2c	0.016142927
77	0x3c380c82	0.011233451
78	0x3bbb3d74	0.005714113
79	0x3b8ada14	0.0042374227
80	0x3cdc7269	0.026910024
81	0x3c58eacb	0.013239573
82	0x3c44adea	0.012004355
83	0x3da94dd8	0.08266801
84	0x3dcafaeb	0.0991114
85	0x3d242949	0.040078435
86	0x39245712	0.00015672695
87	0x3dd93dec	0.10607514
88	0x3c0ea820	0.008707076
89	0x3b3d2463	0.00288608
90	0x3b2549a0	0.0025220886
91	0x3ca97ddd	0.0206899
92	0x3d1c2f53	0.03813107
93	0x3c6dd3ca	0.0145158265
94	0x3ba07b88	0.0048975386
95	0x3b032ac1	0.0020014497
