experiments/model_repositories/robot/face_detection/model_files/block_12.pth (torch, 39673 bytes, 5 tensors)

weight f4 [192]
0.25473768 0.157396 0.09874123 0.22499436 0.15951774 0.118634395 0.19064976 0.19290727
0.21004333 0.1096335 0.14753023 0.23887125 0.08235455 0.096867874 0.12188724 0.22327945
0.12223304 0.21866594 0.122237176 0.15482861 0.21372095 0.14817105 0.06120144 0.27387232
0.19457774 0.09916125 0.18117341 0.19253378 0.20305905 0.22091205 0.18319671 0.21531631
0.20003015 0.24472381 0.20943022 0.1144562 0.22451447 0.20790185 0.20908149 0.13526686
0.1408823 0.062180653 0.24097414 0.22847898 0.2218532 0.10762829 0.20221908 0.2763085
0.17983967 0.13531484 0.21888582 0.20343013 0.19137487 0.16017605 0.14802898 0.14276256
0.16023329 0.24285567 0.21035658 0.20234701 0.13937417 0.037590384 0.17897631 0.2600071
0.17891568 0.1969348 0.17943795 0.18917643 0.24394327 0.14749265 0.22375959 0.18792623
0.27810624 0.16733748 0.2530093 0.1313736 0.072770454 0.1318784 0.07371739 0.2131876
0.17457178 0.24062963 0.29234925 0.085192405 0.19086054 0.078130215 0.16909905 0.23657946
0.21393336 0.28440073 0.16108884 0.21812102 0.23190892 0.20812044 0.14224705 0.09117847
0.25020957 0.22703129 0.20900995 0.2506774 0.27556968 0.08046836 0.18726186 0.14464791
0.19603723 0.2215592 0.1799636 0.07460534 0.27163216 0.19722521 0.087501556 0.0695182
0.18931611 0.10930598 0.16796468 0.20179044 0.18906744 0.20176905 0.054965176 0.23048797
0.16228537 0.2854626 0.16296291 0.14110336 0.1840463 0.20761332 0.12812352 0.15506926
0.1634428 0.21468271 0.24631181 0.14656496 0.22155753 0.15518141 0.22066246 0.16732246
0.23512323 0.17433164 0.24162368 0.08634026 0.13333216 0.1100555 0.107745014 0.210479
0.24135849 0.18971677 0.2574013 0.22694556 0.22584115 0.02579014 0.28344423 0.17231333
0.19394349 0.28735128 0.18401766 0.19022913 0.12292583 0.25680882 0.08768634 0.19621572
0.19344136 0.23277664 0.16764416 0.215244 0.21474385 0.25874478 0.28063396 0.2218679
0.16723779 0.1269151 0.13756177 0.07861371 0.14332657 0.16023713 0.16013706 0.17777722
0.233858 0.21928224 0.25180236 0.19055526 0.18304911 0.23265293 0.17705654 0.19460684
0.15306993 0.13647895 0.23308606 0.090717494 0.1568422 0.22527203 0.2454229 0.23427849
00000000: fa6c 823e 6b2c 213e d838 ca3d ec64 663e
00000010: 9e58 233e 97f6 f23d b139 433e 7c89 453e
00000020: 9915 573e 8787 e03d 2a12 173e aa9a 743e
00000030: 81a9 a83d aa62 c63d 04a0 f93d 5ea3 643e
00000040: 5155 fa3d f7e9 5f3e 7c57 fa3d 648b 1e3e
00000050: aad9 5a3e 27ba 173e 5cae 7a3d fe38 8c3e
00000060: 633f 473e 0e15 cb3d 8685 393e 9327 453e
00000070: b6ee 4f3e c536 623e eb97 3b3e e17b 5c3e
00000080: b4d4 4c3e e198 7a3e e074 563e 0368 ea3d
00000090: 1fe7 653e 39e4 543e 7519 563e 6583 0a3e
000000a0: 7343 103e 24b1 7e3d edc1 763e 65f6 693e
000000b0: 7c2d 633e 396c dc3d 8512 4f3e 4f78 8d3e
000000c0: e427 383e f98f 0a3e 9b23 603e fd4f 503e
000000d0: c6f7 433e 3105 243e e994 173e 5930 123e
000000e0: 3214 243e 28af 783e b767 573e 0e34 4f3e
000000f0: 1ab8 0e3e 60f8 193d 9145 373e a71f 853e
00000100: ac35 373e 47a9 493e 95be 373e 77b7 413e
00000110: 44cc 793e 5008 173e 3c21 653e bc6f 403e
00000120: f163 8e3e 845a 2b3e 6f8a 813e cd86 063e
00000130: ad08 953d 220b 073e 25f9 963d da4d 5a3e
00000140: f2c2 323e 9d67 763e cdae 953e 5b79 ae3d
00000150: f270 433e bc02 a03d 4d28 2d3e e341 723e
00000160: 5911 5b3e f99c 913e 79f4 243e 1e5b 5f3e
00000170: 8879 6d3e 861d 553e 36a9 113e c7bb ba3d
00000180: 781b 803e e47a 683e b406 563e ca58 803e
00000190: 7817 8d3e 98cc a43d 93c1 3f3e 951e 143e
000001a0: fcbd 483e 6ae0 623e 6148 383e afca 983d
000001b0: 5f13 8b3e 68f5 493e 0434 b33d 8f5f 8e3d
000001c0: 15dc 413e d0db df3d effe 2b3e 27a2 4e3e
000001d0: e59a 413e 8c9c 4e3e 2a23 613d 0a05 6c3e
000001e0: 232e 263e 2728 923e c0df 263e 667d 103e
000001f0: a276 3c3e 9698 543e d032 033e 7aca 1e3e
00000200: 8d5d 273e c9d5 5b3e 2a39 7c3e 2015 163e
00000210: fadf 623e e0e7 1e3e 57f5 613e 9456 2b3e
00000220: 25c4 703e fe83 323e 336c 773e 2ad3 b03d
00000230: 3a88 083e c764 e13d 6ba9 dc3d cf87 573e
00000240: ae26 773e 1d45 423e 1aca 833e 6b64 683e
00000250: e742 673e d845 d33c 9a1f 913e e872 303e
00000260: 1f99 463e b51f 933e 206f 3c3e 6dcb 423e
00000270: 8ac0 fb3d 727c 833e e594 b33d c6ec 483e
00000280: 7e15 463e 005d 6e3e e9aa 2b3e ec68 5c3e
00000290: d0e5 5b3e 327a 843e 41af 8f3e 5731 633e
000002a0: 6240 2b3e 08f6 013e fedc 0c3e 3a00 a13d
000002b0: 33c4 123e 3415 243e f8fa 233e 3b0b 363e
000002c0: 7978 6f3e 868b 603e 3dec 803e eb20 433e
000002d0: 3a71 3b3e 923c 6e3e 4f4e 353e 0447 473e
000002e0: 5dbe 1c3e 23c1 0b3e 1dae 6e3e 18ca b93d
000002f0: 3e9b 203e b6ad 663e 2450 7b3e b3e6 6f3e

bias f4 [192]
-0.015063813 0.07865384 0.24164113 -0.07811657 0.22867975 0.18528798 -0.07785517 0.03288258
0.027265359 0.18979591 0.081576094 -0.002982009 0.2212933 0.15734477 0.19853175 -0.061595503
0.10564081 -0.16199952 0.26400542 0.18303756 -0.050640695 0.1164047 0.2593348 -0.12581913
0.061592326 0.13488978 0.19503398 -0.025628626 -0.019006453 -0.05161445 0.025160098 0.10750924
-0.061451055 -0.08532567 -0.06639444 0.2363557 -0.11633439 -0.05166928 6.848992e-05 0.3021525
0.20473246 0.14076139 -0.23625642 0.08551181 -0.0001780279 0.12751758 -0.07547796 -0.041403055
0.11302636 0.21985467 0.0032562036 0.07585465 -0.023422962 0.031123783 0.09893452 0.105229035
0.12572259 -0.11188904 0.067463815 0.048975144 0.13832968 0.17134346 -0.051291205 -0.1650696
0.13492513 -0.032418367 0.0664632 -0.13541688 -0.08135668 -0.0045907046 -0.058312852 0.022544987
-0.05180918 0.122369036 -0.068589754 0.20703454 0.13314259 0.14555734 0.25742275 -0.037810437
0.1194988 -0.042872634 -0.054518245 0.16527373 0.10944729 0.12229021 0.08764977 -0.041217916
-0.032682896 -0.0827997 0.002552814 -0.0024321391 0.026486613 -0.067508794 0.13166118 0.14223625
-0.07184226 0.14595705 -0.173328 0.07776432 -0.0344022 0.24592607 -0.117192015 0.10443333
-0.10854928 -0.035338525 0.05235697 0.206506 -0.10768288 0.01833725 0.20110327 0.23950082
0.088444516 0.21978328 0.06188063 0.08356679 0.07103999 -0.110434204 0.14720368 -0.105788864
0.03642082 -0.07163912 0.14809103 0.07206968 0.06268828 0.043523885 0.24653004 0.12752368
0.18309335 -0.06258533 -0.05233418 -0.14112706 -0.07287431 0.11400223 -0.049408495 0.086057775
0.090703554 0.016517118 0.07253783 0.13557783 0.15656744 0.110335305 0.1132357 -0.079588674
-0.061285276 0.181101 0.1154598 -0.0211607 -0.097048976 0.22583133 -0.1309845 0.06882705
-0.0033671858 -0.13749532 -0.090299115 0.0018737327 0.18127643 -0.010917549 0.19606182 0.06381291
-0.032216232 -0.005683742 -0.10948538 -0.17606331 -0.018779902 -0.059675775 -0.20265822 0.24389024
0.07635866 0.12413524 0.17104574 0.23930518 -0.09702892 0.06782812 0.22280438 -0.13302381
-0.112366684 0.03998865 -0.045677666 0.18672171 0.046126485 -0.16393219 0.065257475 -0.0944454
0.19098806 0.21537389 -0.016095806 0.13993566 0.08878091 0.05538667 0.015703239 -0.19766411
00000000: 36ce 76bc 4415 a13d c670 773e 95fb 9fbd
00000010: 062b 6a3e 22bc 3d3e 8872 9fbd e2af 063d
00000020: 9a5b df3c dc59 423e 5e11 a73d cf6d 43bb
00000030: b69a 623e fd1e 213e e84b 4b3e 914b 7cbd
00000040: 365a d83d 34e3 25be b82b 873e 336e 3b3e
00000050: 9e6c 4fbd 9665 ee3d 88c7 843e bbd6 00be
00000060: 3c48 7c3d 8c20 0a3e fdb6 473e 20f3 d1bc
00000070: 6cb3 9bbc ac69 53bd 8d1c ce3c ce2d dc3d
00000080: 1ab4 7bbd 3abf aebd cff9 87bd 3b07 723e
00000090: ba40 eebd 2ba3 53bd 3fa2 8f38 bcb3 9a3e
000000a0: 63a5 513e c123 103e 34ed 71be d120 af3d
000000b0: 00ad 3ab9 f893 023e 3094 9abd 4096 29bd
000000c0: 5d7a e73d 9521 613e 0866 553b af59 9b3d
000000d0: 83e1 bfbc 4ef7 fe3c 2e9e ca3d 5282 d73d
000000e0: 6cbd 003e 1526 e5bd 782a 8a3d 299a 483d
000000f0: 4ca6 0d3e a974 2f3e ba16 52bd 0108 29be
00000100: d029 0a3e 1fc9 04bd dc1d 883d b9aa 0abe
00000110: 559e a6bd 9f6d 96bb 75d9 6ebd 44b0 b83c
00000120: dd35 54bd 9e9c fa3d c978 8cbd dd00 543e
00000130: 8856 083e fc0c 153e eacc 833e 1edf 1abd
00000140: c9bb f43d 379b 2fbd 864e 5fbd 843d 293e
00000150: e725 e03d 4a73 fa3d b981 b33d 1ed4 28bd
00000160: 80de 05bd e492 a9bd 1d4d 273b 8664 1fbb
00000170: 74fa d83c 0d42 8abd 30d2 063e 61a6 113e
00000180: 0922 93bd c475 153e e57c 31be e642 9f3d
00000190: 52e9 0cbd 0bd4 7b3e 5e02 f0bd 24e1 d53d
000001a0: 164f debd 21bf 10bd 4374 563d 4f76 533e
000001b0: d788 dcbd 0038 963c 04ee 4d3e b43f 753e
000001c0: 6622 b53d de0e 613e 8b76 7d3d 1125 ab3d
000001d0: 6a7d 913d 542b e2bd 90bc 163e d5a7 d8bd
000001e0: ff2d 153d 88b7 92bd 2da5 173e 4599 933d
000001f0: b762 803d 1a46 323d 5f72 7c3e 9195 023e
00000200: d37c 3b3e bd2c 80bd 5d5c 56bd 9d83 10be
00000210: 203f 95bd 007a e93d 9060 4abd 0f3f b03d
00000220: c9c2 b93d e84e 873c b78e 943d ead4 0a3e
00000230: 3753 203e 7af7 e13d 1ee8 e73d 63ff a2bd
00000240: 4506 7bbd 8a72 393e 3076 ec3d 3459 adbc
00000250: 9dc1 c6bd 5440 673e cd20 06be 32f5 8c3d
00000260: 01ac 5cbb 93cb 0cbe beee b8bd 0998 f53a
00000270: 87a0 393e 85df 32bc 6ec4 483e 58b0 823d
00000280: 2bf5 03bd af3e babb df39 e0bd f149 34be
00000290: 4fd8 99bc 966e 74bd a385 4fbe 5dbe 793e
000002a0: ee61 9c3d 9e3a fe3d 9d26 2f3e 6b0c 753e
000002b0: 19b7 c6bd 78e9 8a3d d526 643e 6537 08be
000002c0: 8120 e6bd 23cb 233d 8118 3bbd fa33 3f3e
000002d0: 20ef 3c3d d7dd 27be b6a5 853d 976c c1bd
000002e0: 6092 433e f98a 5c3e 5adb 83bc 4b4b 0f3e
000002f0: c4d2 b53d 22dd 623d 14a4 803c 7668 4abe

running_mean f4 [192]
-1.883242e-06 3.1513744e-06 6.5651598e-06 4.3827132e-08 2.5427826e-06 -5.1270763e-06 -2.09067e-06 -1.9990257e-06
-1.3662704e-07 5.8379264e-06 1.17586e-06 -3.062275e-08 -4.040294e-06 2.4122612e-06 4.8790264e-07 2.937113e-06
-4.534934e-11 1.7652533e-07 -2.2080268e-07 -8.041779e-06 -2.7835438e-06 6.004309e-07 -3.9936845e-06 -3.4386514e-06
1.9345862e-06 -2.066297e-06 8.545763e-06 3.5361418e-06 -8.722044e-07 5.5670585e-06 2.1722676e-06 4.7646745e-06
-3.5788692e-06 2.1242138e-06 7.52988e-06 4.324711e-06 5.171264e-06 3.3356039e-06 -3.2481116e-06 2.9722019e-06
-7.3275135e-07 3.4860477e-07 -4.934308e-06 5.2497985e-06 4.247958e-06 2.8173642e-06 1.2904685e-05 -1.4545741e-06
8.703006e-07 1.1900015e-06 6.7997594e-06 5.924435e-06 1.5719899e-06 4.5719203e-06 -1.630773e-06 3.8453295e-06
2.0624502e-06 -1.0499887e-06 3.8763646e-06 5.219868e-07 -3.4133184e-06 2.2519616e-08 -1.1313945e-06 -6.6017883e-06
1.4278372e-06 2.48439e-06 6.5626964e-06 -4.6442455e-07 -1.3060593e-07 1.1101455e-06 5.6855374e-06 -2.0165635e-06
8.787703e-06 1.110175e-06 -5.1451666e-06 9.005985e-07 -2.6780463e-06 2.9223906e-06 1.426436e-06 3.2338698e-06
6.3264565e-06 1.6505911e-06 -3.0824872e-06 3.5829712e-06 3.1663498e-07 1.5372535e-06 3.781273e-06 8.627926e-06
6.276789e-07 3.580201e-06 9.518655e-07 -3.912285e-07 -3.1841807e-06 -6.807434e-06 -8.5544286e-08 -2.5030454e-06
-2.7483213e-07 3.3726742e-06 -2.0337561e-06 8.270217e-06 -2.9330515e-06 -1.5265466e-06 6.9772495e-06 -2.3680816e-06
8.437712e-07 1.1086352e-06 -1.1825465e-06 3.028718e-06 -6.596376e-07 4.6544083e-06 -1.4489308e-06 5.307351e-06
1.1235824e-05 5.7931525e-06 -7.819201e-06 1.8761199e-06 -4.519e-06 7.128544e-07 -2.8864284e-07 2.0438795e-06
3.4200114e-06 -5.4580687e-06 -2.267022e-06 3.9563733e-06 3.7861753e-06 1.9978172e-07 7.499508e-06 3.452018e-06
-2.9761864e-06 4.1068688e-08 3.2475125e-06 2.0982998e-06 -7.863642e-06 2.6658313e-06 1.969963e-06 5.8452956e-06
-2.7647764e-06 -6.2652516e-06 6.20049e-07 -4.308048e-06 5.5558558e-06 -3.117166e-06 1.6738626e-06 7.060327e-08
3.567309e-06 1.3568778e-07 7.50493e-06 -5.915231e-06 5.9310246e-06 -7.041919e-08 -4.4656294e-06 5.094039e-07
-1.9493918e-06 -4.845406e-06 3.2215125e-06 -3.4800576e-06 -6.6220247e-07 -2.0140428e-06 -5.1349994e-06 -2.831092e-06
-1.902977e-06 -3.1228092e-07 -3.3726124e-06 -1.5001937e-06 1.4448045e-06 -2.3347081e-06 2.24093e-06 2.2360352e-06
2.807147e-07 -3.3356105e-07 1.6933906e-06 -1.6111587e-06 5.959406e-06 6.6399036e-07 4.8835395e-06 1.2073148e-06
6.6832636e-06 -9.72698e-07 1.3410656e-06 -4.7785187e-07 1.6576637e-06 -1.5972797e-06 2.8145978e-06 1.02448574e-07
5.172343e-06 7.0949307e-07 -8.6410625e-07 -3.3172441e-06 -5.1161703e-07 -3.6474662e-06 -2.0503747e-07 2.8517309e-06
00000000: b4c3 fcb5 337c 5336 4b4a dc36 713c 3c33
00000010: aca4 2a36 4009 acb6 704d 0cb6 0027 06b6
00000020: c1b3 12b4 68e3 c336 3ed2 9d35 1286 03b3
00000030: dc91 87b6 55e2 2136 6af8 0235 381b 4536
00000040: d172 47ae ea8a 3d34 c715 6db4 2eeb 06b7
00000050: ebcc 3ab6 4c2d 2135 7d01 86b6 95c3 66b6
00000060: f0d3 0136 b6aa 0ab6 c65f 0f37 744e 6d36
00000070: 6e21 6ab5 abcc ba36 46c7 1136 3ee0 9f36
00000080: 812c 70b6 b78d 0e36 2da9 fc36 fc1c 9136
00000090: d284 ad36 3dd9 5f36 22fa 59b6 0a76 4736
000000a0: 4ab2 44b5 e027 bb34 6291 a5b6 6d27 b036
000000b0: ae89 8e36 f311 3d36 3381 5837 c93a c3b5
000000c0: 9a9e 6935 24b8 9f35 7d29 e436 82ca c636
000000d0: 29fd d235 7f68 9936 efe0 dab5 2107 8136
000000e0: a068 0a36 56ed 8cb5 b811 8236 a91e 0c35
000000f0: 5d10 65b6 2971 c132 6bda 97b5 ee84 ddb6
00000100: 1da4 bf35 7fb9 2636 2235 dc36 0656 f9b4
00000110: af3c 0cb4 4f00 9535 65c6 be36 4c54 07b6
00000120: e66e 1337 5301 9535 a5a4 acb6 a8c0 7135
00000130: 7cb8 33b6 4a1e 4436 f873 bf35 7605 5936
00000140: d947 d436 e189 dd35 badc 4eb6 fa72 7036
00000150: fbfd a934 a153 ce35 c7c1 7d36 a9c0 1037
00000160: c47d 2835 6343 7036 b383 7f35 090a d2b4
00000170: cfaf 55b6 6a6b e4b6 78b4 b7b3 fef9 27b6
00000180: a48c 93b4 1a56 6236 aa7b 08b6 50c0 0a37
00000190: 71d5 44b6 bee3 ccb5 1e1e ea36 55eb 1eb6
000001a0: 847f 6235 6acc 9435 fdb7 9eb5 fb40 4b36
000001b0: f311 31b5 102d 9c36 e278 c2b5 cc15 b236
000001c0: 7f81 3c37 cd62 c236 362f 03b7 fdce fb35
000001d0: eaa1 97b6 fb5a 3f35 c5f6 9ab4 9529 0936
000001e0: 5983 6536 7424 b7b6 2423 18b6 fdc0 8436
000001f0: ff15 7e36 9583 5634 48a4 fb36 38a9 6736
00000200: 7eba 47b6 8063 3033 d7ef 5936 84d0 0c36
00000210: 16ee 03b7 a2e6 3236 b533 0436 b522 c436
00000220: 7f8a 39b6 1a3a d2b6 7171 2635 da8d 90b6
00000230: 706c ba36 8130 51b6 7ba9 e035 8f9e 9733
00000240: e765 6f36 93b1 1134 dcd2 fb36 737b c6b6
00000250: 1d03 c736 5c39 97b3 77d7 95b6 f8bd 0835
00000260: 4cd2 02b6 b895 a2b6 2a31 5836 ef8a 69b6
00000270: 35c2 31b5 fe28 07b6 4f4d acb6 cafd 3db6
00000280: cb69 ffb5 90a7 a7b4 0a55 62b6 435a c9b5
00000290: 1beb c135 fbad 1cb6 e262 1636 cb0e 1636
000002a0: 22b5 9634 4814 b3b4 7548 e335 fe3e d8b5
000002b0: e8f6 c736 123d 3235 49dd a336 050b a235
000002c0: cc40 e036 a68d 82b5 aafe b335 bb45 00b5
000002d0: e47c de35 1d62 d6b5 6ce2 3c36 b301 dc33
000002e0: 178e ad36 fe73 3e35 eef4 67b5 d29d 5eb6
000002f0: 0e56 09b5 fec6 74b6 4528 5cb4 5d60 3f36

running_var f4 [192]
0.25447443 0.29426283 0.3696332 0.413474 0.5807451 0.23017636 0.56668115 0.21167067
0.15413019 0.15576145 0.22693649 0.33277434 0.26594177 0.22224085 0.3757035 0.37089765
0.1352772 0.49926728 0.34215894 0.2627513 0.40824732 0.19120592 0.24263145 0.51032215
0.3307499 0.21547559 0.7222076 0.27181074 0.24330525 0.35233393 0.25913975 0.58743036
0.29607606 1.0908468 0.25216672 0.48074436 0.4383138 0.3753415 0.2688759 0.4700466
0.16636127 0.18195747 0.30084258 0.43472734 0.53643703 0.19230731 0.279058 0.8396402
0.5775076 0.3359439 0.24950361 0.43466097 0.2571731 0.28297353 0.11205483 0.092520155
0.1874621 0.41262692 0.5083699 0.24328601 0.3536365 0.22663923 0.13150471 0.6466252
0.39514896 0.41446677 0.2577837 0.22785765 0.5319708 0.109612234 0.6895306 0.19519566
0.9625655 0.49492207 0.42447472 0.41347584 0.18281016 0.2414283 0.16004327 0.30943078
0.3275332 0.4457867 0.2859775 0.120071575 0.27455008 0.18321346 0.3922731 0.54227585
0.39764202 0.74306875 0.2717171 0.29184845 0.22340204 0.2208445 0.33497664 0.20715864
0.45834 0.31933153 0.32223222 0.66598827 0.5068869 0.51222914 0.27188072 0.2661828
0.29033104 0.49501845 0.36069024 0.2841824 0.537987 0.3093086 0.17568946 0.18352075
0.39196053 0.4118731 0.3480073 0.23358716 0.1470961 0.41852322 0.24425825 0.3059588
0.33891654 0.8515769 0.33775592 0.09779234 0.34643316 0.32953796 0.30078715 0.37573323
0.33123627 0.6704442 0.6074557 0.23805004 0.33780017 0.21800798 0.30245093 0.5215478
0.3266428 0.30235964 1.0184399 0.08049752 0.24014449 0.12407314 0.10492374 0.30097267
0.48152354 0.51324964 0.60756063 0.46195522 0.4867794 0.32798126 1.3440228 0.19820046
0.17931877 0.8911394 0.25610334 0.2184579 0.30331963 0.60575634 0.19995244 0.57088745
0.2595349 0.43313894 0.20321566 0.3434582 0.48459706 0.57426226 0.5463819 0.5736194
0.2588473 0.21994036 0.3596931 0.29073462 0.09216333 0.26578218 0.18875177 0.42087063
0.30357 0.4634975 0.74545324 0.2599716 0.18371238 0.37973034 0.20925508 0.37066847
0.11341103 0.19929537 0.4469666 0.10130736 0.15432218 0.40966758 0.69729555 0.5912775
00000000: 794a 823e 9ea9 963e 9040 bd3e ddb2 d33e
00000010: b6ab 143f 5ab3 6b3e 0412 113f 32c0 583e
00000020: 4ed4 1d3e ee7f 1f3e 0a62 683e 6661 aa3e
00000030: 8529 883e 1b93 633e 365c c03e 4ce6 bd3e
00000040: 1b86 0a3e f69f ff3e 752f af3e 5787 863e
00000050: cb05 d13e 7ccb 433e 6174 783e 79a4 023f
00000060: 0d58 a93e a2a5 5c3e 99e2 383f c72a 8b3e
00000070: 0325 793e 1d65 b43e f7ad 843e d661 163f
00000080: 4897 973e dea0 8b3f ff1b 813e 2024 f63e
00000090: ab6a e03e c32c c03e 1aaa 893e f3a9 f03e
000000a0: 9c5a 2a3e 0f53 3a3e 0a08 9a3e 9594 de3e
000000b0: f053 093f 35ec 443e b1e0 8e3e a9f2 563f
000000c0: 8ad7 133f d700 ac3e e07d 7f3e e28b de3e
000000d0: 31ac 833e e8e1 903e 017d e53d 357b bd3d
000000e0: 11f6 3f3e d643 d33e 8824 023f f81f 793e
000000f0: d80f b53e 1d14 683e 2ca9 063e 3b89 253f
00000100: f750 ca3e fd34 d43e 3afc 833e 8453 693e
00000110: 3d2f 083f 617c e03d 1485 303f 5fe1 473e
00000120: b16a 763f 6d66 fd3e c054 d93e 1bb3 d33e
00000130: 9632 3b3e fb38 773e 62e2 233e b66d 9e3e
00000140: 6eb2 a73e 283e e43e a56b 923e 16e8 f53d
00000150: d491 8c3e 4f9c 3b3e 05d8 c83e 97d2 0a3f
00000160: bc97 cb3e c139 3e3f 811e 8b3e 296d 953e
00000170: 81c3 643e 1025 623e 0f82 ab3e 6521 543e
00000180: 8aab ea3e 6c7f a33e 9ffb a43e 357e 2a3f
00000190: 57c3 013f 7321 033f f333 8b3e 1d49 883e
000001a0: 45a6 943e 0f73 fd3e 64ac b83e 5b80 913e
000001b0: 84b9 093f b25d 9e3e f0e7 333e ddec 3b3e
000001c0: 0daf c83e 08e1 d23e 032e b23e 7931 6f3e
000001d0: 5ca0 163e ad48 d63e d61e 7a3e a2a6 9c3e
000001e0: 7886 ad3e f200 5a3f 58ee ac3e 5a47 c83d
000001f0: b05f b13e 33b9 a83e c600 9a3e 1b60 c03e
00000200: cd97 a93e 3ba2 2b3f 3782 1b3f 64c3 733e
00000210: 25f4 ac3e 7c3d 5f3e d9da 9a3e 2884 053f
00000220: ba3d a73e e2ce 9a3e 3d5c 823f e2db a43d
00000230: 70e8 753e 0f1a fe3d 42e2 d63d 1719 9a3e
00000240: 418a f63e 5464 033f 1889 1b3f 6585 ec3e
00000250: 263b f93e 29ed a73e f008 ac3f 10f5 4a3e
00000260: 579f 373e b621 643f fa1f 833e 6eb3 5f3e
00000270: b64c 9b3e d912 1b3f 55c0 4c3e ae25 123f
00000280: c2e1 843e 63c4 dd3e c417 503e c1d9 af3e
00000290: 1b1d f83e da02 133f afdf 0b3f b9d8 123f
000002a0: a287 843e 0c38 613e b229 b83e 2bdb 943e
000002b0: 21c0 bc3d 9a14 883e 2548 413e 5b7c d73e
000002c0: 876d 9b3e 8b4f ed3e 06d6 3e3f ff1a 853e
000002d0: 191f 3c3e 046c c23e f746 563e 42c8 bd3e
000002e0: 0b44 e83d 1614 4c3e ced8 e43e 3c7a cf3d
000002f0: a206 1e3e f3bf d13e f681 323f f65d 173f

weight f4 [192, 32, 1, 1]
0.07808681 0.39791688 0.1686963 0.026585657 -0.07479484 0.20720682 0.012280916 0.0063707917
-0.02249411 0.1529586 0.0021166063 -0.0012357796 0.06146366 0.060998082 -0.2180009 -0.12296006
-0.013327874 0.0886706 0.17724076 -0.13318084 0.018073106 0.21821912 0.2345698 0.055944033
-0.23058331 0.1681835 -0.09605924 -0.1150661 -0.07338406 0.117393754 -0.028820332 0.052742086
0.024609001 0.046190012 0.07159427 0.07419281 -0.02868078 -0.21106268 0.03560503 -0.21872272
0.1793 -0.2940909 -0.041112162 -0.038586404 0.006064834 0.10802067 -0.2050278 0.08144671
0.14831641 -0.14430214 -0.22727098 -0.022235312 0.15215135 0.09664686 0.07865323 0.0045106197
0.032230843 0.15663049 -0.00876414 0.13785048 0.02995595 0.008104542 0.0501598 -0.039386805
-0.0068665897 -0.086567104 0.22736539 -0.11381917 0.15502235 -0.08259386 0.058550276 -0.15308256
-0.094883725 -0.0071776873 -0.43021584 0.120051846 0.10327057 0.2180522 -0.060188215 0.031626698
-0.114661485 0.0025638598 -0.10354792 -0.033365294 -0.086888544 0.02133729 0.037943486 -0.053607274
0.13656813 -0.064832054 -0.20192468 0.001452079 0.067952044 -0.08638467 0.035155777 0.28764895
0.016948633 0.23239335 -0.09419466 -0.082501166 -0.1372694 -0.101042904 0.1581873 -0.025609061
0.1633944 -0.053579945 -0.11573967 0.00879365 0.12785885 0.102242164 0.24984081 -0.10294837
-0.025927322 -0.07806374 -0.007289493 -0.026972242 0.087376304 -0.05240722 0.20927097 0.23234521
0.37347198 0.109437935 0.13414879 -0.19758895 -0.15812449 -0.09343129 -0.13428459 0.26422554
0.03039327 -0.058130924 -0.16317749 0.20215222 0.04349042 0.0023475566 0.36434168 0.15823822
-0.091666445 -0.07873823 -0.11706956 0.33942738 0.026736956 -0.11230893 0.10785486 0.16683187
0.04242143 -0.20641501 -0.30481374 -0.12498546 0.04633851 -0.16493544 -0.17626135 0.017726472
0.012463746 0.18942595 -0.027451275 -0.026205504 -0.02646996 -0.07141044 -0.19722584 -0.12899086
0.07485311 -0.17635508 -0.07654915 0.10298218 -0.08172137 -0.0076203737 0.05783751 0.005164708
-0.07808343 -0.0075525427 0.027095238 0.03715778 0.17512348 -0.022301968 0.037246868 -0.124322705
0.08982995 -0.045747805 -0.15722488 -0.096991345 0.03784044 -0.27344272 0.036229484 0.15083355
0.05730303 -0.022944406 -0.0045304312 -0.05594985 0.029247917 0.026749851 0.19431981 -0.09671616
-0.21655291 -0.09221854 0.081766546 0.06293263 -0.14036553 0.14797759 0.17738025 -0.12762865
0.03459667 -0.16500323 0.1345665 0.015489804 -0.13241644 -0.052714247 -0.042584453 -0.034153745
-0.020593308 -0.015540673 -0.06293001 -0.1577268 0.057753794 0.18244207 -0.061950512 -0.1919835
0.09200834 0.108408436 -0.07987422 -0.06762047 0.10131304 0.13277194 -0.01790349 0.17556837
-0.019577354 0.041505843 0.044425976 0.032679353 0.012064971 0.07512242 -0.01933362 0.10849863
0.017840227 -0.12338378 -0.17279895 0.002042158 0.043049842 0.105997644 0.17676744 -0.05263199
0.028721547 -0.06898008 0.009271828 0.010630293 -0.101563714 0.00066953915 0.073392265 0.002972454
0.18802145 -0.02375194 -0.12757829 0.06513507 -0.3084073 -0.14070669 0.115514204 0.1665226
00000000: faeb 9f3d c3bb cb3e b9be 2c3e 2aca d93c
00000010: 092e 99bd 062e 543e e535 493c 13c2 d03b
00000020: 9145 b8bc 2ea1 1c3e c3b6 0a3b e2f9 a1ba
00000030: 52c1 7b3d 20d9 793d a13b 5fbe 7cd2 fbbd
00000040: 285d 5abc ee98 b53d 9a7e 353e 8f60 08be
00000050: 0d0e 943c d574 5f3e 1133 703e 9225 653d
00000060: 081e 6cbe 4c38 2c3e b5ba c4bd c7a7 ebbd
00000070: 624a 96bd 236c f03d 9e18 ecbc 1608 583d
00000080: d198 c93c bd31 3d3d 04a0 923d 66f2 973d
00000090: f5f3 eabc d120 58be 94d6 113d d9f8 5fbe
000000a0: 6b9a 373e 1593 96be 3a65 28bd c70c 1ebd
000000b0: 84bb c63b f139 dd3d cff2 51be 88cd a63d
000000c0: 42e0 173e f1c3 13be b9b9 68be d426 b6bc
000000d0: 90cd 1b3e caee c53d f214 a13d d2cd 933b
000000e0: 7d04 043d be63 203e 7897 0fbc ad28 0d3e
000000f0: 2e66 f53c eac8 043c 5d74 4d3d 0f54 21bd
00000100: 2101 e1bb 184a b1bd 79d2 683e 061a e9bd
00000110: 2ebe 1e3e f826 a9bd 6ad2 6f3d adc1 1cbe
00000120: 6652 c2bd ce32 ebbb 4045 dcbe bedd f53d
00000130: 857f d33d 1349 5f3e eb87 76bd ff8a 013d
00000140: a4d3 eabd 6e06 283b ef10 d4bd 0caa 08bd
00000150: 9ff2 b1bd 8acb ae3c a16a 1b3d 4d93 5bbd
00000160: 84d8 0b3e abc6 84bd 58c5 4ebe b053 be3a
00000170: 712a 8b3d 72ea b0bd 81ff 0f3d b946 933e
00000180: dcd7 8a3c 86f8 6d3e 21e9 c0bd 5ff6 a8bd
00000190: 5990 0cbe 95ef cebd dafb 213e 18ca d1bc
000001a0: dd50 273e a576 5bbd ec08 edbd 3e13 103c
000001b0: 6eed 023e 5764 d13d 45d6 7f3e 98d6 d2bd
000001c0: 8965 d4bc e2df 9fbd b3dc eebb e4f4 dcbc
000001d0: 59f2 b23d f4a8 56bd 214b 563e e7eb 6d3e
000001e0: b837 bf3e ff20 e03d 4d5e 093e c254 4abe
000001f0: 63eb 21be e758 bfbd e681 09be 9248 873e
00000200: 4ffb f83c b11a 6ebd 0018 27be fe00 4f3e
00000210: 0323 323d 77d9 193b fe8a ba3e 3309 223e
00000220: 9ebb bbbd 8241 a1bd 2ac2 efbd 6dc9 ad3e
00000230: 7607 db3c 3902 e6bd 02e3 dc3d f9d5 2a3e
00000240: 18c2 2d3d 755e 53be 8c10 9cbe 60f8 ffbd
00000250: 73cd 3d3d d6e4 28be db7d 34be 1b37 913c
00000260: bd34 4c3c e0f8 413e 7fe1 e0bc edac d6bc
00000270: 88d7 d8bc a33f 92bd 92f5 49be 2e16 04be
00000280: 964c 993d 6d96 34be cdc5 9cbd 52e8 d23d
00000290: 895d a7bd 54b4 f9bb 06e7 6c3d b63c a93b
000002a0: 35ea 9fbd 527b f7bb d5f6 dd3c c232 183d
000002b0: 9253 333e 9eb2 b6bc 2c90 183d e79c febd
000002c0: c4f8 b73d 0d62 3bbd 8fff 20be 66a3 c6bd
000002d0: 94fe 1a3d af00 8cbe 5e65 143d 1c74 1a3e
000002e0: 95b6 6a3d e8f5 bbbc 0374 94bb ab2b 65bd
000002f0: 5499 ef3c 8122 db3c c6fb 463e 1f13 c6bd
00000300: 0cc0 5dbe 13dd bcbd 3875 a73d d3e2 803d
00000310: fbbb 0fbe 7087 173e 2ba3 353e 16b1 02be
00000320: 3db5 0d3d 9bf6 28be cdcb 093e f2c8 7d3c
00000330: 2d98 07be e5ea 57bd 096d 2ebd cce4 0bbd
00000340: 4cb3 a8bc 4f9e 7ebc 73e1 80bd 2283 21be
00000350: 3e8f 6c3d 18d2 3a3e d2bf 7dbd 5397 44be
00000360: de6e bc3d 3e05 de3d 1895 a3bd 9a7c 8abd
00000370: 367d cf3d 5ef5 073e 57aa 92bc 32c8 333e
00000380: b060 a0bc 0802 2a3d 03f8 353d c9da 053d
00000390: 28ac 453c c9d9 993d 8a61 9ebc 8834 de3d
000003a0: ab25 923c a3b0 fcbd 35f2 30be bad5 053b
000003b0: 0855 303d 4b15 d93d 8602 353e a494 57bd
000003c0: 7349 eb3c 6e45 8dbd dee8 173c ae2a 2e3c
000003d0: a300 d0bd 0384 2f3a af4e 963d 81cd 423b
000003e0: b288 403e 6e93 c2bc e2a3 02be 8965 853d
000003f0: 90e7 9dbe 6a15 10be b692 ec3d e784 2a3e
