experiments/model_repositories/obj_sign_sound/object_detection/model_files/block_03.pth (torch, 19705 bytes, 5 tensors)

weight f4 [96, 16, 1, 1]
0	0x3e2024f2	0.15639094
1	0x3d12d99b	0.035852056
2	0x3e093864	0.13400418
3	0xbdce11c1	-0.1006198
4	0xbdf0e370	-0.1176213
5	0x3c6bb8d0	0.014387324
6	0x3ea4543c	0.32095516
7	0x3cadcf94	0.021217145
8	0xbd06521e	-0.032793157
9	0xbea61c2b	-0.32443365
10	0xbcc38431	-0.023866745
11	0x3c619242	0.013767781
12	0x3eded275	0.4351994
13	0xbe17336a	-0.14765707
14	0xbe461141	-0.1934252
15	0xbe73af71	-0.23797394
16	0x3d542739	0.05179522
17	0x3d958c6e	0.073021755
18	0x3dfb170d	0.12260256
19	0x3df00ede	0.11721586
20	0xbe3106d2	-0.17287758
21	0xbe9d925b	-0.30775723
22	0xbda73469	-0.08164293
23	0xbe03fa68	-0.12888491
24	0xbe591c41	-0.21202184
25	0xbe5031e7	-0.20331536
26	0xbd49acfa	-0.04923723
27	0x3d9f4d31	0.07778395
28	0xbe25dfe3	-0.16198687
29	0x3d8bd874	0.068283945
30	0x3b632716	0.0034660748
31	0xbdbe299b	-0.09285279
32	0xbd8564b2	-0.06513347
33	0xbd32aa06	-0.04361918
34	0xbe1171ef	-0.14203618
35	0x3da3b09d	0.07992671
36	0x3cb9841d	0.022646004
37	0x3d9f5a97	0.077809505
38	0xbeb06df1	-0.3445888
39	0x3e0abe4f	0.1354916
40	0xbd4b4880	-0.04962969
41	0x3d4b89a2	0.049691804
42	0xbd0ed333	-0.034869384
43	0xbdebc2fd	-0.115118004
44	0x3cfc419c	0.030793004
45	0xbe0f95c9	-0.14021982
46	0xbe2f4740	-0.17117023
47	0x3de3f516	0.11130731
48	0xbcfa40ee	-0.030548539
49	0x3e590075	0.2119158
50	0x3d8cab67	0.0686863
51	0xbf1a74c2	-0.6033441
52	0x3c1d3563	0.009595248
53	0xbdfe5c08	-0.12419897
54	0xbe6fa3f5	-0.23402388
55	0xbed4a5c7	-0.41532728
56	0x3e8e9ecd	0.2785553
57	0x3e010ddf	0.12602948
58	0xbe1614e3	-0.14656405
59	0x3eaa2bc6	0.3323652
60	0x3db3ce49	0.0877958
61	0x3e25d9fa	0.16196433
62	0xbea289ed	-0.31745854
63	0x3e55d858	0.2088331
64	0x3d6e3c4d	0.058162976
65	0xbd493f95	-0.049132902
66	0x3df583d7	0.11988037
67	0xbe999a28	-0.30000424
68	0xbdc8d17b	-0.0980558
69	0x3e2cb917	0.16867481
70	0x3d17f2b0	0.03709668
71	0xbe42b018	-0.19012487
72	0xbd67fc58	-0.056637138
73	0x3c19c14d	0.009384465
74	0x3e33a07e	0.17541692
75	0x3e3a10f3	0.18170528
76	0xba7156b5	-0.0009206341
77	0x3dabc955	0.083880104
78	0x3d638c6a	0.05555383
79	0xbd6c63cf	-0.057712372
80	0xbd6cab86	-0.057780765
81	0x39a3b626	0.00031225494
82	0x3d608322	0.054812558
83	0xbdfde408	-0.12397009
84	0x3c2d5d27	0.010581291
85	0x3e2197f7	0.15780626
86	0x3e3de405	0.18544014
87	0xbe278003	-0.16357426
88	0xbd031f52	-0.03201229
89	0xbd9af6fe	-0.07566641
90	0xbde53a18	-0.11192721
91	0x3bbc46f0	0.005745761
92	0xbe2740d2	-0.1633332
93	0xbe32468a	-0.17409721
94	0x3e83bbc2	0.25729185
95	0xbdcd8dbf	-0.100368015
96	0x3d4bb41f	0.049732324
97	0x3e111903	0.14169697
98	0x3e027bda	0.12742558
99	0x3db65509	0.08902938
100	0xbdfe61f1	-0.124210246
101	0xbea05837	-0.31317303
102	0xbe3758e7	-0.17905007
103	0xbc24b726	-0.010053432
104	0xbe3a3789	-0.18185247
105	0xbe02c933	-0.12772064
106	0xbd8cfff7	-0.06884759
107	0x3e94fcb8	0.2909906
108	0xbe68082a	-0.22659364
109	0x3e4bc9cf	0.19901203
110	0x3ba9f799	0.0051869866
111	0xbe087234	-0.13324815
112	0x3cba450a	0.022737999
113	0x3e45832b	0.19288318
114	0x3d6a34ee	0.057179384
115	0xbcc5eb4b	-0.024160048
116	0x3c11ce4d	0.008899284
117	0x3dfaef1b	0.12252637
118	0xbd6a495b	-0.057198863
119	0x3e0c673c	0.13711256
120	0xbcb41db2	-0.021986816
121	0x3e3625b1	0.17787816
122	0xbb956f61	-0.0045603965
123	0x3e2e8a95	0.17045052
124	0xbc297c4b	-0.010344575
125	0x3d8586bf	0.065198414
126	0xbda507cc	-0.08058128
127	0xbdc9bce6	-0.09850483
128	0xbea9d4ab	-0.33170065
129	0xbda11403	-0.07865145
130	0x3ebaef04	0.3651048
131	0xbba5e15e	-0.0050622663
132	0xbcfc4bed	-0.030797923
133	0xbd4dd35e	-0.050250404
134	0xbdf6ef2b	-0.120573364
135	0xbd039ca4	-0.032131806
136	0x3d6d72cb	0.057970803
137	0x3ed21f75	0.41039625
138	0x3e4a0b4b	0.1973087
139	0xbb3d6852	-0.002890129
140	0xbf024e20	-0.5090046
141	0xbd596bbc	-0.05308126
142	0x3e605a44	0.21909434
143	0x3e59d826	0.2127386
144	0x3cf03d2e	0.029326048
145	0x3e89cdf0	0.2691493
146	0xbd0c84a5	-0.034306187
147	0x3e281962	0.16415933
148	0xbe1f63c9	-0.15565409
149	0xbd01e23a	-0.031709887
150	0x3d16546c	0.036701605
151	0xbd84c611	-0.06483091
152	0xbe08e59b	-0.13368838
153	0xbd042e0a	-0.03227047
154	0x3cb563fd	0.022142405
155	0x3da777bb	0.08177134
156	0xbd819890	-0.06327927
157	0x3dd16516	0.10224359
158	0xbc6668cc	-0.014063071
159	0x3db7f8b9	0.08982987
160	0x3d9f9038	0.077911794
161	0xbdf303ce	-0.1186596
162	0xbcaa7949	-0.020809786
163	0xbec9b0a1	-0.3939257
164	0x3ce8d2dc	0.028420858
165	0xbd83a7ba	-0.06428476
166	0xbdab4f53	-0.08364739
167	0x3dfe1833	0.124069594
168	0xbe7dcd80	-0.24785423
169	0x3deb9197	0.115023784
170	0x3e7c0d54	0.2461446
171	0xbd28106d	-0.04103129
172	0x3d7a1366	0.061053656
173	0x3e4266c4	0.18984514
174	0x3d07aa87	0.033121612
175	0xba89b80f	-0.0010507124
176	0xbdb9275c	-0.0904071
177	0xbc0cc6a5	-0.008592282
178	0xbda56f15	-0.08077828
179	0x3e7c9137	0.2466477
180	0xbd289c1a	-0.041164495
181	0xbe0a0659	-0.13478984
182	0xbe930a1b	-0.28718647
183	0x3e511bbc	0.20420736
184	0x3d39003f	0.04516625
185	0x3e73f1d9	0.23822726
186	0x3ddaf420	0.106910944
187	0xbdb30ba1	-0.087424524
188	0xbddf459b	-0.10901948
189	0x3e4ce6f4	0.20009977
190	0xbe9512b9	-0.29115847
191	0x3dd4fbfb	0.10399624
192	0x3e037ebe	0.12841317
193	0x3dc0ac88	0.09407908
194	0xbdd75686	-0.1051455
195	0xbc02c2ee	-0.007981045
196	0x3dc2fe83	0.095212005
197	0x3e2e8aa4	0.17045075
198	0x3baecd2c	0.005334517
199	0x3da00792	0.07813944
200	0x3e0ce555	0.13759358
201	0xbc4e0908	-0.012575395
202	0xbd017ade	-0.031611316
203	0x3d8839f5	0.066516794
204	0x3cef2714	0.029193439
205	0x3c1ef2b4	0.00970142
206	0x3ddc61d0	0.10760844
207	0x3e3e912e	0.18610069
208	0x3deb24fc	0.114816636
209	0xbe31ab14	-0.17350417
210	0xbba2b0ae	-0.0049649095
211	0xbdd9620c	-0.10614404
212	0xbe888b7b	-0.26668915
213	0x3e3dc383	0.18531613
214	0x3d228005	0.03967287
215	0x3e47af32	0.19500425
216	0x3d4ad152	0.04951603
217	0xbe65ea58	-0.22452676
218	0xbbe52697	-0.0069931257
219	0xbe1b6408	-0.15174878
220	0xbdfb3a59	-0.12266988
221	0x3e8badc0	0.27280998
222	0x3d974485	0.07386116
223	0x3e224596	0.15846857
224	0xbe685a99	-0.2269081
225	0xbda5fb68	-0.081045926
226	0x3dcabc57	0.09899204
227	0x3e924995	0.28571764
228	0x3e530323	0.20606665
229	0x3e13e669	0.14443363
230	0xbc5550e0	-0.01301977
231	0xbe8cd800	-0.27508545
232	0xbe32f0bf	-0.1747465
233	0xbc815f2b	-0.01579245
234	0x3d34db16	0.04415425
235	0x3e137ed4	0.1440385
236	0x3e41a433	0.18910293
237	0x3c6728a4	0.014108811
238	0xbdf118b1	-0.11772288
239	0x3e053ffb	0.13012688
240	0x3cc599d5	0.024121204
241	0x3dde8ff3	0.108673
242	0x3e39e58a	0.18153968
243	0x3e13272d	0.14370413
244	0xbeaf9436	-0.34292763
245	0xbdc3ddb6	-0.095637724
246	0xbca1e19a	-0.019760896
247	0xbe4cf558	-0.20015466
248	0xbe16c41d	-0.14723249
249	0x3e03ee7b	0.12883942
250	0x3ddef81d	0.108871676
251	0xbe96c551	-0.29447415
252	0xbd31eaa8	-0.043436676
253	0x3dc1d6a7	0.0946477
254	0xbecbe98f	-0.3982663
255	0xbe8605b5	-0.2617623

weight f4 [96]
0	0x3ef1b32f	0.4720702
1	0x3eb372b9	0.35048464
2	0x3ddcace1	0.107751615
3	0x3e29d0d9	0.16583575
4	0x3dec8201	0.11548234
5	0x3e2f34cc	0.17109984
6	0x3e9022c6	0.2815153
7	0x3dfe29af	0.12410294
8	0x3ee9281d	0.45538417
9	0x3e042267	0.12903748
10	0x3e4becfa	0.19914618
11	0x3ec18925	0.37799945
12	0x3d62d474	0.055378392
13	0x3d9da9c9	0.076983996
14	0x3dd67b1b	0.10472699
15	0x3ee493fa	0.44644147
16	0x3e338347	0.17530547
17	0x3e05e1a5	0.13074358
18	0x3ea78782	0.32720572
19	0x3e5ff0f3	0.21869259
20	0x3e0e099d	0.13870855
21	0x3ddb141c	0.10697195
22	0x3d90d488	0.07071787
23	0x3db7744b	0.08957728
24	0x3e4f32da	0.20234242
25	0x3eebc432	0.46048123
26	0x3e25b6cd	0.16183014
27	0x3e9025d2	0.28153855
28	0x3e0a522a	0.13507906
29	0x3d2ffe6a	0.042967238
30	0x3efe1e6b	0.49632582
31	0x3d52d5cf	0.051473435
32	0x3e21b88a	0.15793052
33	0x3ea113c0	0.3146038
34	0x3edfbdfa	0.43699628
35	0x3e432339	0.19056405
36	0x3e8a3540	0.26993752
37	0x3eaeef26	0.3416683
38	0x3db292d5	0.08719412
39	0x3eb415e2	0.35172945
40	0x3ef0f17e	0.47059244
41	0x3dd12af5	0.102132715
42	0x3e0b4630	0.13600993
43	0x3dd379bc	0.10325953
44	0x3e106dbd	0.14104362
45	0x3eebb18b	0.46033892
46	0x3e89c075	0.26904646
47	0x3e11e34e	0.14246866
48	0x3dd7d323	0.10538318
49	0x3d93ef9b	0.072234355
50	0x3e936cde	0.28793997
51	0x3ed45073	0.41467628
52	0x3ef62aac	0.4807943
53	0x3e7bce2a	0.24590364
54	0x3e556432	0.20839003
55	0x3dd1eef2	0.10250653
56	0x3ed9bc79	0.42526606
57	0x3d9c5a44	0.07634404
58	0x3dcabbdd	0.09899113
59	0x3ea1a698	0.31572413
60	0x3ecff8dc	0.40619552
61	0x3ed94415	0.42434755
62	0x3d9f973a	0.07792516
63	0x3e103868	0.14084017
64	0x3f03b5fb	0.51449555
65	0x3dc8473a	0.097792104
66	0x3e0e80ae	0.13916275
67	0x3ea277f8	0.31732154
68	0x3e63825d	0.22217698
69	0x3e3660b0	0.17810321
70	0x3e1cdb93	0.15318136
71	0x3f067df6	0.5253595
72	0x3d88e2a8	0.06683856
73	0x3e6fb000	0.23406982
74	0x3dfa61b5	0.122256674
75	0x3e5c87a3	0.21536116
76	0x3e9222b7	0.2854211
77	0x3e87438a	0.26418716
78	0x3e11b169	0.14227833
79	0x3e77671d	0.24160428
80	0x3f07edd3	0.53097266
81	0x3e8611ad	0.2618536
82	0x3e7cfaff	0.24705122
83	0x3ecdf3c6	0.40225047
84	0x3f11a8f9	0.56898457
85	0x3f10ba0d	0.5653389
86	0x3d90cb4b	0.07070025
87	0x3efd8aaf	0.4951987
88	0x3e8b3207	0.27186605
89	0x3e12fdfe	0.14354703
90	0x3d922ab6	0.07137053
91	0x3f090469	0.53522354
92	0x3ed9507b	0.42444214
93	0x3eb3fa86	0.35152072
94	0x3e0db5b6	0.13838848
95	0x3e0e6d2b	0.13908832

bias f4 [96]
0	0x3ce8de5e	0.028426345
1	0x3cdd983b	0.027050128
2	0x3e783527	0.24239026
3	0x3ec0cbdb	0.3765553
4	0x3e961fff	0.29321286
5	0x3e3f13c6	0.18659887
6	0x3da8176e	0.08207594
7	0x3d3cb42f	0.046070274
8	0xbd20d0e8	-0.03926173
9	0x3e1cf303	0.15327077
10	0xbda6faba	-0.08153291
11	0x3d8202a9	0.06348164
12	0x3e52f7a4	0.2060228
13	0x3e6e86dd	0.23293634
14	0x3e66f386	0.22553834
15	0x3d42504f	0.04743987
16	0xbd1e9fb8	-0.03872654
17	0x3e989b79	0.29806116
18	0x3d965068	0.07339555
19	0x3eaf4b90	0.34237337
20	0x3ed0b728	0.40764737
21	0x3e280deb	0.1641156
22	0x3e8deaac	0.27718103
23	0x3e9556ca	0.29167777
24	0x3dca190d	0.09868059
25	0xba818fa5	-0.0009884728
26	0x3dd9b15f	0.10629534
27	0xbea3aac0	-0.3196621
28	0x3e8664a7	0.26248667
29	0x3e7f67b6	0.24941906
30	0xbca9a75d	-0.020709688
31	0x3e812d27	0.2522976
32	0x3e1daf20	0.15398836
33	0x3c8cd399	0.017190741
34	0xbb545798	-0.0032400843
35	0x3e38379f	0.17989968
36	0x3dd3b360	0.103369474
37	0x3d9ee2d1	0.077581055
38	0x3e8c69c3	0.2742444
39	0x3d8969bb	0.067096196
40	0x3c8e48ef	0.017368762
41	0x3e645217	0.2229694
42	0x3e8aba41	0.27095225
43	0x3e69d59b	0.2283539
44	0x3e366dfa	0.1781539
45	0xbd34e1a6	-0.044160508
46	0x3e817619	0.25285414
47	0x3e373ec0	0.17895031
48	0x3e67e106	0.22644433
49	0x3e432273	0.1905611
50	0xbedf1c35	-0.43576208
51	0xbcc0bac9	-0.023526566
52	0x3d6be3dd	0.057590354
53	0x3ca83f52	0.020538006
54	0xbd9bfdee	-0.076167926
55	0x3e80bcbd	0.25143996
56	0x3b0e951d	0.002175636
57	0x3f3b49be	0.73159397
58	0x3e8d28a6	0.27570075
59	0x3c8af5aa	0.016962845
60	0x3cc99561	0.024607362
61	0x3bcc3dae	0.0062329387
62	0x3e751bbf	0.23936366
63	0x3e82319f	0.25428483
64	0xbc44b73d	-0.012006578
65	0x3e757c37	0.23973165
66	0x3ea81aab	0.32832846
67	0xbb8f01ca	-0.004364227
68	0x3aebcb14	0.0017989599
69	0x3daceca3	0.08443572
70	0x3e10961a	0.14119759
71	0x3e376c53	0.17912416
72	0x3eafdb0c	0.34346807
73	0x3cbf6a43	0.0233661
74	0x3e50f9d7	0.20407806
75	0x3e32f576	0.17476448
76	0x3d959fab	0.07305845
77	0x3d7cc763	0.061713587
78	0x3eb88a72	0.36043125
79	0x3e0bb90d	0.1364481
80	0xbcd0512c	-0.02542933
81	0x3dc7b75f	0.09751772
82	0x3d42794e	0.047478966
83	0x3d901cc1	0.07036734
84	0x3debfb4d	0.11522541
85	0xbd1866f7	-0.03720757
86	0x3e672b02	0.22575
87	0x3c2ab869	0.010419943
88	0x3d89a3b1	0.06720675
89	0x3e2ec9b3	0.1706913
90	0x3e7c40af	0.2463405
91	0xbd273dd0	-0.040830433
92	0x3cbe1fdb	0.02320855
93	0xbd59d805	-0.053184528
94	0x3e948b3f	0.29012486
95	0x3e08d2aa	0.13361612

running_mean f4 [96]
0	0xb62df3f5	-2.592101e-06
1	0xb642abc7	-2.900824e-06
2	0xb5965b15	-1.1202379e-06
3	0xb65ebdab	-3.319098e-06
4	0xb5852dd8	-9.922614e-07
5	0x35b84029	1.3727741e-06
6	0xb4ee1877	-4.4348755e-07
7	0x36611c62	3.3544134e-06
8	0x361e77f4	2.3613657e-06
9	0x33d79ce0	1.0040253e-07
10	0xb5f37a63	-1.814053e-06
11	0xb49fae90	-2.974307e-07
12	0x363181b3	2.645055e-06
13	0xb58828cd	-1.0144664e-06
14	0xb4a8c058	-3.1432387e-07
15	0xb68e6cf0	-4.244612e-06
16	0x364f7864	3.091548e-06
17	0xb5758b02	-9.1471895e-07
18	0x33fe831e	1.1851647e-07
19	0xb54c7378	-7.616395e-07
20	0x364546ff	2.9396613e-06
21	0xb63fb8ee	-2.856886e-06
22	0x354f2bdc	7.7177333e-07
23	0x36536f07	3.1506077e-06
24	0xb5b3266b	-1.334772e-06
25	0x35bd065c	1.4083448e-06
26	0x32b5f3e0	2.1182075e-08
27	0x36229a4b	2.4229691e-06
28	0xb5a953ec	-1.2615906e-06
29	0x368c0b05	4.173608e-06
30	0xb52af77f	-6.369009e-07
31	0xb5444209	-7.3111784e-07
32	0x34ff0c74	4.7506512e-07
33	0x354a3511	7.5328086e-07
34	0x343d8cf0	1.765327e-07
35	0xb616ad20	-2.2452514e-06
36	0xb4bfd606	-3.5732245e-07
37	0xb62da014	-2.5872187e-06
38	0xb623bf98	-2.4400415e-06
39	0x360ec6a7	2.127528e-06
40	0x3656611f	3.1945017e-06
41	0x36e02ca3	6.6809166e-06
42	0x35fca1b9	1.8822531e-06
43	0x365fd2c7	3.3352278e-06
44	0xb58998b5	-1.0251739e-06
45	0x36574722	3.2078901e-06
46	0xb5bdd044	-1.4142211e-06
47	0xb41b30ac	-1.4453207e-07
48	0xb62321e0	-2.430861e-06
49	0xb591afba	-1.0854485e-06
50	0xb6995680	-4.5698253e-06
51	0xb62c8b86	-2.571121e-06
52	0xb6120343	-2.1757594e-06
53	0x35a1dfbc	1.206055e-06
54	0xb65fa896	-3.332772e-06
55	0x3425dc93	1.5447067e-07
56	0xb62db592	-2.5884697e-06
57	0x35b697fd	1.3604291e-06
58	0xb61a1352	-2.2959034e-06
59	0xb4b2fa5a	-3.3337238e-07
60	0xb5a48edd	-1.2260531e-06
61	0x361e746a	2.3611597e-06
62	0xb6a02839	-4.773054e-06
63	0xb564bda7	-8.52126e-07
64	0x34f008ed	4.4709978e-07
65	0xb52975ac	-6.312864e-07
66	0x35941afc	1.1034713e-06
67	0x3465529f	2.1357344e-07
68	0xb3216da4	-3.758545e-08
69	0x35dd79e6	1.650126e-06
70	0x362c0930	2.5635345e-06
71	0x361e43e0	2.3583343e-06
72	0xb52aecc1	-6.367446e-07
73	0xb617971a	-2.2588706e-06
74	0x34d64b6c	3.9915483e-07
75	0xb60da1f9	-2.1104918e-06
76	0xb62076bd	-2.3910973e-06
77	0xb67a65cd	-3.7312159e-06
78	0xb612d24f	-2.187811e-06
79	0xb5db45e8	-1.6337117e-06
80	0x33a87544	7.84444e-08
81	0xb5e2127f	-1.6843695e-06
82	0xb4e3c63a	-4.2426274e-07
83	0xb6e4033f	-6.7953074e-06
84	0x35eb2ba1	1.7521562e-06
85	0xb5f4c7ba	-1.8237545e-06
86	0xb60273bf	-1.9438883e-06
87	0xb5d7e36d	-1.6084938e-06
88	0x35c71270	1.4832021e-06
89	0xb5b554de	-1.351025e-06
90	0xb68cef58	-4.2001884e-06
91	0x36d066a8	6.210834e-06
92	0xb512ab1f	-5.463825e-07
93	0x36bcff6c	5.6325716e-06
94	0xb3bd89dd	-8.8260755e-08
95	0x347b7cde	2.3421623e-07

running_var f4 [96]
0	0x3e8ba4de	0.2727422
1	0x3e0c062f	0.13674234
2	0x3e2eb64a	0.17061725
3	0x3e78dea8	0.24303687
4	0x3debc9c7	0.11513095
5	0x3df036fe	0.11729239
6	0x3e2edf37	0.17077337
7	0x3cc5cdb2	0.024145935
8	0x3e95d2d9	0.29262426
9	0x3da9d7f8	0.08293146
10	0x3d54c2cb	0.05194358
11	0x3e8304c2	0.25589567
12	0x3d481f81	0.04885817
13	0x3dd9ae67	0.10628968
14	0x3e35153a	0.17683879
15	0x3e873e34	0.26414645
16	0x3d551f43	0.052031767
17	0x3d1c6d65	0.038190264
18	0x3e16d9a5	0.14731462
19	0x3e8d90ea	0.27649623
20	0x3e3e319f	0.18573616
21	0x3df328e2	0.11873032
22	0x3da9684a	0.08271845
23	0x3da3c874	0.07997218
24	0x3dea0037	0.11425822
25	0x3e5fa29b	0.21839373
26	0x3de69bfe	0.11260222
27	0x3d9f59f2	0.077808276
28	0x3d9df04a	0.07711847
29	0x3d5501de	0.052003734
30	0x3eb856af	0.36003634
31	0x3e0bed11	0.13664652
32	0x3ded7c96	0.115960285
33	0x3e276bf7	0.16349779
34	0x3ea50c89	0.32236126
35	0x3e4af071	0.19818284
36	0x3dcf285f	0.10115122
37	0x3e7963ab	0.24354427
38	0x3d65c14d	0.05609255
39	0x3e7b53af	0.24543642
40	0x3ea0400d	0.31298867
41	0x3d3ac819	0.045600984
42	0x3e020152	0.12695816
43	0x3e023c36	0.12718281
44	0x3de2039b	0.11035844
45	0x3ea99164	0.33118737
46	0x3e7f2ae5	0.24918707
47	0x3e34166f	0.17586683
48	0x3d73483b	0.059395056
49	0x3d6e353a	0.05815623
50	0x3dc3bb5f	0.095572226
51	0x3e4d7ee4	0.20067936
52	0x3ed75399	0.42055967
53	0x3e5dc834	0.21658403
54	0x3d28c62f	0.041204628
55	0x3dd65ebc	0.10467288
56	0x3e98f47e	0.29874033
57	0x3dfba7dc	0.12287876
58	0x3e1b57a2	0.15170148
59	0x3e1b9715	0.15194352
60	0x3e8add97	0.27122185
61	0x3e9d3a45	0.3070852
62	0x3da2ee73	0.07955637
63	0x3dd8244e	0.105537996
64	0x3eb074d7	0.34464142
65	0x3dd28477	0.10279172
66	0x3defdeb9	0.11712403
67	0x3e24b446	0.16084394
68	0x3d75c858	0.060005516
69	0x3d95108a	0.07278545
70	0x3da97e04	0.08275989
71	0x3ecdd0d3	0.40198383
72	0x3dccacab	0.09993871
73	0x3da62187	0.081118636
74	0x3d9fd88f	0.07804977
75	0x3dfebf1d	0.12438796
76	0x3df788f6	0.1208667
77	0x3d6b0ca5	0.057385106
78	0x3e09c409	0.13453688
79	0x3e5b0e85	0.21392258
80	0x3ecbf98d	0.3983883
81	0x3dad5bec	0.08464798
82	0x3da64122	0.08117892
83	0x3e896acc	0.26839292
84	0x3ef187d8	0.47173953
85	0x3f252b27	0.6451897
86	0x3d5f3e58	0.054502815
87	0x3e99fdeb	0.30076537
88	0x3d438c22	0.047741063
89	0x3df816d3	0.121137284
90	0x3d8c208e	0.06842147
91	0x3eb09e76	0.34495896
92	0x3e41aa11	0.18912531
93	0x3e2bfab9	0.16794862
94	0x3dc4ede0	0.096156836
95	0x3db3c9a1	0.08778692
