experiments/model_repositories/robot_sound/face_detection/model_files/block_16.pth (torch, 247527 bytes, 15 tensors)

weight f4 [64]
0.31070855 0.22145195 0.2834706 0.24114642 0.25541797 0.25368932 0.28056687 0.27780345
0.3172373 0.27878714 0.20546329 0.26824325 0.27023226 0.25023592 0.2259848 0.22412515
0.231516 0.17732593 0.38543636 0.20114586 0.21344492 0.22757944 0.28405592 0.30519506
0.2562469 0.26568645 0.26645938 0.24662395 0.3480206 0.23406334 0.29691252 0.2506794
0.22132814 0.1971661 0.3297448 0.22815397 0.23262075 0.20530407 0.28440264 0.21877427
0.25419888 0.34023517 0.20815606 0.2736485 0.31221005 0.20005381 0.23918092 0.30262506
0.23728089 0.23065841 0.30049258 0.32208014 0.29750815 0.28567457 0.30412552 0.25287417
0.30467927 0.2738628 0.2660831 0.3080593 0.29372564 0.2232064 0.13860135 0.23516822
00000000: 3115 9f3e 4dc4 623e 0f23 913e 16ef 763e
00000010: 25c6 823e 91e3 813e 76a6 8f3e 413c 8e3e
00000020: ed6c a23e 30bd 8e3e f864 523e 2e57 893e
00000030: e25b 8a3e ec1e 803e 8f68 673e 1081 653e
00000040: 8812 6d3e ee94 353e ea57 c53e 2ef9 4d3e
00000050: 4e91 5a3e 960a 693e c76f 913e 8742 9c3e
00000060: cb32 833e 0e08 883e 5d6d 883e fd8a 7c3e
00000070: c22f b23e 4dae 6f3e eb04 983e 0d59 803e
00000080: d8a3 623e e9e5 493e 4fd4 a83e 32a1 693e
00000090: 2234 6e3e 3b3b 523e 399d 913e 5d06 603e
000000a0: 5b26 823e 4e33 ae3e dd26 553e a81b 8c3e
000000b0: ffd9 9f3e e8da 4c3e d8eb 743e acf1 9a3e
000000c0: c3f9 723e b831 6c3e 2ada 993e b0e7 a43e
000000d0: fd52 983e f043 923e 57b6 9b3e b978 813e
000000e0: ecfe 9b3e bf37 8c3e 0b3c 883e f3b9 9d3e
000000f0: 3563 963e 3890 643e 83ed 0d3e f0cf 703e

bias f4 [64]
1.8972796e-06 6.0746595e-07 1.5942479e-06 -2.9297843e-07 2.6724938e-06 4.3061277e-07 6.25929e-07 -1.2141558e-06
-7.723824e-07 -1.1092774e-06 -1.1930969e-06 -1.3907794e-06 -1.646637e-06 1.377892e-06 8.01079e-07 -3.5436167e-06
-1.0214488e-06 -2.4300965e-08 1.0880319e-06 2.2143322e-06 9.62631e-07 -1.4273619e-06 -1.4097976e-06 -3.031981e-06
2.0141504e-06 6.9133927e-07 -3.4019097e-06 -1.7605062e-06 1.2701083e-06 -3.6993426e-06 -2.3254886e-07 2.8702877e-06
1.2760273e-07 1.1585092e-06 -7.942486e-07 -6.1567334e-08 4.4239115e-07 3.0155468e-06 3.0508528e-07 -7.1376854e-07
2.1964272e-06 -1.2848084e-06 4.283905e-07 -2.8609934e-06 -2.6752125e-06 -1.114156e-06 -8.7652427e-07 -4.3288094e-07
-3.436267e-06 1.2244482e-06 -1.826862e-06 1.9179454e-06 1.6419576e-06 -8.463379e-07 2.27954e-07 -3.4506722e-06
-1.2743635e-06 2.152664e-06 6.210762e-07 1.4369253e-06 -2.4559838e-06 2.5944667e-06 -1.888725e-06 3.4243021e-06
00000000: 08a6 fe35 be10 2335 f1f9 d535 a64a 9db4
00000010: 1859 3336 f82e e734 8305 2835 13f6 a2b5
00000020: b755 4fb5 7be2 94b5 7f22 a0b5 d1aa bab5
00000030: 0402 ddb5 02f0 b835 bb09 5735 dfce 6db6
00000040: b718 89b5 63be d0b2 7e08 9235 f099 1436
00000050: c033 8135 c893 bfb5 4738 bdb5 0979 4bb6
00000060: d72a 0736 7994 3935 5d4c 64b6 884a ecb5
00000070: 9778 aa35 3942 78b6 8bb2 79b4 2b9f 4036
00000080: 2c03 0934 137e 9b35 5934 55b5 0037 84b3
00000090: c781 ed34 b35e 4a36 9aca a334 cd99 3fb5
000000a0: 5566 1336 ae71 acb5 8bfd e534 7eff 3fb6
000000b0: cd87 33b6 1c8a 95b5 4a4a 6bb5 b466 e8b4
000000c0: 9e9a 66b6 b857 a435 8032 f5b5 0db6 0036
000000d0: 3c61 dc35 e62f 63b5 85c3 7434 1992 67b6
000000e0: cc0a abb5 7c76 1036 08b8 2635 61dc c035
000000f0: 7bd1 24b6 991c 2e36 1980 fdb5 10cd 6536

running_mean f4 [64]
-0.13494334 -0.09731119 0.16257921 0.06338186 0.15908867 0.16730502 -0.13605346 -0.007102482
0.15890601 -0.019038351 -0.09554082 0.11177175 0.012768212 0.15401356 -0.05487418 -0.11711944
-0.10373601 0.17717022 -0.1555324 -0.03835669 -0.18610463 -0.20245862 -0.12786414 0.038684722
-0.10253316 0.04379004 -0.08461306 0.00808717 -0.007295815 0.006634832 0.012040961 0.038292248
0.031238927 0.21018599 -0.035698768 0.12810399 0.093848184 0.18792509 -0.057758525 -0.20797755
0.081838965 0.079529725 -0.098323904 -0.08387928 -0.02902279 -0.09054003 0.029543346 -0.10935603
0.11245996 -0.015152114 -0.0011019913 0.17465782 0.10728148 0.03937107 -0.012808852 0.0010694874
-0.0059356224 -0.01788326 0.08719106 0.083402306 -0.3191471 -0.20577489 -0.14123034 0.059185095
00000000: 962e 0abe 174b c7bd 2a7b 263e 59ce 813d
00000010: 24e8 223e 0252 2b3e 9951 0bbe f0bb e8bb
00000020: 42b8 223e 51f6 9bbc e8aa c3bd 96e8 e43d
00000030: c331 513c bbb5 1d3e c0c3 60bd 51dc efbd
00000040: 8c73 d4bd 1c6c 353e e343 1fbe e81b 1dbd
00000050: 3692 3ebe 5051 4fbe d1ee 02be df73 1e3d
00000060: e8fc d1bd 2f5d 333d 9d49 adbd 0d80 043c
00000070: bb11 efbb 0169 d93b 7347 453c 55d8 1c3d
00000080: c7e8 ff3c ff3a 573e df38 12bd b12d 033e
00000090: 7a33 c03d 6f6f 403e 3494 6cbd 11f8 54be
000000a0: 309b a73d 7be0 a23d 0b5e c9bd e6c8 abbd
000000b0: 34c1 edbc 0d6d b9bd e304 f23c 0ef6 dfbd
000000c0: 6851 e63d 9340 78bc b170 90ba 80d9 323e
000000d0: 65b6 db3d 8f43 213d 38dc 51bc 0b2e 8c3a
000000e0: 9c7f c2bb ea7f 92bc 3a91 b23d d4ce aa3d
000000f0: 4067 a3be a7b6 52be b09e 10be 126c 723d

running_var f4 [64]
0.011380041 0.0074519725 0.008175979 0.012462472 0.007086573 0.009844427 0.015362297 0.013730376
0.01410546 0.008911792 0.008724954 0.010329806 0.012099073 0.013056754 0.010915988 0.0076910905
0.013183637 0.009346251 0.014828924 0.008556861 0.009747454 0.010258204 0.013717656 0.009598862
0.010039842 0.010642696 0.01619955 0.010725214 0.015541062 0.010083415 0.013281351 0.013726955
0.009312278 0.011538899 0.01218764 0.008524992 0.0071862494 0.009796816 0.014027748 0.009956274
0.009860001 0.012912724 0.00919214 0.01260962 0.0104676075 0.008671528 0.0097627975 0.010476504
0.011297518 0.008192903 0.015754841 0.018070549 0.016735822 0.008123263 0.01627055 0.008286674
0.011381608 0.011852971 0.008691816 0.012871258 0.013182011 0.0121378545 0.010667655 0.009215591
00000000: 5a73 3a3c ad2f f43b 8bf4 053c 652f 4c3c
00000010: 7c36 e83b 854a 213c 25b2 7b3c 5ff5 603c
00000020: 961a 673c c402 123c 1cf3 0e3c 593e 293c
00000030: 313b 463c ffeb 553c f9d8 323c 8b05 fc3b
00000040: 2e00 583c 0521 193c 04f5 723c 1432 0c3c
00000050: c9b3 1f3c 0712 283c 05c0 603c 8c44 1d3c
00000060: 267e 243c b45e 2e3c ebb4 843c cfb8 2f3c
00000070: f09f 7e3c e834 253c 069a 593c 06e7 603c
00000080: 8692 183c a60d 3d3c abae 473c 68ac 0b3c
00000090: a17a eb3b d382 203c a4d4 653c a41f 233c
000000a0: d78b 213c e48f 533c a19a 163c 9498 4e3c
000000b0: 5480 2b3c 0613 0e3c 24f4 1f3c a5a5 2b3c
000000c0: 3a19 393c 873b 063c 4c10 813c b008 943c
000000d0: 9019 893c 6f17 053c d149 853c d4c4 073c
000000e0: ed79 3a3c f732 423c 1e68 0e3c f8e1 523c
000000f0: 5df9 573c dadd 463c 63c7 2e3c fdfc 163c

weight f4 [64, 384, 1, 1]
0.11082336 0.062038317 -0.05419144 -0.046313036 -0.047987018 -0.035559133 -0.011445939 0.027158724
-0.04612439 0.010626402 0.021710047 -0.04584565 -0.099298455 0.0018470968 -0.11546206 0.11316707
0.066432185 -0.063122936 -0.059083 -0.03472659 0.058511924 -0.078947805 0.12934329 -0.031145634
-0.036252458 0.023560641 0.08588764 0.033634055 -0.013769941 -0.0637099 0.005666735 -0.01575702
-0.100097746 0.07092039 0.056569483 -0.094109386 0.045904588 0.06911006 0.022145098 -0.01889543
-0.028499966 0.015940225 0.016521506 0.020026775 -0.11397724 -0.017972605 0.06651589 -0.04228209
-0.029610781 0.0057827043 -0.13519615 0.00867458 0.050666705 0.10189664 0.0075307284 -0.028770901
0.04857107 0.01003714 0.08830373 0.005657309 0.038121395 0.0010089423 -0.02457724 0.049789663
0.034629125 -0.019555213 0.019490805 0.009855443 -0.024311002 0.011767775 -0.019335603 0.15383598
0.035444073 0.007416136 -0.17578137 -0.049529262 0.074660726 -0.039121203 0.012264267 -0.056298047
-0.0015914044 0.0070491387 0.058555882 -0.06643178 0.07320499 -0.051829394 -0.0048400783 0.021271398
-0.05857812 0.027306868 -0.05305114 -0.017305294 0.0043698438 0.039484646 -0.06797163 0.020738352
-0.0012976159 0.10181164 0.036446374 -0.05227012 0.08923487 0.03015939 -0.108039014 -0.004293986
-0.024623992 -0.097859845 0.012211283 0.06397783 -0.0003421676 0.0384538 0.024644334 -0.03310622
0.03182121 0.0008859821 -0.06421768 -0.05366476 0.051765747 -0.047733936 0.02159549 0.11145999
-0.085708365 -0.073515385 -0.0023740174 0.046022385 -0.14384106 0.03410103 0.0318852 -0.058449507
-0.07537997 -0.021309733 0.014264072 0.07021718 -0.0021980891 0.002805674 -0.09757514 -0.0014617972
-0.056924734 0.03334065 0.014179677 -0.034968875 -1.1869447e-05 0.033830855 0.100579664 -0.049120437
0.09638095 -0.013303846 0.05780848 0.009018329 -0.08737012 0.008289293 0.042833705 -0.011466546
-0.044305563 0.03277947 0.03952104 -0.03381833 -0.047664516 -0.04582016 0.036261972 -0.009638498
-0.041345675 0.030642668 -0.03346995 -0.047416963 0.04450889 -0.04875066 -0.024172222 0.010549992
0.026323766 0.03513241 -0.035028677 0.018764948 -0.11708434 -0.051339906 -0.016575111 0.026502237
0.021138694 0.03907875 0.026741592 -0.0031271826 0.028846867 -0.0025647834 0.03402367 0.08246071
-0.055624228 -0.043758556 -0.0061993087 -0.04919351 -0.01862677 -0.010550153 0.064505786 -0.083905235
-0.004639707 -0.012380176 -0.021017293 0.04403689 -0.009735902 0.05872788 -0.016314853 -0.01978497
-0.04329089 0.07314556 -0.0009030949 -0.09036507 0.039445393 0.030551508 0.0044156522 0.0042934506
0.0092769805 -0.0541936 -0.10033952 0.07403046 0.0066551403 -0.06873798 0.0018505643 -0.008027496
-0.027059311 0.014330295 0.085315034 -0.028442279 0.053655244 -0.020439517 0.065609045 -0.117798485
0.0319429 0.029389238 0.05303161 -0.0048742983 -0.005384718 0.06188238 -0.08835248 0.09380371
0.043295234 -0.017017178 0.02136502 0.11009561 -0.0060746474 0.039134238 -0.046068374 -0.0120662395
-0.056561317 -0.0569269 -0.04522439 -0.055672795 -0.03709431 0.059578374 -0.071619175 0.020973511
-0.05705029 0.00299698 -0.009115763 -0.028360346 -0.022433491 0.016737394 -0.008600281 0.0384393
00000000: 5cf7 e23d e41b 7e3d d8f7 5dbd bdb2 3dbd
00000010: 098e 44bd 74a6 11bd bf87 3bbc f97b de3c
00000020: eeec 3cbd 5c1a 2e3c 45d9 b13c a6c8 3bbd
00000030: fd5c cbbd 491a f23a 5f77 ecbd 23c4 e73d
00000040: 990d 883d 9946 81bd 0401 72bd 783d 0ebd
00000050: 33aa 6f3d 63af a1bd 9172 043e 2125 ffbc
00000060: 757d 14bd 3f02 c13c dce5 af3d ddc3 093d
00000070: 529b 61bc 567a 82bd 05b0 b93b de14 81bc
00000080: 0c00 cdbd b63e 913d 67b5 673d 6cbc c0bd
00000090: 7306 3c3d 9389 8d3d a369 b53c 97ca 9abc
000000a0: c378 e9bc 1395 823c 1c58 873c 310f a43c
000000b0: e66c e9bd 493b 93bc 7c39 883d fc2f 2dbd
000000c0: 4f92 f2bc d77c bd3b dc70 0abe d31f 0e3c
000000d0: e487 4f3d 30af d03d 54c4 f63b f4b0 ebbc
000000e0: 75f2 463d d172 243c 96d8 b43d f360 b93b
000000f0: 2e25 1c3d 7c3e 843a 3556 c9bc 3ff0 4b3d
00000100: 45d7 0d3d 4132 a0bc 2eab 9f3c b978 213c
00000110: de27 c7bc a0cd 403c b365 9ebc 2e87 1d3e
00000120: ce2d 113d 0f03 f33b 0800 34be 32df 4abd
00000130: b9e7 983d 8e3d 20bd 10f0 483c c898 66bd
00000140: ac96 d0ba 76fc e63b 4bd8 6f3d 630d 88bd
00000150: 7fec 953d 0f4b 54bd 8599 9ebb 5b41 ae3c
00000160: 9cef 6fbd a7b2 df3c 274c 59bd d5c3 8dbc
00000170: e830 8f3b a7ba 213d b634 8bbd 7ae3 a93c
00000180: c414 aaba 9f82 d03d cb48 153d 3119 56bd
00000190: c6c0 b63d d310 f73c 8f43 ddbd 91b4 8cbb
000001a0: 41b8 c9bc be6a c8bd d511 483c cf06 833d
000001b0: f564 b3b9 bb81 1d3d eae2 c93c 639a 07bd
000001c0: f556 023d 4141 683a 8f84 83bd 94cf 5bbd
000001d0: 5208 543d a984 43bd 06e9 b03c 2345 e43d
000001e0: de87 afbd 3c8f 96bd 6795 1bbb f881 3c3d
000001f0: 124b 13be 86ad 0b3d 0e9a 023d c068 6fbd
00000200: d060 9abd c091 aebc dbb3 693c 06ce 8f3d
00000210: d10d 10bb 66df 373b 7ad5 c7bd c699 bfba
00000220: e929 69bd 3590 083d e051 683c 863b 0fbd
00000230: e322 47b7 3992 0a3d b6fc cd3d 8332 49bd
00000240: 6063 c53d 60f8 59bc 96c8 6c3d 9dc1 133c
00000250: 1bef b2bd d1cf 073c 6572 2f3d 2ede 3bbc
00000260: c079 35bd c443 063d d0e0 213d 1785 0abd
00000270: de3b 43bd ecad 3bbd 6f87 143d caea 1dbc
00000280: 155a 29bd 5506 fb3c c917 09bd 4a38 42bd
00000290: f44e 363d c6ae 47bd d304 c6bc e0d9 2c3c
000002a0: f0a4 d73c 00e7 0f3d 3b7a 0fbd f3b8 993c
000002b0: eac9 efbd cb49 52bd 87c8 87bc 381b d93c
000002c0: 0e2b ad3c 0a11 203d 2f11 db3c 6bf1 4cbb
000002d0: 4450 ec3c ed15 28bb 675c 0b3d 29e1 a83d
000002e0: 3bd6 63bd 2c3c 33bd 9223 cbbb 227f 49bd
000002f0: 2b97 98bc 8dda 2cbc 9c1b 843d 82d6 abbd
00000300: af08 98bb 39d6 4abc 752c acbc 0760 343d
00000310: 5583 1fbc a58c 703d baa6 85bc 1714 a2bc
00000320: ca51 31bd 57cd 953d acbd 6cba 5211 b9bd
00000330: 7e91 213d 2847 fa3c 2db1 903b 13b0 8c3b
00000340: 7afe 173c 1cfa 5dbd ce7e cdbd 489d 973d
00000350: 5d13 da3b 80c6 8cbd a28e f23a c285 03bc
00000360: 7dab ddbc 9dc9 6a3c a6b9 ae3d c8ff e8bc
00000370: 9ac5 5b3d c670 a7bc 095e 863d 5540 f1bd
00000380: 8fd6 023d b3c1 f03c ac37 593d 94b8 9fbb
00000390: 4a72 b0bb 6178 7d3d 25f2 b4bd 291c c03d
000003a0: 5856 313d 9c67 8bbc b205 af3c cf79 e13d
000003b0: d60d c7bb 394b 203d 31b2 3cbd 7ab1 45bc
000003c0: d7ac 67bd 2e2c 69bd 363d 39bd 2809 64bd
000003d0: 34f0 17bd 7408 743d 13ad 92bd a4d0 ab3c
000003e0: 91ad 69bd fb68 443b 485a 15bc f553 e8bc
000003f0: 71c6 b7bc dc1c 893c 31e8 0cbc 8772 1d3d

weight f4 [384]
0.10101652 0.20410974 0.16259065 0.13389182 0.1827214 0.16308601 0.1841933 0.13641883
0.161151 0.13497385 0.13718952 0.23803575 0.16931988 0.11360759 0.22042046 0.18307371
0.18139188 0.16674176 0.2100671 0.17391714 0.15516089 0.16266373 0.15404932 0.22584862
0.10039761 0.13914144 0.21591598 0.17587017 0.09707668 0.13609399 0.1583426 0.14917439
0.22361423 0.1534932 0.111982375 0.2283858 0.18582395 0.13382307 0.15063976 0.1764762
0.23356079 0.12232779 0.14865401 0.10530791 0.21837166 0.17883249 0.3047003 0.16771644
0.20714965 0.10575217 0.18904306 0.25817952 0.09883025 0.15785356 0.20763683 0.1779638
0.17387089 0.1273182 0.22528857 0.13711166 0.15547259 0.18641326 0.14396392 0.1703387
0.16664258 0.15641962 0.093953155 0.16881488 0.106822826 0.15195546 0.19581698 0.18739949
0.15033898 0.19500323 0.24611308 0.14081322 0.18440342 0.15009363 0.14842328 0.19457051
0.21933645 0.1954717 0.14675319 0.1963309 0.24074203 0.13033187 0.10309995 0.19783582
0.1660134 0.26245603 0.11979169 0.17531736 0.055411533 0.17916751 0.11322228 0.17250976
0.12706688 0.24404979 0.15028454 0.14160143 0.16089614 0.23758927 0.1738531 0.12228119
0.17134316 0.13227679 0.17661369 0.1310172 0.11924615 0.11932725 0.16378286 0.2581253
0.15226527 0.1522904 0.2580329 0.22783247 0.17120725 0.15436502 0.22324833 0.27948678
0.1739535 0.17240265 0.21561837 0.11421093 0.23729259 0.24225245 0.17857194 0.14325431
0.15291148 0.14940675 0.14125086 0.2157495 0.1571906 0.15247896 0.10967151 0.25112155
0.11710788 0.18153843 0.1462879 0.19751607 0.18998711 0.20329373 0.16340856 0.113993645
0.17136985 0.13018619 0.11872271 0.09178493 0.23390745 0.1492291 0.11752955 0.20222625
0.16576703 0.23557162 0.08645993 0.20932648 0.11437941 0.3336271 0.26687217 0.10089727
0.13301069 0.12780967 0.15659904 0.13788539 0.17800625 0.16404042 0.25449625 0.091232665
0.13838618 0.22359778 0.20171739 0.22244555 0.05855826 0.15864375 0.16308945 0.12715349
0.16423021 0.13455181 0.13769993 0.19318935 0.15563686 0.14337559 0.11675489 0.15411875
0.12957403 0.17731868 0.20474477 0.1490709 0.14896064 0.1525291 0.17733856 0.100012414
0.14885348 0.13654101 0.15028733 0.17123546 0.14052959 0.19997069 0.11770401 0.13932784
0.18396895 0.19308218 0.22303343 0.1297215 0.10956016 0.19672473 0.11802757 0.1529073
0.14436042 0.14825891 0.1385149 0.11081075 0.15883563 0.1505795 0.2326412 0.13501891
0.20677425 0.14025585 0.2430472 0.19826312 0.19497985 0.1693948 0.10509687 0.14913316
0.10007888 0.107908644 0.15883361 0.1602112 0.117118254 0.17305806 0.11662707 0.2814613
0.14665712 0.14693098 0.30885035 0.21827991 0.16305833 0.19538017 0.16502734 0.18367869
0.16703457 0.16559349 0.2079401 0.2572354 0.17448317 0.11397579 0.15635002 0.16258815
0.13241497 0.21796463 0.17404054 0.12986924 0.10894035 0.20246191 0.1918471 0.17424151
00000000: c0e1 ce3d 2502 513e 2a7e 263e f01a 093e
00000010: 521b 3b3e 0500 273e 2b9d 3c3e 61b1 0b3e
00000020: c504 253e 9636 0a3e 697b 0c3e a5bf 733e
00000030: 3162 2d3e 19ab e83d e7b5 613e ad77 3b3e
00000040: cbbe 393e 5abe 2a3e d41b 573e 5617 323e
00000050: 7fe2 1e3e 5291 263e 1bbf 1d3e dc44 673e
00000060: 439d cd3d 187b 0e3e 1419 5d3e 4f17 343e
00000070: 23d0 c63d 395c 0b3e 9024 223e 2cc1 183e
00000080: 21fb 643e 522d 1d3e 0457 e53d f8dd 693e
00000090: a248 3e3e ea08 093e 4f41 1a3e 2db6 343e
000000a0: 8f2a 6f3e fe86 fa3d c238 183e acab d73d
000000b0: d29c 5f3e dd1f 373e ad01 9c3e dcbd 2b3e
000000c0: 0a1f 543e 9894 d83d 8194 413e 1b30 843e
000000d0: 8467 ca3d 5da4 213e c09e 543e 243c 363e
000000e0: 360b 323e b45f 023e 0cb2 663e 0067 0c3e
000000f0: 3534 1f3e 1ee3 3e3e 476b 133e 456d 2e3e
00000100: 5aa4 2a3e 772c 203e 836a c03d cfdd 2c3e
00000110: edc5 da3d 369a 1b3e 3f84 483e a7e5 3f3e
00000120: 76f2 193e edae 473e 1105 7c3e 5731 103e
00000130: 40d4 3c3e 25b2 193e 46fc 173e 7e3d 473e
00000140: bc99 603e bc29 483e 7846 163e f80a 493e
00000150: 1485 763e b875 053e 1126 d33d 7995 4a3e
00000160: 6bff 293e a360 863e 5855 f53d 6586 333e
00000170: 34f7 623d b077 373e 15e1 e73d 66a6 303e
00000180: d21d 023e 30e8 793e 31e4 193e f7ff 103e
00000190: f5c1 243e 9a4a 733e 8c06 323e 8f6e fa3d
000001a0: 9574 2f3e 9173 073e 38da 343e 5f29 063e
000001b0: 5337 f43d d861 f43d b2b6 273e 0029 843e
000001c0: 6deb 1b3e 04f2 1b3e e31c 843e ea4c 693e
000001d0: f450 2f3e dd11 1e3e 369b 643e e418 8f3e
000001e0: de20 323e 528a 303e 10cb 5c3e 6ce7 e93d
000001f0: d4fc 723e 0711 783e 90db 363e 42b1 123e
00000200: d494 1c3e 15fe 183e 11a4 103e 70ed 5c3e
00000210: 93f6 203e 7223 1c3e 759b e03d 0193 803e
00000220: 42d6 ef3d 36e5 393e 7fcc 153e a741 4a3e
00000230: fb8b 423e 3b2c 503e 9354 273e 8075 e93d
00000240: 947b 2f3e 874f 053e e424 f33d bdf9 bb3d
00000250: 6f85 6f3e 83cf 183e 55b3 f03d 6614 4f3e
00000260: d5be 293e b039 713e e711 b13d ae59 563e
00000270: c13f ea3d 2cd1 aa3e 78a3 883e 3aa3 ce3d
00000280: f433 083e 8ae0 023e 805b 203e d431 0d3e
00000290: 4547 363e 36fa 273e 554d 823e 31d8 ba3d
000002a0: 1bb5 0d3e d1f6 643e 018f 4e3e c4c8 633e
000002b0: c9da 6f3d 8273 223e ec00 273e 8634 023e
000002c0: f72b 283e f3c7 093e 3601 0d3e 6ed3 453e
000002d0: 455f 1f3e 0dd1 123e 301d ef3d 4ed1 1d3e
000002e0: 0eaf 043e 0793 353e 9da8 513e 0ba6 183e
000002f0: 2389 183e 9730 1c3e 3d98 353e 4fd3 cc3d
00000300: 0c6d 183e 68d1 0b3e ece4 193e 5958 2f3e
00000310: fde6 0f3e 1ec5 4c3e cd0e f13d f5ab 0e3e
00000320: 5b62 3c3e 56b7 453e e062 643e b7d5 043e
00000330: 1461 e03d 3572 493e 70b8 f13d bb93 1c3e
00000340: 38d3 133e 2fd1 173e dad6 0d3e bff0 e23d
00000350: cfa5 223e 8331 1a3e 7f39 6e3e 6642 0a3e
00000360: a1bc 533e 3b9f 0f3e 5de1 783e 7d05 4b3e
00000370: cca8 473e d575 2d3e 073d d73d 5db6 183e
00000380: 28f6 cc3d 35ff dc3d 47a5 223e 680e 243e
00000390: b2db ef3d 2236 313e 2cda ee3d b21b 903e
000003a0: 492d 163e 1375 163e a221 9e3e c584 5f3e
000003b0: c3f8 263e bd11 483e edfc 283e 4416 3c3e
000003c0: 1c0b 2b3e 5791 293e 40ee 543e 5cb4 833e
000003d0: b7ab 323e 246c e93d 381a 203e 827d 263e
000003e0: ca97 073e 1f32 5f3e af37 323e 71fc 043e
000003f0: 1e1c df3d 2d52 4f3e 9173 443e 5e6c 323e

bias f4 [384]
0.13345377 -0.043117672 -0.04065371 0.19583713 -0.018942317 0.025607873 -0.01347492 -0.08332388
0.08908688 -0.063444294 0.29480553 -0.1603484 -0.05549509 0.005644534 0.027638257 -0.01264359
0.0087203905 7.820964e-05 0.080157794 -0.04971526 -0.16530225 -0.07899071 -0.017194735 -0.025997356
0.24519315 0.037703246 0.013864458 0.022607248 0.27571547 0.051851477 -0.09158646 0.05712754
-0.032810297 -0.0006345923 0.032679155 -0.06588216 -0.07599992 0.051773675 -0.028651906 -0.042041864
-0.07348762 0.04877922 0.027883083 0.284907 -0.059084594 -0.06499792 -0.12172706 -0.033349548
0.012457875 0.14458331 0.011038757 -0.070031784 0.14513294 -0.085905306 -0.08562831 -0.04107988
-0.0016470854 -0.04275862 -0.097205825 0.06547534 -0.011901487 0.005896814 0.07201622 -0.02793895
-0.024321271 -0.064036444 0.13135467 -0.07564313 0.074702494 -0.027413338 -0.12924789 -0.039594192
-0.0017125153 -0.07963281 0.13530754 -0.085122906 -0.03815281 -0.0046612713 0.027794017 -0.01847022
-0.16142051 0.00765851 0.005961486 -0.082100116 -0.07593177 0.05265881 0.08183324 -0.067459196
0.03607141 -0.09431739 0.02860079 0.020217782 -0.026430441 0.0075911894 0.073324636 0.01794579
0.026937269 -0.25267902 0.030225648 -0.007306924 0.04588252 0.071823925 -0.03537182 0.042677063
-0.17378381 0.16473645 0.006020256 -0.045887318 0.06678222 -0.013324606 -0.072582394 0.013896428
-0.003920089 -0.010361531 -0.31090108 -0.04616219 -0.022854853 -0.17956105 -0.024367424 0.011392456
0.029474208 -0.099113755 -0.04944602 0.092006885 0.1538966 -0.11812926 -0.07667327 -0.014794799
-0.00040577355 0.0054820767 0.11497062 -0.029153883 0.04417025 0.01314372 0.05229708 -0.053995155
0.08278179 -0.002464824 -0.031533584 -0.049114347 -0.029904872 -0.08401144 0.023473788 0.10971894
-0.010043408 0.09591031 0.15857886 -0.005511717 -0.0071611 -0.004019269 0.12663497 -0.0807933
-0.037023213 -0.19071719 0.13418873 -0.10312092 0.09094347 -0.18177316 -0.11179468 0.12305939
0.056993242 0.12977384 -0.09855764 0.15942928 -0.0042763473 -0.015359577 -0.08129779 0.020475259
-0.040345483 -0.075277545 0.037398998 -0.072442 0.28233057 -0.0012926878 -0.03648459 -0.03918181
0.06687983 0.013345735 -0.057217244 -0.022043714 0.07332573 0.035181165 0.018603645 0.06220338
0.11374242 -0.013470602 -0.056910183 -0.13323726 -0.06400885 -0.03143898 -0.0189553 0.25013086
0.13338701 -0.02301758 0.013417274 -0.02377283 -0.03579527 -0.05198235 -0.014634605 -0.0757923
-0.03529089 0.033142097 -0.08759628 0.09784128 0.19450586 -0.055147108 0.060384493 -0.060198516
0.023507789 -0.0987053 0.058633827 -0.032787908 0.015750239 -0.07981208 -0.17609824 0.008960817
0.0014300355 0.01464778 -0.16156319 -0.0065871673 -0.08114841 -0.039025586 0.037059665 -0.050262056
0.27322966 0.21585992 -0.03851926 0.049978536 0.15760067 -0.017943682 -0.019761773 -0.17240258
0.019931015 -0.028339176 -0.24991156 -0.14690807 -0.024920104 -0.14586854 -0.04669152 0.007197314
0.0053851656 0.028415365 -0.014034323 -0.21269809 0.018945618 0.026919475 0.019965488 -0.011208617
-0.124884434 -0.0482646 -0.01076573 -0.01790626 0.2610237 -0.04463575 -0.08854 -0.020481305
00000000: 1ba8 083e 289c 30bd 8184 26bd 8789 483e
00000010: eb2c 9bbc 9ac7 d13c e9c5 5cbc b6a5 aabd
00000020: 2f73 b63d 15ef 81bd c0f0 963e 5f32 24be
00000030: d24e 63bd c8f5 b83b a069 e23c 0f27 4fbc
00000040: f8df 0e3c 7b04 a438 c529 a43d 3aa2 4bbd
00000050: fe44 29be e2c5 a1bd f9db 8cbc 68f8 d4bc
00000060: ea13 7b3e b86e 1a3d c027 633c d632 b93c
00000070: 942a 8d3e 3762 543d af91 bbbd 91fe 693d
00000080: 1764 06bd c55a 26ba 94da 053d 3aed 86bd
00000090: d9a5 9bbd a210 543d 67b7 eabc 1734 2cbd
000000a0: ad80 96bd b8cc 473d 106b e43c 55df 913e
000000b0: b002 72bd a11d 85bd 094c f9bd 8999 08bd
000000c0: 1d1c 4c3c a60d 143e e7db 343c d36c 8fbd
000000d0: bb9d 143e 1fef afbd e55d afbd 6043 28bd
000000e0: 04e3 d7ba aa23 2fbd d913 c7bd ef17 863d
000000f0: 74fe 42bc 103a c13b 3d7d 933d 3ae0 e4bc
00000100: 673d c7bc 8a25 83bd d781 063e c9ea 9abd
00000110: 9ffd 983d f091 e0bc 8f59 04be 852d 22bd
00000120: 7a76 e0ba 8716 a3bd 0f8e 0a3e eb54 aebd
00000130: 1f46 1cbd 94bd 98bb 47b0 e33c dc4e 97bc
00000140: 6b4b 25be 3df4 fa3b 9258 c33b 1b24 a8bd
00000150: 1e82 9bbd c4b0 573d 3098 a73d 0c28 8abd
00000160: 9dbf 133d 7a29 c1bd 344c ea3c c39f a53c
00000170: a784 d8bc 83bf f83b 3a2b 963d 0d03 933c
00000180: 8cab dc3c 255f 81be c79b f73c ec6e efbb
00000190: 4fef 3b3d 6c18 933d 0be2 10bd 25ce 2e3d
000001a0: 62f4 31be acb0 283e 9145 c53b 57f4 3bbd
000001b0: 1ec5 883d 734f 5abc 14a6 94bd d8ad 633c
000001c0: 1774 80bb 69c3 29bc 6d2e 9fbe 9114 3dbd
000001d0: 1a3a bbbc dade 37be 319e c7bc 6ca7 3a3c
000001e0: e573 f13c 27fc cabd e987 4abd 1b6e bc3d
000001f0: 1297 1d3e c1ed f1bd e006 9dbd e265 72bc
00000200: 01be d4b9 fea2 b33b b775 eb3d 20d4 eebc
00000210: ddeb 343d c258 573c 7735 563d 062a 5dbd
00000220: 8089 a93d e288 21bb 5c29 01bd 202c 49bd
00000230: 10fb f4bc 310e acbd 1a4c c03c 53b4 e03d
00000240: 1b8d 24bc a06c c43d 7f62 223e a29b b4bb
00000250: a9a7 eabb 12b4 83bb 99ac 013e f576 a5bd
00000260: a7a5 17bd 5e4b 43be c568 093e 1031 d3bd
00000270: 9240 ba3d be22 3abe 9cf4 e4bd 9006 fc3d
00000280: bf71 693d 6fe3 043e 97d8 c9bd 6e41 233e
00000290: 9a20 8cbb bca6 7bbc 757f a6bd bbbb a73c
000002a0: 4e41 25bd 1d2b 9abd b12f 193d 795c 94bd
000002b0: a28d 903e 686f a9ba de70 15bd 1b7d 20bd
000002c0: 4bf8 883d 12a8 5a3c a15c 6abd 0595 b4bc
000002d0: cd2b 963d 201a 103d ac66 983c f9c8 7e3d
000002e0: c9f1 e83d cdb3 5cbc a71a 69bd 596f 08be
000002f0: 1217 83bd 29c6 00bd 2548 9bbc 2711 803e
00000300: 9b96 083e 5d8f bcbc 20d4 5b3c 3dbf c2bc
00000310: 109e 12bd 72eb 54bd fbc5 6fbc fe38 9bbd
00000320: 2e8d 10bd 02c0 073d ae65 b3bd 0261 c83d
00000330: 8b2c 473e efe1 61bd bb55 773d b892 76bd
00000340: 6893 c03c 0126 cabd 062a 703d 9d4c 06bd
00000350: a506 813c 8474 a3bd 1953 34be 64d0 123c
00000360: 0770 bb3a 3efd 6f3c d270 25be 2ad9 d7bb
00000370: 2331 a6bd 4bd9 1fbd e0cb 173d 96df 4dbd
00000380: c2e4 8b3e 620a 5d3e 5fc6 1dbd 4bb6 4c3d
00000390: 1262 213e a1fe 92bc 71e3 a1bc 4d8a 30be
000003a0: 5e46 a33c 8f27 e8bc d1e8 7fbe 126f 16be
000003b0: 3f25 ccbc 905e 15be 9b3f 3fbd 72d7 eb3b
000003c0: 0b76 b03b 57c7 e83c 38f0 65bc 87cd 59be
000003d0: d733 9b3c 3b86 dc3c aa8e a33c 59a4 37bc
000003e0: 69c3 ffbd 1ab1 45bd bf62 30bc 26b0 92bc
000003f0: e6a4 853e fad3 36bd 7654 b5bd 69c8 a7bc

running_mean f4 [384]
-0.014613787 -0.0057746447 -0.0001706667 0.002963841 -0.0066478383 -0.034847163 0.025594065 0.0014751564
0.007301906 0.0067518684 -0.0072635403 0.0018933285 0.011723395 0.0032524022 -0.016539736 0.010088174
0.0031617635 -0.03553237 -0.005465093 0.007913322 0.0026388757 0.005505381 0.016131898 -0.0019894126
-0.012571368 -0.0013420806 0.0008348212 -0.016509134 -0.0046777697 -0.032391194 0.010800013 -0.043826777
0.0008601103 -0.011565594 0.0027936508 0.0066198125 0.008344224 -0.014958047 0.002381082 0.009960494
0.01688556 -0.034554627 0.004924011 0.0023909512 -0.0131214 -0.0151549 -0.0225533 0.004684545
0.0016709137 -0.017654568 0.00755134 -0.016179303 -0.021124767 0.00333646 0.028387856 0.012278958
-0.0054602865 0.001485144 0.010604482 0.003130535 0.008229561 0.0025121465 -0.033908162 0.0005445907
-0.023117226 0.001857616 -0.010995059 -0.024362057 0.0013641784 0.014527761 0.0058912886 0.005425197
0.0018397927 -0.043585576 0.04528546 0.004991794 -0.00901171 0.009231025 0.010992859 0.00887133
0.019957293 -0.030994453 0.0015945266 -0.01314782 -0.003933784 -0.0021531635 -0.01783003 0.017021049
-0.0019443335 -0.044575684 0.0042020683 -0.095249206 -6e-45 0.018091682 0.008787812 0.009361969
-0.029142808 0.00032931115 0.010604458 0.004308451 -0.021220803 -0.014719611 -0.00022772087 -0.02129859
0.0040172148 0.0037209953 -0.035724252 0.004042595 -0.020833688 0.00937278 0.012328209 -0.018578563
0.011495123 -0.00019162489 -0.024869027 -0.015091287 0.015687916 0.010581605 0.0016009957 -0.02342592
-0.040855736 0.0026603164 0.0020049317 -0.013385285 0.05253637 -0.033754256 -0.0013568164 -0.017428776
0.019213429 0.004032288 -0.01075538 -0.0006859665 0.004546121 -0.017320225 0.008041266 -0.034907155
-0.022815237 -0.03264081 0.004370265 -0.033337 -0.02267449 -0.03146418 0.0130978245 -0.02935217
0.0006843342 -0.0068888357 -0.011334539 0.006495425 -0.02417551 -0.0024675832 -0.014415409 -0.00024399973
-0.009154743 -0.05238803 0.004462337 -0.040460818 -0.007803959 -0.103991635 0.0028701674 0.00544343
0.0054129222 -0.0074358284 0.0068599726 0.004236268 -0.002556872 0.0054855393 -0.033607796 0.00027668447
0.007963627 0.00033550232 -0.031128626 -0.036018286 -0.009664207 -0.023107091 -0.025221758 0.015883317
-0.025815388 0.007168065 0.0035267759 0.008429089 -0.0030016138 -0.04893906 0.004712971 -0.01025193
0.0023939176 -0.040987343 -0.038001068 0.009715871 -0.0038826966 0.009591478 -0.0029077881 -0.011177265
0.011647246 0.0032469935 -0.04296585 0.0036370584 -0.0041679824 -0.004235092 0.0052925865 0.010936615
-0.010728205 0.025259033 -0.045942713 0.018110553 -0.020877467 -0.005746656 0.0034809776 0.006222962
-0.011705348 0.004976299 0.012423617 0.0075897826 -0.02701449 0.007043267 0.001416903 -0.019137625
-0.012465812 -0.027182417 0.046624944 0.011929047 -0.016475799 -0.04565912 0.0012745757 0.0047977692
-0.015161924 -0.007455114 0.007228508 -0.013083682 -0.015427254 0.009174858 0.005341786 0.021459006
-0.024635965 -0.0027798833 -0.07675937 0.019308949 -0.012838294 0.0013733478 0.008887648 -0.03140221
-0.028325789 0.0069720643 -0.027879411 0.026046643 -0.011679634 0.010299399 -0.009215231 0.004178629
0.0052882223 0.0043520383 -0.033079952 0.0118685365 0.011362228 -0.019579325 0.027790958 0.010416967
00000000: aa6e 6fbc 3b39 bdbb fef4 32b9 003d 423b
00000010: 1cd6 d9bb e6bb 0ebd a5aa d13c 095a c13a
00000020: d444 ef3b c73e dd3b fe02 eebb 9029 f83a
00000030: 7c13 403c 4126 553b 577e 87bc de48 253c
00000040: 9735 4f3b 648a 11bd 8614 b3bb e1a6 013c
00000050: fdf0 2c3b 7c66 b43b 0b27 843c ce60 02bb
00000060: 24f8 4dbc c1e8 afba e7d7 5a3a 2a3e 87bc
00000070: fa47 99bb a1ac 04bd 8af2 303c b583 33bd
00000080: 0679 613a 9e7d 3dbc af15 373b 03eb d83b
00000090: 36b6 083c 9912 75bc ed0b 1c3b 5731 233c
000000a0: 9653 8a3c 2789 0dbd 9959 a13b 81b1 1c3b
000000b0: 24fb 56bc 424c 78bc b3c1 b8bc d080 993b
000000c0: 8f02 db3a 50a0 90bc 3b71 f73b 758a 84bc
000000d0: d90d adbc 83a8 5a3b a68d e83c af2d 493c
000000e0: 34ec b2bb 2aa9 c23a 6cbe 2d3c a929 4d3b
000000f0: 48d5 063c d3a2 243b 49e3 0abd ddc2 0e3a
00000100: 5660 bdbc 407b f33a 9f24 34bc f092 c7bc
00000110: 3bce b23a d905 6e3c b60b c13b dac5 b13b
00000120: 3325 f13a ca86 32bd 3f7d 393d 3492 a33b
00000130: daa5 13bc ba3d 173c 641b 343c 0e59 113c
00000140: 7a7d a33c 14e8 fdbc 6fff d03a f469 57bc
00000150: f9e6 80bb 171c 0dbb 4810 92bc ba6f 8b3c
00000160: 02d9 feba fe94 36bd 81b1 893b 0412 c3bd
00000170: 0400 0080 0235 943c c1fa 0f3c f262 193c
00000180: e6bc eebc 65a7 ac39 52be 2d3c e82d 8d3b
00000190: 40d7 adbc 862a 71bc 5bc8 6eb9 617a aebc
000001a0: d7a2 833b f1db 733b 9853 12bd bf77 843b
000001b0: 69ab aabc 4a90 193c 42fc 493c 1232 98bc
000001c0: 0a56 3c3c eaee 48b9 21ba cbbc 7241 77bc
000001d0: f283 803c 785e 2d3c 80d8 d13a b7e7 bfbc
000001e0: 5858 27bd b458 2e3b 2c65 033b f44d 5bbc
000001f0: 6030 573d e741 0abd 34d7 b1ba cbc6 8ebc
00000200: 7b65 9d3c 4921 843b 5537 30bc 6fd2 33ba
00000210: a1f7 943b 25e3 8dbc 84bf 033c cefa 0ebd
00000220: 05e7 babc 5fb2 05bd 7134 8f3b 618c 08bd
00000230: dabf b9bc 96e0 00bd 4298 563c f673 f0bc
00000240: e464 333a bebb e1bb 81b4 39bc 93d7 d43b
00000250: b80b c6bc 2db7 21bb 9c2e 6cbc 2eda 7fb9
00000260: c6fd 15bc d594 56bd cc38 923b 3eba 25bd
00000270: 5ab8 ffbb 91f9 d4bd 6b19 3c3b cd5e b23b
00000280: e25e b13b 40a8 f3bb 9fc9 e03b 64d0 8a3b
00000290: 3291 27bb 0ac0 b33b 54a8 09bd f60f 9139
000002a0: df79 023c 5ce6 af39 7601 ffbc e987 13bd
000002b0: 9f56 1ebc 154b bdbc dc9d cebc bb1d 823c
000002c0: cb7a d3bc 16e2 ea3b 7b21 673b 291a 0a3c
000002d0: b9b6 44bb 5374 48bd 446f 9a3b b6f7 27bc
000002e0: 46e3 1c3b 58e2 27bd 02a7 1bbd 512f 1f3c
000002f0: d774 7ebb 9325 1d3c 9790 3ebb d920 37bc
00000300: 17d4 3e3c 83cb 543b f6fc 2fbd b75b 6e3b
00000310: 9293 88bb 87c6 8abb 6f6d ad3b 7d2f 333c
00000320: 5ac5 2fbc 08ec ce3c 6d2e 3cbd 955c 943c
00000330: 3907 abbc 724e bcbb 1d21 643b fde9 cb3b
00000340: cac7 3fbc 3910 a33b 6d8c 4b3c b6b3 f83b
00000350: 7e4d ddbc 35cb e63b 60b7 b93a 82c6 9cbc
00000360: 683d 4cbc a9ad debc ccf9 3e3d 0d72 433c
00000370: 41f8 86bc 0f05 3bbd aa0f a73a 9b36 9d3b
00000380: b869 78bc 074a f4bb 1fdd ec3b f15c 56bc
00000390: 98c2 7cbc 2552 163c 260a af3b ccca af3c
000003a0: 5dd1 c9bc b42e 36bb 0434 9dbd cd2d 9e3c
000003b0: b557 52bc e801 b43a 7f9d 113c 9b9f 00bd
000003c0: 7c0b e8bc ea75 e43b 5d63 e4bc c55f d53c
000003d0: f05b 3fbc cfbe 283c 7bfb 16bc e1ec 883b
000003e0: d348 ad3b 8b9b 8e3b d87e 07bd 4074 423c
000003f0: a328 3a3c d264 a0bc dda9 e33c edab 2a3c

running_var f4 [384]
0.0003072828 0.00036490915 0.00028266653 0.00015494613 0.0003489113 0.0003441736 0.0001540282 0.00013518511
0.00026340803 0.00017892619 0.00040634524 0.00019874983 0.00034542725 3.4194585e-05 0.0006258767 0.00052143214
0.00035492948 0.0007714576 0.0008073754 0.0005696353 2.3538068e-05 0.00030411768 0.0005970146 0.00027272908
0.00039855877 0.00023033447 0.00010970295 0.0003519898 0.00033156422 0.00055720395 0.0001884377 0.00048366524
0.0004890984 0.0005433478 0.0002834763 0.00038136414 0.0004316745 0.00021479653 9.401406e-05 0.00021535518
0.0004698093 0.00040416222 0.00038996298 0.000110261615 0.00037296733 0.00038320766 0.00064839586 0.000580781
0.00028588506 0.00021344266 0.0006862215 0.0008468573 0.00035832098 0.00029843248 0.0003747736 0.00019688444
4.7242123e-05 0.00010752946 0.00026650954 9.650157e-05 0.00022223762 0.00033391837 0.00034052832 0.0004984113
0.00036800813 0.0003789722 0.00022252138 0.00023463483 2.8655062e-05 8.544862e-05 0.00018302732 0.00047202333
0.00034132935 0.00030360548 0.0038339403 6.847929e-05 0.00029085853 0.00027636802 0.00040759725 0.00031352125
2.3170001e-05 0.0006821459 0.00013522238 0.0005499792 0.00072824024 0.00019333506 0.00032258357 0.00028580998
0.00036774547 0.0004999847 5.9052876e-05 0.0008785692 6e-45 0.00024998255 0.0001737139 0.00023108967
0.000550605 2.2353747e-07 0.00025151027 0.00019401663 0.0003774312 0.0015583739 0.00091587176 0.00021739729
1.6878057e-05 0.000102351296 0.0005081788 6.574758e-05 0.00031407236 0.00017085446 0.0001436782 0.00077375805
0.00036871157 0.00014674074 7.0567316e-05 0.00038158955 0.00025346354 0.00026771973 0.00025990946 0.0025248358
0.0012851453 9.779409e-05 0.00024006344 0.00023366953 0.004546435 0.00021425757 0.0002121463 0.0002342551
0.0004928219 0.00031273966 0.00027778873 0.00039318777 0.00036086806 0.00018425767 0.00030523623 0.00074957864
0.0005677025 0.0004550905 0.00010432126 0.00040590405 0.00063240016 0.0006263254 0.00035876303 0.0009713091
0.00039621803 0.00026333664 0.00020646858 0.00015160617 0.00028511285 0.00018520214 0.000319124 0.00032310464
0.00027750846 0.00043237567 0.00030698557 0.0006481866 0.00013365195 0.0018708925 0.00040349373 0.00022700049
0.00039366385 0.00013704578 0.00023093767 7.2003684e-05 0.0004615866 0.00022119592 0.0005817666 9.875057e-05
8.114872e-05 0.00038260876 0.00071773335 0.0004113552 0.00018166777 0.00034668125 0.00029773105 0.00039276123
0.00042183304 7.620542e-05 3.456859e-05 0.0005042375 0.00036028578 0.0007639036 5.6313187e-05 0.00026786415
7.4452524e-05 0.00041941355 0.00040720525 0.00018154047 0.00025455363 0.0002958487 0.00043933655 0.00021952526
0.00042103938 0.00015837085 0.00023922323 0.00038220262 0.00043928085 0.0004846786 8.774385e-05 0.0002637698
0.00035356605 0.0009746169 0.00046360583 0.00060233177 0.00032077945 0.0002863582 0.00035866216 0.00036790755
0.00017646932 0.00028462228 0.0002917912 6.741291e-05 0.00048959383 9.296744e-05 0.000388919 0.00014266928
0.0005753234 0.0004258837 7.9444406e-05 0.00060347887 0.0004401304 0.00034311073 5.6173412e-06 7.552728e-05
0.00027364763 0.00016925477 0.00024199778 0.0002535958 0.00039605692 0.000448725 0.00011381459 0.00072693866
0.00054852717 0.00041714465 0.0005468622 0.0004286182 0.00043157765 0.000108385364 0.0002644856 0.00028137924
0.00037899878 0.0003007533 0.00061000936 0.00048249183 0.0005251407 0.00017393715 0.00030987847 0.00010186938
9.461513e-05 0.0003585763 0.00021284135 0.0002274696 0.0004452204 0.0006123985 0.00016773365 0.00019826948
00000000: cd1a a139 4751 bf39 dc32 9439 0979 2239
00000010: 15ee b639 3372 b439 a182 2139 7ac0 0d39
00000020: 071a 8a39 229e 3b39 bc0a d539 8067 5039
00000030: 761a b539 286c 0f38 e011 243a b8b0 083a
00000040: d415 ba39 a53b 4a3a 0ca6 533a 9453 153a
00000050: 9e73 c537 fc71 9f39 f980 1c3a 14fd 8e39
00000060: a7f5 d039 f085 7139 5310 e638 458b b839
00000070: ccd5 ad39 5311 123a 5c97 4539 7394 fd39
00000080: d736 003a 746f 0e3a 8c9f 9439 d4f1 c739
00000090: 5f52 e239 013b 6139 6a29 c538 f7d0 6139
000000a0: bd50 f639 bce5 d339 f273 cc39 413c e738
000000b0: d48a c339 43e9 c839 1cf9 293a 8e3f 183a
000000c0: d8e2 9539 94cf 5f39 8ce3 333a a2ff 5d3a
000000d0: 07dd bb39 ee76 9c39 437d c439 c472 4e39
000000e0: d825 4638 7081 e138 4eba 8b39 e360 ca38
000000f0: 7508 6939 c411 af39 f088 b239 d1a7 023a
00000100: 37f1 c039 cab0 c639 a154 6939 4f08 7639
00000110: 4760 f037 e132 b338 06eb 3f39 e679 f739
00000120: 73f4 b239 3d2d 9f39 d842 7b3b 8a9c 8f38
00000130: 5f7e 9839 7de5 9039 c7b2 d539 1c60 a439
00000140: 335d c237 09d2 323a 7bca 0d39 7b2c 103a
00000150: 60e7 3e3a fcb9 4a39 6f20 a939 c4d8 9539
00000160: f6cd c039 6811 033a 8baf 7738 c84f 663a
00000170: 0400 0000 1710 8339 f826 3639 a950 7239
00000180: 7a56 103a 8305 7034 23dd 8339 f170 4b39
00000190: f5e1 c539 5a42 cc3a 1d17 703a 24f5 6339
000001a0: 5a95 8d37 6fa5 d638 4d37 053a f7e1 8938
000001b0: 14aa a439 6527 3339 53a8 1639 06d6 4a3a
000001c0: a14f c139 6bde 1939 8afd 9338 1510 c839
000001d0: 4de3 8439 bc5c 8c39 7544 8839 b777 253b
000001e0: 5272 a83a cd16 cd38 8ab9 7b39 3005 7539
000001f0: 43fa 943b 54aa 6039 9773 5e39 60a2 7539
00000200: b830 013a 35f7 a339 2ca4 9139 c524 ce39
00000210: e432 bd39 4b35 4139 1d08 a039 5f7f 443a
00000220: dfd1 143a 3799 ee39 0dc7 da38 85cf d439
00000230: a8c7 253a fc2f 243a 5c18 bc39 739f 7e3a
00000240: 7cbb cf39 7210 8a39 7d7f 5839 79f8 1e39
00000250: 337b 9539 d232 4239 1950 a739 5f66 a939
00000260: 8e7e 9139 7bb0 e239 e8f2 a039 11eb 293a
00000270: ec24 0c39 bc38 f53a 038c d339 fb06 6e39
00000280: ab64 ce39 f2b3 0f39 dc27 7239 af00 9738
00000290: 1b01 f239 d4f0 6739 b281 183a 4f18 cf38
000002a0: 632e aa38 e198 c839 4526 3c3a 29ab d739
000002b0: 127e 3e39 c5c2 b539 c918 9c39 85eb cd39
000002c0: 7929 dd39 79d0 9f38 befd 1038 ce2e 043a
000002d0: bde4 bc39 b440 483a d331 6c38 1e70 8c39
000002e0: 6523 9c38 bce4 db39 2a7e d539 e65b 3e39
000002f0: 9c75 8539 241c 9b39 c156 e639 5d30 6639
00000300: f3be dc39 5a10 2639 ffd7 7a39 5e62 c839
00000310: 474f e639 761c fe39 1f03 b838 954a 8a39
00000320: d55e b939 6f7d 7f3a 1f10 f339 cde5 1d3a
00000330: 4a2e a839 5922 9639 d20a bc39 b7e3 c039
00000340: 9f0a 3939 5b39 9539 8dfb 9839 0860 8d38
00000350: 1658 003a 84f7 c238 d3e7 cb39 7e99 1539
00000360: 4dd1 163a 2549 df39 649b a638 c832 1e3a
00000370: 4dc1 e639 8be3 b339 987c bc36 6664 9e38
00000380: 5d78 8f39 fb79 3139 c9c0 7d39 0df5 8439
00000390: dca5 cf39 da42 eb39 beaf ee38 0790 3e3a
000003a0: 09cb 0f3a 35b4 da39 4d5b 0f3a 29b8 e039
000003b0: 5f45 e239 f34c e338 a8aa 8a39 1586 9339
000003c0: 5bb4 c639 6dae 9d39 09e9 1f3a f5f6 fc39
000003d0: 99a9 093a e662 3639 2f77 a239 b5a2 d538
000003e0: 1c6c c638 4cff bb39 2a2e 5f39 e884 6e39
000003f0: 786c e939 5e89 203a a9e1 2f39 8fe6 4f39

weight f4 [384, 1, 3, 3]
-0.0025799235 -0.01931024 -0.03507525 -0.02326489 0.1722218 -0.018617965 -0.040281728 -0.21898289
-0.031535115 -0.02826395 -0.02266028 0.045675095 -0.090769306 -0.16854565 0.23168364 -0.013267079
-0.0049110074 0.022808854 0.1438994 0.11353479 0.025750626 0.018594796 -0.15126614 -0.05442199
-0.0004856635 -0.06305361 -0.016723052 -0.021036392 -0.050614167 -0.0133902915 -0.0482245 -0.021974059
-0.047287162 -0.002276701 0.252464 0.03869304 0.012077285 0.04989105 0.01583167 0.06693427
-0.3596046 0.06500902 0.028009249 0.039669137 -0.009652083 -0.068979815 -0.07366812 -0.061260097
-0.043945044 0.21576451 -0.07010568 -0.08358074 -0.027066568 -0.079249695 0.033335753 0.060576722
0.04461416 -0.024174536 -0.040054332 -0.03921614 0.05835174 0.19495936 0.028145185 0.0654322
-0.133339 -0.05727216 0.12849697 0.011639402 0.0073784483 -0.013422543 0.11832617 -0.075435296
-0.0051529948 0.048628792 0.01334789 -0.040283255 -0.23802306 -0.027702173 0.078354955 0.24969283
0.06202142 0.02589413 0.14593367 0.012020456 0.10523189 0.024123818 -0.029356534 0.012355808
-0.07292341 -0.07651301 -0.076913044 -0.18113561 -0.08728474 0.030314216 0.29870653 0.020761453
-0.011269518 -0.019722877 -0.066542596 -0.08787544 -0.055840835 0.05373925 0.0038363608 0.31150258
-0.094213106 0.011667292 -0.08723938 -0.058019318 0.04036829 0.22344647 -0.022299461 -0.002986545
0.02488788 0.121440604 0.06562566 -0.13683197 0.0073632416 -0.043629706 -0.025239708 -0.028259933
0.0019284207 0.08585338 0.03105986 0.009890357 0.12999985 0.038042378 0.11187798 0.23296703
0.09644221 -0.14703996 -0.21392041 -0.14405371 -0.009847583 -0.032849815 -0.0049961125 -0.007061497
-0.0656852 -0.02505078 0.018480346 -0.13447154 -0.035185434 0.096094556 0.19025224 0.05859194
0.04986334 -0.059989456 -0.07079201 0.23380126 -0.105627984 -0.010070176 0.05583584 -0.039692506
-0.015303909 -0.050907504 -0.06907919 -0.044032596 -0.07193206 -0.00190824 -0.08038134 -0.022202387
-0.06317517 -0.027787186 0.03682758 -0.055912744 0.0004310662 0.06466487 -0.32557142 -0.032259725
0.22924906 0.05144735 0.0203626 0.11541403 0.05137097 -0.011667253 0.07695296 0.20299745
-0.08880705 -0.016279204 -0.011209787 -0.12638995 -0.0015736725 0.035611644 0.012350461 0.025346812
0.10703656 0.02911076 -0.0050163474 0.04327743 0.013059565 0.07567171 0.09210289 0.038386103
0.13422035 -0.069353856 -0.06644506 0.036083657 -0.075119816 -0.10084523 0.016325012 0.2018643
0.06868769 0.007088106 0.11453126 0.023630906 -0.055147313 -0.15592471 0.027508773 -0.0040655723
-0.009315385 0.06358116 -0.0747955 -0.14372335 0.21866143 -0.04813857 -0.021713508 0.010409256
-0.054017864 -0.050155204 -0.071792625 -0.09658641 0.24813141 -0.10157438 -0.047116634 -0.10594454
-0.040411092 -0.017473895 -0.11792858 -0.009442473 -0.058614418 -0.16846834 -0.05856074 0.08632526
0.22767359 0.09660866 0.0047318675 -0.091611356 0.024263525 -0.10907105 0.34977648 -0.07144184
-0.019986816 -0.11991286 0.01811455 -0.055534963 -0.040215634 -0.044800613 -0.046886202 -0.056671016
0.042197224 -0.054370448 -0.06241263 -0.038763396 -0.08572375 -0.029032655 -0.070561945 -0.063900545
00000000: ef13 29bb 8230 9ebc 11ab 0fbd 0396 bebc
00000010: e95a 303e b484 98bc 74fe 24bd 0d3d 60be
00000020: f72a 01bd cd89 e7bc 0da2 b9bc cf15 3b3d
00000030: 42e5 b9bd 3b97 2cbe 7a3e 6d3e 2a5e 59bc
00000040: 84ec a0bb a2d9 ba3c 5d5a 133e ee84 e83d
00000050: faf2 d23c 1d54 983c 83e5 1abe 98e9 5ebd
00000060: a7a0 feb9 4022 81bd c8fe 88bc 8354 acbc
00000070: cd50 4fbd f462 5bbc 0e87 45bd f102 b4bc
00000080: 2fb0 41bd b434 15bb f642 813e 987c 1e3d
00000090: cedf 453c 8f5a 4c3d 6bb1 813c d614 893d
000000a0: 181e b8be 7323 853d a773 e53c 1b7c 223d
000000b0: c523 1ebc 4a45 8dbd 50df 96bd deeb 7abd
000000c0: b8ff 33bd 5ff1 5c3e 9193 8fbd 612c abbd
000000d0: b5ba ddbc aa4d a2bd 128b 083d 4c1f 783d
000000e0: 56bd 363d ad09 c6bc 0310 24bd 1aa1 20bd
000000f0: 3c02 6f3d 6da3 473e bb90 e63c 5101 863d
00000100: 058a 08be 3696 6abd b694 033e 31b3 3e3c
00000110: e9c6 f13b 3aea 5bbc fe54 f23d d27d 9abd
00000120: 74da a8bb fc2e 473d 1cb1 5a3c 0e00 25bd
00000130: 51bc 73be abef e2bc 9078 a03d 7aaf 7f3e
00000140: 2c0a 7e3d ed1f d43c a36f 153e 72f1 443c
00000150: d183 d73d 509f c53c 1d7d f0bc 0470 4a3c
00000160: de58 95bd dab2 9cbd 9684 9dbd 9d7b 39be
00000170: 57c2 b2bd 8555 f83c 10f0 983e ec13 aa3c
00000180: c9a3 38bc df91 a1bc 7c47 88bd 0af8 b3bd
00000190: 5cb9 64bd b01d 5c3d 746b 7b3b 447d 9f3e
000001a0: cdf2 c0bd 2b28 3f3c 8faa b2bd aaa5 6dbd
000001b0: 3859 253d 27cf 643e 5cad b6bc e9b9 43bb
000001c0: abe1 cb3c dab5 f83d bf66 863d ae1d 0cbe
000001d0: 5947 f13b 10b5 32bd 81c3 cebc 6081 e7bc
000001e0: 10c3 fc3a e6d3 af3d 3f71 fe3c 2a0b 223c
000001f0: ae1e 053e 53d2 1b3d 4820 e53d e98e 6e3e
00000200: 7e83 c53d a591 16be f40d 5bbe d182 13be
00000210: c257 21bc 878d 06bd 6eb6 a3bb 2164 e7bb
00000220: f685 86bd 4b37 cdbc 1864 973c e8b2 09be
00000230: 9a1e 10bd 39cd c43d 7cd1 423e 1afe 6f3d
00000240: 803d 4c3d 81b7 75bd 67fb 90bd 9969 6f3e
00000250: 7c53 d8bd 61fd 24bc 1fb4 643d 9c94 22bd
00000260: 3fbd 7abc 6384 50bd 6479 8dbd 865b 34bd
00000270: 1e51 93bd e91d faba f99e a4bd c8e1 b5bc
00000280: fc61 81bd f4a1 e3bc 84d8 163d c304 65bd
00000290: ba00 e239 046f 843d 4cb1 a6be c622 04bd
000002a0: 44c0 6a3e 75ba 523d 78cf a63c 315e ec3d
000002b0: 5e6a 523d 0228 3fbc 8399 9d3d 90de 4f3e
000002c0: 78e0 b5bd f75b 85bc 41a9 37bc 5e6c 01be
000002d0: b043 ceba 84dd 113d 9759 4a3c 1ea4 cf3c
000002e0: fc35 db3d b079 ee3c 2c60 a4bb ad43 313d
000002f0: c9f7 553c c5f9 9a3d 71a0 bc3d bf3a 1d3d
00000300: 0f71 093e 6509 8ebd 5914 88bd 75cc 133d
00000310: 6bd8 99bd f287 cebd 08bc 853c 84b5 4e3e
00000320: 22ac 8c3d 5843 e83b 5e8f ea3d 9a95 c13c
00000330: 26e2 61bd baaa 1fbe 145a e13c 7e38 85bb
00000340: 8e9f 18bc d736 823d 622e 99bd 372c 13be
00000350: c8e8 5f3e f32c 45bd 87e0 b1bc 968b 2a3c
00000360: d641 5dbd 8b6f 4dbd 0308 93bd 19cf c5bd
00000370: 2916 7e3e 3b06 d0bd 5ffd 40bd 73f9 d8bd
00000380: 1a86 25bd 6a25 8fbc 8a84 f1bd 9ab4 1abc
00000390: ac15 70bd f782 2cbe 63dd 6fbd 4ccb b03d
000003a0: 4423 693e c3da c53d c80d 9b3b bc9e bbbd
000003b0: 4dc4 c63c a560 dfbd e715 b33e 1950 92bd
000003c0: 64bb a3bc e094 f5bd f764 943c a178 63bd
000003d0: 26b9 24bd d980 37bd bf0b 40bd de1f 68bd
000003e0: ffd6 2c3d 8cb3 5ebd 63a4 7fbd 5ec6 1ebd
000003f0: ef8f afbd e4d5 edbc c882 90bd 4ade 82bd
