experiments/model_repositories/demo/traffic_detection/model_files/block_08.pth (torch, 19641 bytes, 5 tensors)

weight f4 [144, 1, 3, 3]
000000 ea 1f 78 bd e5 56 ff bd 0b 82 96 bd de 72 0b be
       -0.06057731 -0.12467746 -0.073490225 -0.13618037
000010 80 6c 64 be 9c 23 34 be 3b 1c c5 bd 6b e8 3d be
       -0.22307014 -0.17591709 -0.09624525 -0.18545692
000020 2b 11 0b be f8 a6 61 bc b1 ae 1f 3e c4 fa 29 bd
       -0.13580768 -0.013772719 0.15593983 -0.041498914
000030 88 71 31 be 7b d0 0b 3e 75 82 83 3d 6a 54 2d be
       -0.17328465 0.13653748 0.06421367 -0.16926733
000040 db 08 3a bd ec ca e0 3d db b3 52 bd e6 61 ce bd
       -0.0454186 0.10976204 -0.051441055 -0.100772664
000050 e9 56 a7 bd 55 74 c3 bd 4e 54 fa bd c5 83 dc bd
       -0.08170874 -0.09543673 -0.12223111 -0.107673205
000060 b0 d2 9e bd 88 18 e0 bd a8 19 9f bd 1d 7e 29 3c
       -0.07755029 -0.10942179 -0.077685654 0.010345009
000070 7b 30 70 bd 80 8c 73 bd c4 33 99 bd f8 43 3b be
       -0.058639985 -0.059460163 -0.07480577 -0.18287647
000080 4e 30 f3 bd 67 ca 89 bd 59 14 12 be 61 d1 b6 bd
       -0.11874448 -0.06728058 -0.14265575 -0.089266546
000090 df 2c 1d bd e1 b3 b5 bd 9a 83 51 bd 55 a7 99 bd
       -0.03837287 -0.088722 -0.051150896 -0.07502619
0000a0 ec b8 0d be 3d 9a c2 bd 4b ef 59 bd 79 f2 b7 bd
       -0.13840073 -0.09502075 -0.053206723 -0.08981795
0000b0 1f c7 93 bd 3b 22 b4 3d 0c e9 f8 3d 11 53 e2 3d
       -0.07215714 0.087955914 0.12153825 0.11051
0000c0 00 21 06 3d 68 61 b7 3d 79 61 e1 3d bc cf 15 be
       0.032746315 0.08954126 0.110049196 -0.14630026
0000d0 02 22 4c be 66 79 08 be 3a 01 83 bd 30 5c f9 bd
       -0.19934848 -0.1332756 -0.06396718 -0.121757865
0000e0 6c b0 85 bd ed 1f cf bd 28 9c 4a be 79 63 09 be
       -0.065277904 -0.10113511 -0.19786131 -0.13416852
0000f0 09 8a 97 bd 55 03 10 be 5d a6 bf bd 8f 22 47 3d
       -0.07399375 -0.14063771 -0.09357903 0.048616942
000100 63 af e6 3d 98 7e ad 3d 03 9a 08 3e f3 4d 8b 3e
       0.11263921 0.084714115 0.13340001 0.27207908
000110 91 b0 2f 3e 63 9b 85 3d 35 ba 0b 3e 91 e9 93 3d
       0.17157198 0.06523778 0.13645251 0.07222284
000120 fc 33 09 bd 3d e8 aa bd 5b 61 82 bd 84 3f a9 bd
       -0.03349684 -0.08345077 -0.06366225 -0.08264068
000130 e4 13 3f be 16 c4 14 be 4c e7 70 bd 70 7b 12 be
       -0.18659931 -0.14527926 -0.058814332 -0.143049
000140 70 fc e0 bd fd 10 63 3c d1 81 a0 bd e8 bf f1 bd
       -0.10985649 0.013859031 -0.078372605 -0.11804181
000150 0b f1 4d bd bd 8f ff bd 21 58 df bd 27 28 a7 bd
       -0.050278705 -0.12478588 -0.10905481 -0.08161955
000160 dc 24 cd bd 9f 8a dd bc 4c 28 67 3d 2a fd c0 3d
       -0.10016796 -0.027043639 0.056434914 0.09423287
000170 92 b4 72 3d f7 7d 18 3d b7 ab 19 3e a7 c0 0b 3e
       0.059254237 0.037229504 0.1500691 0.1364771
000180 63 d5 1d 3c fa d6 97 3d 06 b8 c6 3d d8 ab 93 3d
       0.009633395 0.074140504 0.097030684 0.07210511
000190 d7 f4 10 3e cc f2 85 3d cf cb fd 3d 55 0e 65 3e
       0.14155899 0.065404505 0.12392389 0.22368748
0001a0 6a 93 20 3e b7 7f b6 3d 0b 06 04 3e ba 37 e0 3d
       0.15681234 0.089110784 0.1289293 0.10948129
0001b0 16 78 01 bd 07 13 4c be ee 58 5c bd 81 d6 27 be
       -0.031608663 -0.19929133 -0.053795747 -0.1639042
0001c0 93 6d 32 be f5 3b 51 bb 23 b4 04 be fe 4e cd 3c
       -0.17424612 -0.0031926606 -0.12959342 0.02506208
0001d0 35 0b 92 3d 1a 91 2a bd 2e f3 41 bd 7e dc a1 ba
       0.07131044 -0.041642286 -0.047351055 -0.0012349037
0001e0 d0 e8 00 3d 0e 79 a0 3d 44 31 b1 3d 29 fa b7 3d
       0.031472027 0.07835589 0.08651975 0.08983261
0001f0 e1 6c 42 3e 5d 9c 1a 3e 60 e1 cb bd f4 c7 ce bd
       0.18986847 0.1509871 -0.09955096 -0.10096732
000200 68 34 32 bd 53 15 ce bd 36 ca 22 be ef f2 f8 bd
       -0.04350701 -0.10062661 -0.1589745 -0.12155711
000210 8e 7f 08 bd c8 97 ec bd 2f 35 f6 bd 66 2a 36 3d
       -0.03332477 -0.115523875 -0.12021863 0.044474028
000220 02 6c d5 3d a8 10 c5 3d 25 a4 c7 3d dd 2f 7d 3e
       0.104209915 0.096223176 0.09748105 0.2472529
000230 54 66 43 3e ea a6 04 3d 79 da 02 3e 0f 2e e3 3d
       0.19082004 0.032385744 0.12778653 0.11092769
000240 1c 1f 44 3d a3 40 02 3e 29 42 aa 3d 81 d9 e3 3d
       0.04788123 0.1271997 0.083134 0.1112547
000250 96 90 64 3e 8d 2c 19 3e 8d ff 9f 3d ab 50 27 3e
       0.2232078 0.14958401 0.07812414 0.16339366
000260 5d 72 b8 3d f3 e0 65 3d c1 dd b4 3d 09 c0 87 3d
       0.09006188 0.05612273 0.08831359 0.06628425
000270 fc 0d 0d 3e cc 34 77 3e 3d 75 2f 3e be 30 ec 3d
       0.13774866 0.24141234 0.17134567 0.11532734
000280 20 27 54 3e 74 e8 14 3e 7d e7 46 bd be 05 9e bd
       0.2071805 0.14541799 -0.04856061 -0.07715939
000290 a8 5d 92 bd 5b ab cf bd c7 ad 04 be f0 e1 c9 bd
       -0.0714677 -0.10140105 -0.12956916 -0.09857547
0002a0 a6 ee 7b bd 4e 0d c4 bd 8f 2f 9d bd 44 32 1d 3d
       -0.06150689 -0.0957285 -0.07675087 0.038378015
0002b0 70 8f f7 3d 8e 9d 86 3d 22 87 c9 3d d0 b2 59 3e
       0.120879054 0.0657302 0.09840228 0.21259618
0002c0 00 11 e8 3d 17 eb 9c 3d 0e 46 18 3e 3c 14 92 3d
       0.113313675 0.07662027 0.14870474 0.07132766
0002d0 67 f0 14 bd da e9 8b bd bc c1 2f bd 17 80 d0 bd
       -0.036362078 -0.06831713 -0.04290937 -0.10180681
0002e0 cb 27 27 be ce b9 f2 bd 5f 03 97 bd 3d 26 f6 bd
       -0.16323774 -0.11851846 -0.0737369 -0.12019012
0002f0 0b b7 ab bd 05 d6 03 bd 9a f5 81 bd 6f 29 59 bd
       -0.08384522 -0.032186527 -0.06345673 -0.05301803
000300 05 40 90 bd c6 be 18 be 04 83 c9 bd b7 a4 49 bd
       -0.07043461 -0.14916524 -0.09839442 -0.04922935
000310 46 02 dc bd 05 bd 66 bd 80 23 1f bd ae 77 c7 bd
       -0.10742621 -0.056332607 -0.038852215 -0.09739624
000320 f4 29 93 bd 53 43 bf bd a1 00 4a be c4 77 15 be
       -0.07185736 -0.09339013 -0.19726802 -0.14596468
000330 28 7c 5b bd db c4 07 be 9e a5 93 bd cc ab f9 3b
       -0.0535852 -0.13258688 -0.07209323 0.0076193567
000340 3a 77 dc 3d ca 50 fa 3d 96 48 b2 3d b2 5e 67 3e
       0.10764928 0.122224405 0.08705251 0.22594717
000350 f8 34 39 3e df 07 c9 3d 39 2b 14 3e 27 33 b6 3d
       0.18086612 0.098159544 0.14469613 0.08896475
000360 65 d2 5b 3d a1 a5 c4 3d 7a f0 58 3d 77 6e f2 3d
       0.053667445 0.09601904 0.05296371 0.11837476
000370 20 e6 73 3e 68 5d 18 3e 56 43 a0 3d e8 35 31 3e
       0.23818254 0.14879382 0.07825343 0.1730572
000380 73 08 c2 3d bb a7 a4 3d 7b f7 24 3d a1 92 38 be
       0.09474268 0.080398045 0.04027508 -0.18024684
000390 af 5c d6 3d 7a 2e 94 3d eb 38 54 be 0e f7 a7 3d
       0.10466897 0.07235427 -0.20724837 0.08201419
0003a0 f2 bd 48 3d ab 89 39 be 89 d0 e1 bd 7a 2f 44 bd
       0.04900927 -0.18118922 -0.11026103 -0.04789684
0003b0 74 a5 22 3e 8e 9f 76 bb bf 1c 4a be 0d 95 58 3e
       0.15883428 -0.0037631723 -0.19737528 0.21150608
0003c0 67 cc ac 3d 40 7e 4f be fb 5e 73 3c b2 7b 50 bd
       0.08437424 -0.20263004 0.014854188 -0.050899215
0003d0 9d 56 b2 bd 25 b1 1f bd d0 55 ce bd 7d 3d 3c be
       -0.087079264 -0.038987298 -0.10074961 -0.18382831
0003e0 05 61 c8 bd 3c 0b 69 bd 94 cc d2 bd 11 ca 3d bd
       -0.0978413 -0.05689548 -0.102929264 -0.046335284
0003f0 74 33 7e 3c bf 5c 9b 3d 35 b6 8f 3d f6 c3 98 3d
       0.015515197 0.07586049 0.07017175 0.074592516

weight f4 [144]
000000 b8 f1 b8 3e 14 4f a0 3e 6e d3 f0 3e b2 ed ae 3e
       0.36121917 0.31310332 0.47036308 0.34165722
000010 46 0e 8a 3e 44 5f 6b 3e b7 09 6c 3e c2 32 43 3e
       0.26964015 0.2298556 0.23050581 0.19062331
000020 6f 88 c9 3e 4e 01 de 3e 6e 72 1e 3e 4f 67 8f 3e
       0.39361903 0.4336037 0.15473339 0.28008506
000030 e1 ae 83 3e 8d 74 6c 3e 47 cd e9 3e e9 53 89 3e
       0.2571936 0.23091336 0.45664427 0.2682183
000040 0e 3d 8a 3e a5 5e 8a 3e a7 d5 b0 3e dc d9 3c 3e
       0.26999706 0.27025333 0.34538004 0.18442482
000050 d4 0e af 3e d4 e5 87 3e a1 10 48 3e 2f d9 97 3e
       0.34191 0.26542532 0.19537593 0.29657885
000060 eb f6 22 3e 83 e2 97 3e 05 95 b8 3e 32 df 1c 3e
       0.15914504 0.29665002 0.36051193 0.15319517
000070 49 68 37 3e 10 fe 19 3e 4a 0d 5d 3e f3 d3 ed 3e
       0.17910875 0.15038323 0.215871 0.46450767
000080 dc 68 98 3e 14 29 c5 3d 5f 21 9b 3e 97 32 96 3e
       0.297675 0.09626976 0.30298898 0.29335472
000090 84 b4 6c 3e f5 81 94 3e 38 ae 7c 3e 43 2e 90 3e
       0.23115736 0.290054 0.24675834 0.28160295
0000a0 ed 38 03 3f d0 2a 0d 3f a2 db 69 3e 73 e5 74 3e
       0.51258737 0.5514345 0.2283769 0.23915653
0000b0 da 0b 56 3e bc 47 37 3e 1e b9 88 3e 47 a2 94 3e
       0.20902959 0.17898458 0.26703733 0.29030058
0000c0 51 98 38 3e d5 f1 7f 3e ae 89 54 3e 58 d8 f2 3e
       0.18026854 0.24994595 0.20755646 0.47430682
0000d0 1c b9 0b 3f 67 9c 2c 3e 24 6a 8d 3e 84 a5 4b 3e
       0.5457933 0.16856538 0.2762004 0.19887358
0000e0 38 45 82 3e a7 fb 72 3e c4 a1 57 3e c3 e9 7f 3e
       0.25443435 0.2372881 0.21057802 0.24991517
0000f0 d0 2f a7 3e 55 0a ac 3e 1c 35 ba 3e 17 8b cb 3e
       0.32653666 0.33601633 0.36368644 0.39754555
000100 f8 21 59 3e ce f3 21 3e 84 35 86 3e 3b 8d 7f 3e
       0.21204364 0.1581566 0.26212704 0.24956219
000110 f6 a7 61 3e d7 d4 80 3e 0f 25 8d 3e bc cf a9 3e
       0.22036728 0.25162384 0.27567336 0.331663
000120 46 ee 87 3e c8 8b 95 3e 87 42 eb 3d 47 84 6a 3e
       0.26548976 0.29208207 0.114872985 0.22902022
000130 eb d3 e2 3e 6b 89 dc 3e 7b 21 5f 3e 81 41 ac 3e
       0.44302306 0.43073592 0.21790116 0.33643726
000140 ea f2 9b 3e 77 ac a8 3e b9 58 b1 3e d6 44 43 3e
       0.30458766 0.3294408 0.34638003 0.19069228
000150 3f 16 98 3e 8b ac 24 3e b9 a6 86 3e f5 fc 70 3e
       0.29704472 0.16081445 0.26299074 0.23533995
000160 d9 92 72 3e d7 80 4f 3e 25 56 2f 3e 5e 81 68 3e
       0.2368883 0.20263992 0.17122705 0.227056
000170 8c 32 f6 3e 24 da a9 3e 7c 1d 5c 3e 76 23 b8 3e
       0.4808544 0.3317424 0.21495622 0.35964555
000180 bc 6b 74 3e 64 68 3b 3e 40 a4 96 3e 8e 67 7c 3e
       0.23869222 0.1830154 0.29422188 0.24648878
000190 fc 86 67 3e 02 20 bf 3e ca 47 78 3e 7f a4 7b 3e
       0.22610086 0.37329108 0.24246135 0.24574469
0001a0 e6 d5 52 3e 27 1a 55 3e e2 1c a1 3e 76 4c ac 3e
       0.20589408 0.20810758 0.31467348 0.33652085
0001b0 df 4c 8e 3e 70 a4 a4 3e b0 3b 9e 3e 87 02 a7 3e
       0.27793023 0.32156706 0.30904913 0.32619116
0001c0 e6 f8 29 3e 86 aa a7 3e 57 1c aa 3e e8 ee b8 3e
       0.16598853 0.32747287 0.33224747 0.3611977
0001d0 9a 4e 84 3e 42 4d 73 3e c4 7b a0 3e 63 5e 8a 3e
       0.25841218 0.2375994 0.31344426 0.27025136
0001e0 ae 34 9c 3e c7 10 c7 3e 99 9b 77 3e 1a 52 a9 3e
       0.3050894 0.38879988 0.2418045 0.3307045
0001f0 83 d4 8a 3e 39 af a3 3e c5 27 87 3e a9 2c 3d 3e
       0.2711526 0.31969622 0.2639753 0.18474068
000200 84 2e 85 3e b6 7f e1 3e b4 ae 9f 3e fb 6f 98 3e
       0.2601205 0.44042748 0.31187975 0.29772934
000210 9c c8 03 3e 60 9f 82 3e 1f 4b 94 3e 42 01 88 3e
       0.12869495 0.25512218 0.28963563 0.2656346
000220 f5 fe 79 3e 4c 6e 89 3e f7 b8 31 3e 34 8f 81 3e
       0.24413665 0.26841962 0.17355715 0.25304568
000230 05 a9 4f 3e 14 2a 92 3e 00 f4 8c 3e 60 41 34 3e
       0.2027932 0.28547728 0.27529907 0.17603064

bias f4 [144]
000000 10 08 a5 3e b4 f3 56 bb f4 61 c7 bd cf 18 79 bd
       0.32232714 -0.0032799067 -0.0973548 -0.060814675
000010 e2 b6 4f bb 5e 92 b4 ba 0c b0 af 3e a4 3b 53 3e
       -0.00316947 -0.0013776531 0.34314 0.2062822
000020 00 68 8d 3d b1 35 ab bd 7c 85 0b 3e 1a b0 6e 3e
       0.06904602 -0.0835985 0.13625139 0.23309365
000030 b4 b4 94 3e 3b b8 f9 3d b8 c7 75 bd 76 f3 4e 3e
       0.29044116 0.12193342 -0.06000492 0.2021006
000040 6f e1 b2 3e 91 a1 c8 3e f2 80 36 3d 8a de eb 3d
       0.34937617 0.39185765 0.044556566 0.11517055
000050 5d 40 cb bb cf 55 d5 3d 0d 3b 44 3f 3e bf 82 3e
       -0.006202741 0.10416757 0.76652604 0.2553653
000060 58 7d 85 3e 9d 69 26 bd 72 d6 8b bd bc 0c a5 3e
       0.26072192 -0.040628064 -0.068280116 0.32236278
000070 e8 e7 ff 3d e5 b2 26 3e 46 bf 7f 3e c0 f9 2e bd
       0.124954045 0.1627918 0.24975309 -0.04271865
000080 2e 7f 69 3c eb 18 14 3e 7d b7 7d 3e b4 0d 25 3e
       0.014251513 0.1446263 0.24777026 0.16118509
000090 3c a6 ba 3e c0 d3 d1 3e 96 95 f2 3e 21 01 6c 3e
       0.36454952 0.40981865 0.4737975 0.23047306
0000a0 d7 10 33 be e7 62 50 be af 13 36 3e 00 c8 11 3f
       -0.17486893 -0.20350228 0.17780946 0.569458
0000b0 2a 50 bc 3e 37 12 09 3f 06 40 15 3f 1e 16 50 3e
       0.3677991 0.5354342 0.58300817 0.20320937
0000c0 f4 98 e9 3c 58 4a d9 3e d5 f3 b4 3e f2 10 11 be
       0.028515317 0.42439532 0.3534228 -0.1416662
0000d0 58 7d 51 be e7 aa 29 3e 70 d8 03 3f 1c 35 a4 3b
       -0.20457971 0.165691 0.5150213 0.005011214
0000e0 b3 d2 a2 3e cb 5d 1c 3f 12 ab ef 3e b7 b8 82 bc
       0.31801376 0.61080617 0.46810204 -0.01595722
0000f0 a3 52 5d 3e 82 99 9d 3e 8d 66 06 bd bd 56 4c bd
       0.21613555 0.3078118 -0.032812644 -0.049887408
000100 e0 94 2f 3e ff 3b e0 3e dd 33 1f 3e 75 64 a5 3e
       0.17146635 0.43795773 0.15547128 0.32303205
000110 46 37 76 3e cf 6d 90 3e b6 84 12 3e e7 a1 cf 3e
       0.24044523 0.28208777 0.14308438 0.4055321
000120 e6 fe 79 3e 5b 1d 93 3e 36 e0 84 3d a1 45 b4 3e
       0.24413642 0.28733334 0.06488077 0.35209373
000130 7a b0 26 be 64 d8 f6 3b 8c 9b 95 3d b7 06 50 3d
       -0.16278258 0.00753312 0.07305059 0.050787654
000140 eb 21 dd 3d ed 41 6e bd 7f ff 4f bd ba f3 18 3e
       0.10797485 -0.05816834 -0.05078077 0.14936724
000150 22 89 69 3e 6e 37 b2 3d 37 95 be 3e aa 3e 55 3e
       0.22806218 0.087019786 0.37223217 0.20824686
000160 0c aa 4c 3e 2f b5 f8 3d a7 b3 01 3e fc 78 44 3e
       0.19986743 0.12143933 0.12666188 0.19186777
000170 8b 6e ba bd 83 f0 9b 3e 1f 2a 30 3e e0 58 5a bd
       -0.09103116 0.30456933 0.17203568 -0.053307414
000180 9e 04 cf bb 58 72 04 3d 29 74 b1 bb 98 4a 6c 3e
       -0.006317689 0.03233561 -0.0054154587 0.2307533
000190 ce ca a5 bc 32 c1 c9 bd c8 8c 03 3e 7b 09 92 3e
       -0.020238306 -0.09851302 0.12846673 0.28522858
0001a0 61 c6 1a 3e 34 b9 75 3e b4 4c 2e bd 00 68 bf bd
       0.15114738 0.2399643 -0.04255362 -0.09346008
0001b0 09 3a b8 bd 2d 5f f1 3e 1e 6c 99 3c 4e b5 ef 3d
       -0.08995444 0.47142926 0.018728312 0.11704503
0001c0 ae 3b 32 3e bc 02 5a 3d c2 b9 f1 bd a5 c6 73 bd
       0.17405578 0.053225264 -0.118030086 -0.059515614
0001d0 6c 33 0a 3f 1e ec 8a 3e 88 7e 3d 3c 61 35 e1 3e
       0.53984714 0.27133268 0.011565812 0.43986037
0001e0 db 2f c8 bc ce a7 94 3e e6 a1 9d 3b 41 4b bc 3e
       -0.024436882 0.29034275 0.0048105596 0.36776164
0001f0 29 0a 8f 3e 89 47 98 3e dc 31 1d 3d 9e b9 19 3f
       0.2793744 0.29742077 0.038377628 0.60048854
000200 17 1b 9a bb ac c5 37 bd 5c ee ad 3e 18 99 17 bc
       -0.0047029364 -0.04486625 0.33970916 -0.009252809
000210 6f 20 85 3e 15 4c 38 bd eb 89 a2 3c 45 af 6c 3c
       0.26001307 -0.044994432 0.019841155 0.014446084
000220 16 e5 74 3e 4b 91 4d 3e 5e 56 9a 3e fb 3f 0e 3e
       0.23915514 0.20074956 0.30144018 0.13891594
000230 e9 ef 7c 3c eb 85 9d 3e c0 a6 ba 3e f8 21 a8 3e
       0.015438058 0.30766234 0.36455345 0.32838416

running_mean f4 [144]
000000 d6 6e 45 be 28 2f b5 3b 0e dd 8e bd 5c 26 3a be
       -0.19280562 0.005529303 -0.069757566 -0.18178695
000010 df 28 32 bd 2d 85 52 3b 59 d5 f3 bd 47 6e e5 3d
       -0.04349601 0.0032122836 -0.11905927 0.11202674
000020 aa 9a 64 be e8 71 7c bd 14 b4 03 3d 7b 1a 4f 3d
       -0.22324625 -0.061632067 0.032154158 0.050562363
000030 ac 9e 7a bd e7 e2 0e 3c 9a d2 7a bd 6e 99 5c 3d
       -0.061186478 0.00872109 -0.061236 0.05385726
000040 e5 d7 07 3e 0b 5b 7a 3e 15 69 4b bd 63 2a b4 3c
       0.13265951 0.24448793 -0.04966076 0.021992868
000050 c3 d9 84 bd 24 bc 2b bd 45 53 2d bd 46 59 25 3d
       -0.06486847 -0.04192747 -0.04231574 0.04036834
000060 14 9b 06 3e 7d 72 5f bb f5 76 c7 bc 5c 16 90 bd
       0.13145095 -0.003409534 -0.024348715 -0.07035515
000070 96 05 03 3d cd fd b5 3c ca ee e7 bd 13 6e a7 bd
       0.03198775 0.022215748 -0.11324842 -0.08175292
000080 5b f1 e8 bc 9a 33 f6 3c 97 23 6a 3d 08 f6 48 3d
       -0.0284354 0.030053902 0.057162847 0.04906276
000090 3a 4f 52 3e fa 5d 6e be 00 4f bf bd ae e7 04 3d
       0.20538035 -0.23278037 -0.0934124 0.03244751
0000a0 e3 8c 90 bd c9 90 86 bd 0a 55 05 3d a4 1a 29 be
       -0.07058122 -0.06570584 0.032551803 -0.16514069
0000b0 ff 9a e1 3d d8 8c 0a bd 72 fc bf be 5e 9e 62 be
       0.11015891 -0.033825725 -0.37497288 -0.22130725
0000c0 50 5b f6 3a 08 83 5d 3e d8 4d 0e 3e 5a aa a2 bd
       0.0018795524 0.21632016 0.13896883 -0.07942648
0000d0 18 bc 8e bd a3 71 6e 3c 30 9b ad 3e 9e dc 8d 3b
       -0.0696947 0.01455346 0.3390746 0.004329278
0000e0 a1 b4 ec 3d dc 0e 7b be 35 95 78 3e 5c 33 57 bb
       0.1155789 -0.24517387 0.24275668 -0.003283701
0000f0 b2 65 42 bd b3 0c ee 3d 9f 9a 81 3c 09 c3 93 3c
       -0.047460265 0.11623516 0.0158208 0.018037336
000100 30 9e 8a 3d e6 ea e1 bc c1 4d 2c 3d 9d 01 65 bd
       0.06768453 -0.027577829 0.04206634 -0.05590974
000110 51 0d 3c 3d 19 05 5c 3d 56 8d d7 bd 37 6b 6b 3e
       0.045911137 0.0537158 -0.105250046 0.22990118
000120 ab 92 ac 3d 40 09 8a 3d 71 1f 32 3c 2d 59 97 3d
       0.08426412 0.067400455 0.010871754 0.07390056
000130 2b e0 7f be fa 72 7b bd e4 5e 3b 36 f9 78 97 bd
       -0.24987857 -0.061388947 2.7920405e-06 -0.073961206
000140 2c fb 6b bd 31 f6 88 bc 46 07 a6 3a 37 b3 a8 3c
       -0.057612583 -0.016718956 0.0012666963 0.020593269
000150 21 e5 14 be 4c 29 65 3c e7 df 82 3e 5a 04 cd 3c
       -0.1454053 0.013986897 0.2556145 0.025026489
000160 99 4b b2 3d 8c 7b e3 3b 67 66 ca 3c 59 96 43 bd
       0.08705825 0.006942218 0.024707032 -0.047750805
000170 19 0b 7e be 78 ec 83 3d 61 e2 e5 3c 58 d6 23 bc
       -0.24808921 0.06441587 0.028062047 -0.009999834
000180 4b ca 10 bd 43 13 28 3b 6d 15 4e bb 00 09 bc bd
       -0.03534917 0.0025646247 -0.0031445876 -0.09181404
000190 10 32 46 bc 9d b4 8b bc b9 59 df bc a7 03 b4 3d
       -0.012096897 -0.017053897 -0.027264463 0.08789759
0001a0 49 9d 81 3c 18 72 5c 3d 1c 12 68 bb 12 0d 3b bd
       0.01582207 0.053819746 -0.0035411185 -0.04566676
0001b0 b8 62 60 bc 0e 53 47 3e 7e d1 78 3c 92 c6 e4 bd
       -0.013695411 0.19465277 0.015186666 -0.11170687
0001c0 95 0a 03 3d cc 28 a8 bd 2f e4 a6 3c 39 29 e3 3b
       0.031992514 -0.082109064 0.020372478 0.0069324044
0001d0 24 4f 8c 3e 9b 5b 0c be 19 ec 6d 3b 8d 87 56 be
       0.2740413 -0.1370682 0.0036304055 -0.20950146
0001e0 5b 23 b0 bb 61 66 fe bd 55 cc 25 3c 87 73 33 3e
       -0.0053753085 -0.12421871 0.010119517 0.17524539
0001f0 ee f8 59 be c6 e8 8c 3d 86 f3 36 bd 09 cd d8 bb
       -0.21286365 0.068803355 -0.044665836 -0.006616239
000200 bb 4d ea 3d 9a d7 84 bd 3b f8 32 3e 5a aa da 3c
       0.11440607 -0.06486435 0.17477505 0.026692558
000210 95 db 32 3e 9f 0a 86 bb ba dc 11 be 27 d6 e8 3b
       0.17466576 -0.0040906216 -0.14244357 0.007105607
000220 e4 a0 13 be 36 99 10 3d 37 f0 53 3e a7 31 03 3d
       -0.14416844 0.035302363 0.20697103 0.032029774
000230 f3 0d ad 38 4d b0 d5 3d 2c ee 0f 3e 0f 03 c1 3d
       8.251881e-05 0.10434017 0.14055699 0.094244115

running_var f4 [144]
000000 b4 e9 53 3d b9 8e 36 3a b3 02 4d 3c f4 f4 9d 3b
       0.05173655 0.00069640164 0.012512851 0.0048204605
000010 b7 20 8e 3b 09 cc 8d 3a 1f 6e a6 3c 77 2a 19 3d
       0.004337396 0.0010818254 0.020316182 0.037394013
000020 63 7c 47 3c 97 46 e3 3b 3b 6d a4 3a f5 fc 1e 3c
       0.012175652 0.006935905 0.001254476 0.009703864
000030 ed ce 38 3c 86 14 50 3a cb b9 43 3c 36 14 82 3c
       0.011279804 0.00079376285 0.011946152 0.015878778
000040 12 1c ae 3c ff dc 12 3d dc da 9a 3b 3b 72 8b 3b
       0.02125362 0.03585529 0.004725797 0.0042555607
000050 a7 f6 0c 3c c8 8b 90 3b b0 b6 ba 3b ea 48 04 3c
       0.008603728 0.0044111945 0.0056980476 0.008074025
000060 bd 16 f6 3c 0c 1c 8d 3a 1f 36 18 3a f6 41 04 3c
       0.03004014 0.0010765805 0.00058064045 0.008072367
000070 99 5f 90 3a a5 a5 51 3b 5b 7d 5f 3b b7 55 85 3c
       0.0011014818 0.00319896 0.0034101817 0.016276224
000080 8d a8 d0 3a d0 52 d7 3a f0 07 22 3c 03 56 9e 3b
       0.0015919373 0.0016427878 0.009889588 0.0048320307
000090 fb f4 a9 3c 03 80 31 3c b6 ee 71 3c d6 19 b9 3b
       0.020746699 0.010833743 0.014766386 0.005648832
0000a0 d2 a1 37 3c bc 1b 1b 3c 6d c3 9c 3a ae 1d 8c 3b
       0.011208015 0.009467062 0.0011960097 0.004275999
0000b0 05 b4 9b 3b c8 ef 0d 3b ff f0 0d 3c fa 61 aa 3b
       0.0047516846 0.0021657813 0.008663415 0.005199668
0000c0 e3 3c b4 3a c7 3e 92 3c 6e 5f ef 3b 01 f6 99 3c
       0.0013751056 0.0178522 0.0073050773 0.018794062
0000d0 d4 c2 0f 3c c3 08 5d 3a 0e 48 7f 3c 51 50 e2 3a
       0.008774478 0.00084317866 0.015581144 0.0017266368
0000e0 8f 53 f0 3c 4a 08 85 3c 98 32 cd 3c ab 78 62 3a
       0.029336719 0.016239304 0.025048539 0.0008639197
0000f0 c0 2a 2b 3c e9 e2 e3 3c 3d 38 8a 39 99 e7 fa 39
       0.010447204 0.02781816 0.00026363312 0.0004785627
000100 e0 09 78 3c 09 0f 56 3b bb 25 b5 3b 30 87 5b 3c
       0.015139073 0.003266277 0.0055281795 0.01339893
000110 42 d3 d9 3b 2e 35 07 3c b1 bb 5e 3a 7c a1 21 3d
       0.0066474983 0.008252425 0.0008496596 0.039460644
000120 9d 92 b0 3c fb 15 45 3c 2e f2 b6 3a 0f 3d 6e 3b
       0.021554286 0.012029166 0.0013957673 0.0036352312
000130 ab e1 76 3c 4b b3 83 3c 10 d9 19 32 33 91 df 3a
       0.015068452 0.016076704 8.955126e-09 0.0017056823
000140 af 59 d1 3b 1f b1 b7 3a 8c 15 8e 3a 7b 9b 32 3b
       0.006388865 0.0014014578 0.0010840162 0.0027253318
000150 f7 89 a7 3b b1 23 e5 3a 53 b9 61 3c bb 14 0f 3b
       0.0051128822 0.001748195 0.013777095 0.0021832425
000160 1f ed 5f 3c 00 80 36 3a 36 66 58 3b ad f9 aa 3b
       0.013667374 0.00069618225 0.0033019907 0.005217752
000170 54 37 27 3c 57 81 3b 3c 44 2f 3c 3b 77 42 68 3a
       0.010206062 0.011444411 0.0028714696 0.00088600017
000180 35 b7 33 3b 2d 96 c1 39 d2 4b 98 3a bf 0b b1 3b
       0.0027422432 0.00036923718 0.0011619276 0.0054030116
000190 a5 ba e5 3a a7 62 a9 39 17 c0 0e 3b d9 ac 68 3c
       0.0017526938 0.00032307694 0.0021781975 0.014201366
0001a0 c7 19 0c 3b d8 7e 99 3b 59 f8 64 3b 34 8b 4d 39
       0.002137767 0.0046843104 0.0034938066 0.0001960218
0001b0 d5 cb be 3a 52 10 8b 3c 80 b9 73 3a 13 e5 8d 3b
       0.0014556596 0.016975556 0.0009297356 0.0043302863
0001c0 aa ef 63 3b 5a e0 35 3c eb 22 ab 39 a0 7d 95 39
       0.0034780302 0.011100853 0.00032641678 0.00028513093
0001d0 8d f1 48 3c 7a b3 b6 3b 79 bf dc 3a ff 04 35 3c
       0.012264621 0.0055755945 0.0016841731 0.011048554
0001e0 48 b6 a2 3a 40 1c 9d 3c bf e0 22 3a 26 4e a9 3c
       0.0012413943 0.01917851 0.00062132993 0.020667147
0001f0 d6 dd 92 3c f7 65 7a 3c 2a 20 5e 3b f6 98 42 3b
       0.017928045 0.015283099 0.0033893683 0.0029693223
000200 99 65 49 3b 65 3a 43 3c 45 19 a3 3d e8 43 a5 3a
       0.0030730723 0.011915778 0.07963804 0.0012608739
000210 33 a3 b2 3c f9 01 ce 3a f0 8b b4 3b 0e d9 7d 3a
       0.021806335 0.0015717141 0.005509846 0.0009683528
000220 02 ed de 3b 27 a1 82 3b 0a 16 78 3d 97 d2 ec 3b
       0.006803156 0.003986496 0.060567893 0.0072272527
000230 a3 8c b4 3a 05 c7 f6 3b bf 9e bf 3c 5d 68 ee 3c
       0.0013774823 0.007531049 0.023391126 0.029102499
