experiments/model_repositories/demo/traffic_detection/model_files/block_23.pth (torch, 242489 bytes, 5 tensors)

weight f4 [576, 96, 1, 1]
0	0x3d300281	0.042971138
1	0x3d82c1a7	0.063845925
2	0xbd36b269	-0.04460374
3	0xbe04d45d	-0.12971635
4	0xbcaabf69	-0.020843225
5	0x3cda75dd	0.02666753
6	0x3d7ad3db	0.061237197
7	0x3d88e41b	0.06684133
8	0xbbb2619f	-0.0054437662
9	0xbd90df1f	-0.07073807
10	0xbb2b49d5	-0.0026136537
11	0x3e12aed4	0.14324504
12	0xbde3f70e	-0.11131106
13	0x3cec4fff	0.028846739
14	0xbd7daa73	-0.06193013
15	0x3ba4351a	0.005011213
16	0xbd99efbe	-0.0751643
17	0x3db180eb	0.08667167
18	0xb9bf8090	-0.00036526145
19	0xbd35b56a	-0.044362463
20	0xbd3c695f	-0.045998927
21	0xbdbc888a	-0.0920573
22	0x3da1cd59	0.07900495
23	0xbc5e403f	-0.013565122
24	0x3de1e9ea	0.11030944
25	0xbdb0d18c	-0.08633718
26	0x3ce9ce16	0.028540652
27	0x3c7d6190	0.015465155
28	0x3d5fab01	0.05460644
29	0xbcd5955f	-0.026072202
30	0x3b91a630	0.00444486
31	0x3c818df1	0.015814753
32	0x3bc78194	0.006088445
33	0xbd02cf36	-0.031935893
34	0xbb61be45	-0.0034445685
35	0x3d26efbd	0.040755976
36	0x3c4e73a5	0.012600814
37	0xbd320ff0	-0.04347223
38	0x3cb2511a	0.021767188
39	0x3c7a5625	0.0152793275
40	0xbd502a37	-0.05082151
41	0x3cda780e	0.026668575
42	0xbd03012c	-0.03198354
43	0xbbcfe62b	-0.006344577
44	0x3b6a7d9e	0.003578044
45	0xbcd67665	-0.026179502
46	0xbdd07247	-0.10178047
47	0xbbb4fc56	-0.005523245
48	0x3c43754f	0.011929824
49	0xbd68e684	-0.05686046
50	0xbd77289f	-0.060341474
51	0x3cc05d8c	0.023482107
52	0x3b1996d3	0.0023435846
53	0xbdbf7279	-0.09348006
54	0x3d1d9a70	0.03847736
55	0x3c69448e	0.014237536
56	0xbc3e5ac2	-0.011618318
57	0x3ca97cf8	0.020689473
58	0xbd4a8a73	-0.04944844
59	0x3dbb9f18	0.09161204
60	0xbd0160c6	-0.03158643
61	0x3d648f8a	0.055800952
62	0xbcab8c56	-0.02094094
63	0x3c16138e	0.009159936
64	0xbc83d057	-0.016090555
65	0x3de5b78f	0.11216652
66	0x3d9342e9	0.071904965
67	0x3daaabcc	0.08333549
68	0xbd8bdeb6	-0.06829588
69	0xba13a271	-0.00056318106
70	0x3d664319	0.056216333
71	0xbe140c78	-0.14457881
72	0xbcb8b08f	-0.022545127
73	0xbd351477	-0.04420897
74	0x3d15d36c	0.03657858
75	0x3dbf30dd	0.09335492
76	0xbd9685d2	-0.07349743
77	0x3d3b6d4f	0.04575854
78	0x3db7e840	0.08979845
79	0x3ddbba45	0.107288875
80	0x3b1b835e	0.0023729424
81	0xbc476c45	-0.01217181
82	0xbc3f3940	-0.011671364
83	0x3d71ea1f	0.059061166
84	0xbd202df8	-0.03910634
85	0xbdf59501	-0.11991311
86	0x3d2446e6	0.040106677
87	0x3daa5d72	0.083186045
88	0xbd4e14ad	-0.050312687
89	0xbc70431f	-0.01466444
90	0xbd74e083	-0.059784424
91	0x3b20ea42	0.002455369
92	0xbd35408e	-0.044251017
93	0x3d7d56d1	0.061850373
94	0xbca63691	-0.020289691
95	0xbccc3166	-0.024925899
96	0x3a8b99fa	0.0010650747
97	0x3dc07165	0.09396628
98	0x3c717b87	0.014738924
99	0xbd9e67fd	-0.07734678
100	0x3d31abac	0.04337661
101	0x3cac33e2	0.021020833
102	0x3deb5ad1	0.11491931
103	0x3d905a2a	0.070484474
104	0x3d805a96	0.06267278
105	0xbd587e49	-0.05285481
106	0xbdb4dad0	-0.08830798
107	0xbc25c967	-0.010118819
108	0x3d11c4c1	0.03558803
109	0x3d5f3732	0.054495998
110	0xbc3e493a	-0.011614138
111	0xbda817ba	-0.082076505
112	0x3d8ca15b	0.068667136
113	0x3df12359	0.1177432
114	0xbcf4e09d	-0.02989226
115	0x3db7e879	0.089798875
116	0xbd03bda7	-0.03216329
117	0x3cc292e1	0.023751678
118	0xbcf8e453	-0.030382311
119	0x3c85dce2	0.016340677
120	0xbc56eed3	-0.013118464
121	0xbd177c74	-0.036983922
122	0xbc1b2673	-0.009469616
123	0x3c3574dc	0.011075225
124	0xbd47ae00	-0.048749924
125	0x3d768783	0.060187828
126	0xbd1f906a	-0.038956083
127	0xbbef01a6	-0.0072938977
128	0x3c888eb8	0.016669616
129	0xbd1e134f	-0.038592633
130	0x3b847e2c	0.004043361
131	0x3cf0eff9	0.029411303
132	0xbcf93aab	-0.030423483
133	0xbce0ea98	-0.027455613
134	0xbd6d1543	-0.057881605
135	0x3d142439	0.036167357
136	0xbc33b406	-0.010968214
137	0x3ccb9168	0.024849609
138	0xbd77f803	-0.060539257
139	0xbe349a74	-0.17637044
140	0x3cdaf493	0.02672795
141	0x3c22af48	0.009929486
142	0x3cd3f3f8	0.02587317
143	0x3e0e7c1c	0.13914531
144	0x3d72fb52	0.05932171
145	0xbde37718	-0.111067
146	0x3cb82270	0.022477359
147	0x3bd305cb	0.0064398996
148	0xbe4b6830	-0.19863963
149	0x3cc7da01	0.024395945
150	0xbc845d26	-0.016157698
151	0x3cb1dc7b	0.021711579
152	0x3c21b6e0	0.009870261
153	0xbe908402	-0.28225714
154	0xbd07efe4	-0.033187762
155	0xbbf5ab65	-0.0074972385
156	0xbd477ffc	-0.04870604
157	0xbd83376d	-0.06407056
158	0x3dd28635	0.10279504
159	0xbda786f8	-0.0818004
160	0xbbe3395b	-0.0069343275
161	0xbd768a22	-0.060190327
162	0x3d83923e	0.06424378
163	0xbd15e5bb	-0.03659604
164	0x3d122a91	0.035685126
165	0xb91cf9f4	-0.00014970434
166	0x3c37751d	0.011197356
167	0xbd3a38d9	-0.04546437
168	0xbd433c16	-0.047664724
169	0x3c0aeb8c	0.00847901
170	0xbc1fc5db	-0.009751762
171	0x3d2f4742	0.042792566
172	0xbd7d1538	-0.061787814
173	0x3db4a3c9	0.08820302
174	0xbe1d5bd2	-0.15367058
175	0xbcd7d3cc	-0.02634611
176	0x3d32c444	0.043644205
177	0xbd800900	-0.062517166
178	0x3d51d252	0.051225968
179	0xbd28cb76	-0.04120966
180	0x3c817312	0.01580194
181	0x3d8089e8	0.062763035
182	0xbc86598c	-0.016400121
183	0xbc8bea4c	-0.017079495
184	0xbcd7e564	-0.0263545
185	0x3d7b343f	0.061329123
186	0xbd64cb7b	-0.055858117
187	0x3da65ffe	0.08123778
188	0x3c91d318	0.017800853
189	0x3d92b884	0.071641
190	0x3cfdc8fb	0.030979624
191	0x3ce6888f	0.028141288
192	0x3d9c7be0	0.07640815
193	0x3d15b236	0.03654691
194	0x3dac14ad	0.08402381
195	0x3cd58bb2	0.026067588
196	0x3a99728e	0.0011707114
197	0x3dbe67fc	0.09297177
198	0x3db44b9d	0.088034846
199	0xbd5a5f31	-0.053313438
200	0xbd9da8f0	-0.07698238
201	0xbc2b2bca	-0.010447452
202	0x3cb0c821	0.021579804
203	0xbd479670	-0.048727453
204	0x3c3374ab	0.010953109
205	0x3ccc299d	0.024922187
206	0x3d848d85	0.06472305
207	0xbd37ee34	-0.044904903
208	0xb9e1ca16	-0.0004306591
209	0xbe0fec2c	-0.14054936
210	0xbd510c3b	-0.051037055
211	0x3e1adb5c	0.15122741
212	0x3dca1055	0.09866396
213	0x3d2c9616	0.04213532
214	0xbc637ca2	-0.013884695
215	0x3dffe748	0.12495285
216	0x3d57c1e1	0.05267513
217	0x3dc8d730	0.09806669
218	0x3dfcf430	0.123512626
219	0xbd390195	-0.045167524
220	0xbdeb2cc2	-0.11483146
221	0xba6c15ed	-0.0009005953
222	0x3d7ff907	0.06249335
223	0xbdebad7b	-0.11507698
224	0x3e541c32	0.2071388
225	0x3b809af1	0.0039247205
226	0xbcd0d400	-0.025491714
227	0xbe251b7a	-0.16123763
228	0xbc8c5141	-0.017128589
229	0x3e0556ff	0.13021468
230	0xbd18623e	-0.037203066
231	0x3b19d3b6	0.0023472137
232	0x3c9d7382	0.019220117
233	0x3cfe343a	0.031030763
234	0x3de7a5ab	0.113108955
235	0xbd9a635e	-0.07538484
236	0x3d0d2256	0.034456573
237	0xbdbaade9	-0.09115202
238	0xbd66532a	-0.056231655
239	0xbd99e7c6	-0.075149104
240	0x3c5d8301	0.013520003
241	0xbcb28996	-0.021794122
242	0x3cfc3a27	0.030789448
243	0x3d9b1f7f	0.07574367
244	0x3dcb56d1	0.09928668
245	0xbd02cfd3	-0.031936478
246	0x3dd1c46f	0.10242545
247	0x3d19d8b4	0.03756018
248	0xbd7acc62	-0.06123007
249	0xbe0a821c	-0.13526195
250	0x3e4df189	0.2011167
251	0x3bed9853	0.0072508245
252	0x3bd72284	0.006565394
253	0xbd13a4b1	-0.036045734
254	0x3c10ff2b	0.008849899
255	0xbd209ca3	-0.03921188

weight f4 [576]
0	0x3de898db	0.1135728
1	0x3e37059d	0.17873235
2	0x3e7beaaa	0.24601236
3	0x3e612a55	0.21988805
4	0x3e3c0f4a	0.18365207
5	0x3dfe0749	0.12403733
6	0x3e29220b	0.16516893
7	0x3e651fcd	0.22375412
8	0x3e51547d	0.20442386
9	0x3e5eb21f	0.21747635
10	0x3e3d7b18	0.18503988
11	0x3e221eb7	0.1583203
12	0x3e443c9d	0.19163747
13	0x3e094eac	0.13408917
14	0x3e42a7fb	0.19009392
15	0x3e2a3ee0	0.16625547
16	0x3dbf722f	0.09347951
17	0x3e19e0b5	0.15027125
18	0x3e490770	0.19631743
19	0x3e682170	0.22669005
20	0x3e35dd6d	0.17760248
21	0x3e779830	0.24179149
22	0x3e5006a0	0.20315027
23	0x3e4b3b4e	0.19846842
24	0x3e10dc51	0.14146544
25	0x3da85399	0.0821907
26	0x3e2c7651	0.16842009
27	0x3e1530d4	0.14569408
28	0x3e3ef5c5	0.18648441
29	0x3e615ee8	0.2200886
30	0x3e2c38d2	0.1681855
31	0x3e092d50	0.13396192
32	0x3e43e671	0.19130875
33	0x3e3d9802	0.18515018
34	0x3e611ad5	0.21982892
35	0x3e300486	0.17189226
36	0x3e261e0c	0.162224
37	0x3e452c2d	0.19255133
38	0x3e5f421f	0.21802567
39	0x3e33e6d9	0.1756853
40	0x3d5b5258	0.053545326
41	0x3e37ddca	0.179557
42	0x3e4b483b	0.19851772
43	0x3e547446	0.2074748
44	0x3e2dac06	0.16960153
45	0x3e45f8dc	0.19333214
46	0x3e4419ac	0.19150418
47	0x3e0240bb	0.12720005
48	0x3e425550	0.18977857
49	0x3e55528a	0.20832267
50	0x3e3c7b32	0.1840637
51	0x3e601ea7	0.21886693
52	0x3e44d973	0.19223575
53	0x3e15efa5	0.14642198
54	0x3e3764cb	0.17909543
55	0x3e426b28	0.1898619
56	0x3e1da5b2	0.15395239
57	0x3e4440f3	0.19165401
58	0x3e471d49	0.19444765
59	0x3e36575c	0.17806762
60	0x3e491999	0.19638671
61	0x3e4ae1ee	0.19812748
62	0x3e4353e4	0.1907497
63	0x3e199225	0.14997156
64	0x3df513ec	0.119666904
65	0x3e391712	0.18075207
66	0x3e2caea4	0.16863495
67	0x3e2bd368	0.16779864
68	0x3e1ed05a	0.15509167
69	0x3e299ff7	0.16564928
70	0x3e1c7610	0.15279412
71	0x3e62c815	0.22146638
72	0x3e52015d	0.20508333
73	0x3e10ffe3	0.14160113
74	0x3e5063c3	0.20350556
75	0x3e501f71	0.20324494
76	0x3e3f6487	0.18690692
77	0x3e557db1	0.20848729
78	0x3dae9c89	0.085259505
79	0x3df87b02	0.12132837
80	0x3e35edf9	0.1776656
81	0x3dbea26b	0.093083225
82	0x3e4e0dc8	0.20122445
83	0x3e5ac769	0.21365131
84	0x3e38e09b	0.1805443
85	0x3e160ca6	0.14653262
86	0x3e0a5fc5	0.13513096
87	0x3e75c949	0.24002565
88	0x3e28dd5a	0.16490689
89	0x3e2b6e4e	0.16741297
90	0x3e2dfa61	0.16990043
91	0x3e52fea3	0.20604949
92	0x3e762a2f	0.2403953
93	0x3e4c025e	0.19922778
94	0x3e383043	0.1798716
95	0x3e44030d	0.19141789
96	0x3de4a135	0.1116356
97	0x3dba12c0	0.090856075
98	0x3e464820	0.19363451
99	0x3e260298	0.16211927
100	0x3e7f4446	0.24928388
101	0x3e694f52	0.22784165
102	0x3e501b80	0.2032299
103	0x3e5d8ffd	0.21636958
104	0x3e5ebb13	0.2175105
105	0x3e5c5a5a	0.21518841
106	0x3e5b1bc0	0.21397305
107	0x3e6db473	0.23213367
108	0x3e7e495a	0.24832669
109	0x3e4dce19	0.20098151
110	0x3e2ad432	0.16682509
111	0x3e7c1f35	0.2462128
112	0x3e695fdd	0.22790475
113	0x3df183fd	0.11792753
114	0x3e2b10c3	0.16705613
115	0x3e416cd5	0.18889172
116	0x3e4257d6	0.18978819
117	0x3e3b9c07	0.18321238
118	0x3e8343a0	0.2563753
119	0x3e83feff	0.25780484
120	0x3e550273	0.20801716
121	0x3d3b4c81	0.045727257
122	0x3e79c7f1	0.24392678
123	0x3e0ab4c5	0.1354552
124	0x3e3ca5b4	0.18422586
125	0x3e1968d7	0.149814
126	0x3e5b0b40	0.2139101
127	0x3e0d372a	0.13790575
128	0x3e53f0bf	0.20697306
129	0x3dd3effd	0.103485085
130	0x3e099a0e	0.13437673
131	0x3e5d266d	0.2159669
132	0x3e4cc6cf	0.19997714
133	0x3e45c96d	0.19315119
134	0x3d948ef2	0.07253827
135	0x3da498d8	0.08036965
136	0x3e400130	0.18750453
137	0x3e3e146a	0.18562475
138	0x3e511948	0.204198
139	0x3e2a277f	0.16616629
140	0x3e54c2dc	0.20777458
141	0x3e5abdc1	0.21361448
142	0x3e00b5ed	0.12569399
143	0x3e5147dc	0.20437568
144	0x3e0d383a	0.1379098
145	0x3e50d34f	0.20393108
146	0x3e45182d	0.19247504
147	0x3de4956a	0.11161311
148	0x3e305f9b	0.1722397
149	0x3e217265	0.15766294
150	0x3e40a436	0.18812642
151	0x3e1df25b	0.15424483
152	0x3e5cd5b4	0.21565896
153	0x3e445961	0.1917472
154	0x3e7c4993	0.24637441
155	0x3e4121e5	0.18860586
156	0x3e550389	0.2080213
157	0x3e689f85	0.22717102
158	0x3e230f86	0.1592389
159	0x3e43e0fe	0.19128796
160	0x3e413f2d	0.18871756
161	0x3e3c4593	0.18385915
162	0x3e48571a	0.19564477
163	0x3df2b562	0.11851002
164	0x3e46b717	0.1940578
165	0x3e50ce81	0.20391275
166	0x3e16cf21	0.14727451
167	0x3e114366	0.14185867
168	0x3e4e26d2	0.20131996
169	0x3e6b1c52	0.22960022
170	0x3e31d4ff	0.17366408
171	0x3e87c941	0.26520732
172	0x3e18156e	0.14851925
173	0x3e2f60b2	0.1712673
174	0x3e1cd316	0.15314898
175	0x3e22020e	0.15821096
176	0x3e3dbbac	0.18528622
177	0x3e22be3f	0.15892886
178	0x3e331d1e	0.17491576
179	0x3e2467c7	0.16055213
180	0x3d651750	0.055930436
181	0x3df6a2c5	0.120427646
182	0x3e443ce7	0.19163857
183	0x3e4777f6	0.19479355
184	0x3e24963d	0.16072936
185	0x3e47106b	0.19439857
186	0x3e4c4538	0.1994828
187	0x3e35d6b2	0.17757681
188	0x3e82621c	0.25465477
189	0x3e14a40f	0.14515708
190	0x3e251cd4	0.16124278
191	0x3dc96c92	0.09835161
192	0x3e173e7e	0.14769933
193	0x3dfade73	0.1224946
194	0x3e4e28e9	0.20132793
195	0x3e24af38	0.16082466
196	0x3e2e08b5	0.16995509
197	0x3e0a47af	0.13503908
198	0x3da02b53	0.078207634
199	0x3e2187b3	0.15774421
200	0x3e173d35	0.14769442
201	0x3e78b89f	0.24289177
202	0x3e4169a1	0.1888795
203	0x3e79714c	0.24359626
204	0x3e68deec	0.22741288
205	0x3df1f903	0.11815073
206	0x3e5363b0	0.20643497
207	0x3e2ddaea	0.1697804
208	0x3e468b2a	0.19389024
209	0x3e25392d	0.16135092
210	0x3e4d5875	0.20053275
211	0x3e5f105a	0.21783581
212	0x3e0baac0	0.13639355
213	0x3d2ddf9e	0.042449586
214	0x3e4be97d	0.19913287
215	0x3df09dc6	0.11748843
216	0x3e3916bf	0.18075083
217	0x3e69bae1	0.22825195
218	0x3e3655f5	0.17806228
219	0x3e56cc38	0.20976341
220	0x3de67e95	0.11254612
221	0x3e1803f1	0.14845254
222	0x3e3f98e6	0.1871067
223	0x3e3d11f0	0.18463874
224	0x3e6d9541	0.23201467
225	0x3de12091	0.1099254
226	0x3e415c0d	0.18882771
227	0x3e53f925	0.2070051
228	0x3e5bc596	0.21462092
229	0x3e162432	0.14662245
230	0x3e5819aa	0.2110354
231	0x3e35a1a6	0.17737445
232	0x3e4214ce	0.18953249
233	0x3e80e1b7	0.25172207
234	0x3e25d860	0.16195822
235	0x3de58c8a	0.11208446
236	0x3e4061ce	0.1878731
237	0x3e2c21ab	0.16809718
238	0x3e074dec	0.13213319
239	0x3e203902	0.15646747
240	0x3e313d6f	0.17308591
241	0x3e3839c9	0.17990793
242	0x3e3800e4	0.1796909
243	0x3e340319	0.17579307
244	0x3e30ceb2	0.17266348
245	0x3e4c459e	0.19948432
246	0x3ded966b	0.116009556
247	0x3e33f76a	0.1757485
248	0x3e11c804	0.14236456
249	0x3e209f33	0.1568573
250	0x3da1f09a	0.07907219
251	0x3e22a791	0.15884234
252	0x3e8885ae	0.2666449
253	0x3e2ad935	0.1668442
254	0x3e53084d	0.20608635
255	0x3d4c3d3b	0.04986308

bias f4 [576]
0	0x3dd799bb	0.10527369
1	0xbd3f3ef6	-0.046690904
2	0xbe9d9dd3	-0.30784473
3	0xbdeefdee	-0.11669527
4	0xbdf355e1	-0.118816145
5	0x3d426678	0.047461003
6	0xbe0515a5	-0.12996538
7	0xbe36a611	-0.17836787
8	0xbe0cae29	-0.13738312
9	0xbe37d243	-0.17951302
10	0xbe89a72d	-0.26885357
11	0x3c190889	0.009340414
12	0xbe2b6873	-0.16739063
13	0x3d1d3e3d	0.038389433
14	0xbdc0fb65	-0.0942295
15	0xbe63383c	-0.2218942
16	0x3e0f8aa8	0.14017737
17	0x3d40f27f	0.047106262
18	0xbe28816d	-0.16455622
19	0xbe57c5e8	-0.21071589
20	0xbda1d7e9	-0.0790251
21	0xbe0910e2	-0.13385347
22	0xbbbe81d5	-0.005813817
23	0xbd9db50f	-0.0770055
24	0x3afeb7a9	0.0019433397
25	0x3e200789	0.15627874
26	0xbe219ea9	-0.1578318
27	0xbd48b0e4	-0.04899682
28	0xbd884516	-0.06653802
29	0xbe1388c8	-0.14407647
30	0xbc9736eb	-0.018458804
31	0x3db5c79e	0.088759646
32	0xbdd2e4bb	-0.10297533
33	0xbe839a65	-0.2570373
34	0xbdfd10af	-0.12356698
35	0x3ce68323	0.028138703
36	0xbd2b5e7e	-0.04183816
37	0xbd85ccb4	-0.06533185
38	0x3d0f0119	0.034913156
39	0xbc9df426	-0.019281458
40	0x3e2aee21	0.16692401
41	0xbe2dcc48	-0.16972458
42	0xbe0bd959	-0.1365713
43	0xbde620a9	-0.11236698
44	0xbc76e45a	-0.015069092
45	0xbe0f7168	-0.14008105
46	0xbe2c3737	-0.16817938
47	0x3d426ae2	0.047465213
48	0xbe260e1d	-0.16216321
49	0xbe612db0	-0.21990085
50	0xbdb836d8	-0.089948356
51	0xbdee466b	-0.11634525
52	0xbc6b5376	-0.01436316
53	0x3d66778a	0.056266345
54	0xbd204643	-0.039129507
55	0xbe0879a7	-0.13327657
56	0xbe18ae47	-0.14910232
57	0xbd3bde93	-0.04586656
58	0xbe00186c	-0.12509316
59	0xbe2b5922	-0.1673322
60	0xbe10d716	-0.14144549
61	0xbdbbc168	-0.09167749
62	0xbd8d5030	-0.0690006
63	0xbc8c5524	-0.017130442
64	0x3dbd7b71	0.0925206
65	0xbd6a4d83	-0.057202827
66	0xbe17e96d	-0.14835139
67	0x3d871d7e	0.06597422
68	0xbd7220ea	-0.05911342
69	0xbc5e9ba7	-0.013586915
70	0xbb3c8b53	-0.0028769567
71	0xbe4fa291	-0.20276858
72	0xbdb6faf4	-0.08934584
73	0xbcd11d4c	-0.025526665
74	0xbe337d3d	-0.17528243
75	0xbe289cc8	-0.16466057
76	0xbc9ec5a4	-0.019381352
77	0xbce9b128	-0.028526857
78	0x3d941d24	0.07232121
79	0x3d808fe0	0.06277442
80	0xbdd31e72	-0.10308541
81	0x3dfbf3ed	0.123023845
82	0xbe2c5c03	-0.16831975
83	0xbe63cdea	-0.22246519
84	0xbe05673e	-0.13027665
85	0x3dc56c29	0.096397705
86	0xbdea83b9	-0.11450905
87	0xbe008889	-0.12552084
88	0xbdb7713b	-0.08957144
89	0xbd0dd44d	-0.034626294
90	0xbe0b50bf	-0.13605021
91	0xbe4554b1	-0.19270588
92	0xbe249717	-0.16073261
93	0xbe4079d2	-0.18796471
94	0xbcfd9684	-0.03095556
95	0xbe199ac5	-0.15000446
96	0x3dd89221	0.10574747
97	0x3e4a6cc4	0.19768053
98	0xbdf2d29c	-0.11856577
99	0x3e193f98	0.14965665
100	0xbdf3ad80	-0.11898327
101	0xbe776bac	-0.24162167
102	0xbe5961e5	-0.2122875
103	0xbebe96cb	-0.3722442
104	0xbe0c3f04	-0.13695914
105	0xbe265418	-0.16243017
106	0xbe15c360	-0.14625311
107	0xbe5385e7	-0.20656548
108	0xbe23cf75	-0.15997107
109	0xbe6f79dd	-0.23386331
110	0xbe2e7196	-0.17035517
111	0xbe69828e	-0.22803709
112	0xbdf53eb0	-0.11974847
113	0x3d98c746	0.074598834
114	0xbce2d282	-0.027688269
115	0xbe250d3e	-0.16118333
116	0xbdaa787e	-0.08323763
117	0xbdf7a07e	-0.12091158
118	0xbe02733d	-0.12739272
119	0xbe51c618	-0.20485723
120	0xbde7c502	-0.11316873
121	0x3e656184	0.2240048
122	0xbe65d1b0	-0.2244327
123	0x3bc2a0db	0.0059395856
124	0xbd957bb2	-0.07298984
125	0x3ca25426	0.019815516
126	0xbe36fb7e	-0.17869374
127	0x3d8c383f	0.068466656
128	0xbdc5b107	-0.09652906
129	0x3d3aceac	0.045607254
130	0xbdd18231	-0.1022991
131	0xbd33c2ec	-0.043887064
132	0xbe7918f8	-0.24325931
133	0xbdcec5cf	-0.10096323
134	0x3e24643d	0.16053863
135	0x3e18258d	0.14858074
136	0xbe2a1eaf	-0.16613267
137	0xbd1b4d2d	-0.037915397
138	0xbe5f7b96	-0.21824488
139	0xbcfa86cb	-0.030581852
140	0xbdcdc8b2	-0.10048045
141	0xbddf5a7c	-0.109059304
142	0x3d058fa4	0.03260769
143	0xbdbc7b6a	-0.09203227
144	0x3d3a7697	0.045523252
145	0xbdb7d2c7	-0.089757495
146	0xbe6173c9	-0.22016825
147	0x3dd46525	0.10370854
148	0xbe16566d	-0.14681406
149	0x3ceaff1c	0.028686099
150	0xbdd8adb1	-0.10580004
151	0x3cfc0ffb	0.030769339
152	0xbe6cbe98	-0.23119581
153	0xbe33e071	-0.17566086
154	0xbdd80b3c	-0.10549018
155	0xbe4a4302	-0.19752124
156	0xbd948c87	-0.07253366
157	0xbd4d01a0	-0.050050378
158	0xbd2d5639	-0.042318556
159	0xbe31148a	-0.17292991
160	0xbdfcd504	-0.12345317
161	0xbde362ea	-0.11102851
162	0xbdb9f1c1	-0.09079314
163	0x3de8ef66	0.11373787
164	0xbe4653e6	-0.19367942
165	0xbe02a471	-0.12758042
166	0x3cf8ea63	0.030385202
167	0x3e27e553	0.16396074
168	0xbc9fe348	-0.019517556
169	0xbe31b124	-0.1735273
170	0xbc63ce05	-0.013904099
171	0xbe12266f	-0.14272474
172	0x3c9953a8	0.018716648
173	0xbdfc1e42	-0.12310459
174	0x3c9e964c	0.019358777
175	0xbd9709c0	-0.073749065
176	0xbdd64107	-0.10461622
177	0x37ac0bf9	2.0509573e-05
178	0xbc09e16d	-0.008415562
179	0xbe1fc388	-0.15601933
180	0x3defa5cb	0.117015444
181	0x3d9da751	0.07697929
182	0xbdbd5955	-0.09245554
183	0xbdb03dc5	-0.086055316
184	0x3d6f7b61	0.058467273
185	0xbe231fe4	-0.15930134
186	0xbd193dc9	-0.03741244
187	0xbdc8c103	-0.09802439
188	0xbd879b4a	-0.06621416
189	0xbdc5ec68	-0.096642315
190	0x3d904c34	0.070457846
191	0x3df53115	0.11972252
192	0xbde6256f	-0.11237609
193	0x3dbd817b	0.09253212
194	0x3afc0add	0.0019229312
195	0xbcdde84f	-0.027088312
196	0xbd000241	-0.03125215
197	0x3dac142e	0.084022865
198	0x3e456c1b	0.1927952
199	0x3d838411	0.06421674
200	0xbe2896cd	-0.16463776
201	0xbe3a0c26	-0.18168697
202	0xbd6e4c89	-0.05817846
203	0xbdd563e0	-0.1041944
204	0xbe34241f	-0.17591904
205	0x3d9d3705	0.0767651
206	0xbd864558	-0.06556195
207	0xbd2c7f89	-0.042113815
208	0x3c7d54a2	0.015462073
209	0x3b857342	0.0040725777
210	0xbde8a751	-0.11360038
211	0xbe2cfcc3	-0.16893296
212	0x3d9714c8	0.073770106
213	0x3e30d88f	0.1727011
214	0xbe0be5bd	-0.13661857
215	0x3df7b19a	0.12094422
216	0xbd96e745	-0.0736833
217	0xbe1bab66	-0.15202102
218	0xbd8d5fae	-0.06903015
219	0xbe6abdab	-0.22923915
220	0x3e0b4a4a	0.13602558
221	0xbc906d0d	-0.017630124
222	0xbe217a19	-0.15769233
223	0xbe773dbe	-0.24144647
224	0xbdb1b40d	-0.0867692
225	0x3dc3e580	0.09565258
226	0xbe1fd36c	-0.15607995
227	0xbe266128	-0.16248
228	0xbe0b0add	-0.13578363
229	0x3a9bc1e6	0.0011883348
230	0xbe38ace6	-0.18034706
231	0xbdd76065	-0.10516433
232	0x3aca1d0c	0.0015420034
233	0xbe81d268	-0.2535584
234	0x3c0f4660	0.008744806
235	0x3ddd8254	0.10815874
236	0xbe8cf24a	-0.27528602
237	0xbdc83e92	-0.09777559
238	0x3da840dc	0.08215496
239	0x3ca4ab24	0.020101137
240	0xbe0aa613	-0.13539915
241	0xbe270510	-0.16310525
242	0xbe1bb036	-0.15203938
243	0xbe07aa53	-0.13248567
244	0xbd9d5ffa	-0.07684322
245	0xbd3980fb	-0.04528902
246	0x3db33cce	0.08751832
247	0xbe3b4aa5	-0.18290193
248	0xbd9c9381	-0.07645322
249	0x3c8ec6da	0.017428804
250	0x3de3b7f9	0.111190744
251	0x3cacdeff	0.021102427
252	0xbe3d2b6f	-0.184736
253	0xbdf3aadf	-0.118978254
254	0xbe3f9b84	-0.18711668
255	0x3e150a36	0.14554676

running_mean f4 [576]
0	0xb5ae8e02	-1.300534e-06
1	0x36670bf0	3.442863e-06
2	0x374289ce	1.1595386e-05
3	0x36b95dfd	5.5243713e-06
4	0xb6231dbd	-2.4306203e-06
5	0xb5bac351	-1.3914924e-06
6	0x35dd9d5b	1.651158e-06
7	0x376ea485	1.4224211e-05
8	0xb5bc5cde	-1.4034119e-06
9	0x3605110a	1.9828462e-06
10	0x3515dafb	5.5825484e-07
11	0xb6a26fb7	-4.8409815e-06
12	0x368e8bfb	4.2482257e-06
13	0x36e4d711	6.8199665e-06
14	0x372e1651	1.0376404e-05
15	0x36baad6c	5.563421e-06
16	0xb3c1812f	-9.010761e-08
17	0x36cfcab3	6.192678e-06
18	0x36851e87	3.9672627e-06
19	0x35a43a28	1.2235878e-06
20	0x358bb3b5	1.0408609e-06
21	0x37438920	1.1654833e-05
22	0xb59b8a55	-1.158866e-06
23	0x371b6bdf	9.263836e-06
24	0x344fad94	1.9341525e-07
25	0x36ca0ece	6.0217926e-06
26	0x34d0bfa3	3.8882453e-07
27	0x36095668	2.0464886e-06
28	0x342e7b5b	1.6249889e-07
29	0x3667a59c	3.451808e-06
30	0x354db134	7.6626316e-07
31	0x35fb486c	1.8722035e-06
32	0x3678e2a1	3.7086795e-06
33	0x3698cd78	4.5538727e-06
34	0x36cd5560	6.119415e-06
35	0x366e88bf	3.554436e-06
36	0xb5e49254	-1.7029911e-06
37	0xb6bc1838	-5.605656e-06
38	0x3723bc21	9.759359e-06
39	0x36234f13	2.433492e-06
40	0x360aaebc	2.0665311e-06
41	0xb64892ed	-2.9887844e-06
42	0x369b2ccb	4.6245746e-06
43	0x373fb01d	1.1425492e-05
44	0xb6797897	-3.7174084e-06
45	0x34ac0336	3.2039833e-07
46	0x351989ca	5.719745e-07
47	0x361e3faa	2.3580892e-06
48	0x370e6382	8.487028e-06
49	0x353a24c0	6.934388e-07
50	0x3667a70d	3.4518919e-06
51	0x368ad833	4.1378894e-06
52	0xb56ca5e4	-8.8158254e-07
53	0x36fd2532	7.5443177e-06
54	0x36223ab2	2.4174046e-06
55	0x3684f925	3.962911e-06
56	0x3738f6d7	1.10247265e-05
57	0x36943df1	4.4179546e-06
58	0x36a3e869	4.8848347e-06
59	0xb666560c	-3.4322757e-06
60	0xb68b7de7	-4.15718e-06
61	0x36ed7a10	7.0773604e-06
62	0xb5f7a1e5	-1.8450052e-06
63	0xb4b8e009	-3.4435678e-07
64	0xb605e1a9	-1.9949896e-06
65	0x35ae2e0f	1.2977415e-06
66	0xb64f73c6	-3.0912793e-06
67	0x36855b87	3.974364e-06
68	0x36152fbf	2.2230522e-06
69	0xb6a54760	-4.9256923e-06
70	0x34b3aa34	3.3465187e-07
71	0xb53a6227	-6.943323e-07
72	0xb7087bdb	-8.135069e-06
73	0x3580f2e1	9.60743e-07
74	0x35d47746	1.5829944e-06
75	0x3718d974	9.110536e-06
76	0x368c78bc	4.1863805e-06
77	0x360e6de6	2.1223618e-06
78	0x36870a60	4.0245213e-06
79	0x366be453	3.515063e-06
80	0x371ed15e	9.466281e-06
81	0x351ed492	5.916892e-07
82	0x365b6b99	3.2696173e-06
83	0xb5f970d4	-1.8584783e-06
84	0x370c2240	8.352625e-06
85	0x3600287d	1.9097054e-06
86	0x361dd7e8	2.3520497e-06
87	0x36579911	3.2126593e-06
88	0x368d6724	4.2141346e-06
89	0x36c6766d	5.9146464e-06
90	0xb6a4fd19	-4.9170453e-06
91	0x36f6b458	7.352366e-06
92	0xb66b4305	-3.505674e-06
93	0x35773f3b	9.210668e-07
94	0x36e33e2f	6.7723663e-06
95	0x36209d12	2.3933285e-06
96	0xb56a2c92	-8.723665e-07
97	0xb64e8cac	-3.0778274e-06
98	0xb53560f7	-6.7568857e-07
99	0x362ac149	2.544448e-06
100	0x37754e7f	1.4621414e-05
101	0x351776a1	5.642451e-07
102	0x3674a59f	3.6455237e-06
103	0x3563a72c	8.4807357e-07
104	0x3662d668	3.3801425e-06
105	0x3617f921	2.2645766e-06
106	0xb5d279a3	-1.568162e-06
107	0xb6ee37cf	-7.0994497e-06
108	0x3722f411	9.712779e-06
109	0x36c0bf68	5.7443285e-06
110	0xb6b218d5	-5.307704e-06
111	0x3706793c	8.0152495e-06
112	0x3732a7b6	1.0648675e-05
113	0x3595ec17	1.1170076e-06
114	0x376b2e1b	1.4017826e-05
115	0x3637181f	2.7283165e-06
116	0x36fb5c02	7.491094e-06
117	0x367a3db0	3.728881e-06
118	0x371a6046	9.201531e-06
119	0x37721bf9	1.4430837e-05
120	0x36a7ca42	5.0005337e-06
121	0x3602e2fb	1.950363e-06
122	0x36b06ad0	5.2576434e-06
123	0x368a6ca2	4.125367e-06
124	0x3642a058	2.9001585e-06
125	0x361a45c6	2.2988402e-06
126	0xb601b76b	-1.9329261e-06
127	0xb69ca1a4	-4.6679797e-06
128	0x370ac2e5	8.270818e-06
129	0x34ce2f4f	3.8404912e-07
130	0x372121ab	9.604187e-06
131	0x35beed05	1.4225085e-06
132	0x3681f686	3.8731987e-06
133	0xb62162c2	-2.4048354e-06
134	0xb69f98d3	-4.7563603e-06
135	0x36c27cec	5.7961934e-06
136	0x36d5e318	6.374332e-06
137	0x36977c25	4.514603e-06
138	0x36ef23ba	7.126914e-06
139	0x3661bd7f	3.3637914e-06
140	0x3707a238	8.0843965e-06
141	0x37402241	1.1452067e-05
142	0x3617c20a	2.26137e-06
143	0xb65bab37	-3.2733203e-06
144	0x34ffb7dd	4.763123e-07
145	0x3674e972	3.6494716e-06
146	0xb59af8b2	-1.1546274e-06
147	0x36462432	2.9525368e-06
148	0x36a9d2cd	5.061133e-06
149	0x365222a8	3.131261e-06
150	0x37124d1b	8.720231e-06
151	0xb629dc5b	-2.5311226e-06
152	0xb6cdc1f9	-6.1320575e-06
153	0x3701090a	7.691104e-06
154	0x374defa9	1.2274752e-05
155	0x3565c02b	8.558879e-07
156	0x36da0f9c	6.4987235e-06
157	0xb5c7f4d0	-1.4897905e-06
158	0xb6868feb	-4.0102655e-06
159	0xb573d522	-9.0834703e-07
160	0xb4e99ede	-4.3515223e-07
161	0x3622b7ae	2.4246797e-06
162	0x372d6eaf	1.0337374e-05
163	0x35a9e774	1.2658843e-06
164	0x36f2540d	7.221947e-06
165	0xb622c91f	-2.425695e-06
166	0x3633c4e0	2.6787675e-06
167	0xb614b475	-2.2158758e-06
168	0x36ef7742	7.1366385e-06
169	0xb52ccc5d	-6.437238e-07
170	0xb63bc266	-2.7978326e-06
171	0x362c14ce	2.5642107e-06
172	0xb49f4f8d	-2.967394e-07
173	0x36379c67	2.7360163e-06
174	0x36b5c6eb	5.4173775e-06
175	0x364f3fdd	3.0882577e-06
176	0x374a8975	1.2072142e-05
177	0xb580dcd0	-9.601008e-07
178	0x3646886a	2.9583703e-06
179	0x36ba8372	5.558534e-06
180	0x3646dc9a	2.9632706e-06
181	0xb65926e3	-3.2358155e-06
182	0x36c276d1	5.7954826e-06
183	0x37300bc0	1.0493153e-05
184	0xb69151c7	-4.330857e-06
185	0x36cffe01	6.1986507e-06
186	0x375f1a1a	1.3297913e-05
187	0x36802101	3.8185394e-06
188	0x354618ff	7.379712e-07
189	0xb55aac41	-8.146199e-07
190	0xb66c3bac	-3.5201474e-06
191	0x35709aba	8.9632124e-07
192	0x368b694e	4.154782e-06
193	0x35d751e0	1.6042577e-06
194	0x352992c0	6.3170955e-07
195	0x35a098af	1.1965366e-06
196	0x368cc821	4.195623e-06
197	0xb686a633	-4.0128593e-06
198	0xb5a6f3f7	-1.2438967e-06
199	0x36b72b02	5.4588318e-06
200	0x3719c821	9.166107e-06
201	0xb5524bd4	-7.834144e-07
202	0x36fa8faa	7.4673053e-06
203	0x36b10ea4	5.2767155e-06
204	0x372864ce	1.0037051e-05
205	0x36a1b9ca	4.8198026e-06
206	0xb6a8beea	-5.0290155e-06
207	0xb501962f	-4.827479e-07
208	0x35d11646	1.5578196e-06
209	0x368b2fdc	4.1480944e-06
210	0xb5821eff	-9.694776e-07
211	0x36752127	3.6527142e-06
212	0x366c6a2b	3.5228538e-06
213	0xb45b109d	-2.0402008e-07
214	0x376d3556	1.4138719e-05
215	0x36d7d473	6.4322317e-06
216	0x3719aa2c	9.159132e-06
217	0x36bc9fac	5.621425e-06
218	0x371613a9	8.945274e-06
219	0x36ee25a0	7.097333e-06
220	0xb6e4cbb1	-6.8186423e-06
221	0x362de438	2.591185e-06
222	0x36ad9102	5.172683e-06
223	0x3685c277	3.9863476e-06
224	0x376e6f57	1.4211829e-05
225	0x32546e7b	1.23651445e-08
226	0x370fe41c	8.576575e-06
227	0x3651af4e	3.1245468e-06
228	0x36eefb47	7.1222053e-06
229	0x365d93d1	3.3017607e-06
230	0x3719ee10	9.174939e-06
231	0x36bc2e7f	5.6082495e-06
232	0x36ca6fca	6.033083e-06
233	0x373079a5	1.051874e-05
234	0x343c27fb	1.7523409e-07
235	0x365c4f2e	3.2828643e-06
236	0x36cf4001	6.1765318e-06
237	0x3610fa20	2.1603264e-06
238	0x36306ef5	2.629063e-06
239	0x36fbe9f5	7.507619e-06
240	0xb633ef1d	-2.681226e-06
241	0x369bbead	4.6415576e-06
242	0xb6f8bce8	-7.4129675e-06
243	0x35d7c067	1.6074745e-06
244	0x374da667	1.2257696e-05
245	0x36937f61	4.3957702e-06
246	0x32f69be0	2.8709053e-08
247	0x36f808bf	7.391994e-06
248	0xb5ff559e	-1.9023898e-06
249	0xb6875575	-4.033262e-06
250	0xb66d4ec0	-3.536159e-06
251	0x34f84d97	4.6250054e-07
252	0x35633ebc	8.465538e-07
253	0x3727041f	9.954935e-06
254	0xb6099e47	-2.050672e-06
255	0x35ef6232	1.7835466e-06

running_var f4 [576]
0	0x3df0c0ad	0.117555
1	0x3e134afe	0.14384076
2	0x3f11ce95	0.56955844
3	0x3e7cf1de	0.2470164
4	0x3e6be34e	0.23035929
5	0x3e854967	0.26032564
6	0x3e8d3c93	0.27585277
7	0x3eb14d95	0.34629503
8	0x3e3b6510	0.18300271
9	0x3e6ca26e	0.23108837
10	0x3e96c260	0.2944517
11	0x3e09462d	0.13405676
12	0x3e7f01f6	0.24903092
13	0x3e037c9f	0.12840508
14	0x3e324d3d	0.17412277
15	0x3e6ffb67	0.23435746
16	0x3e3d0757	0.18459831
17	0x3ea98ba1	0.3311434
18	0x3e586121	0.21130802
19	0x3e624b74	0.22099096
20	0x3e8702b8	0.26369262
21	0x3eaedb23	0.34151563
22	0x3e5f1d9a	0.21788636
23	0x3ea6d5e3	0.32585058
24	0x3ec8357b	0.39103302
25	0x3e849300	0.25893402
26	0x3e887f16	0.2665946
27	0x3e3708a5	0.17874391
28	0x3e9bd550	0.30436182
29	0x3ea6f3e5	0.32607952
30	0x3e9130d8	0.28357577
31	0x3ecb8597	0.39750358
32	0x3e8111a3	0.25208768
33	0x3eb4da0c	0.35322607
34	0x3e82e092	0.2556196
35	0x3ea906f6	0.33013123
36	0x3e72d92e	0.2371566
37	0x3ec2a1c8	0.38014054
38	0x3e2e077f	0.16995047
39	0x3e4df106	0.20111474
40	0x3e03b7cb	0.1286308
41	0x3ea37194	0.3192259
42	0x3ece915c	0.40345275
43	0x3e818ed1	0.25304273
44	0x3eaecd32	0.34140927
45	0x3e629a77	0.22129236
46	0x3ee0f53f	0.43937108
47	0x3e351010	0.17681909
48	0x3e84e0c4	0.25952733
49	0x3e45db70	0.1932199
50	0x3eaa4621	0.3325663
51	0x3ee1bd05	0.44089523
52	0x3e1dd358	0.15412652
53	0x3e38ae9c	0.18035358
54	0x3eb2008f	0.3476605
55	0x3ec5b184	0.38611996
56	0x3e809cca	0.2511962
57	0x3e97f04b	0.29675516
58	0x3e51c25e	0.20484301
59	0x3ea992be	0.33119768
60	0x3f00a54e	0.50252235
61	0x3e6e76ce	0.23287508
62	0x3ec62b76	0.38705033
63	0x3ef59457	0.47964737
64	0x3e3f4471	0.18678452
65	0x3e33d748	0.17562592
66	0x3e949a97	0.29024193
67	0x3e22e354	0.15907031
68	0x3e8ee4bb	0.27908882
69	0x3e8d810b	0.27637514
70	0x3e894348	0.26809144
71	0x3ec3f837	0.3827531
72	0x3ed2a143	0.41138658
73	0x3daed80a	0.085373
74	0x3e1ea912	0.15494183
75	0x3e9975b9	0.29972628
76	0x3e88aaca	0.26692802
77	0x3e48f80b	0.19625871
78	0x3e254dd7	0.16142975
79	0x3e437037	0.19085775
80	0x3e1b6c7f	0.15178107
81	0x3e07cf46	0.13262662
82	0x3e9aad65	0.30210415
83	0x3ecc9c1b	0.3996285
84	0x3e8710e5	0.26380077
85	0x3e6cf9ce	0.23142168
86	0x3e60db23	0.21958594
87	0x3edbeb9e	0.429532
88	0x3ea6abd4	0.3255297
89	0x3e2d22c3	0.16907792
90	0x3e6a16f9	0.22860326
91	0x3e6c0b3e	0.23051164
92	0x3e65eb08	0.22452939
93	0x3e37e3b7	0.1795796
94	0x3e23e3da	0.16004887
95	0x3e46cff6	0.19415268
96	0x3e22e32c	0.15906972
97	0x3e74ba31	0.23899151
98	0x3ecbc5f4	0.39799464
99	0x3e3fbb25	0.18723734
100	0x3e623843	0.22091775
101	0x3ecdfd08	0.4023211
102	0x3e6b403c	0.22973722
103	0x3e937e4e	0.288073
104	0x3e96381c	0.29339683
105	0x3e74ee27	0.23918973
106	0x3ead514d	0.3385109
107	0x3eb8bacb	0.36080012
108	0x3ea7262d	0.32646313
109	0x3e3abeab	0.18236797
110	0x3eb2ee9e	0.34947675
111	0x3ec0ee1e	0.3768167
112	0x3f374701	0.7159272
113	0x3e25ba40	0.1618433
114	0x3e538045	0.206544
115	0x3e657c49	0.22410692
116	0x3e8a057d	0.26957312
117	0x3e8c4038	0.27392745
118	0x3efda1e5	0.49537578
119	0x3ea54d7f	0.32285687
120	0x3e649e48	0.22326005
121	0x3e71631d	0.23572965
122	0x3ede3d33	0.43406066
123	0x3e31437e	0.17310902
124	0x3e45143f	0.19246005
125	0x3ec0b1ef	0.37635753
126	0x3e4e04cd	0.20119019
127	0x3eb54c69	0.3540986
128	0x3e7fd000	0.2498169
129	0x3dd75273	0.10513773
130	0x3e1c5903	0.1526833
131	0x3e759706	0.23983392
132	0x3e7229a2	0.23648694
133	0x3e3c876e	0.18411037
134	0x3e283b0b	0.16428773
135	0x3e09480c	0.1340639
136	0x3e800585	0.2500421
137	0x3ec2178b	0.37908587
138	0x3eee46af	0.46538302
139	0x3e7962ac	0.24354047
140	0x3e88aea7	0.2669575
141	0x3eb81ad4	0.35957968
142	0x3e2b46ac	0.16726178
143	0x3ea236e4	0.31682503
144	0x3e17497b	0.14774124
145	0x3e320c93	0.17387609
146	0x3ee426ca	0.44560844
147	0x3e5724c4	0.21010119
148	0x3ececab5	0.40389028
149	0x3e2b0100	0.166996
150	0x3ec36fb4	0.3817116
151	0x3e65a694	0.22426826
152	0x3eaacc8d	0.33359185
153	0x3e9532bd	0.29140273
154	0x3edb8626	0.42875785
155	0x3e956346	0.29177302
156	0x3e89ee5b	0.26939663
157	0x3e3657a9	0.17806877
158	0x3e80969a	0.251149
159	0x3e825717	0.2545707
160	0x3eb0c783	0.34527215
161	0x3e9d8d16	0.30771703
162	0x3e91971f	0.2843561
163	0x3e20545e	0.15657184
164	0x3eb177a6	0.34661597
165	0x3f1c4f37	0.6105837
166	0x3eab5390	0.3346219
167	0x3ec1fd20	0.37888432
168	0x3e97fa18	0.29682994
169	0x3ee642ae	0.44972748
170	0x3e7e8c85	0.24858291
171	0x3ec7d532	0.39029843
172	0x3db500d4	0.088380486
173	0x3e744c7c	0.23857301
174	0x3dd6e708	0.104932845
175	0x3e4cd74f	0.20004009
176	0x3e5b5d1a	0.21422234
177	0x3e920faf	0.2852759
178	0x3ea23a54	0.31685126
179	0x3e9a6e76	0.301624
180	0x3dcab79e	0.098983034
181	0x3e71bb6c	0.23606652
182	0x3ebe05c3	0.3711377
183	0x3ed6ab9a	0.41927797
184	0x3e5e2bce	0.21696398
185	0x3e9d8f4e	0.30773395
186	0x3ea6aa21	0.32551673
187	0x3e6f946f	0.23396467
188	0x3e8c6518	0.27420878
189	0x3e0eb184	0.13934904
190	0x3e7d1f94	0.24719077
191	0x3dcaa717	0.09895151
192	0x3e3068af	0.17227434
193	0x3dbe6b5f	0.09297823
194	0x3e30d866	0.1727005
195	0x3e5f375a	0.21798459
196	0x3e63975d	0.2222571
197	0x3ebc3360	0.36757946
198	0x3e6bb892	0.23019627
199	0x3e437ee9	0.19091381
200	0x3e712e4f	0.23552822
201	0x3e86c9e4	0.26325905
202	0x3e31d070	0.17364669
203	0x3e9de801	0.30841067
204	0x3eca5cb7	0.3952386
205	0x3e36069e	0.17775962
206	0x3e0b41c4	0.13599306
207	0x3e3c6ac5	0.18400104
208	0x3df419a0	0.1191895
209	0x3e414d18	0.18877065
210	0x3ea902ae	0.33009857
211	0x3eb15948	0.3463843
212	0x3e001569	0.12508167
213	0x3e0d97d0	0.13827443
214	0x3e404467	0.18776093
215	0x3e73670a	0.23769775
216	0x3e996f41	0.29967692
217	0x3eace567	0.3376877
218	0x3f047a5e	0.5174922
219	0x3e8f2f75	0.27965894
220	0x3e9b0dac	0.30283868
221	0x3e84d755	0.25945535
222	0x3ec20978	0.3789785
223	0x3e3e9215	0.18610413
224	0x3e813470	0.2523532
225	0x3e1df35b	0.15424864
226	0x3e902600	0.28153992
227	0x3eaca941	0.3372288
228	0x3ef6a441	0.4817219
229	0x3e5810c9	0.21100153
230	0x3e1ddc98	0.15416181
231	0x3e33d734	0.17562562
232	0x3ee1a6f1	0.4407268
233	0x3ed66e30	0.4188094
234	0x3e9a2b53	0.3011118
235	0x3df1607f	0.11785983
236	0x3e3fb7c4	0.18722445
237	0x3e8005cf	0.25004432
238	0x3e589cff	0.2115364
239	0x3e1cfe6b	0.15331428
240	0x3e58dbaf	0.21177553
241	0x3e4f5103	0.20245747
242	0x3e9c7a01	0.30561832
243	0x3e498c1f	0.19682358
244	0x3e801c99	0.25021818
245	0x3e2bec83	0.16789441
246	0x3e23d217	0.15998112
247	0x3e8f9456	0.2804286
248	0x3e1935be	0.14961907
249	0x3e58210d	0.21106358
250	0x3debc6eb	0.1151255
251	0x3e2882b6	0.16456112
252	0x3e8884cc	0.26663816
253	0x3e8ef190	0.27918673
254	0x3eaf9c57	0.34298965
255	0x3db9141e	0.0903704
