experiments/model_repositories/demo/traffic_detection/model_files/block_14.pth (torch, 59843 bytes, 5 tensors)

weight f4 [64, 192, 1, 1]
0.10086714 -0.09818407 0.14459932 -0.0781011 0.26780337 -0.008112795 -0.002503289 0.12232744
0.039276812 0.03132209 -0.120352335 -0.09156911 0.011321797 -0.10510432 0.0259059 -0.096431784
-0.02325575 -0.042335268 -0.12871389 0.0006598592 -0.03564176 -0.014354922 0.14357512 -0.105478585
-0.07542937 0.02523479 0.037529387 -0.063512675 -0.048176326 0.13264383 -0.051747926 -0.06790371
-0.16986474 0.13948616 0.1410039 0.011851147 0.052625526 0.0072387564 0.07126346 -0.08060239
-0.03832826 0.02386982 -0.06824125 -0.017310193 -0.0055688242 0.014486543 -0.07883369 -0.10970701
-0.1897321 -0.02704864 -0.050741497 -0.26476297 -0.26249498 0.0045646005 0.0010069566 0.0193952
-0.115707755 0.0080050705 0.07621164 0.036531366 -0.075008266 -0.029593976 0.060785454 0.03902786
-0.06785535 0.05858166 -0.010616835 -0.08299926 -0.0595906 -0.0120888045 0.009341557 0.0063820896
-0.15707259 -0.25607097 0.14919251 -0.06509861 -0.06578177 -0.18502937 -0.110986374 0.17718664
0.06555243 0.04655538 0.09745049 0.08187838 -0.0765904 -0.042714465 -0.010599967 0.09926226
0.19373864 -0.08554829 0.070651405 0.08244952 -0.10412496 0.057904363 0.16280676 0.031796195
-0.053048998 0.040563002 0.03621304 -0.043708887 -0.08003121 0.19680652 -0.061813865 0.06414359
0.010758938 -0.17452367 -0.11949111 0.07060686 -0.025877269 0.1218367 0.103165254 0.020845762
0.053511184 0.01247511 0.10767768 0.076236136 -0.019110542 0.16396448 -0.034648765 0.030866103
0.07019508 -0.107126035 -0.08000785 0.07291445 0.012556602 0.045150876 -0.023653356 0.05292916
0.11405994 0.04171682 -0.1704424 -0.050786268 0.06499149 -0.058898684 0.06254144 0.08740102
-0.08404129 -0.012963246 -0.040707298 -0.09023344 -0.014766279 -0.11130796 0.0627763 -0.058843996
0.13795364 0.13586545 0.16829303 0.039698936 0.018057458 0.11817493 0.025077226 0.03862331
-0.067533106 0.120897576 0.12220776 0.074845195 0.02146727 0.0558163 0.047058027 -0.07760732
0.0075340816 0.003367344 -0.07293924 0.16752425 0.07208802 -0.05511341 0.004603949 0.0044203266
0.058415577 -0.014098532 0.081513144 -0.01965624 -0.0031020134 -0.08434192 -0.007529645 -0.11503463
0.020488309 0.081462555 0.20666035 0.11310012 -0.2079486 -0.033876594 0.14363405 0.052729387
-0.01709842 0.06685437 -0.100425564 -0.014379665 -0.13712177 0.035464827 -0.014131649 0.19865026
-0.06549375 0.044359565 -0.034442067 0.06217982 0.22194579 -0.050621185 0.05057289 -0.076814435
-0.061541185 0.08870254 -0.0904534 -0.19872916 0.09635855 0.19964649 -0.21866179 -0.040179163
0.002633258 -0.061834227 -0.01363894 -0.08691216 0.039628197 -0.066999555 -0.09108547 -0.09836663
-0.1542001 0.008469747 0.25050572 0.14975432 0.091932915 -0.28538454 -0.1565128 -0.1857971
0.10179743 -0.032485038 0.054069452 -0.20271996 0.111402154 -0.15326835 -0.16846843 -0.12305323
-0.07654801 0.09644215 -0.2854969 -0.097396225 0.063325256 0.07268895 -0.027991347 -0.21767552
0.055354204 -0.079150416 -0.01625029 0.22944824 -0.04187505 0.05311328 -0.0016535806 -0.063035004
0.10688511 0.0077046463 0.18480997 0.07976792 0.034485813 0.10611671 -0.16060922 -0.0031323365
00000000: 6e93 ce3d bb14 c9bd d811 143e 78f3 9fbd
00000010: 861d 893e 87eb 04bc 380e 24bb cf86 fa3d
00000020: b9e0 203d 984b 003d 497b f6bd 9688 bbbd
00000030: 0f7f 393c ef40 d7bd 9c38 d43c 077e c5bd
00000040: d882 bebc bf67 2dbd 93cd 03be 67fa 2c3a
00000050: 18fd 11bd e830 6bbc 5b05 133e 2805 d8bd
00000060: b77a 9abd 31b9 ce3c 6ab8 193d ef12 82bd
00000070: 8a54 45bd c9d3 073e a2f5 53bd 1a11 8bbd
00000080: 06f1 2dbe 76d5 0e3e 5463 103e 502b 423c
00000090: dd8d 573d 1733 ed3b 94f2 913d de12 a5bd
000000a0: 18fe 1cbd a48a c33c 12c2 8bbd 1bce 8dbc
000000b0: af7a b6bb f758 6d3c 8f73 a1bd 12ae e0bd
000000c0: 2249 42be 1c95 ddbc 51d6 4fbd 038f 87be
000000d0: be65 86be a592 953b dbfb 833a afe2 9e3c
000000e0: 30f8 ecbd b327 033c d914 9c3d eaa1 153d
000000f0: ef9d 99bd 116f f2bc 2bfa 783d addb 1f3d
00000100: bff7 8abd 53f3 6f3d 3cf2 2dbc 84fb a9bd
00000110: 4615 74bd 1f10 46bc 540d 193c d920 d13b
00000120: a3d7 20be bc1b 83be ecc5 183e 6c52 85bd
00000130: 98b8 86bd 5778 3dbe d34c e3bd 6a70 353e
00000140: 5a40 863d dbb0 3e3d 1f94 c73d daaf a73d
00000150: 6ddb 9cbd 5df5 2ebd 7cab 2dbc 034a cb3d
00000160: 6c63 463e f133 afbd afb1 903d 4bdb a83d
00000170: 783f d5bd 202d 6d3d d1b6 263e ba3c 023d
00000180: e849 59bd 6425 263d 2054 143d 1708 33bd
00000190: 67e7 a3bd a687 493e 8930 7dbd b75d 833d
000001a0: 4246 303c 55b6 32be c1b7 f4bd 549a 903d
000001b0: 91fc d3bc 8585 f93d 4e48 d33d bbc4 aa3c
000001c0: 8b2e 5b3d 6764 4c3c 1e86 dc3d b121 9c3d
000001d0: b68d 9cbc 4ee6 273e ddeb 0dbd e9da fc3c
000001e0: 70c2 8f3d e564 dbbd 28db a3bd 2c54 953d
000001f0: 35ba 4d3c 20f0 383d afc4 c1bc 3fcc 583d
00000200: 4298 e93d 42df 2a3d 7488 2ebe 4305 50bd
00000210: 421a 853d bf3f 71bd ba15 803d 4eff b23d
00000220: d71d acbd cb63 54bc b2bc 26bd 4fcc b8bd
00000230: 43ee 71bc 6df5 e3bd dc90 803d 6706 71bd
00000240: b843 0d3e 5020 0b3e 0255 2c3e 5a9b 223d
00000250: 3ced 933c b305 f23d c16e cd3c 7a33 1e3d
00000260: cc4e 8abd 2699 f73d 1048 fa3d 7048 993d
00000270: 21dc af3c a29f 643d ebbf 403d 96f0 9ebd
00000280: 75e0 f63b a8ae 5c3b 2b61 95bd 7a8b 2b3e
00000290: e2a2 933d 99be 61bd b9dc 963b 63d8 903b
000002a0: 2c45 6f3d 87fd 66bc 5df0 a63d 1f06 a1bc
000002b0: 264b 4bbb 75bb acbd 3ebb f6bb 4797 ebbd
000002c0: 19d7 a73c d7d5 a63d c59e 533e 09a1 e73d
000002d0: 7af0 54be 2fc2 0abd ce14 133e c5fa 573d
000002e0: fc11 8cbc f2ea 883d ebab cdbd b098 6bbc
000002f0: a669 0cbe 9143 113d 6f88 67bc f96a 4b3e
00000300: 9621 86bd 60b2 353d 2013 0dbd 44b0 7e3d
00000310: c245 633e 2958 4fbd 8525 4f3d e350 9dbd
00000320: 9c12 7cbd ada9 b53d a23f b9bd a87f 4bbe
00000330: a257 c53d 2170 4c3e e0e8 5fbe e892 24bd
00000340: bd92 2c3b e345 7dbd dc75 5fbc 01ff b1bd
00000350: 2d51 223d 1037 89bd 058b babd 7274 c9bd
00000360: a2e6 1dbe b2c4 0a3c 4942 803e 3259 193e
00000370: 5347 bc3d ec1d 92be e444 20be 9841 3ebe
00000380: 2c7b d03d 080f 05bd ee77 5d3d d295 4fbe
00000390: d026 e43d 61f2 1cbe fd82 2cbe 5503 fcbd
000003a0: 34c5 9cbd 7683 c53d a62c 92be ac77 c7bd
000003b0: acb0 813d f2dd 943d 1c4e e5bc 55e6 5ebe
000003c0: 17bb 623d 9d19 a2bd 541f 85bc 7bf4 6a3e
000003d0: 2c85 2bbd 508d 593d f5bc d8ba 7f18 81bd
000003e0: 95e6 da3d 4277 fc3b d33e 3d3e 5d5d a33d
000003f0: ff40 0d3d b853 d93d be76 24be e347 4dbb

weight f4 [64]
0.42719123 0.50623316 0.40717524 0.36424953 0.46010292 0.49425924 0.42008755 0.3234472
0.35658184 0.4033323 0.49288005 0.44201627 0.5515834 0.4646017 0.46300998 0.53635275
0.4664395 0.5088921 0.36734635 0.50612456 0.5100523 0.44070798 0.42561778 0.39321068
0.38990903 0.4572081 0.3393571 0.487486 0.39348072 0.38801855 0.348007 0.47245574
0.48177552 0.52367616 0.4222702 0.64561135 0.4424731 0.43898767 0.42307088 0.49828228
0.45158017 0.42668125 0.48416442 0.4432406 0.3714196 0.48670486 0.37114888 0.43217483
0.43220767 0.57224625 0.35753366 0.32411718 0.4048342 0.37716374 0.4992449 0.4391703
0.34731027 0.36916608 0.37946934 0.38092998 0.3838845 0.70789975 0.50859797 0.46891275
00000000: cfb8 da3e 7f98 013f 4679 d03e ea7e ba3e
00000010: 9c92 eb3e 8c0f fd3e b715 d73e df9a a53e
00000020: e591 b63e 9281 ce3e c65a fc3e f54f e23e
00000030: 9234 0d3f 46e0 ed3e a50f ed3e 6a4e 093f
00000040: 28d1 ee3e c146 023f d214 bc3e 6191 013f
00000050: ca92 023f 7aa4 e13e 93ea d93e e952 c93e
00000060: 28a2 c73e 2e17 ea3e 37c0 ad3e c497 f93e
00000070: 4e76 c93e 5eaa c63e f92d b23e b8e5 f13e
00000080: 48ab f63e a40f 063f cd33 d83e c946 253f
00000090: d68b e23e fec2 e03e bf9c d83e db1e ff3e
000000a0: 8435 e73e f775 da3e 66e4 f73e 6ff0 e23e
000000b0: b62a be3e 6131 f93e 3a07 be3e 0546 dd3e
000000c0: 534a dd3e bb7e 123f a70e b73e b0f2 a53e
000000d0: 6e46 cf3e 9b1b c13e 079d ff3e eeda e03e
000000e0: a7d2 b13e 5603 bd3e ce49 c23e 4109 c33e
000000f0: 828c c43e eb38 353f 7a33 023f 5515 f03e

bias f4 [64]
-1.4152527e-06 4.936402e-07 4.7603174e-07 -8.4796676e-07 -2.1925237e-06 6.5071195e-06 2.238015e-06 -1.319994e-06
-4.4342223e-06 -4.3127607e-06 -1.5341957e-06 -1.6264977e-06 1.7147914e-06 -1.9503523e-06 1.4235789e-06 1.5153087e-06
1.5446526e-06 2.574141e-06 1.9962652e-06 3.5795838e-06 2.3664086e-06 5.06303e-06 1.8676571e-06 1.4511304e-06
-2.0701302e-06 1.9488546e-06 -2.5016311e-06 -1.2536923e-06 3.6608796e-07 1.426541e-06 1.5758076e-06 3.4161417e-07
2.626906e-06 1.0446853e-06 9.509465e-07 5.269075e-07 -3.191449e-06 -2.502149e-06 4.88077e-06 1.372825e-06
2.7885806e-06 -1.3884556e-06 1.7649077e-06 3.8709304e-06 1.0434493e-06 2.1071257e-06 1.5766147e-06 -2.9060473e-06
-2.5333093e-06 -6.553274e-07 3.294465e-06 -3.9575647e-07 -7.607236e-07 2.4838967e-06 4.256562e-06 -1.8264496e-06
-1.0892668e-06 -6.1792293e-06 -3.4674645e-06 2.0458754e-06 1.9107067e-06 7.64956e-08 5.0747935e-06 7.538552e-07
00000000: b6f3 bdb5 b282 0435 4e91 ff34 d59f 63b5
00000010: 4523 13b6 bb57 da36 ce30 1636 a62a b1b5
00000020: aec9 94b6 55b6 90b6 90ea cdb5 094e dab5
00000030: c927 e635 cce2 02b6 cc11 bf35 9c61 cb35
00000040: dc51 cf35 68bf 2c36 93f7 0536 c838 7036
00000050: 97ce 1e36 19e3 a936 36ac fa35 76c4 c235
00000060: 91ec 0ab6 11c9 0236 b2e1 27b6 8a44 a8b5
00000070: bf8a c434 9377 bf35 5680 d335 1867 b734
00000080: e749 3036 1d37 8c35 8c44 7f35 cf70 0d35
00000090: ad2c 56b6 98ea 27b6 7fc5 a336 e841 b835
000000a0: 7323 3b36 f95a bab5 c4e1 ec35 0ae3 8136
000000b0: a50c 8c35 2568 0d36 129c d335 8305 43b6
000000c0: ec01 2ab6 c2e9 2fb5 7a16 5d36 5b78 d4b4
000000d0: 8734 4cb5 05b1 2636 97d3 8e36 5524 f5b5
000000e0: ec32 92b5 2d57 cfb6 96b2 68b6 df4b 0936
000000f0: b139 0036 e745 a433 2548 aa36 895c 4a35

running_mean f4 [64]
0.38285488 0.04901293 0.5816958 0.042273853 0.45353568 0.030641703 -0.08221394 0.5686712
0.026522284 -1.2048128 1.036062 -0.714496 -0.047564194 0.28736615 -0.3375345 -0.09020391
0.18813388 0.19577444 0.08495693 0.22384687 0.030748809 0.6301344 -0.47154823 -0.35505575
-0.040264115 0.15958834 -0.5589044 0.6217075 -0.123047814 0.7738818 -0.07222521 -0.18991861
-0.78758496 -0.3838886 -0.2384537 0.06715632 0.054168597 0.00753706 0.8161972 0.12706368
-0.82698506 -0.62519616 0.50164676 0.53339934 0.5086442 0.04211486 -0.15384614 0.23997727
-0.5293878 -0.28336567 -0.44230607 -0.15097873 -0.8138777 -0.37872282 -0.70870346 -0.016382035
-0.7047246 0.8058465 -0.13533142 0.1699762 0.16479874 -0.43025145 -0.79929376 0.1970817
00000000: 8e05 c43e c8c1 483d 04ea 143f 5927 2d3d
00000010: d435 e83e 4f04 fb3c c85f a8bd 7094 113f
00000020: 4345 d93c 4e37 9abf ae9d 843f 36e9 36bf
00000030: acd2 42bd a821 933e 52d1 acbe d4bc b8bd
00000040: 2ba6 403e 1879 483e e6fd ad3d 1d38 653e
00000050: ede4 fb3c 7d50 213f c56e f1be dec9 b5be
00000060: fceb 24bd 206b 233e 5c14 0fbf 3928 1f3f
00000070: 7e00 fcbd 1e1d 463f d0ea 93bd 067a 42be
00000080: 2b9f 49bf 0c8d c4be 352d 74be 4189 893d
00000090: e4df 5d3d 71f9 f63b 4df2 503f fb1c 023e
000000a0: 4bb5 53bf db0c 20bf ec6b 003f dc8c 083f
000000b0: 8236 023f a280 2c3d d889 1dbe 9abc 753e
000000c0: f585 07bf 4e15 91be f175 e2be 2b9a 1abe
000000d0: 4a5a 50bf f5e7 c1be 976d 35bf 9e33 86bc
000000e0: d568 34bf f54b 4e3f 5294 0abe 3e0e 2e3e
000000f0: 00c1 283e eb49 dcbe 849e 4cbf c9cf 493e

running_var f4 [64]
0.14175881 0.12326744 0.06665191 0.10060338 0.15142946 0.14814831 0.11021118 0.08404139
0.11379779 0.10120211 0.17716299 0.18585251 0.26279518 0.13202693 0.25478065 0.19406317
0.18355203 0.1883216 0.08071222 0.17542985 0.26352653 0.06534328 0.12768379 0.17956784
0.15693444 0.13475768 0.091834225 0.17377782 0.10865761 0.12113348 0.08740365 0.14232811
0.16218317 0.22312419 0.1642038 0.39646184 0.07475147 0.15139122 0.08396416 0.24422373
0.12061974 0.11797849 0.21032757 0.13179052 0.06450502 0.15095331 0.108428456 0.1293321
0.11341835 0.30329326 0.070152156 0.11480356 0.10368632 0.10075815 0.24655862 0.084133975
0.072530404 0.074234694 0.08359922 0.092694715 0.102947235 0.33858836 0.16504462 0.13869198
00000000: 3929 113e a473 fc3d cc80 883d 2509 ce3d
00000010: 5310 1b3e 31b4 173e 66b6 e13d e41d ac3d
00000020: d10e e93d 0d43 cf3d 376a 353e 1f50 3e3e
00000030: 178d 863e 1132 073e 9c72 823e 7fb8 463e
00000040: 10f5 3b3e 61d7 403e 734c a53d e2a3 333e
00000050: f3ec 863e b3d2 853d 8abf 023e a2e0 373e
00000060: 6cb3 203e ebfd 093e 9513 bc3d d0f2 313e
00000070: e287 de3d d414 f83d af00 b33d 76be 113e
00000080: 5813 263e ab7a 643e 0a25 283e 0cfd ca3e
00000090: 4c17 993d 4d06 1b3e 67f5 ab3d c915 7a3e
000000a0: 7b07 f73d b59e f13d 1c60 573e 18f4 063e
000000b0: 351b 843d 8193 1a3e bd0f de3d a26f 043e
000000c0: e147 e83d 4149 9b3e efab 8f3d 211e eb3d
000000d0: 7e59 d43d 4a5a ce3d dd79 7c3e 6f4e ac3d
000000e0: d28a 943d 5c08 983d 1136 ab3d bad6 bd3d
000000f0: 00d6 d23d 745b ad3e 7501 293e 4505 0e3e
