experiments/model_repositories/demo/traffic_detection/model_files/block_18.pth (torch, 116537 bytes, 5 tensors)

weight f4 [384, 64, 1, 1]
0.099728405 0.039673973 0.06742232 -0.065180175 0.10350499 0.07474089 0.10083949 0.09452968
0.14657158 -0.09447713 -0.14690155 0.0051542367 0.030427268 0.05675192 -0.058464378 0.03796752
-0.13276526 0.060301214 0.01234583 0.0018300057 0.09771638 -0.17650202 0.03238944 0.046984516
0.0453584 0.060632445 -0.08386628 0.024921034 0.1043288 -0.009604624 -0.038855337 0.043431725
0.06551838 0.012177923 -0.085603945 0.037747517 0.051816802 0.073431425 -0.019834073 0.023272417
-0.030369004 0.08400278 -0.13095409 -0.014975199 0.050481386 -0.045976717 -0.08741597 0.054891206
-0.04076665 -0.017612591 0.0834463 0.0084790895 0.06562261 0.17457876 0.0014313947 -0.11788542
-0.13785397 0.030456439 0.08624006 -0.049820542 0.08683472 -0.09005113 0.0047402694 0.03199991
0.0649862 -0.11963327 0.006717201 -0.065609656 -0.037715536 -0.018663133 0.06539455 0.056308813
0.12201436 0.08712527 0.07983638 -0.04369861 -0.05458386 0.12246955 0.03458365 0.04630822
0.051071014 -0.0492471 -0.15768833 -0.06809403 0.030199872 -0.029977407 0.021822417 -0.096501864
-0.02117223 0.03643652 -0.008942024 -0.033216923 -0.04581881 -0.056709707 0.10420391 0.022377178
0.0024017994 0.15934639 -0.003849273 -0.12997438 -0.038370874 0.027940672 -0.070352264 0.056747887
0.057063583 -0.030453367 -0.13199349 -0.052215688 0.023847895 -0.05510889 0.03570094 -0.07387182
0.039770022 -0.12876545 -0.07742792 -0.023045706 0.02168154 -0.024600906 -0.07978 0.0059949406
0.07760403 -0.03134026 -0.024702879 0.04620381 -0.006458514 -0.04895337 -0.044659324 -0.07585705
0.04794695 0.028821219 0.017286392 0.16041107 -0.034668524 -0.1373513 0.014810574 0.0689961
0.10929554 0.029307868 -0.038096502 -0.040779874 0.11537088 -0.022462623 -0.019662956 0.01975869
-0.12313035 -0.0051492397 0.04013661 0.09853964 -0.10605714 -0.01079157 -0.075501405 0.08994409
0.078318365 0.06729673 0.07464821 -0.03052494 0.114891194 -0.11995182 -0.062058292 0.013328896
-0.09187698 -0.037607517 -0.024734655 0.23224343 0.052965876 -0.046242047 -0.093982205 0.09639971
0.08730084 -0.06676375 -0.035737492 0.10662331 0.08683444 -0.21740417 0.15692827 -0.032540407
-0.09702136 0.095257886 -0.011652197 0.0858602 0.11555121 -0.20264769 0.1253899 -0.015396935
0.0668307 -0.0909448 -0.08456631 0.037154503 -0.0999401 -0.071987346 -0.13659896 0.019951941
0.09699384 -0.13280493 -0.014565156 0.14031889 0.09617232 -0.10397554 0.00023599232 0.02409004
-0.0073866253 0.0071893563 -0.01735976 0.08927077 -0.0018414836 0.017408038 -0.07031771 0.01191446
-0.050734583 -0.026503434 -0.02065391 -0.012921526 0.0005021433 0.008196424 0.0667531 0.09920645
-0.04329593 -0.12814394 0.03629929 -0.006091226 0.036921714 -0.11555272 0.10056908 -0.017535456
-0.025181124 0.18197185 0.06510069 -0.15448827 -0.011512771 -0.0041705105 0.04477338 -0.07217252
-0.13497767 -0.048206773 -0.0031607102 0.009234092 -0.045459505 0.028141625 -0.022237051 -0.09987094
0.01540439 -0.07369405 -0.028455066 0.14612804 -0.061090626 -0.026748713 -0.04132636 -0.08153989
-0.054250196 0.04917154 0.031516213 0.11049083 0.016546998 0.09516702 0.05146263 -0.059201576
00000000: 683e cc3d 2d81 223d b714 8a3d 2f7d 85bd
00000010: 6dfa d33d c011 993d ef84 ce3d c798 c13d
00000020: dc16 163e 3a7d c1bd 5c6d 16be dfe4 a83b
00000030: 9b42 f93c b474 683d 5878 6fbd d583 1b3d
00000040: 9ef3 07be 68fe 763d 2a46 4a3c cddc ef3a
00000050: 871f c83d f2bc 34be caaa 043d d672 403d
00000060: bbc9 393d ba59 783d 16c2 abbd 3227 cc3c
00000070: 57aa d53d b65c 1dbc c626 1fbd 77e5 313d
00000080: 802e 863d e985 473c 1f51 afbd 249d 1a3d
00000090: db3d 543d 3763 963d 117b a2bc cca5 be3c
000000a0: 6bc8 f8bc a609 ac3d d418 06be 895a 75bc
000000b0: 92c5 4e3d 1552 3cbd 2507 b3bd 9ad5 603d
000000c0: eefa 26bd 4848 90bc e5e5 aa3d e1eb 0a3c
000000d0: 2665 863d c6c4 323e a39d bb3a e96d f1bd
000000e0: 9729 0dbe c87f f93c a19e b03d a010 4cbd
000000f0: 67d6 b13d ba6c b8bd 4354 9b3b 5612 033d
00000100: 7c17 853d 4a02 f5bd f71b dc3b 5b5e 86bd
00000110: 9b7b 1abd 6de3 98bc 94ed 853d 12a4 663d
00000120: aae2 f93d bc6e b23d 4281 a33d 50fd 32bd
00000130: 5393 5fbd 51d1 fa3d 96a7 0d3d b0ad 3d3d
00000140: d72f 513d 54b7 49bd 0d79 21be e274 8bbd
00000150: b965 f73c 2e93 f5bc edc4 b23c c5a2 c5bd
00000160: 6271 adbc 763e 153d 9181 12bc 780e 08bd
00000170: 81ac 3bbd 7048 68bd dc68 d53d 5850 b73c
00000180: 8267 1d3b b32b 233e 1644 7cbb 0118 05be
00000190: c72a 1dbd d6e3 e43c d914 90bd 7970 683d
000001a0: 81bb 693d 5779 f9bc 4d29 07be 1ee0 55bd
000001b0: a95c c33c dcb9 61bd 263b 123d 1c4a 97bd
000001c0: e4e5 223d 17db 03be 8892 9ebd 59ca bcbc
000001d0: 7c9d b13c d787 c9bc b263 a3bd 3571 c43b
000001e0: ddee 9e3d a55e 00bd b15d cabc 3540 3d3d
000001f0: f1a1 d3bb 5483 48bd b2ec 36bd f15a 9bbd
00000200: 0564 443d 7a1a ec3c 319c 8d3c cd42 243e
00000210: 9500 0ebd d2a5 0cbe 0da8 723c d44d 8d3d
00000220: 57d6 df3d 0e17 f03c 140b 1cbd cc08 27bd
00000230: 9147 ec3d 8903 b8bc 3514 a1bc fadc a13c
00000240: c42b fcbd f4ba a8bb 4966 243d 27cf c93d
00000250: 7c34 d9bd 20cf 30bc 7ba0 9abd 9b34 b83d
00000260: 6165 a03d ded2 893d 29e1 983d 700f fabc
00000270: 134c eb3d 4da9 f5bd d630 7ebd 7161 5a3c
00000280: 002a bcbd 570a 1abd 55a0 cabc 39d1 6d3e
00000290: bff2 583d 4d68 3dbd be79 c0bd 366d c53d
000002a0: c8ca b23d 6fbb 88bd 7a61 12bd 525d da3d
000002b0: 41d6 b13d 339f 5ebe ceb1 203e 1749 05bd
000002c0: 23b3 c6bd 9116 c33d dbe8 3ebc 79d7 af3d
000002d0: 1da6 ec3d e082 4fbe 3666 003e 6d43 7cbc
000002e0: 89de 883d 4441 babd 1a31 adbd 522f 183d
000002f0: 65ad ccbd 1a6e 93bd 99e0 0bbe 4172 a33c
00000300: b5a4 c63d 04fe 07be b1a2 6ebc c1af 0f3e
00000310: fef5 c43d 21f1 d4bd b574 7739 7a58 c53c
00000320: 810b f2bb b194 eb3b 0e36 8ebc 98d3 b63d
00000330: f05d f1ba 4d9b 8e3c bb02 90bd de34 433c
00000340: 11cf 4fbd bb1d d9bc 6332 a9bc cfb4 53bc
00000350: 44a2 033a 4b4a 063c d9b5 883d c02c cb3d
00000360: 1357 31bd 2a38 03be 90ae 143d e898 c7bb
00000370: 393b 173d e8a6 ecbd 29f7 cd3d 84a6 8fbc
00000380: a548 cebc d456 3a3e 8353 853d 2c32 1ebe
00000390: 10a0 3cbc c7a8 88bb 4b64 373d 30cf 93bd
000003a0: 9637 0abe 7774 45bd eb23 4fbb 974a 173c
000003b0: bf33 3abd 4489 e63c 7a2a b6bc 2389 ccbd
000003c0: b262 7c3c e8ec 96bd 991a e9bc 97a2 153e
000003d0: 2a3a 7abd 1e20 dbbc d445 29bd 63fe a6bd
000003e0: 7435 5ebd 1968 493d 2517 013d 0449 e23d
000003f0: 928d 873c ede6 c23d 7bca 523d 5a7d 72bd

weight f4 [384]
0.110529795 0.122005776 0.15652871 0.10178242 0.13718972 0.14276855 0.15421806 0.124686725
0.1314527 0.04945161 0.019946707 0.15478607 0.12889102 0.16430831 0.16516812 0.14002249
0.14263217 0.12271597 0.1321559 0.14785178 0.14162423 0.1343244 0.14784889 0.15844901
0.12800536 0.1041797 0.11362339 0.149441 0.15852617 0.1450206 0.12786213 0.080949105
0.13335441 0.1118704 0.13709527 0.062350355 0.13605724 0.10542227 0.15407933 0.17868064
0.14761686 0.12744108 0.05805761 0.12566157 0.15730728 0.12533091 0.12607148 0.09775165
0.12121757 0.16202113 0.07564153 0.12971279 0.1229815 0.108859524 0.10893487 0.118919685
0.12956814 0.15483929 0.08918063 0.061002664 0.1252623 0.13549557 0.068072885 0.12656708
0.13895059 0.119812295 0.12895025 0.11919706 0.15524979 0.11638143 0.13612595 0.19094953
0.060768228 0.10754842 0.13988963 0.12568243 0.13268155 0.15009363 0.15031227 0.14235231
0.14495516 0.18223533 0.15668245 0.19262514 0.13963848 0.14030625 0.18484627 0.17649403
0.15625894 0.123357 0.13119362 0.15602113 0.14631031 0.13509814 0.1827062 0.12809166
0.14710592 0.13954449 0.14383152 0.16453466 0.11953471 0.12608527 0.10909979 0.15938643
0.13055243 0.14746416 0.14225224 0.15514947 0.12690805 0.18843926 0.115940265 0.13084865
0.0645939 0.12382649 0.09351642 0.11685917 0.17113683 0.12815504 0.10238511 0.12732972
0.1457703 0.10869918 0.11984326 0.13090278 0.095967375 0.12231253 0.12833807 0.16865732
0.14012508 0.13350482 0.12764798 0.14454171 0.13866112 0.12824143 0.115864195 0.17727596
0.124952115 0.10255758 0.13478059 0.16704512 0.14224632 0.1531309 0.15541422 0.16024835
0.15804988 0.15315627 0.10188453 0.14615147 0.113875076 0.1739862 0.124606095 0.15311846
0.087289885 0.13331375 0.11743281 0.14565635 0.1163947 0.103641905 0.13732009 0.066209815
0.11436542 0.0875539 0.12601815 0.122426845 0.13823569 0.07251181 0.13545784 0.13216093
0.1541444 0.14405473 0.1162563 0.09560074 0.11546248 0.12493805 0.17141424 0.119565174
0.13875183 0.0997767 0.17658004 0.16168071 0.148263 0.08819694 0.16463469 0.109676644
0.13567553 0.15573698 0.11810457 0.13292952 0.1648102 0.12771146 0.114361055 0.104683034
0.13630939 0.14475964 0.14628121 0.13689817 0.15714857 0.12564327 0.16842358 0.07625558
0.13611162 0.1460103 0.14125128 0.15185435 0.21079527 0.12007387 0.1452598 0.14023979
0.07907909 0.15933582 0.15308036 0.13024049 0.12977333 0.15690273 0.13150378 0.13393134
0.17309277 0.12365496 0.08189559 0.14775632 0.12059464 0.13593185 0.12397543 0.14105049
0.06923435 0.16393551 0.17999516 0.13112067 0.16152817 0.14000383 0.13523988 0.14527708
0.06985278 0.14894487 0.0884662 0.066584565 0.14643429 0.14871472 0.064914346 0.16691259
0.12793814 0.10734479 0.14206338 0.14511341 0.1687484 0.10389013 0.11699038 0.12652372
0.13811992 0.15678999 0.11212963 0.12694825 0.1443519 0.12446476 0.11668365 0.13697404
00000000: 725d e23d 2ade f93d 1049 203e 4d73 d03d
00000010: 767b 0c3e eb31 123e 57eb 1d3e c15b ff3d
00000020: 899b 063e c58d 4a3d 4767 a33c 3d80 1e3e
00000030: 02fc 033e 7040 283e d521 293e 0e62 0f3e
00000040: 2b0e 123e 8352 fb3d e053 073e 7566 173e
00000050: f105 113e 568c 093e b365 173e 7540 223e
00000060: d613 033e 2b5c d53d 61b3 e83d 1007 193e
00000070: af54 223e 4880 143e 4aee 023e a5c8 a53d
00000080: 0f8e 083e 4f1c e53d b462 0c3e 1663 7f3d
00000090: 9752 0b3e a2e7 d73d f9c6 1d3e 0ff8 363e
000000a0: e028 173e ea7f 023e d1cd 6d3d 6dad 003e
000000b0: 2915 213e bf56 003e e218 013e 0432 c83d
000000c0: eb40 f83d dee8 253e f2e9 9a3d 6ed3 043e
000000d0: badd fb3d bef1 de3d 3f19 df3d 2a8c f33d
000000e0: 83ad 043e 318e 1e3e 56a4 b63d eedd 793d
000000f0: c344 003e 5abf 0a3e cc69 8b3d cd9a 013e
00000100: 1049 0e3e 2660 f53d 890b 043e 971d f43d
00000110: cdf9 1e3e 6359 ee3d 9a64 0b3e 4688 433e
00000120: 1be8 783d 5942 dc3d 3a3f 0f3e e5b2 003e
00000130: acdd 073e 25b2 193e 76eb 193e cec4 113e
00000140: 206f 143e e69b 3a3e 5d71 203e 863f 453e
00000150: 64fd 0e3e 71ac 0f3e 5748 3d3e daba 343e
00000160: 5802 203e 98a2 fc3d 9f57 063e 01c4 1f3e
00000170: 5fd2 153e 2b57 0a3e 5617 3b3e 762a 033e
00000180: efa2 163e c0e4 0e3e 9248 133e c67b 283e
00000190: 9dce f43d 7f1c 013e b66f df3d 3236 233e
000001a0: 89af 053e d800 173e 92aa 113e 81df 1e3e
000001b0: 2ff4 013e 39f6 403e 1772 ed3d 30fd 053e
000001c0: cf49 843d be98 fd3d 8985 bf3d dc53 ef3d
000001d0: 7e3e 2f3e 133b 033e 49af d13d b962 023e
000001e0: cf44 153e ad9d de3d 6270 f53d 610b 063e
000001f0: 8b8a c43d fe7e fa3d 0e6b 033e 81b4 2c3e
00000200: f37c 0f3e 7db5 083e 27b6 023e be02 143e
00000210: 2efd 0d3e b951 033e 354a ed3d d487 353e
00000220: e5e6 ff3d b509 d23d ec03 0a3e e00d 2b3e
00000230: 05a9 113e 59ce 1c3e e824 1f3e 2518 243e
00000240: d4d7 213e ffd4 1c3e d6a8 d03d bba8 153e
00000250: 5637 e93d 7029 323e 7b31 ff3d 16cb 1c3e
00000260: 0ac5 b23d 6683 083e 9d80 f03d f026 153e
00000270: 5860 ee3d 3542 d43d a39d 0c3e 0399 873d
00000280: 6b38 ea3d 764f b33d e70a 013e edba fa3d
00000290: a88d 0d3e 1281 943d 76b5 0a3e 3255 073e
000002a0: 08d8 1d3e 1583 133e c817 ee3d 52ca c33d
000002b0: 9877 ec3d 85df ff3d 3787 2f3e 96de f43d
000002c0: f614 0e3e ba57 cc3d 66d1 343e a18f 253e
000002d0: 42d2 173e 99a0 b43d ff95 283e 269e e03d
000002e0: 87ee 0a3e 8479 1f3e cfe0 f13d ad1e 083e
000002f0: 01c4 283e cbc6 023e 2136 ea3d 0f64 d63d
00000300: b094 0b3e df3b 143e beca 153e 092f 0c3e
00000310: 8eeb 203e a1a8 003e 3b77 2c3e e32b 9c3d
00000320: d860 0b3e b983 153e 2da4 103e b57f 1b3e
00000330: b7da 573e 4ae9 f53d fcbe 143e 059b 0f3e
00000340: 38f4 a13d ee28 233e 19c1 1c3e c35d 053e
00000350: 4de3 043e 1cab 203e eda8 063e 4c25 093e
00000360: 3b3f 313e d03e fd3d e0b8 a73d 6f4d 173e
00000370: 53fa f63d b831 0b3e d5e6 fd3d 8a6f 103e
00000380: bdca 8d3d b6de 273e a750 383e 7f44 063e
00000390: a467 253e 2a5d 0f3e 537c 0a3e 84c3 143e
000003a0: f90e 8f3d 0185 183e c42d b53d 7d5d 883d
000003b0: dff2 153e ac48 183e d0f1 843d 22eb 2a3e
000003c0: 3702 033e 96d7 db3d 1079 113e 9c98 143e
000003d0: 61cc 2c3e 59c4 d43d a798 ef3d 6f8f 013e
000003e0: 4f6f 0d3e 8e8d 203e 38a4 e53d b9fe 013e
000003f0: fcd0 133e 61e7 fe3d d6f7 ee3d ec42 0c3e

bias f4 [384]
0.1827352 0.124952115 -0.0022873085 0.14722875 0.0326488 0.084951855 0.12690158 0.18221344
0.068128 0.25502846 0.19999126 0.05270431 0.046743564 -0.10549983 0.016213156 -0.03930828
-0.0052394792 0.11616989 0.1303801 -0.046200212 -0.027416337 -0.059089903 -0.012944488 -0.009262091
0.045758013 0.20045637 0.021177158 -0.008030823 0.055494774 -0.044475175 0.06478266 0.20814879
0.007909065 0.17428304 -0.008909338 0.22767428 0.05039361 0.21496655 0.009813249 -0.018589944
0.015444148 0.088375844 0.19710076 0.017708225 0.13856944 0.1388402 0.029926434 0.19680029
0.102775 -0.10323734 0.13300605 0.055461403 -0.021026842 0.07305237 -0.007633371 0.15411061
0.037351996 0.027354715 0.15025155 0.1876262 0.024150891 0.06863533 0.15034962 0.12889555
-0.01037065 0.16924293 0.18220268 0.12520845 -0.013059738 0.16659339 -0.025234986 -0.026962198
0.21007521 0.1562206 0.10408332 -0.017532367 -0.056474894 -0.027066361 0.036683727 -0.1640325
0.017700998 0.0041722925 -0.045058537 -0.0834824 -0.0004264418 -0.10523859 -0.011773872 0.066327214
0.034697916 0.06425343 0.0043056854 0.025660345 -0.013335714 0.043588124 0.0143614905 0.29920217
-0.0049458416 -0.03466795 0.024979154 0.011354115 0.046027172 0.08829768 0.09285556 0.11863065
-0.007751139 0.17917836 0.120464325 0.077443115 0.083211556 -0.0061856816 0.113533944 0.044297222
0.21574928 0.043650314 0.22721732 0.17796393 0.06906963 0.044785738 0.22804357 -0.012171686
-0.02107218 0.19350457 0.2046923 0.008222687 0.21829918 0.070980564 0.040725425 -0.03935703
0.0026947958 0.093789615 0.08793006 0.025886443 -0.06784283 0.099672034 0.108741604 0.16662133
-0.01877737 0.14093086 0.050293047 -0.013528143 0.0042468575 0.027706837 -0.005734276 0.017796308
0.05805788 0.044833038 0.12035694 -0.025819266 0.059016902 0.020698883 0.11399629 -0.04045135
0.12417195 0.040320486 0.044101324 0.023292532 0.15984361 0.2426952 0.026012613 0.1597642
0.11172879 0.17889377 0.036337644 0.20660767 0.18797503 0.12116675 0.057623748 0.21621624
0.0560136 0.1354783 0.057391323 0.10536919 0.062234327 0.15495026 0.006215247 0.0038565448
0.1425047 0.14816248 -0.03152535 -0.08673115 -0.013165654 0.14473519 0.049317505 0.27979857
0.016647732 0.030700194 -0.0557833 0.032288555 0.0025112468 -0.019192455 0.07819221 0.14460374
0.024532394 0.027655002 0.06582206 0.04100432 -0.026766017 0.12600194 -0.0049775327 0.19086885
0.09538438 0.0478735 -0.042206384 0.035256468 -0.08258689 -0.05164152 0.109580405 0.13213153
0.12344594 -0.085260086 -0.040384684 0.07652785 -0.017331606 -0.0054862755 0.07493441 0.14942063
0.015891802 -0.029777871 0.16903952 0.03867879 0.18416476 0.046497937 0.10292024 0.005706158
0.15535982 0.033082798 -0.06699625 -0.014611995 -0.05326044 -0.012741893 -0.0931649 0.0495612
0.16557516 -0.047571383 0.19951442 0.19218974 -0.022784965 0.15779305 0.24513654 -0.05090682
0.027567973 0.0626577 -0.035086308 -0.014673584 -0.056676157 0.123301476 0.0787927 0.07472793
0.077424936 0.04552593 0.116458006 0.06937459 0.1373434 0.10265949 0.09879804 0.10689326
00000000: f01e 3b3e e5e6 ff3d abe6 15bb 22c3 163e
00000010: c0ba 053d 3dfb ad3d 7df2 013e 2996 3a3e
00000020: b186 8b3d 1793 823e 82ca 4c3e 79e0 573d
00000030: 2e76 3f3d 4b10 d8bd 74d1 843c b801 21bd
00000040: f0af abbb 7bea ed3d 5c82 053e 6f3c 3dbd
00000050: 3a98 e0bc 4108 72bd 1e15 54bc 06c0 17bc
00000060: c16c 3b3d 6f44 4d3e b87b ad3c b793 03bc
00000070: 7d4e 633d 9a2b 36bd c5ac 843d f524 553e
00000080: 0695 013c 4177 323e 79f8 11bc 7223 693e
00000090: 8869 4e3d 3120 5c3e c0c7 203c f049 98bc
000000a0: 7409 7d3c 65fe b43d c8d4 493e d710 913c
000000b0: 26e5 0d3e 202c 0e3e 4828 f53c 0486 493e
000000c0: b37b d23d 196e d3bd bd32 083e 7f2b 633d
000000d0: 7c40 acbc 7b9c 953d 5b21 fabb 2ccf 1d3e
000000e0: 68fe 183d ff16 e03c 8bdb 193e 1521 403e
000000f0: 17d8 c53c ae90 8c3d 40f5 193e 32fd 033e
00000100: a9e9 29bc 054e 2d3e 5793 3a3e a536 003e
00000110: 83f8 55bc 7597 2a3e 9ab9 cebc d4df dcbc
00000120: f51d 573e 4bf8 1f3e a329 d53d 0aa0 8fbc
00000130: 3852 67bd 46ba ddbc ad41 163d 23f8 27be
00000140: af01 913c bab7 883b 4d8f 38bd d2f8 aabd
00000150: 0d94 dfb9 5487 d7bd 33e7 40bc 90d6 873d
00000160: 671f 0e3d 4d97 833d b516 8d3b a535 d23c
00000170: 0a7e 5abc 7689 323d 754c 6b3c 0731 993e
00000180: ba10 a2bb fbff 0dbd 15a1 cc3c 9c06 3a3c
00000190: fd86 3c3d 6ad5 b43d 0e2b be3d a0f4 f23d
000001a0: 44fd fdbb 887a 373e 00b6 f63d 7f9a 9e3d
000001b0: d26a aa3d 42b1 cabb 7c84 e83d 0171 353d
000001c0: 61ed 5c3e acca 323d a8ab 683e 2d3c 363e
000001d0: 6174 8d3d 4071 373d 4184 693e c06b 47bc
000001e0: 909f acbc 1026 463e dc9a 513e 73b8 063c
000001f0: d289 5f3e 425e 913d b4cf 263d d634 21bd
00000200: 2c9b 303b c514 c03d ad14 b43d ce0f d43c
00000210: 2ff1 8abd da20 cc3d ebb3 de3d c89e 2a3e
00000220: 00d3 99bc 2e50 103e 1500 4e3d 25a5 5dbc
00000230: 3929 8b3b 73f9 e23c 98e6 bbbb 90c9 913c
00000240: 19ce 6d3d d9a2 373d b37d f63d ed82 d3bc
00000250: b5bb 713d b490 a93c e376 e93d 51b0 25bd
00000260: dd4d fe3d 1827 253d 97a3 343d fbcf be3c
00000270: 0bae 233e 1785 783e 6718 d53c 3a99 233e
00000280: 10d2 e43d ee2f 373e c8d6 143d f690 533e
00000290: 877c 403e 4626 f83d e106 6c3d ca67 5d3e
000002a0: 846e 653d d3ba 0a3e 2a13 6b3d cdcb d73d
000002b0: 6ce9 7e3d 48ab 1e3e 45a9 cb3b 16be 7c3b
000002c0: c1ec 113e e8b7 173e ba20 01bd 1aa0 b1bd
000002d0: c1b4 57bc 7635 143e 2701 4a3d c241 8f3e
000002e0: d360 883c f97e fb3c 087d 64bd 0141 043d
000002f0: bb93 243b 7f39 9dbc 3d23 a03d 0113 143e
00000300: 29f8 c83c be8c e23c b7cd 863d 25f4 273d
00000310: 6844 dbbc a706 013e 921a a3bb 2073 433e
00000320: e358 c33d 0117 443d 9ae0 2cbd 1669 103d
00000330: 5123 a9bd 0f86 53bd b16b e03d 7d4d 073e
00000340: 3ad1 fc3d d79c aebd 696a 25bd a2ba 9c3d
00000350: 03fb 8dbc 37c6 b3bb 3677 993d b901 193e
00000360: 862f 823c b9f0 f3bc b218 2d3e a76d 1e3d
00000370: b095 3c3e 9f74 3e3d d9c7 d23d b9fa ba3b
00000380: a516 1f3e d481 073d 5435 89bd 2667 6fbc
00000390: 9e27 5abd 5fc3 50bc 3dcd bebd af00 4b3d
000003a0: 898c 293e 36da 42bd 824d 4c3e 63cd 443e
000003b0: 89a7 babc 8094 213e 1305 7b3e ab83 50bd
000003c0: 3bd6 e13c ae52 803d a9b6 0fbd 7969 70bc
000003d0: 4225 68bd 7c85 fc3d 115e a13d f50a 993d
000003e0: f790 9e3d 6679 3a3d 8981 ee3d 4414 8e3d
000003f0: c0a3 0c3e 243f d23d a056 ca3d daea da3d

running_mean f4 [384]
-1.5510183e-06 -4.860987e-06 -1.9331562e-06 -3.6635136e-06 8.521657e-06 -5.424575e-06 7.325737e-06 -1.6894203e-06
-3.3990589e-06 -4.6802725e-06 1.8826976e-06 -2.0487614e-06 -4.8309817e-06 3.4130612e-06 8.700272e-06 4.232767e-06
-3.8740923e-06 8.1310345e-06 -5.3226117e-06 1.4754145e-06 2.9732182e-06 4.859136e-06 3.331979e-06 -1.0949095e-06
9.377387e-06 -4.6164487e-06 2.1237834e-06 -1.1418758e-06 -4.466864e-06 1.5865559e-06 -1.6951336e-07 -2.177452e-06
4.8427637e-06 -1.625092e-06 -2.901579e-06 -3.6228505e-06 -3.5609726e-06 4.0724096e-08 -7.3963724e-06 -7.9751766e-07
1.2603462e-05 1.8594595e-06 -1.2508001e-06 3.1153993e-06 5.6860845e-06 2.598906e-07 -1.3009745e-07 -6.1887213e-06
8.922432e-07 5.1565294e-06 3.2850537e-06 7.606602e-07 -1.7131217e-06 4.714462e-06 1.1171151e-07 8.209093e-07
-3.7387229e-06 -1.0600513e-06 -2.6098367e-06 -7.067778e-06 4.134482e-06 2.3266828e-06 1.7069565e-06 -3.4608115e-06
-4.1902658e-07 4.903871e-06 9.317927e-06 4.2955978e-07 -4.249207e-06 -2.7658486e-06 1.0490908e-06 8.063021e-06
-7.882223e-06 4.3780396e-06 -2.1831083e-06 3.0428766e-06 1.2411505e-06 6.382945e-06 1.2022963e-05 5.8287387e-06
-4.190914e-06 5.0494496e-06 -5.1296274e-07 7.6027995e-06 -1.9663428e-06 -1.3771532e-06 -2.77419e-06 5.5449614e-06
6.6019675e-06 -3.547371e-07 1.4875543e-06 4.819076e-06 6.6023204e-06 -3.215909e-06 -9.422104e-08 -2.022577e-06
-1.9895492e-06 -2.998797e-06 2.3371276e-06 7.326713e-06 4.2279667e-06 -6.1822034e-06 7.3543873e-07 -2.3623427e-06
-7.891152e-06 -7.2036164e-06 -2.588524e-06 -2.4283383e-06 9.292834e-07 -2.6986127e-06 -1.6525188e-06 -2.8368756e-06
-8.915948e-06 6.489191e-06 1.1581879e-05 7.038625e-06 1.3313521e-05 -8.5351303e-07 -5.9920762e-06 -2.4469764e-06
8.413251e-06 4.622903e-06 1.0677753e-06 -1.5115398e-06 -1.5458163e-05 -2.9651976e-06 3.5633168e-06 -1.567687e-07
5.5030473e-06 -5.9746226e-06 -8.2642255e-06 4.002759e-07 7.9935535e-06 -5.8448535e-07 4.715036e-06 7.668223e-06
1.6392114e-06 8.015624e-06 1.2680955e-06 -5.353381e-07 -3.0778845e-06 1.4699228e-06 7.3953565e-06 -1.4558897e-06
8.615713e-08 -2.3741318e-06 6.0433513e-06 8.869387e-06 5.8265465e-07 -3.8741567e-07 -4.9704313e-06 1.6379304e-06
3.3022116e-07 -5.809252e-07 -4.647172e-06 -1.6992035e-06 -1.2291185e-06 3.5487851e-06 8.154156e-07 1.3982588e-05
4.7330016e-07 8.716967e-06 -2.2327697e-06 -2.3845582e-06 -6.2352815e-06 -1.4465556e-06 3.5509172e-06 2.4771043e-06
4.385489e-06 1.7191535e-06 2.6497382e-06 -1.0549393e-06 2.931551e-06 1.2009154e-06 -1.4552451e-06 -1.836574e-06
3.4289512e-06 -3.6967897e-06 -1.4928652e-06 1.0648926e-06 -7.680504e-06 -2.8874726e-06 1.6157991e-06 -4.6773885e-06
-3.8825874e-06 9.666968e-06 4.9317023e-06 -8.752859e-07 1.2542939e-06 4.3254497e-07 -3.6587042e-07 1.0947471e-06
1.8446233e-06 1.4279544e-06 4.0161112e-06 4.6098758e-06 1.3610488e-06 6.398824e-06 1.4476769e-06 -2.6137564e-06
1.0710305e-06 3.0778622e-06 -3.6429105e-06 -1.9267734e-06 4.3476293e-06 5.7908996e-06 1.5816295e-06 -8.823077e-06
-3.523698e-06 2.833283e-06 2.6711064e-06 8.552466e-06 -9.9502e-08 6.226641e-06 -4.5772026e-07 5.1146667e-06
3.8829742e-07 3.1831535e-06 9.474474e-07 5.407519e-07 -1.2302332e-06 -9.98713e-06 -5.2795876e-06 -3.106315e-07
-2.2276765e-06 9.2950695e-06 -8.344763e-07 -1.7256691e-06 -6.5805517e-07 1.6783288e-06 2.28117e-06 -5.345828e-06
-5.2111795e-06 -4.3639975e-06 -9.418605e-06 -3.8939197e-06 -4.8957645e-06 3.97019e-06 -1.170037e-05 3.2932576e-06
-6.3457087e-06 -1.9744806e-07 3.2868054e-06 1.3672511e-06 5.0649746e-06 3.5632563e-06 -7.054202e-07 -9.553194e-07
4.265972e-06 1.7875549e-07 -4.2815157e-07 -1.4760136e-06 -3.3705187e-06 8.470813e-06 2.5748406e-07 1.994555e-06
00000000: 952c d0b5 8f1b a3b6 5fbb 01b6 afda 75b6
00000010: 3df8 0e37 bf04 b6b6 9acf f536 0ac0 e2b5
00000020: 631b 64b6 3c0b 9db6 ffb0 fc35 747d 09b6
00000030: d119 a2b6 f20b 6536 62f7 1137 3107 8e36
00000040: 33fe 81b6 876a 0837 e398 b2b6 db06 c635
00000050: 8087 4736 a90b a336 f79a 5f36 cef4 92b5
00000060: 9253 1d37 fee6 9ab6 5286 0e36 8e42 99b5
00000070: 12e2 95b6 a5f1 d435 7a03 36b4 5720 12b6
00000080: 067f a236 bc1d dab5 bfb8 42b6 1920 73b6
00000090: 0bf9 6eb6 9ee8 2e33 5b2e f8b6 ff14 56b5
000000a0: 7573 5337 8b92 f935 2ae1 a7b5 2712 5136
000000b0: 18cb be36 1887 8b34 eab0 0bb4 b6a8 cfb6
000000c0: 7c82 6f35 4006 ad36 cb74 5c36 2c30 4c35
000000d0: 6aee e5b5 ec30 9e36 0de6 ef33 755c 5c35
000000e0: c5e6 7ab6 1647 8eb5 a724 2fb6 c027 edb6
000000f0: eeba 8a36 1b24 1c36 941a e535 4a40 68b6
00000100: 93f6 e0b4 ee8b a436 3154 1c37 3f9e e634
00000110: 6994 8eb6 eb9c 39b6 7cce 8c35 6946 0737
00000120: e43d 04b7 13e7 9236 8481 12b6 3934 4c36
00000130: 9b95 a635 142d d636 3cb6 4937 7c94 c336
00000140: ad9f 8cb6 716e a936 88b2 09b5 8d1b ff36
00000150: 83f5 03b6 a0d6 b8b5 392c 3ab6 db0e ba36
00000160: 7886 dd36 b272 beb4 faa7 c735 8cb3 a136
00000170: 8089 dd36 e5d0 57b6 9156 cab3 9cbb 07b6
00000180: 3284 05b6 f13e 49b6 8cd7 1c36 fcd7 f536
00000190: f5dd 8d36 b970 cfb6 f76a 4535 bd88 1eb6
000001a0: 3d64 04b7 98b6 f1b6 81b6 2db6 89f6 22b6
000001b0: de73 7935 d019 35b6 1dcc ddb5 2761 3eb6
000001c0: b495 15b7 babd d936 cb4f 4237 542d ec36
000001d0: 235d 5f37 f81c 65b5 8b0f c9b6 bc36 24b6
000001e0: a326 0d37 6f1e 9b36 7b50 8f35 1de0 cab5
000001f0: 27ac 81b7 b5fd 46b6 5121 6f36 4154 28b4
00000200: d1a6 b836 9e79 c8b6 94a6 0ab7 80e5 d634
00000210: 0d1c 0637 87e5 1cb5 da35 9e36 c4a6 0037
00000220: e002 dc35 d87a 0637 6e33 aa35 27b4 0fb5
00000230: a78d 4eb6 2a4a c535 a125 f836 fd67 c3b5
00000240: 6205 b933 4653 1fb6 fec7 ca36 bacd 1437
00000250: b967 1c35 01fe cfb4 aec7 a6b6 dcd6 db35
00000260: 4049 b134 e0f0 1bb5 e7ee 9bb6 3010 e4b5
00000270: 31f8 a4b5 aa27 6e36 efe2 5a35 c296 6a37
00000280: e119 fe34 173f 1237 b1d6 15b6 6606 20b6
00000290: a938 d1b6 4627 c2b5 4b4c 6e36 543c 2636
000002a0: 1027 9336 aabd e635 28d2 3136 7097 8db5
000002b0: aabb 4436 242f a135 d751 c3b5 3480 f6b5
000002c0: ef1c 6636 5d16 78b6 755e c8b5 6eed 8e35
000002d0: 83db 00b7 67c6 41b6 6fde d835 76f2 9cb6
000002e0: 2c47 82b6 502f 2237 007b a536 30f5 6ab5
000002f0: 3659 a835 8738 e834 d96c c4b4 39ef 9235
00000300: c694 f735 24a8 bf35 22c2 8636 88ae 9a36
00000310: 48ad b635 7bb5 d636 cd4d c235 fe67 2fb6
00000320: 54c0 8f35 458d 4e36 ba78 74b6 b74d 01b6
00000330: dae1 9136 734f c236 6048 d435 d406 14b7
00000340: ac78 6cb6 6e23 3e36 4241 3336 907c 0f37
00000350: cead d5b3 70ee d036 98bc f5b4 a79e ab36
00000360: 3177 d034 299e 5536 1754 7e35 3028 1135
00000370: 7e1e a5b5 668e 27b7 5027 b1b6 dec4 a6b4
00000380: 317f 15b6 05f2 1b37 c600 60b5 8a9d e7b5
00000390: 35a5 30b5 f042 e135 3416 1936 5060 b3b6
000003a0: b1db aeb6 746e 92b6 9a04 1eb7 84a8 82b6
000003b0: 4c46 a4b6 ac37 8536 b54c 44b7 bc01 5d36
000003c0: 39ed d4b6 1c02 54b4 e392 5c36 6482 b735
000003d0: cdf3 a936 4720 6f36 1b5c 3db5 8638 80b5
000003e0: 6c24 8f36 efef 3f34 b4dc e5b4 711b c6b5
000003f0: 1231 62b6 dd1d 0e37 573c 8a34 32da 0536

running_var f4 [384]
0.17873017 0.36994046 0.21361804 0.1392967 0.33001915 0.28756994 0.2009384 0.11372176
0.17507383 0.15659696 0.11594806 0.16903362 0.12624593 0.42519316 0.21697994 0.23020594
0.28753313 0.27253255 0.26986042 0.23816945 0.23327646 0.14178114 0.22415064 0.12468498
0.37599537 0.4168389 0.18197165 0.19760653 0.26797587 0.32955453 0.1410501 0.23276174
0.34975803 0.18378711 0.15958512 0.3384146 0.23094033 0.31653208 0.3291479 0.29601505
0.31828743 0.12646155 0.19958249 0.12238317 0.28924435 0.3479572 0.23006763 0.1936642
0.18798153 0.31811404 0.2969758 0.29333222 0.23698802 0.39684045 0.14965598 0.15913601
0.17864572 0.21630639 0.28887567 0.17269725 0.18407507 0.13266547 0.19082125 0.1039198
0.22376831 0.17234574 0.2336826 0.20951577 0.24994063 0.23603885 0.15213555 0.33391276
0.28149676 0.23453662 0.14549522 0.19933203 0.21212627 0.43040898 0.21162562 0.22034076
0.18121782 0.29853246 0.36557475 0.3645763 0.18374625 0.11130917 0.1995688 0.16301109
0.30547872 0.2856851 0.21926317 0.33121789 0.33116698 0.21594965 0.345721 0.44076297
0.13221535 0.24475235 0.13385941 0.1868851 0.33002663 0.10888929 0.1532564 0.15188679
0.1606003 0.21022344 0.16147538 0.29923382 0.2814248 0.17450108 0.10530404 0.19723977
0.30375144 0.20866962 0.55962175 0.20189752 0.49339163 0.34548658 0.29076236 0.19192187
0.3080105 0.33679044 0.3205973 0.19935541 0.24444178 0.117508635 0.17833701 0.28908807
0.30913553 0.15345953 0.15916461 0.32596347 0.43352604 0.14720415 0.25878564 0.22257699
0.1360678 0.13559575 0.16652793 0.59505224 0.14053972 0.13757512 0.35050383 0.40402052
0.25135505 0.19431348 0.32096237 0.20037298 0.12621005 0.29376984 0.15179147 0.154662
0.16027547 0.13459897 0.2851745 0.20895872 0.21037504 0.20839244 0.21469118 0.18012649
0.12548476 0.27352187 0.23461927 0.35403314 0.22366601 0.13349687 0.23532844 0.25528774
0.28974596 0.23994222 0.29608917 0.2319268 0.1864771 0.20352824 0.15856828 0.21889557
0.37417483 0.26427272 0.41343248 0.27684247 0.35800636 0.09958642 0.18372634 0.26085526
0.27271733 0.2484334 0.21941374 0.26606005 0.42979744 0.12598817 0.4382775 0.22400738
0.11920437 0.25668535 0.1379148 0.2697043 0.18682511 0.35277218 0.29008207 0.23258567
0.11728707 0.39882213 0.26696196 0.18202467 0.2867059 0.17328513 0.22875127 0.22576956
0.2596357 0.40136486 0.24587311 0.25513625 0.15060002 0.19026972 0.23620597 0.16832657
0.2784709 0.15789747 0.12385027 0.4151443 0.30716276 0.29416785 0.31342316 0.20783459
0.22216779 0.13526882 0.3000506 0.24560489 0.19984163 0.29422012 0.19972906 0.29005757
0.40341437 0.23451476 0.26551792 0.18030795 0.22854947 0.38523638 0.588161 0.34043145
0.2844271 0.26439545 0.16628979 0.12079386 0.2678468 0.3538181 0.22924009 0.18475308
0.2428751 0.11869982 0.2271298 0.17434318 0.37805346 0.26644966 0.07845481 0.5017405
00000000: 0b05 373e d668 bd3e b0be 5a3e cba3 0e3e
00000010: 45f8 a83e 5e3c 933e ccc2 4d3e f4e6 e83d
00000020: 8e46 333e f45a 203e 2d76 ed3d 2617 2d3e
00000030: 9d46 013e ebb2 d93e fd2f 5e3e 1bbb 6b3e
00000040: 8b37 933e 6389 8b3e 252b 8a3e b1e2 733e
00000050: 06e0 6e3e 132f 113e bf87 653e d75a ff3d
00000060: 7782 c03e e96b d53e c756 3a3e 5e59 4a3e
00000070: 2234 893e 5fbb a83e 706f 103e 1859 6e3e
00000080: 7c13 b33e b032 3c3e 486a 233e ae44 ad3e
00000090: 9f7b 6c3e 7e10 a23e 1386 a83e 498f 973e
000000a0: 92f6 a23e 237f 013e 5a5f 4c3e 07a4 fa3d
000000b0: d617 943e 7227 b23e d996 6b3e e84f 463e
000000c0: 3b7e 403e d8df a23e 360d 983e a42f 963e
000000d0: fdac 723e ac2e cb3e 6b3f 193e 8df4 223e
000000e0: e7ee 363e 6c7f 5d3e 83e7 933e 8cd7 303e
000000f0: 2d7e 3c3e 75d9 073e a566 433e e7d3 d43d
00000100: 8523 653e 677b 303e 7e4a 6f3e 4d8b 563e
00000110: 70f0 7f3e 2bb4 713e 6cc9 1b3e 9df6 aa3e
00000120: 5820 903e 5e2a 703e b3fc 143e b21d 4c3e
00000130: a137 593e 915e dc3e 63b4 583e 02a1 613e
00000140: 2a91 393e 3fd9 983e 9d2c bb3e bfa9 ba3e
00000150: fa27 3c3e 10f6 e33d c35b 4c3e 61ec 263e
00000160: b567 9c3e 5145 923e 8686 603e 6495 a93e
00000170: b88e a93e e821 5d3e 5802 b13e afab e13e
00000180: 7663 073e 5ca0 7a3e 7112 093e cf5e 3f3e
00000190: 40f9 a83e 5901 df3d 3fef 1c3e 3688 1b3e
000001a0: 6874 243e d044 573e cd59 253e 2d35 993e
000001b0: e916 903e 69b0 323e a5a9 d73d 39f9 493e
000001c0: 4f85 9b3e 7dad 553e 5f43 0f3f 39be 4e3e
000001d0: d49d fc3e 9ee3 b03e cede 943e 2b87 443e
000001e0: 8db3 9d3e cc6f ac3e 5425 a43e d323 4c3e
000001f0: f24e 7a3e 5ea8 f03d fa9d 363e 5a03 943e
00000200: 0347 9e3e 7f24 1d3e 0cfc 223e afe4 a63e
00000210: 20f7 dd3e afbc 163e 8d7f 843e 39eb 633e
00000220: 5b55 0b3e 9dd9 0a3e 4c86 2a3e 5855 183f
00000230: a5e9 0f3e 7ee0 0c3e 3d75 b33e c7db ce3e
00000240: 9cb1 803e 1dfa 463e 2e55 a43e 932e 4d3e
00000250: 353d 013e 0069 963e 396f 1b3e b75f 1e3e
00000260: 411f 243e 50d4 093e 6402 923e 46f9 553e
00000270: 8e6c 573e d464 553e 01d8 5b3e 1473 383e
00000280: 147f 003e 0f0b 8c3e 0940 703e d543 b53e
00000290: b408 653e 67b3 083e f0f9 703e 13b5 823e
000002a0: 9559 943e 6ab3 753e 0099 973e 387e 6d3e
000002b0: daf3 3e3e b569 503e b95f 223e 2926 603e
000002c0: d893 bf3e c14e 873e 6cad d33e 4cbe 8d3e
000002d0: 9c4c b73e f7f3 cb3d c222 3c3e d28e 853e
000002e0: 9ba1 8b3e 5365 7e3e ffad 603e 0639 883e
000002f0: 690e dc3e 0b03 013e e965 e03e 3162 653e
00000300: 6c21 f43d 436c 833e 8a39 0d3e af16 8a3e
00000310: 154f 3f3e 8e9e b43e a385 943e f02a 6e3e
00000320: 3434 f03d 6a32 cc3e 3daf 883e ad64 3a3e
00000330: 1ecb 923e a871 313e c63d 6a3e 2330 673e
00000340: f8ee 843e b27f cd3e 29c6 7b3e 38a1 823e
00000350: e436 1a3e 11d6 423e fadf 713e cd5d 2c3e
00000360: bd93 8e3e e0af 213e 36a5 fd3d cb8d d43e
00000370: 7044 9d3e 2b9d 963e 0079 a03e 97d2 543e
00000380: f47f 633e e983 0a3e 3ba0 993e d97f 7b3e
00000390: 49a3 4c3e 05a4 963e c685 4c3e 6d82 943e
000003a0: 548c ce3e a324 703e f7f1 873e a6a2 383e
000003b0: df08 6a3e b43d c53e b891 163f 084d ae3e
000003c0: 6ea0 913e d75e 873e df47 2a3e c562 f73d
000003d0: 3723 893e a527 b53e eabd 6a3e e92f 3d3e
000003e0: 40b4 783e e418 f33d b794 683e 0587 323e
000003f0: 3990 c13e 176c 883e eaac a03d 1172 003f
