experiments/model_repositories/demo/traffic_detection/model_files/block_02.pth (torch, 11971 bytes, 5 tensors)

weight f4 [16, 32, 1, 1]
-0.009501456 0.06705551 -0.06048434 0.16054921 -0.017897762 0.68568987 0.22232784 0.0009413544
-0.025608504 0.0050781025 -0.0112532955 0.25293356 0.06607749 -0.111564994 -0.0017099464 -0.0044604433
-0.0039265845 0.0021318777 0.4178381 -0.31964433 -0.16649902 -0.0021212772 -0.099450454 -0.0046607135
0.14313701 0.23275566 0.074958496 0.032661572 0.02487682 0.08408508 0.2779457 0.18722309
0.016528172 -0.0018669299 -0.57236856 -0.088722594 0.09025917 -0.011937078 -0.062369883 0.08685578
0.11334938 -0.00012787634 0.13902068 -0.031421877 -0.12430734 0.19823404 0.0009789504 0.0015375481
0.0033820479 -0.0018899757 0.12946004 0.39549163 0.19657333 -0.024752077 -0.106495194 0.00025176548
-0.11817483 0.08384748 -0.20018943 0.30007255 -0.12898114 -0.041029546 0.22620168 -0.07358335
-0.010915896 0.55351406 0.10657492 0.41314963 -0.25266477 -0.21099052 -0.2796867 0.023821462
-0.15624316 -0.0011383205 -0.039903484 0.30543947 0.07389873 -0.039707728 0.0034901544 0.0054091197
0.008571248 0.0039249193 0.055647437 0.04518201 0.023282178 0.54071164 0.07451929 -0.00032664562
-0.00025504822 -0.2909677 -0.03952606 0.48256376 0.08357682 0.020675637 -0.11775321 -0.029426886
0.03446814 -0.049984127 -0.10007923 0.12759705 0.5065514 -0.44559193 0.0439563 0.044944745
-0.25609845 -0.00074335985 0.0006097409 -0.43041798 0.2461067 0.2943244 0.0026786418 0.001788766
0.005503185 0.010112864 -0.10489308 -0.38914034 -0.2960833 0.3959379 -0.1231247 0.0015897991
-0.13410355 0.03558712 -0.40045002 -0.4062087 -0.27370292 0.30864203 -0.0050529093 -0.03888031
-0.019866629 -0.34403846 0.2534796 -0.035827138 0.16551942 -0.61253333 0.06932929 -0.24844527
0.16619785 -0.0075120986 0.1566647 -0.0705036 -0.21281208 -0.046529178 -0.004806818 0.007819347
-0.0032403332 0.0002906206 0.38004816 0.12668794 -0.19348183 0.3053187 -0.18525021 -0.0018002597
0.06506422 0.04424688 0.1634447 0.023653494 0.08647143 -0.014441899 0.39519596 0.32262066
-0.0008989812 -0.20514244 -0.051642355 -0.53987706 -0.29576635 -0.23036258 0.40452632 0.45205444
0.39627436 0.0024934704 0.012762143 0.44682565 -0.046687946 0.06539698 -0.00022752224 0.0034281593
-0.0091088815 -0.0023762758 0.012779339 -0.055563476 -0.13158828 0.4098499 -0.03926338 -0.004467796
0.11549907 0.11573129 -0.07972476 0.22796468 0.03579214 0.080087356 -0.52995956 -0.07457529
0.00014826564 0.40463743 -0.1054354 -0.3663888 -0.4704148 0.030552998 0.05094134 -0.81283456
0.17560124 0.0016396166 -0.071034685 0.18010968 -0.10959438 0.15592845 0.00015697439 -0.0026564945
0.007099599 0.0057842466 -0.25876227 0.03936009 0.018465618 0.32430997 0.13053375 -0.004885146
0.09698384 0.17277214 -0.24631909 0.082811095 0.09410597 0.21514075 0.1699555 0.19283634
-0.043741252 0.08174092 0.19600646 -0.029976329 0.47388524 0.48831075 -0.2264686 0.17175096
-0.10490735 -0.0024355273 0.09920251 -0.545436 -0.21539968 -0.011494471 0.0005733235 0.0005071997
0.00049301604 -0.0002259895 -0.16005975 0.31424707 -0.16100541 0.47196493 -0.20570114 -0.0037752562
0.28915277 0.05882459 0.041396495 0.26203126 0.36902338 0.074577056 -0.15348423 -0.15933853
00000000: ffab 1bbc 6654 893d 6dbe 77bd 0367 243e
00000010: 549e 92bc 5f89 2f3f e9a9 633e 39c5 763a
00000020: edc8 d1bc 3666 a63b be5f 38bc 8280 813e
00000030: a353 873d 307c e4bd 4820 e0ba e928 92bb
00000040: 94aa 80bb f9b6 0b3b e0ee d53e 6ca8 a3be
00000050: b87e 2abe 2005 0bbb aeac cbbd e6b8 98bb
00000060: 8292 123e 8057 6e3e d783 993d 24c8 053d
00000070: 79ca cb3c cc34 ac3d e64e 8e3e 69b7 3f3e
00000080: 1766 873c c6b3 f4ba bf86 12bf 31b4 b5bd
00000090: cdd9 b83d bc93 43bc 9077 7fbd 71e1 b13d
000000a0: b823 e83d 8b16 06b9 705b 0e3e 3ab4 00bd
000000b0: d994 febd ddfd 4a3e 2050 803a 8e87 c93a
000000c0: 59a5 5d3b 10b9 f7ba 2c91 043e e17d ca3e
000000d0: 854a 493e dec4 cabc 271a dabd 64ff 8339
000000e0: a505 f2bd 3ab8 ab3d 75fe 4cbe 1ca3 993e
000000f0: a213 04be 990e 28bd 6aa1 673e deb2 96bd
00000100: 96d8 32bc 19b3 0d3f f443 da3d 5988 d33e
00000110: 475d 81be e60d 58be 1833 8fbe 3a25 c33c
00000120: 35fe 1fbe b333 95ba d671 23bd 9062 9c3e
00000130: 3858 973d 92a4 22bd 13bb 643b fc3e b13b
00000140: 6b6e 0c3c 9c9c 803b 91ee 633d c510 393d
00000150: 44ba be3c 146c 0a3f 929d 983d a241 abb9
00000160: feb7 85b9 b8f9 94be 14e6 21bd 9912 f73e
00000170: 532a ab3d f45f a93c 9828 f1bd a710 f1bc
00000180: 772e 0d3d 28bc 4cbd 57f6 ccbd cda8 023e
00000190: 5aad 013f a024 e4be 850b 343d fb17 383d
000001a0: 561f 83be 09de 42ba 05d7 1f3a bf5f dcbe
000001b0: 6503 7c3e b0b1 963e 278c 2f3b 0775 ea3a
000001c0: 1054 b43b 6db0 253c 2fd2 d6bd 673d c7be
000001d0: 3b98 97be 5fb8 ca3e cd28 fcbd ce60 d03a
000001e0: 7152 09be cdc3 113d c907 cdbe 96fa cfbe
000001f0: ca22 8cbe 5406 9e3e e092 a5bb f640 1fbd
00000200: 57bf a2bc cf25 b0be 14c8 813e 7abf 12bd
00000210: ec7d 293e fcce 1cbf 84fc 8d3d 7068 7ebe
00000220: c52f 2a3e 0d28 f6bb b66c 203e 3164 90bd
00000230: 69eb 59be 6195 3ebd 8382 9dbb b81c 003c
00000240: c55b 54bb 705e 9839 ac95 c23e 7cba 013e
00000250: 1a20 46be bc52 9c3e 3bb2 3dbe b1f6 ebba
00000260: 6440 853d 373c 353d 0c5e 273e f9c4 c13c
00000270: ef17 b13d b79d 6cbc 2057 ca3e 892e a53e
00000280: 9ba9 6bba dc10 52be ef86 53bd 6235 0abf
00000290: b06e 97be 2be4 6bbe 131e cf3e ae73 e73e
000002a0: 79e4 ca3e 7e69 233b 4f18 513c 55c6 e43e
000002b0: dc3b 3fbd daee 853d 0993 6eb9 f8aa 603b
000002c0: 6b3d 15bc 4bbb 1bbb 6f60 513c 8796 63bd
000002d0: 14bf 06be d9d7 d13e a3d2 20bd 9766 92bb
000002e0: c78a ec3d 8704 ed3d bc46 a3bd 936f 693e
000002f0: c79a 123d d704 a43d 6eab 07bf eeba 98bd
00000300: c177 1b39 a32c cf3e 84ee d7bd 5097 bbbe
00000310: 35da f0be 484a fa3c dea7 503d ed15 50bf
00000320: d0d0 333e 67e8 d63a a27a 91bd ac6e 383e
00000330: 0573 e0bd b5ab 1f3e 7e99 2439 9518 2ebb
00000340: c1a3 e83b c789 bd3b 7d7c 84be 0c38 213d
00000350: 3545 973c f50b a63e a4aa 053e 9313 a0bb
00000360: 779f c63d 2eeb 303e 123b 7cbe dd98 a93d
00000370: a1ba c03d db4d 5c3e d108 2e3e e476 453e
00000380: 072a 33bd c967 a73d ebb5 483e eb90 f5bc
00000390: 16a1 f23e de03 fa3e 62e7 67be 7cdf 2f3e
000003a0: aad9 d6bd 5e9d 1fbb b02a cb3d b2a1 0bbf
000003b0: bc91 5cbe 4e53 3cbc 174b 163a 98f5 043a
000003c0: bf3d 013a 98f7 6cb9 b4e6 23be fee4 a03e
000003d0: 9ade 24be 63a5 f13e 52a3 52be 4a6a 77bb
000003e0: d50b 943e 0ef2 703d 5f8f 293d f628 863e
000003f0: a2f0 bc3e dbbb 983d f82a 1dbe a429 23be

weight f4 [16]
0.5170862 0.48303795 0.56211716 0.5448262 0.51364595 0.61486703 0.5839331 0.5498493
0.47586063 0.5093692 0.43646196 0.5565078 0.66880417 0.5379314 0.6070023 0.54573524
00000000: c35f 043f c050 f73e e9e6 0f3f bb79 0b3f
00000010: 4d7e 033f ed67 1d3f a47c 153f ecc2 0c3f
00000020: 01a4 f33e 0566 023f f177 df3e 4c77 0e3f
00000030: c036 2b3f dfb5 093f 8164 1b3f 4eb5 0b3f

bias f4 [16]
-1.5785912e-06 -9.778053e-07 1.0388211e-06 5.725593e-06 -3.874979e-06 -5.844832e-06 4.202125e-06 -2.274863e-06
4.732876e-06 3.83949e-06 -3.7007444e-06 -1.7582591e-06 1.8808552e-06 -7.564509e-06 5.348742e-06 -4.1654184e-06
00000000: fbdf d3b5 223d 83b5 9f6d 8b35 781e c036
00000010: d105 82b6 b91e c4b6 fbff 8c36 d9a9 18b6
00000020: 18cf 9e36 f8d4 8036 4e5a 78b6 53fd ebb5
00000030: b171 fc35 a3d2 fdb6 5879 b336 acc4 8bb6

running_mean f4 [16]
1.8604816 -0.38568056 0.9261997 -0.8812093 0.013412209 0.37803176 0.74592274 1.3653785
0.47722247 1.4600682 -1.7214966 0.34960106 0.55540496 0.09652078 -1.3503565 -1.053819
00000000: 4324 ee3f ec77 c5be 6c1b 6d3f ef96 61bf
00000010: e2be 5b3c 618d c13e cbf4 3e3f b9c4 ae3f
00000020: 8156 f43e 84e3 ba3f 005a dcbf e9fe b23e
00000030: 052f 0e3f b0ac c53d 7bd8 acbf 8ae3 86bf

running_var f4 [16]
0.18156087 0.07425957 0.1169903 0.15871665 0.090996794 0.2224443 0.3195777 0.13699223
0.06712041 0.17815797 0.15759909 0.1419822 0.20707603 0.20379436 0.18823032 0.10029693
00000000: 18eb 393e 6715 983d 9c98 ef3d 9e86 223e
00000010: 875c ba3d 70c8 633e b09f a33e b147 0c3e
00000020: 6d76 893d 0b6f 363e a861 213e c863 113e
00000030: bd0b 543e 78af 503e 73bf 403e 7a68 cd3d
