experiments/model_repositories/demo/traffic_detection/model_files/block_12.pth (torch, 39737 bytes, 5 tensors)

weight f4 [192, 32, 1, 1]
00000000: 3e94 cc3d 1a7f d13e 4a06 453e ce33 fd3c
00000010: 629d a0bd 91d7 693e d84b 183d d252 2f3c
00000020: 39b2 26bc 6829 1d3e e8e1 e0bc 2409 163c
00000030: d96b 6c3d 56dd 213d d479 52be 3022 e3bd
00000040: 5550 cabc 7e75 803d f7ee 333e be7e 0dbe
00000050: a83e e83c 384b 533e a9f8 543e 7d5d 043d
00000060: cc95 69be 8780 1e3e 6ba9 04be 2216 11be
00000070: daa0 7ebd 6de4 093e 761d d4bc 6593 1f3d
00000080: d296 423c ba02 243d 3908 a63d 59ea c93d
00000090: 2821 17bd 144a 51be bd65 1b3d 7627 61be
000000a0: 254d 403e 328f 97be ac0d 09bd 710c 2bbd
000000b0: d995 91bb 3496 ed3d 4c21 3ebe cc3c 8f3d
000000c0: 6f05 163e 434b 06be 5085 7abe 183b 21bd
000000d0: 9904 1f3e bdd2 ca3d 7089 af3d 4f22 193c
000000e0: d74d c43c b866 1b3e 9c2c 8c3c 61d8 1a3e
000000f0: 2bab 573c a443 62bb 76f1 3a3d 0b01 d5bc
00000100: 4a93 6ebc 7f47 c2bd ae93 5d3e ed02 c5bd
00000110: 574e 123e 97d7 aabd 2a4f 843d 9946 15be
00000120: 6480 a5bd a74b 6dbc 873e e9be 8a71 e33d
00000130: 40da cc3d a1b4 603e d38c 3ebd 1713 033d
00000140: 64db 0bbe ce48 0dbc 6410 c0bd abee 27bd
00000150: 1702 a9bd bf72 c13c 5d47 3b3d d744 5cbd
00000160: 1412 f73d a7ed 88bd 8d37 48be 432e 173c
00000170: 76e7 883d e062 b1bd 2dd9 433d a00c 983e
00000180: 85d0 1a3c add0 6b3e ff2f 90bd 5c75 e5bd
00000190: 5427 10be 819a d9bd d4a9 063e 0d58 eabc
000001a0: bb34 3e3e 5482 29bd a38c 0cbe ac75 183d
000001b0: e59f f33d 3c80 dd3d 0033 753e 8c26 a2bd
000001c0: 596a 5cbc b860 cfbd dee1 8cbb 0c84 0ebd
000001d0: e2a5 ca3d 0de3 6dbd 396a 5f3e 4aa6 593e
000001e0: 96c8 b93e a768 a73d d38d 0a3e 94ac 15be
000001f0: 230a 3ebe 7ec4 ffbd 4b11 30be 07a9 963e
00000200: 4dc9 963c 55f6 61bd 6c52 40be b010 683e
00000210: ee29 813c 6313 58bc 00fb b43e 94b7 183e
00000220: 46c2 bebd 58ed 74bd dada bbbd 2fec a93e
00000230: ffaa b53c 5bfd e1bd 58a2 cf3d 5d4b 2a3e
00000240: 3620 3a3d 03bf 53be a48d a9be bd2a fbbd
00000250: 3c50 443d 28ac 30be f103 2bbe 298b f6ba
00000260: b08b 863c bcec 3e3e c816 7fbc 2ec6 02bd
00000270: 46ea b0bc 84bb babd 68de 4fbe 4c08 0ebe
00000280: 6b95 6d3d 15d2 35be 230a 82bd a451 e43d
00000290: 9890 babd 308c 82bc a51b 663d de74 373c
000002a0: 3929 97bd d3c8 b3bc 368d eb3c 2a89 063d
000002b0: 1922 2a3e 60c6 92bc d37b ea3c 5d5a fabd
000002c0: 0d00 c33d 5133 24bd a8f2 2fbe ab4c d9bd
000002d0: a11e 103d 2b11 90be 28c7 1c3d baf4 1c3e
000002e0: 6c80 883d 152b 8bbc ae07 483b a612 4dbd
000002f0: 62f8 ee3c 4452 503c 316f 3c3e 2d36 d1bd
00000300: 015b 64be 67e6 e4bd 7c37 a53d 7637 7a3d
00000310: a291 31be 2d32 343e 4f58 223e dc49 0cbe
00000320: e7dd fa3c 3c2a 2fbe 124a d83d 6132 0d3d
00000330: fdcc e2bd f6db 57bd 2018 0abd bb7e 50bd
00000340: fad3 24bd 1a47 97bc d9e5 96bd 93d4 28be
00000350: 6f97 683d 75b5 2d3e 22fe 80bd 5393 46be
00000360: ff8a 9e3d f8f2 c83d 20ea 81bc 3721 7ebd
00000370: a975 de3d 0d29 163e fc33 e3bc a2b7 2d3e
00000380: 6331 debc 7f39 2d3d e819 293d 29db ca3c
00000390: 7be1 533c 5b5d b63d 4ff9 2fbc 3dac de3d
000003a0: 2629 e33c e89b 06be 90ea 2fbe 8db6 a13b
000003b0: 95d3 003d 42e0 c63d ff5b 393e ba13 5fbd
000003c0: 178e c03c 8438 90bd 1673 6d3c 09d3 e63b
000003d0: 812e c0bd 349a c439 c608 9d3d 80de 7fbb
000003e0: 8b5d 3b3e e908 aabc c59e 06be 1537 9e3d
000003f0: 26f1 a2be 3255 0abe 0b61 e83d 34b7 263e
0.099892125 0.40917283 0.1924068 0.030908491 -0.078425184 0.22836138 0.037181705 0.010700898
-0.0101743275 0.15347826 -0.02745147 0.009157453 0.05772004 0.039517723 -0.20554286 -0.11090505
-0.024696508 0.0627241 0.17571627 -0.1381788 0.02835019 0.20634162 0.20797981 0.03231572
-0.22811049 0.15478717 -0.12955253 -0.14168599 -0.06216512 0.13466044 -0.025892954 0.038958926
0.011876779 0.040041663 0.08107037 0.098591514 -0.036896855 -0.20438415 0.037938822 -0.2198771
0.18779428 -0.29601437 -0.033460304 -0.041759912 -0.004442912 0.116009146 -0.18567389 0.06994018
0.1465051 -0.13114648 -0.24464917 -0.039362997 0.15529098 0.099034764 0.08571136 0.009346559
0.023962898 0.15175903 0.017111115 0.15121605 0.013163368 -0.003452518 0.04564043 -0.026001474
-0.014561484 -0.09486293 0.21638367 -0.09619699 0.14287697 -0.08341902 0.06460412 -0.14577712
-0.08081129 -0.014483369 -0.45555517 0.1110564 0.100025654 0.21943904 -0.04652102 0.032000627
-0.1365791 -0.008623315 -0.09378126 -0.040999096 -0.08252352 0.023614286 0.045722354 -0.05377659
0.12063995 -0.066859536 -0.19552441 0.009227338 0.06684773 -0.08661437 0.047814537 0.29697132
0.009449129 0.23028822 -0.070404045 -0.11204025 -0.14077502 -0.106251724 0.13150722 -0.028606439
0.18574803 -0.041384056 -0.13725524 0.037221596 0.11895732 0.108154744 0.23945236 -0.079175085
-0.01345309 -0.101258695 -0.0042993864 -0.0347939 0.09894921 -0.05807786 0.21817864 0.2125484
0.36285847 0.08174258 0.13530664 -0.14616615 -0.18558554 -0.1248865 -0.17194097 0.29425833
0.018406535 -0.05516656 -0.18781441 0.22662616 0.015767064 -0.013188216 0.35347748 0.1491378
-0.093143985 -0.05979666 -0.09172602 0.33188006 0.022176264 -0.11034652 0.101383865 0.16630311
0.045440875 -0.20678334 -0.33115876 -0.12264011 0.04792808 -0.17253172 -0.16700722 -0.0018809784
0.01642403 0.18644994 -0.015569396 -0.03192728 -0.021596085 -0.09117797 -0.20299685 -0.13870353
0.058003824 -0.17755921 -0.0634959 0.11148384 -0.0910961 -0.015935987 0.056178708 0.011197297
-0.073809095 -0.021946346 0.028753858 0.032845654 0.1661457 -0.017916858 0.028623497 -0.12224267
0.09521494 -0.040088 -0.1718241 -0.106103264 0.03518546 -0.28138098 0.038275868 0.15327731
0.066651195 -0.016988317 0.0030522156 -0.050066613 0.029171173 0.012714926 0.18401791 -0.10215411
-0.2230034 -0.11176758 0.080672234 0.061088048 -0.17340711 0.17597266 0.15854 -0.1370005
0.03062339 -0.17105955 0.10561003 0.034471873 -0.11074255 -0.052700005 -0.033714414 -0.05090211
-0.04024122 -0.018466521 -0.07368059 -0.1648734 0.056785043 0.16963752 -0.06298472 -0.19392137
0.07741355 0.098119676 -0.01585871 -0.062043395 0.10862286 0.14664097 -0.027734749 0.16964582
-0.027123159 0.04229116 0.04128447 0.024762707 0.012932177 0.08904525 -0.010740592 0.108726956
0.027729582 -0.13145411 -0.17179322 0.004935092 0.03145178 0.097107425 0.181015 -0.054462172
0.023505254 -0.070420295 0.014492771 0.0070442003 -0.0938387 0.00037498923 0.07667689 -0.0039042532
0.18297403 -0.020756202 -0.13146503 0.0772535 -0.31824607 -0.13509062 0.113466345 0.16280824

weight f4 [192]
00000000: b3aa 833e 30df 213e 09e1 b63d 60b6 5a3e
00000010: be2d ba3d a5d8 ef3d a1d7 523e b539 453e
00000020: f81f 593e 3866 d63d 6939 193e eb08 763e
00000030: 616b 003e bdd5 cb3d 32ee c93d 88fe 603e
00000040: 5e20 013e 271a 683e 8cfa f43d 823d 123e
00000050: 6dee 543e 7cfb 243e 28ad 563d c44f 963e
00000060: 58c0 3e3e 98f1 df3d fc91 443e 14d6 463e
00000070: 6bee 4d3e 5a7b 5c3e d2eb 383e 24f0 4a3e
00000080: 87c1 533e cdb7 813e 565d 563e e9e2 003e
00000090: 4fba 733e 6ad1 583e 4e54 573e feee f93d
000000a0: 6f7b ef3d 4a57 ad3d fe07 693e 53d7 613e
000000b0: 187c 643e 8278 043e 2bfc 543e ff73 8e3e
000000c0: 9e39 313e 8d58 dd3d b45d 603e 49c7 563e
000000d0: a6a8 433e a8f1 253e e4e1 1c3e d2b3 013e
000000e0: 8f05 213e 3efa 863e d533 573e 9e79 4b3e
000000f0: 65b9 263e 5e4d 923d b3e1 383e ac3e 8c3e
00000100: ca06 3c3e bf63 4d3e 8110 263e 52c8 4f3e
00000110: d3a9 7f3e 00b2 173e fbb0 6c3e 531b 3c3e
00000120: b7c8 8e3e 8d56 373e e15a 843e e095 d13d
00000130: 59d6 aa3d 5478 fc3d b36f 183d 9171 5e3e
00000140: 21de 333e c1dc 7b3e 75cb 963e 9a14 c43d
00000150: 9ae7 423e 38ba 4d3d c2af 333e 4e8a 763e
00000160: 75b3 5e3e 9763 933e fe51 263e 1cc5 603e
00000170: 3380 6f3e 610c 563e 1b25 223e ef1b 903d
00000180: df54 823e 5e82 5b3e ef22 633e d2d0 833e
00000190: 58a0 8b3e e837 c63d 68fb 4d3e 0370 183e
000001a0: c80f 503e 79f2 613e 997e 373e 24c7 a73d
000001b0: 61a6 883e c880 483e 4dac c43d e94f e53d
000001c0: ad46 4d3e 2b72 bc3d c14c 1c3e 3ad5 513e
000001d0: e9fc 453e 80d9 533e ac01 6c3d 7bef 5f3e
000001e0: 885f 2b3e 02f8 913e 7be0 313e c551 163e
000001f0: 4d3b 3d3e 10ca 4d3e 0343 073e 1f4c 303e
00000200: 6c82 2a3e 5137 603e 5f84 7e3e 4a0e 2f3e
00000210: 4b7e 6a3e c232 273e a1e5 663e 4cf8 383e
00000220: 081a 573e 1b87 343e c1e4 733e 1b81 c13d
00000230: 78ec 0d3e 11c7 df3d d0ba fd3d e7ab 4a3e
00000240: c122 753e 44c8 323e 97e4 833e 6bc4 6a3e
00000250: 3d22 6e3e 3a22 8d3d 2b25 983e 9988 363e
00000260: 5f87 453e bbcf 943e 30fc 333e 21c5 423e
00000270: 28a2 e23d b77b 843e 1523 a43d 0924 473e
00000280: fd3d 493e 37d7 6f3e 6870 263e a4dc 703e
00000290: bef2 5c3e 3032 783e e016 883e c4ba 6f3e
000002a0: ec6b 2e3e ccbf 123e fa54 f53d 9c84 aa3d
000002b0: c352 083e 94e4 123e 125d 383e 37a5 593e
000002c0: 2323 803e 6dd0 623e b1a9 813e 6e26 4a3e
000002d0: c85a 2a3e a831 843e e85a 2c3e 018e 593e
000002e0: ef72 c63d d97b 103e bb21 703e a5d3 c93d
000002f0: 7c3d 093e b966 6b3e 18dc 7b3e 3d66 7f3e
0.2571617 0.15807796 0.08929641 0.21358633 0.09090756 0.117112435 0.20590068 0.19260295
0.21203601 0.104687154 0.14963306 0.2402684 0.12540962 0.09952877 0.09859885 0.21972096
0.12610003 0.22666226 0.119618505 0.14281276 0.20794077 0.16111559 0.05241123 0.2935773
0.18628061 0.10934752 0.19196314 0.19417602 0.2011048 0.2153143 0.18058708 0.19818169
0.20679294 0.2533554 0.20934042 0.1258656 0.2380154 0.21173635 0.21028253 0.12203787
0.11693465 0.08463915 0.22756955 0.22054796 0.22312963 0.12936595 0.2079932 0.27822873
0.17307135 0.10807905 0.21910745 0.20974459 0.19107303 0.16205466 0.15320545 0.12666252
0.15724777 0.26362795 0.21015866 0.19870612 0.1628166 0.07143663 0.18054847 0.27391565
0.18361965 0.20057581 0.16217233 0.2029126 0.24967127 0.14813995 0.23114388 0.18369798
0.27887508 0.1790411 0.25850585 0.102336645 0.08341665 0.12327638 0.0372159 0.2172301
0.17565204 0.2459593 0.294521 0.09574242 0.19033661 0.05022642 0.17547515 0.24076197
0.21748145 0.2878692 0.16242215 0.21950191 0.23388748 0.2090316 0.15834467 0.07036578
0.25455377 0.2143645 0.22181295 0.25745255 0.2727077 0.09678632 0.20115435 0.14886479
0.2031852 0.22065152 0.17919387 0.0819228 0.26689437 0.19580376 0.09603176 0.11196882
0.20046492 0.09201463 0.15263654 0.20491496 0.19334759 0.20688438 0.057618782 0.21868698
0.16735661 0.28509527 0.17370789 0.1467963 0.18479653 0.20096612 0.13209157 0.17216538
0.16651314 0.21896102 0.24855183 0.17095295 0.2289974 0.16327956 0.22548534 0.18063468
0.21006024 0.17629664 0.23817731 0.09448453 0.13859737 0.10926641 0.12389147 0.19792138
0.23939039 0.17459208 0.25760338 0.2292649 0.23255248 0.06891294 0.29715857 0.17825545
0.19289921 0.29064736 0.1757667 0.19020511 0.11066085 0.25875637 0.08014504 0.1944734
0.19652553 0.23421942 0.16253817 0.23521668 0.21576974 0.24237895 0.26579952 0.23411089
0.17033356 0.14330977 0.119790986 0.083260745 0.13312821 0.14345008 0.18004254 0.2125443
0.25026807 0.2214982 0.25324777 0.19741222 0.16636193 0.25819135 0.16831553 0.21245576
0.096898906 0.14109744 0.23450367 0.09854821 0.1340236 0.22988404 0.24595678 0.24941345

bias f4 [192]
00000000: ac87 e63a 0967 a33d 1c0a 7d3e 8aa5 e1bd
00000010: 133f 893e c38a 403e c835 dfbc ecad 2a3d
00000020: 6df5 d73c 4aed 463e cc02 a43d 7916 2ebc
00000030: ca5a 4f3e 2c2c 213e 30bc 5a3e dc60 a1bd
00000040: 0b9c d23d 885d 1dbe 0d03 893e d679 473e
00000050: cc59 9dbd 7365 cd3d 6b96 873e d2e8 9cbd
00000060: c897 b23d 6ac6 033e 41d0 3f3e cfae b63c
00000070: ccf0 26bd 3991 a4bd 771e 3e3d 8c63 0f3e
00000080: 5149 22bd 0357 7dbd ff1c 93bd 347a 6e3e
00000090: 1a29 bcbd 9d86 28bd 59a1 2ebc ee57 9f3e
000000a0: d8b5 623e d221 033e 1171 81be 4458 dd3d
000000b0: d749 11bc b628 dd3d 4b89 82bd 8cf4 2cbd
000000c0: 6952 003e 683a 723e 1685 d23c fe7d 7b3d
000000d0: bf77 10bd 91ba d23c 4ca3 be3d 051c 013e
000000e0: 1216 073e 69af 64bd dfe3 953d ef1b 893d
000000f0: 6535 e63d 40e3 243e 21d0 4fbd 184a 15be
00000100: 6628 073e e143 13bc 2beb d43d eb10 edbd
00000110: acfb 8cbd 6b43 5d3c d8ca e8bc 8714 533d
00000120: 8ad5 71bd 6874 dc3d c47f 4cbd ff37 663e
00000130: 7b98 033e b36d 1e3e 19fe 8b3e c065 57bc
00000140: 8dee fd3d 55a3 b93b e492 63bd fe69 253e
00000150: 68ed e93d 4c53 0d3e 294f 993d 66bb bbbc
00000160: 7f33 0fbc a306 a1bd f27e 483c dac3 433b
00000170: af5e cdbc ad62 9ebd 3e7f e93d 8faa 203e
00000180: fdea 80bd 8d31 2b3e 8939 22be b0f2 7d3d
00000190: 3097 82bd 4e74 773e 6287 c3bd 3f9d d03d
000001a0: 3af7 c7bd 3ced 4ebd 174e 723d dbe5 513e
000001b0: eaa8 fdbd 9d5a 213d a7ea 4b3e 0ecd 663e
000001c0: 39a6 823d a93d 6b3e 08d0 c43d 03ca a23d
000001d0: 6539 813d 53d9 d6bd 91fa 163e f41c 08be
000001e0: 479f bfbb 7484 a7bd 7143 0d3e a128 823d
000001f0: f70b 843d a116 943d 8c9d 7c3e 5f2b d93d
00000200: 7726 3b3e 36ba 52bd 12e9 52bd 5a15 e7bd
00000210: d395 58bd 4bde d63d 3f94 00bd 715c 6c3d
00000220: a9fa 113e aebc 953a d4af b53d a8cb 063e
00000230: c6ab 1d3e d6e6 e53d 81ce c73d ab0c e2bd
00000240: 880b 99bd f119 4b3e b8cd f73d 204e 7bbc
00000250: 9b1d afbd 3ad7 563e cb08 d8bd af4d 643d
00000260: f536 023d 4458 09be fefc dcbd 3a0a b8bc
00000270: 525f 433e e43b 063c 2e05 4e3e d979 963d
00000280: 7fb4 e4bb a367 153c 4eca f3bd e02b 1cbe
00000290: 09af aebc 29ab e7bd 8e05 67be 8c5b 713e
000002a0: fbb3 943d 8e70 dc3d 996f 3e3e 81ff 743e
000002b0: b71f d2bd 3164 cd3d 0ad9 563e 61f2 87bd
000002c0: fd5a 9abd f61b 183d 644c 44bd f462 3a3e
000002d0: 7b29 bd3d 611d ffbd 1a28 b43d 2b86 38bd
000002e0: 02ff 673e 90da 5b3e 1b35 a7bc 8dff 0a3e
000002f0: bfa9 fa3d a3c9 293d 2bc9 053d 2446 3cbe
0.0017588041 0.07978637 0.24710888 -0.11017902 0.26805934 0.18802933 -0.027247325 0.04166977
0.026362145 0.19426456 0.08008346 -0.010625475 0.20249477 0.15739506 0.2136085 -0.078798026
0.10283669 -0.1536771 0.2676014 0.1948007 -0.07683143 0.100291155 0.26481947 -0.076615945
0.08720356 0.12868658 0.18731786 0.022300152 -0.040756986 -0.080355115 0.046415772 0.14002818
-0.0396207 -0.06185056 -0.07183265 0.23288804 -0.09187527 -0.041144002 -0.0106585855 0.31121773
0.2213968 0.1280587 -0.25281575 0.10807851 -0.008867702 0.107987806 -0.06373843 -0.042225406
0.12531437 0.23655093 0.025698226 0.061399452 -0.03527045 0.025723727 0.0930849 0.12608345
0.13192013 -0.055831347 0.073188536 0.06694781 0.11240653 0.16102314 -0.050735597 -0.14579046
0.13199005 -0.008988352 0.10396417 -0.115754925 -0.0688394 0.013504843 -0.028417036 0.05153325
-0.059041537 0.1076439 -0.049926534 0.22482298 0.12851135 0.15471534 0.273423 -0.013146818
0.123990156 0.0056652226 -0.055560008 0.16153714 0.11422235 0.13801306 0.07485802 -0.022916507
-0.008740305 -0.07862594 0.012237297 0.0029871375 -0.025069563 -0.07733665 0.11401223 0.15690063
-0.062948205 0.16718121 -0.1584226 0.061999023 -0.06376493 0.2416546 -0.095473066 0.10186242
-0.097639516 -0.050519213 0.059156504 0.20497839 -0.123857334 0.039393056 0.19913732 0.2253916
0.06379361 0.2297274 0.09609991 0.07948687 0.06309775 -0.1049067 0.14744021 -0.13292295
-0.0058478448 -0.0817956 0.13795258 0.063554056 0.064475946 0.072308786 0.24669474 0.106039755
0.18276392 -0.051447116 -0.051491804 -0.11283369 -0.05287726 0.10491618 -0.03139138 0.057705346
0.14255776 0.0011424029 0.08871427 0.13163626 0.15397558 0.11225669 0.09756184 -0.110375725
-0.074729025 0.19834115 0.120997846 -0.015338451 -0.08550569 0.2098054 -0.10548552 0.055738147
0.031790692 -0.13412577 -0.10790442 -0.022465814 0.1907933 0.00819299 0.20119163 0.07347459
-0.0069795246 0.009118947 -0.11903821 -0.15251112 -0.021323698 -0.11311943 -0.22560713 0.23570079
0.07260891 0.107636556 0.18597259 0.23925592 -0.102599554 0.100288756 0.20981231 -0.06638027
-0.07536886 0.03713604 -0.047924414 0.1820181 0.092364274 -0.124567755 0.08796711 -0.045049828
0.22655872 0.21470094 -0.020411065 0.13574047 0.12239408 0.04145206 0.03266255 -0.18386132

running_mean f4 [192]
00000000: f671 4937 d8a7 8cb6 9e3a ff35 33d3 c2b3
00000010: 62a6 deb6 23bf cfb5 dac1 f435 51d3 ecb4
00000020: 5607 8136 1dd1 6fb6 9c21 6736 dbe8 4cb4
00000030: 26a6 0037 54a2 9636 0810 2e35 d0a9 30b6
00000040: 19b0 bcb5 857f 04b6 9392 38b6 1733 dbb5
00000050: ab5b 56b6 4899 4d35 674e 35b6 1674 1637
00000060: ff2c 8736 d45f 01b6 b415 fd35 6297 38b4
00000070: e523 a035 7f97 9836 9b95 67b6 2410 3336
00000080: 8312 0ab5 b3ec cb36 1b7a 00b5 9102 eb34
00000090: e9ec a9b6 8f28 2bb5 bb40 3835 df54 79b6
000000a0: 80f7 0e37 8b57 cfb5 efe4 40b5 0f58 1a36
000000b0: 107f 15b6 2c22 75b5 2849 90b6 45e4 7fb6
000000c0: 0995 96b5 da5f 22b7 bb57 92b6 a3f6 3036
000000d0: 991d bcb5 442b 88b4 48c3 2237 4011 16b6
000000e0: a849 ebb5 fb45 adb6 926c 3ab5 0e8c 22b6
000000f0: 55ee 6eb6 107f 6cb6 b45f 1db7 6d60 0db7
00000100: 0660 33b6 3bd4 1035 e6fe 76b6 9057 5cb3
00000110: 2221 a135 400a 86b6 fd8d feb5 e1f5 81b6
00000120: 8574 0236 39be 57b5 3cfe 2d36 d96b bbb6
00000130: 070b d8b5 8804 4436 2b7b f835 ded6 3bb4
00000140: 1b73 bc36 3ce4 26b6 9843 1e37 da0b d634
00000150: 9c1e c6b5 e5e8 c535 93ab c9b5 f9da 10b6
00000160: 3081 1936 ccfe 80b5 f632 86b5 743c 63b6
00000170: 2336 c0b6 cca3 dd36 992b e1b5 5393 3db6
00000180: 4bcc c335 9495 0537 8d7e a635 6994 92b6
00000190: 8028 24b7 59d5 8ab3 3aed 2236 d6bd b2b5
000001a0: 125d ee35 b446 06b6 9f0d 48b6 eaec 54b6
000001b0: e0b2 9cb6 b91e b1b5 37db adb6 24b5 a136
000001c0: de42 1eb6 e029 8434 a0ea ca36 1e7d 7bb3
000001d0: c1db 5f36 b94b c933 ca15 1c36 77ed d6b6
000001e0: f77d c9b5 e1a4 21b5 ab7c ccb5 3f4c 8335
000001f0: baa3 0db5 797f f0b6 37d0 56b7 8278 82b6
00000200: 2947 e8b6 941a 14b6 11bf bfb5 1189 ddb4
00000210: f600 2e36 4420 b4b6 08f3 cbb6 8984 0d36
00000220: cdd4 6936 3e57 0b34 31f6 9f36 1b27 1537
00000230: c0f7 26b6 0a78 3136 877d a036 022d 15b5
00000240: a0de 1c36 b117 8235 8fb9 b336 768c 6835
00000250: b80f a7b6 b377 8db6 7ab5 4bb6 a081 b2b6
00000260: 5919 2eb5 6291 7435 61a3 7f35 1417 1d35
00000270: 6d56 adb6 1de4 b536 1b3f bb36 feeb 9336
00000280: 5f56 26b6 b1d2 76b6 3a3a f8b5 5bf0 8b36
00000290: 9e32 10b6 2c62 c8b6 923f acb6 42f3 6c36
000002a0: 3bfb 0837 b6a4 0b35 3760 b435 1894 9fb5
000002b0: b677 05b7 5be4 04b6 01a9 49b7 750b bd35
000002c0: c7ad 61b7 9a83 c7b4 16cc 28b6 9f85 a0b6
000002d0: ddce 7ab6 7747 e636 843c 42b6 612f 2e36
000002e0: 9267 4c35 e50e 5036 9be0 df34 f19e b036
000002f0: adb5 90b6 8dd0 1cb6 707c 8bb6 d80e 4236
1.2007067e-05 -4.1918647e-06 1.901604e-06 -9.072246e-08 -6.635485e-06 -1.547833e-06 1.8235835e-06 -4.4112178e-07
3.8453536e-06 -3.5735495e-06 3.4441246e-06 -1.9083693e-07 7.668079e-06 4.489246e-06 6.484338e-07 -2.6324888e-06
-1.4058343e-06 -1.974376e-06 -2.7503454e-06 -1.6331641e-06 -3.1941843e-06 7.6591505e-07 -2.7016738e-06 8.967725e-06
4.0285518e-06 -1.9278277e-06 1.8856285e-06 -1.7191408e-07 1.1931376e-06 4.5475895e-06 -3.4508764e-06 2.6682474e-06
-5.1435944e-07 6.077427e-06 -4.78614e-07 4.3774028e-07 -5.0641725e-06 -6.3761485e-07 6.8639537e-07 -3.7153293e-06
8.521485e-06 -1.544818e-06 -7.1858716e-07 2.2999045e-06 -2.227669e-06 -9.131934e-07 -4.300051e-06 -3.8130831e-06
-1.1219246e-06 -9.67827e-06 -4.3613522e-06 2.6369605e-06 -1.4015706e-06 -2.5363454e-07 9.70142e-06 -2.2361783e-06
-1.7530301e-06 -5.1639486e-06 -6.944839e-07 -2.4221404e-06 -3.5603491e-06 -3.52407e-06 -9.380212e-06 -8.426706e-06
-2.6728972e-06 5.3953016e-07 -3.6805227e-06 -5.130238e-08 1.2005078e-06 -3.9947045e-06 -1.8965799e-06 -3.8731237e-06
1.9439333e-06 -8.037055e-07 2.5926993e-06 -5.5855894e-06 -1.6096463e-06 2.9208913e-06 1.8513286e-06 -1.74939e-07
5.6162366e-06 -2.4868777e-06 9.433272e-06 3.986923e-07 -1.4761058e-06 1.4745425e-06 -1.5025602e-06 -2.158513e-06
2.2873974e-06 -9.610899e-07 -9.99861e-07 -3.3860824e-06 -5.7283482e-06 6.6053817e-06 -1.6776495e-06 -2.8248949e-06
1.4588089e-06 7.962244e-06 1.2404795e-06 -4.3684163e-06 -9.784591e-06 -6.4649335e-08 2.4277965e-06 -1.3317283e-06
1.7759469e-06 -2.000871e-06 -2.981025e-06 -3.1728364e-06 -4.669986e-06 -1.3196469e-06 -5.1813217e-06 4.8192614e-06
-2.3582757e-06 2.4617384e-07 6.047383e-06 -5.8554285e-08 3.3357503e-06 9.373566e-08 2.3258494e-06 -6.4053415e-06
-1.5012328e-06 -6.0217104e-07 -1.5235468e-06 9.782451e-07 -5.2764847e-07 -7.167397e-06 -1.2803873e-05 -3.888331e-06
-6.922423e-06 -2.206919e-06 -1.4286217e-06 -4.1264187e-07 2.592858e-06 -5.3681742e-06 -6.078164e-06 2.1087783e-06
3.4843572e-06 1.2977122e-07 4.7672297e-06 8.890197e-06 -2.4880137e-06 2.6444927e-06 4.782985e-06 -5.557232e-07
2.3375396e-06 9.69265e-07 5.3562176e-06 8.663113e-07 -4.9788177e-06 -4.2160623e-06 -3.035499e-06 -5.3199037e-06
-6.4856937e-07 9.1108643e-07 9.523265e-07 5.852064e-07 -5.165863e-06 5.4207762e-06 5.5803807e-06 4.4084145e-06
-2.4786202e-06 -3.6779495e-06 -1.8494386e-06 4.170504e-06 -2.1487135e-06 -5.971893e-06 -5.1334e-06 3.5308335e-06
8.164726e-06 5.202122e-07 1.3439047e-06 -1.1889524e-06 -7.95529e-06 -1.9802453e-06 -1.2019883e-05 1.4084932e-06
-1.3451506e-05 -3.716239e-07 -2.5152744e-06 -4.783927e-06 -3.7373313e-06 6.8628538e-06 -2.8943477e-06 2.5955599e-06
7.6146637e-07 3.1003085e-06 4.170041e-07 5.263712e-06 -4.3126843e-06 -2.3367204e-06 -4.1570092e-06 2.8916893e-06

running_var f4 [192]
00000000: bd60 2b3e 68a2 5d3e cd46 003f 1172 be3e
00000010: ca14 0c3f 0dc8 853e 68a6 063f 87d3 4e3e
00000020: c7a1 133e 09bc 043e ca82 953e 506a 4f3e
00000030: 2bb9 7b3e 5a2c 483e 4681 b03e babb ee3e
00000040: 773d 813e 963e e63e 2329 c63e b796 953e
00000050: af9e c43e 1d05 7f3e 46bb 873e ebef 113f
00000060: 8787 b03e a293 933e 8415 4a3f 93ff 8e3e
00000070: 6ff9 bb3e 7a27 bd3e feed 763e 6946 513f
00000080: d966 aa3e d20d 923f c10d d13e acf2 1b3f
00000090: 3b41 e93e 0bff b53e 081e 583e 15b1 d43e
000000a0: faf9 903e 174b 843e c5b1 c33e d8ff 323f
000000b0: 0b06 123f ddcb 913e 2ed4 d63e 0ae7 4d3f
000000c0: fc25 253f 6e55 8e3e ddfa 133e c757 e43e
000000d0: d806 933e 71a6 ad3e d3e5 c33d 5cd0 493e
000000e0: 5646 623e 51b3 2b3f 36f6 123f 8756 883e
000000f0: fe43 c03e db56 9f3e bb0a 273e d6e5 443f
00000100: dc03 ad3e 53f8 073f d437 923e 884e 9b3e
00000110: c1b4 f83e d076 c13d b82d 4e3f aaa9 5b3e
00000120: 02d6 9a3f 46a6 e43e 76be e53e cb75 f73e
00000130: dbb3 623e 6bb0 763e e277 463e e7fd 803e
00000140: 5d8c 0f3f 2ca3 ca3e b43f b13e 2648 313e
00000150: 6200 dc3e f476 773e 13a0 a93e 3733 293f
00000160: 7bf8 de3e dac3 293f f6d5 663e 0b04 9e3e
00000170: 57ac 753e c31c a83e 68f9 a13e 8c04 8e3e
00000180: 05f1 d93e bc5c fa3e 4180 b53e 0cd3 573f
00000190: 0551 183f 0c91 eb3e 1d06 9f3e e5a5 843e
000001a0: f867 073f 5fe5 ce3e 2a7b ce3e b695 b73e
000001b0: a5d7 153f 0eac 8d3e 2c57 433e 8640 8c3e
000001c0: 1da4 aa3e fecd b63e 5a20 e23e 68c5 7b3e
000001d0: 10f2 043e dfc4 f33e 9b3c 8f3e 623e e73e
000001e0: c3ce bc3e c22f 8c3f 330a d53e 7701 283e
000001f0: 31a3 cb3e aacc b03e 99d5 473e 8c9d 953e
00000200: d673 e03e 7f32 173f 8f2a 293f 5357 863e
00000210: 0960 c13e 2280 993e c600 f63e b351 223f
00000220: 44c8 0f3f b658 b73e 73c4 a43f 121e 8f3d
00000230: f31a bf3e 3d25 193e d6ca 243e c848 e33e
00000240: d9e0 fb3e a818 093f 486e 073f d9fb f83e
00000250: d971 203f 9cfd f03e 02b3 dc3f b0d7 443e
00000260: e0b1 643e e168 773f 3260 6a3e e487 a03e
00000270: 9cff c93e 543f 203f a975 683e d838 5a3f
00000280: eb26 713e e085 2c3f 40cb 593e 247d 123f
00000290: 678b d03e 4268 373f 165f cc3e 4815 363f
000002a0: 3765 653e c74a 963e 3dd1 943e 95eb 993e
000002b0: c897 a13d ca4f 4f3e 7c46 383e 6e60 053f
000002c0: 7995 ad3e d238 0b3f f52d 623f c830 b03e
000002d0: cfbf 873e 9329 e03e f049 523e 69e3 ef3e
000002e0: 9607 df3d 6855 923e ebb0 013f 5c7e d73d
000002f0: f28a 533e 10cb 1d3f fb47 3a3f 2126 493f
0.16736121 0.21643984 0.50108033 0.371964 0.5471922 0.2612919 0.52597666 0.20197879
0.14417182 0.12962355 0.29201347 0.20255399 0.24582355 0.19548169 0.34473628 0.466276
0.25242206 0.44969624 0.3870326 0.2921655 0.38402316 0.24904294 0.26510066 0.5700671
0.344784 0.28823572 0.7893908 0.27929363 0.3671374 0.3694418 0.24114224 0.8174806
0.33281592 1.1410468 0.40830806 0.6091716 0.4555758 0.35546145 0.21105206 0.41541353
0.28315717 0.2583854 0.38221565 0.69921637 0.5704047 0.28475848 0.41958755 0.8043066
0.64511085 0.27799553 0.14451165 0.4459822 0.2871616 0.33916047 0.0956532 0.19708389
0.22097144 0.6707049 0.5740694 0.26628515 0.37551874 0.31120953 0.16312687 0.769132
0.33792007 0.5311329 0.28558218 0.30333352 0.48575404 0.0944649 0.8053851 0.2145144
1.209656 0.44658107 0.44871873 0.48332056 0.22138922 0.24090736 0.19381669 0.25193712
0.5607355 0.39577615 0.34618914 0.17312679 0.42969042 0.24166471 0.3312994 0.6609377
0.4354895 0.6631447 0.22542557 0.3086246 0.23991524 0.32834443 0.31635594 0.27737844
0.42566696 0.48898876 0.35449412 0.84306407 0.59498626 0.460091 0.31059352 0.25907817
0.5289302 0.4040937 0.40328342 0.35856408 0.5853217 0.2767033 0.19076222 0.27392977
0.33328333 0.35704035 0.44165307 0.24587023 0.12982965 0.47611138 0.27975926 0.45164782
0.36876497 1.0952075 0.41609344 0.16406809 0.39772943 0.34531146 0.19515075 0.2922176
0.43838376 0.59061426 0.66080564 0.26238498 0.37768582 0.2998057 0.48047465 0.63405913
0.56164956 0.3580987 1.2872452 0.06988157 0.37325248 0.14955612 0.16093001 0.44391465
0.49194983 0.5355325 0.5290265 0.48629645 0.6267372 0.4706849 1.7242129 0.19222903
0.22333479 0.9664441 0.22888258 0.31353676 0.39452827 0.6259663 0.22701134 0.85242987
0.23550002 0.6739178 0.2126894 0.572222 0.40731356 0.7164346 0.39916295 0.7112622
0.22401892 0.29353926 0.29065886 0.30062547 0.07890278 0.20245281 0.17995638 0.52100265
0.339031 0.54383576 0.88351375 0.34412217 0.26513526 0.4378172 0.20536017 0.46853188
0.10890119 0.28580785 0.5066058 0.10522148 0.20658472 0.61637974 0.72766083 0.78573805
