experiments/model_repositories/demo/traffic_detection/model_files/block_05.pth (torch, 19139 bytes, 5 tensors)

weight f4 [24, 96, 1, 1]
0.18594044 0.18374431 -0.019344067 -0.052986465 0.34448344 -0.029422976 0.21203412 -0.24394745
-0.20293899 0.03249653 0.06692505 0.26032275 -0.04011914 -0.03788275 -0.02970104 0.32636672
-0.19454914 -0.10011858 -0.05214308 0.33921248 0.07411788 0.04832394 0.006830865 0.03173617
0.054166216 0.06178295 0.2176837 -0.09909711 -0.14078686 -0.009207041 -0.13494284 -0.018533865
-0.039709132 0.32205188 0.17764348 -0.02060969 0.003553418 0.10374701 0.11274911 0.08710324
0.305542 -0.020782426 0.06214954 0.07016599 -0.05436323 -0.16127864 0.16060758 -0.022047784
-0.04410924 0.09218288 -0.03970457 0.10497744 0.15945156 0.114456974 0.05945122 0.17119054
-0.082306825 -0.116963804 0.20477127 -0.17787948 0.063606694 -0.00676872 -0.15646039 0.10799542
0.15844461 0.16613983 -0.20281725 -0.09804608 -0.058919713 -0.0065038465 -0.10667537 -0.049682513
0.16969137 0.043848354 -0.1670388 0.12638141 0.41485417 -0.006644624 0.13452348 -0.096451625
0.05010355 -0.021343468 0.08191498 -0.2596295 -0.08493697 -0.039989565 -0.11069761 -0.22444768
0.044311497 -0.073936254 -0.08368617 0.21292907 -0.09519721 -0.07536245 0.01653531 -0.095877215
0.024384383 0.20754193 0.15586643 -0.4314093 -0.0028475563 0.13839643 0.08761147 -0.1581352
0.09543423 -0.059768245 0.02748382 -0.049144085 -0.13225754 -0.12165159 -0.103851885 0.1452928
-0.08198438 0.096321814 -0.13730618 0.042403318 -0.00040988027 0.05773999 0.03695873 0.012505887
-0.11490554 0.12610954 0.06709011 -0.017571814 0.15153876 -0.09727208 0.08526196 -0.14437471
-0.15295835 0.015624416 -0.21927895 0.028168827 0.27528587 -0.30035165 0.033478167 -0.1964272
-0.09147911 0.041490346 0.010468604 -0.110992335 0.010616837 -0.27676728 -0.02484558 -0.20715436
-0.11701015 0.036261465 -0.02326335 0.06399661 0.12704653 -0.087986395 -0.15302053 0.1588211
-0.19683586 0.09540749 -0.156928 0.24295582 0.44708395 0.012256099 -0.25156465 -0.055490177
-0.019719256 0.14075215 0.08451857 0.26197764 -0.051683977 0.050845027 0.07897066 0.27397934
0.08162365 -0.22128545 0.03675469 -0.09315055 -0.1038544 0.25625557 0.07774007 0.090627946
-0.061239783 -0.15440364 0.2388681 -0.13689461 0.1565082 -0.09977912 -0.14477363 0.11341535
0.058397125 -0.09815061 -0.19861342 0.3746732 -0.15313002 -0.014417741 0.07892337 0.19873026
0.16087638 0.019745348 -0.19598065 -0.13625416 0.23341407 -0.38294417 -0.16441555 0.052015323
-0.026089845 0.12582107 -0.032600947 -0.26502535 0.26898703 -0.17936827 -0.06891103 -0.05594628
0.038260188 0.009172312 0.09073151 -0.015525052 0.15670139 0.06692947 0.28047547 0.27472982
-0.100064166 -0.17975114 -0.24721745 0.05244692 0.1274765 0.21572234 0.112810716 0.046101797
-0.16936715 0.18299265 0.10482321 -0.14270338 -0.12221019 0.15630855 0.27937192 -0.19876227
0.13831206 -0.16689484 0.21024562 -0.14660092 -0.15243356 0.16366968 -0.08245033 0.07201491
-0.1718092 0.14448178 -0.024374086 -0.08194783 -0.051331796 0.010408351 -0.06306529 0.118576676
-0.039148994 -0.032944188 -0.21097511 0.10330487 0.44106287 -0.011520603 0.2799339 -0.1357222
00000000: 2c67 3e3e 7827 3c3e 7377 9ebc 5608 59bd
00000010: 2260 b03e 7408 f1bc 791f 593e 5ccd 79be
00000020: 3dcf 4fbe 151b 053d 0010 893d 0649 853e
00000030: f853 24bd f12a 1bbd 984f f3bc 8a19 a73e
00000040: e437 47be f80a cdbd fb93 55bd 42ad ad3e
00000050: 1dcb 973d 53ef 453d 73d5 df3b c9fd 013d
00000060: 65dd 5d3d 1e10 7d3d 7ae8 5e3e 6df3 cabd
00000070: 6e2a 10be 21d9 16bc 752e 0abe 55d4 97bc
00000080: 0ba6 22bd fce3 a43e 2ce8 353e a7d5 a8bc
00000090: 76e0 683b 5079 d43d 01e9 e63d 2f63 b23d
000000a0: 0070 9c3e e83f aabc 8490 7e3d 30b3 8f3d
000000b0: faab 5ebd 3a26 25be 5076 243e 8e9d b4bc
000000c0: e4ab 34bd 61ca bc3d 42a1 22bd 69fe d63d
000000d0: 4547 233e 6b68 ea3d 1f83 733d 934c 2f3e
000000e0: 7b90 a8bd b88a efbd 8faf 513e 0a26 36be
000000f0: 3a44 823d 24cc ddbb 2737 20be b42c dd3d
00000100: 4e3f 223e 8f20 2a3e 53af 4fbe 62cc c8bd
00000110: cc55 71bd 381e d5bb 9e78 dabd e47f 4bbd
00000120: 93c3 2d3e 559a 333d 380c 2bbe 216a 013e
00000130: c467 d43e 25bb d9bb 86c0 093e 6e88 c5bd
00000140: 6139 4d3d 7fd8 aebc 0bc3 a73d 28ee 84be
00000150: 6ff3 adbd 19cc 23bd 6eb5 e2bd 9dd5 65be
00000160: f97f 353d e46b 97bd a863 abbd 140a 5a3e
00000170: c1f6 c2bd a157 9abd 0f75 873c 465b c4bd
00000180: c2c1 c73c df85 543e 739b 1f3e aee1 dcbe
00000190: 119e 3abb cbb7 0d3e a46d b33d 32ee 21be
000001a0: 0673 c33d 8ccf 74bd c025 e13c 4f4b 49bd
000001b0: 856e 07be 7824 f9bd 4cb0 d4bd a3c7 143e
000001c0: 6de7 a7bd 5f44 c53d fe99 0cbe 1aaf 2d3d
000001d0: 33e5 d6b9 c580 6c3d 0a62 173d 7ee5 4c3c
000001e0: 9953 ebbd dc22 013e 8a66 893d c4f2 8fbc
000001f0: fa2c 1b3e 9636 c7bd d39d ae3d f7d6 13be
00000200: 1da1 1cbe 8dfd 7f3c a98a 60be 50c2 e63c
00000210: 45f2 8c3e b1c7 99be 6720 093d 3624 49be
00000220: 6659 bbbd c8f1 293d 8284 2b3c f34f e3bd
00000230: 3ef2 2d3c 71b4 8dbe f588 cbbc 4620 54be
00000240: 04a3 efbd e786 143d c892 bebc a810 833d
00000250: 7c18 023e 3632 b4bd 6ab1 1cbe 00a2 223e
00000260: 578f 49be 0165 c33d bcb1 20be 69c9 783e
00000270: 30e8 e43e cecd 483c 15cd 80be ab49 63bd
00000280: 478a a1bc 5521 103e 1218 ad3d ef21 863e
00000290: 94b2 53bd e042 503d 5fbb a13d 0547 8c3e
000002a0: 4d2a a73d a798 62be 168c 163d b7c5 bebd
000002b0: 9eb1 d4bd ee33 833e 3036 9f3d 259b b93d
000002c0: 91d6 7abd fd1b 1ebe d799 743e 1a2e 0cbe
000002d0: b043 203e ff58 ccbd 8a3f 14be 4f46 e83d
000002e0: d331 6f3d 3003 c9bd 5161 4bbe 2ad5 bf3e
000002f0: 1ece 1cbe 6438 6cbc 93a2 a13d f27f 4b3e
00000300: c7bc 243e ffc0 a13c 27af 48be 3686 0bbe
00000310: 1904 6f3e 4211 c4be 8d5c 28be 050e 553d
00000320: 5fba d5bc 3dd7 003e 9288 05bd 67b1 87be
00000330: abb8 893e 51ac 37be 3a21 8dbd ed27 65bd
00000340: b7b6 1c3d 7747 163c 71d1 b93d ca5c 7ebc
00000350: 5476 203e 5112 893d 7b9a 8f3e 63a9 8c3e
00000360: 71ee ccbd af10 38be 9226 7dbe 95d2 563d
00000370: 3389 023e 51e6 5c3e 4e09 e73d 3dd5 3c3d
00000380: 956e 2dbe 6d62 3b3e 8dad d63d d620 12be
00000390: 5649 fabd 590f 203e d609 8f3e 5688 4bbe
000003a0: ada1 0d3e 7be6 2abe a14a 573e 8d1e 16be
000003b0: 8b17 1cbe 0699 273e b8db a8bd 8e7c 933d
000003c0: c0ee 2fbe 08f3 133e 2aac c7bc 44d4 a7bd
000003d0: 4a41 52bd ca87 2a3c 6028 81bd 54d8 f23d
000003e0: b25a 20bd 7cf0 06bd dc09 58be 8191 d33d
000003f0: fed2 e13e e9c0 3cbc 7f53 8f3e c3fa 0abe

weight f4 [24]
0.4740166 0.44951472 0.45564264 0.38690788 0.32198232 0.50209934 0.30545297 0.61310756
0.4879329 0.6186539 0.41219243 0.68180835 0.5173459 0.46743628 0.5622067 0.4383024
0.50456315 0.52971995 0.623867 0.4627247 0.36714694 0.41299483 0.55869824 0.38788515
00000000: 4eb2 f23e cb26 e63e fe49 e93e ca18 c63e
00000010: deda a43e 9589 003f 5564 9c3e 9ef4 1c3f
00000020: 57d2 f93e 1a60 1e3f e30a d33e fe8a 2e3f
00000030: c870 043f cf53 ef3e c7ec 0f3f 2c69 e03e
00000040: 0d2b 013f ba9b 073f bfb5 1f3f 40ea ec3e
00000050: affa bb3e 0f74 d33e d906 0f3f e298 c63e

bias f4 [24]
-3.620021e-07 3.7965864e-07 -2.915506e-06 -1.5283299e-06 -3.5247836e-06 -1.9369406e-06 3.879573e-06 -9.225367e-07
4.663193e-06 1.890997e-06 -5.453648e-06 2.4040887e-06 1.8127662e-06 -1.9911347e-06 -2.2124046e-07 3.1665004e-06
3.1247782e-06 -7.6927455e-07 -2.8003926e-06 3.394228e-06 2.1363592e-06 3.7402738e-06 -3.5607823e-07 -1.3311464e-06
00000000: 3159 c2b4 e3d3 cb34 03a8 43b6 0421 cdb5
00000010: 528b 6cb6 63fc 01b6 472d 8236 3da4 77b5
00000020: 8678 9c36 2ace fd35 7bfe b6b6 ee55 2136
00000030: 2c4e f335 6f9f 05b6 1d8e 6db4 1080 5436
00000040: 48b3 5136 2580 4eb5 61ee 3bb6 65c8 6336
00000050: 5f5e 0f36 6a01 7b36 052b bfb4 d8a9 b2b5

running_mean f4 [24]
0.77816236 -0.44336572 0.5352937 0.14783217 0.061049305 0.560368 0.31494018 -0.2269586
0.28330463 0.085836016 0.007188345 -0.5712238 -0.14110631 -1.0405282 -1.0591393 -0.7512317
-0.19574988 -0.0011236423 0.3961872 -0.108114295 -0.15109012 -0.21123862 -0.171417 -0.10614304
00000000: a635 473f d500 e3be 0209 093f 5161 173e
00000010: d60e 7a3d 4774 0f3f d73f a13e d667 68be
00000020: 4e0d 913e cbca af3d 358c eb3b b93b 12bf
00000030: 2c7e 10be 0730 85bf e091 87bf b850 40bf
00000040: a872 48be 2e47 93ba 0cd9 ca3e 076b ddbd
00000050: 5eb7 1abe f04e 58be f087 2fbe 8661 d9bd

running_var f4 [24]
0.10135356 0.16684696 0.11750655 0.0719711 0.08335474 0.1612843 0.04040176 0.21138783
0.18575941 0.18692866 0.08264402 0.5046887 0.2419354 0.15913662 0.1599315 0.16924614
0.31700015 0.13700089 0.26704222 0.11630099 0.090864815 0.12161867 0.21319479 0.101499274
00000000: 7592 cf3d eed9 2a3e 46a7 f03d 9665 933d
00000010: e4b5 aa3d b627 253e 517c 253d 0d76 583e
00000020: b737 3e3e 3a6a 3f3e 4541 a93d 4733 013f
00000030: eabd 773e b6f4 223e 15c5 233e dc4e 2d3e
00000040: d84d a23e f649 0c3e c2b9 883e 372f ee3d
00000050: 5517 ba3d 3613 f93d bc4f 5a3e dade cf3d
