experiments/model_repositories/demo/sign_recognition/model_files/block_07.pth (torch, 28073 bytes, 5 tensors)

weight f4 [144, 24, 1, 1]
000000 36 e0 11 3d 90 65 82 bc 05 7f cb 3c fa 4b c8 bc
       0.035614215 -0.01591757 0.024840841 -0.024450291
000010 b8 c1 8d bb 52 56 0e bd f9 bc 12 3d fd 1e 0a 3d
       -0.0043260716 -0.03475029 0.03582475 0.03372096
000020 74 ac ae bd ac 2d 60 bd bf a8 36 3b 0a 88 4f bb
       -0.085289866 -0.054731056 0.0027871577 -0.003166678
000030 5f 7f fa bc e2 27 03 3d 43 44 9c bb 46 21 f4 3c
       -0.030578313 0.032020457 -0.0047688796 0.029801022
000040 9a 08 22 3d 55 eb 8d 3b e0 d0 15 3c d7 04 9a 3c
       0.039558984 0.0043310323 0.009144038 0.018801136
000050 30 80 dd bc f1 37 e7 3c 64 ac fb 3c 00 20 40 3c
       -0.027038664 0.028224917 0.03072185 0.011726379
000060 71 b2 1c 3b ed fa fb bc ae a1 83 3c 3e 73 6d 3c
       0.002391007 -0.0307593 0.016068306 0.014492808
000070 12 ab 4d 3d 45 dd b5 bc 76 fa 55 3c c7 bd 55 3d
       0.050211973 -0.022200236 0.013060203 0.05218294
000080 4d 95 ff bb c6 2e 19 bc 69 95 82 3c 1f 57 1a 3d
       -0.0077997805 -0.009349531 0.015940385 0.03768074
000090 39 82 92 bc c1 3d b4 39 30 6d 38 bc 06 27 4f 3b
       -0.01788436 0.00034378286 -0.011256501 0.0031608953
0000a0 32 cf 3f bc 34 60 87 3c 4a 6e f3 bb 2c 1b 9b 3c
       -0.011707114 0.016525365 -0.007428919 0.018933855
0000b0 25 64 06 bd 40 5a 1c 3b 80 29 d5 3c c2 e2 71 3d
       -0.03281035 0.0023857504 0.026020765 0.059054144
0000c0 73 11 26 3c 72 4d a3 3c 4f 81 f0 3c e0 39 8c bd
       0.010135996 0.01993439 0.029358534 -0.06846976
0000d0 fe 9a 10 3d 27 e6 98 bd 2b 28 2c bc 3d 8a 1b bd
       0.035304062 -0.07465773 -0.010507624 -0.03797363
0000e0 b5 f6 2b bd 59 7d 86 3c 7e c0 55 bd 68 3d 95 3c
       -0.041983325 0.016417192 -0.052185528 0.018217757
0000f0 72 c4 3d bc 36 ca 85 3d e0 3a 4f 3c ac 42 c6 bb
       -0.011582481 0.06532709 0.012648314 -0.0060504284
000100 98 b9 37 bd b6 cb b1 3c ec 23 d0 bc f0 26 0c 3d
       -0.04485473 0.021703582 -0.025407754 0.03421682
000110 d5 59 6a bd 06 6b d7 3c ba 2e 65 3d 09 a4 6c 3d
       -0.057214577 0.02629615 0.055952765 0.057773624
000120 01 31 ca 3b 57 66 3a 3d 66 99 9f bc cb 19 08 3c
       0.0061703925 0.045507755 -0.019482326 0.008306931
000130 23 1c 60 ba a8 e1 7f 3d 7d 91 a1 3c 38 bc 41 3d
       -0.00085491146 0.062471062 0.019722695 0.04729864
000140 32 79 45 3c 91 99 2d 3c ff 38 2d bd d7 04 8d 3b
       0.012052821 0.010595695 -0.042290684 0.0043035555
000150 5e 0a d2 bc 39 31 1b 3d 6b 95 b1 bb 84 90 a7 bb
       -0.02563971 0.03788874 -0.0054194233 -0.005113663
000160 81 d5 87 bd 61 35 01 3d 02 39 4c 3c 5e 35 c2 3c
       -0.066325195 0.031545047 0.012464764 0.023707088
000170 58 0a 87 bb cc b1 a2 bc 78 35 38 bd 26 af c5 3c
       -0.004121106 -0.01986017 -0.044972867 0.024131369
000180 9e 0d ef bc 0b 1e 8f 3c 8b 43 95 bc 0c d8 dd 3c
       -0.029181298 0.01747038 -0.018220684 0.027080558
000190 93 6e 2e 3d d8 87 5e 3d fa 56 5d 3c 30 de 11 bd
       0.04258592 0.05432877 0.013509506 -0.035612285
0001a0 95 c6 a9 bc f6 89 f6 bc 9a d0 2a bc 64 ba 82 3c
       -0.020724574 -0.030095082 -0.010425711 0.015958019
0001b0 71 b7 43 3d a8 6a 3a 3b 1d 82 32 bd 3e a7 14 3c
       0.047782365 0.002844492 -0.043581117 0.009073077
0001c0 18 b4 ac 3c 65 87 9b 3c 72 5d 8c 3b d1 13 2a 39
       0.02108197 0.01898546 0.0042836005 0.00016219846
0001d0 58 14 c6 3c 59 a7 98 3c f0 dc 68 3d f7 20 5a bd
       0.024179623 0.018634485 0.056851327 -0.053254094
0001e0 73 25 20 3d 5a 00 02 3d 8f 7b cc bc 95 2a 0c bd
       0.039098214 0.031738617 -0.024961261 -0.034220297
0001f0 de 6b 35 bd dc cb 2c 3c 56 80 1c 3d 20 b4 b1 3a
       -0.044292323 0.010546651 0.03820833 0.001355771
000200 1c 68 ab 3c 5a 70 4f bc 4c fa ec 3c 06 5a a0 bc
       0.020923667 -0.012661064 0.028927945 -0.019574177
000210 3e db 14 3d 5d 37 4f 3c 09 b4 54 3d 6d dc 92 3d
       0.0363419 0.012647477 0.051929507 0.07170949
000220 ad c9 c0 bc f5 2a ff bc 46 59 9b 3c 7b 2b 4b 3b
       -0.023533667 -0.031148413 0.018963467 0.0031001258
000230 a7 85 d7 3b 8a 83 c3 3c 30 89 4c bd 7d 56 87 bd
       0.006577212 0.023866434 -0.04993552 -0.06608293
000240 b7 cb de bc 6c d0 57 bb 3d ba c3 3a 20 ef 8f bb
       -0.027196748 -0.0032930626 0.0014932823 -0.0043925196
000250 f8 75 80 3c 1d 9f 96 bc ff 84 0a 3d 2c a2 86 bc
       0.015681252 -0.018386418 0.03381824 -0.016434751
000260 21 7e 0c 3d c9 a6 ff 3c a7 dd 1d bd d1 66 ab 3b
       0.034299973 0.031207459 -0.038541462 0.0052307625
000270 a0 02 bd bc 0a ab 8f 3c d1 92 a4 3d aa e6 22 bd
       -0.02307254 0.017537612 0.080358155 -0.03977076
000280 de 38 9d 3d 27 a7 78 bd 51 e7 03 bc 0a 57 e7 bb
       0.07676862 -0.060706284 -0.008050756 -0.0070599364
000290 9d 44 ec 3a 9d 25 87 3c 91 51 2a bc ef a7 02 bd
       0.001802582 0.016497428 -0.0103954235 -0.031898435
0002a0 5b ba 8d 3c 2f b1 21 ba 65 40 16 3d 1c 99 f5 3a
       0.017300775 -0.0006168065 0.036682505 0.0018737647
0002b0 04 58 22 3d 36 77 44 bc ef 7e 8e bd 06 d0 64 3d
       0.03963472 -0.011991313 -0.069578044 0.05586245
0002c0 97 17 72 bc 29 ae 00 bc 3b 6a 97 bc af 97 89 3c
       -0.014776132 -0.007854023 -0.018483272 0.016795961
0002d0 32 f0 ec 3b 56 a0 47 bd be 6e b1 bd 39 79 f4 bc
       0.007230782 -0.048736893 -0.086637005 -0.02984296
0002e0 ab 5c a4 bc 4f ef 87 3d 36 cb ff 3c 50 cd fb bc
       -0.020063719 0.06637441 0.031224828 -0.030737549
0002f0 64 a5 41 bb 85 02 5a bc 1a ce 0f 3d 7c fb 82 3d
       -0.0029548043 -0.013306265 0.035108663 0.06395623
000300 c9 0e 24 3d 3a f6 a8 3c 19 5d c3 bc a3 3d f3 bb
       0.040053163 0.020625222 -0.023848103 -0.007423119
000310 ae f1 60 bc 0f ed a0 bc de 4a c4 3c 62 53 a7 3b
       -0.013729496 -0.019644288 0.02396148 0.0051063756
000320 b3 a3 ac bc 6f 12 b5 3b 05 0c 58 bd 3d ac 39 3b
       -0.021074152 0.005525879 -0.052745838 0.0028331422
000330 75 f5 b5 bc bc 8c 0b bd 06 86 24 bc 7c e7 ed 3c
       -0.02221177 -0.03406976 -0.010041719 0.029041044
000340 99 4b 03 bd 0b 23 23 bd 2d 67 9f 3c 27 57 c0 3c
       -0.032054517 -0.03982834 0.019458378 0.023479057
000350 3a 08 ed 3c 88 4a 02 3d b6 3f 2e bd 42 2f e6 3c
       0.028934587 0.03180936 -0.04254123 0.028098706
000360 49 33 2d bc fd fc 2f 3d 82 cc e4 bb 8a 83 4d bd
       -0.010571309 0.042965878 -0.006982387 -0.050174274
000370 11 fb ec bc 4f ef fa 3b b2 c7 9f bd ad 25 5e bc
       -0.028928312 0.0076579223 -0.07801761 -0.013558787
000380 64 e0 8a 3c 1b 30 87 bd 31 99 00 bd ef e3 df bb
       0.0169527 -0.06600972 -0.031396095 -0.0068325917
000390 e7 9a 3d 3d 2e 48 9e 3c 04 76 80 3d be 6e c0 3b
       0.046290305 0.019321527 0.0627251 0.0058725765
0003a0 d8 7c 14 bd 3c c1 ae bc fa 34 2f bc f1 e5 8e bc
       -0.036251873 -0.021332376 -0.010693783 -0.017443629
0003b0 62 dd ac 39 eb b0 7d 3c b6 c6 3e ba 5b 7b 32 3d
       0.0003297134 0.015484075 -0.0007277535 0.043574672
0003c0 f0 e5 1e bc e5 13 df bc 47 c3 b6 bc 40 61 b2 3c
       -0.009698376 -0.027231166 -0.022309912 0.021774888
0003d0 04 25 5c bb 55 1e 0f bc 77 cd 8a bc 64 c1 3f bb
       -0.00335914 -0.008735259 -0.016943676 -0.0029259557
0003e0 90 07 04 bc 29 d5 05 bd 4a a3 f7 bc e9 58 2f bb
       -0.008058444 -0.03267399 -0.03022923 -0.0026755875
0003f0 2c ca 0c bd 3c 84 20 bd 12 de 43 bb c0 20 53 3d
       -0.034372494 -0.03918861 -0.0029887003 0.051544905

weight f4 [144]
000000 ad 3c 82 3e 24 25 82 3e fd 34 82 3e 54 51 82 3e
       0.25436917 0.2541896 0.25431052 0.25452673
000010 6c 53 82 3e fa 69 82 3e 42 43 82 3e d9 40 82 3e
       0.2545427 0.2547148 0.2544194 0.254401
000020 62 4f 82 3e c2 41 82 3e 9f 32 82 3e 6f 49 82 3e
       0.2545119 0.25440794 0.25429246 0.2544665
000030 e7 3c 82 3e 58 4b 82 3e bb 28 82 3e 78 4e 82 3e
       0.2543709 0.25448108 0.254217 0.25450492
000040 be 4f 82 3e 1a 68 82 3e 48 3c 82 3e 91 5a 82 3e
       0.25451463 0.25470048 0.25436616 0.25459722
000050 e7 4e 82 3e 94 3e 82 3e b1 51 82 3e 68 50 82 3e
       0.25450823 0.25438368 0.2545295 0.2545197
000060 76 66 82 3e de 18 82 3e 8b 52 82 3e 31 45 82 3e
       0.25468796 0.25409597 0.254536 0.25443414
000070 31 43 82 3e ce 4f 82 3e 5e 49 82 3e 38 45 82 3e
       0.25441888 0.2545151 0.254466 0.25443435
000080 8a 4b 82 3e c7 62 82 3e aa 57 82 3e 6e 40 82 3e
       0.25448257 0.25465986 0.25457507 0.2543978
000090 91 4f 82 3e 17 4d 82 3e 54 42 82 3e 39 53 82 3e
       0.2545133 0.2544944 0.2544123 0.2545412
0000a0 d5 4d 82 3e 77 4e 82 3e cb 63 82 3e c1 4a 82 3e
       0.25450006 0.2545049 0.2546676 0.25447658
0000b0 c8 46 82 3e f9 39 82 3e b5 3d 82 3e 19 52 82 3e
       0.25444627 0.25434855 0.25437704 0.2545326
0000c0 fa 5e 82 3e a7 53 82 3e dc 56 82 3e e4 6b 82 3e
       0.25463086 0.25454447 0.25456893 0.2547294
0000d0 e9 60 82 3e 60 57 82 3e e9 47 82 3e 52 56 82 3e
       0.25464562 0.25457287 0.25445488 0.25456482
0000e0 c9 4f 82 3e 69 37 82 3e 88 4e 82 3e b0 5f 82 3e
       0.25451496 0.254329 0.2545054 0.2546363
0000f0 44 57 82 3e 88 41 82 3e a8 4c 82 3e bd 57 82 3e
       0.25457203 0.2544062 0.2544911 0.25457564
000100 f0 33 82 3e e3 58 82 3e 8c 42 82 3e d2 4c 82 3e
       0.2543025 0.2545844 0.25441396 0.25449234
000110 95 56 82 3e 60 4d 82 3e 6f 50 82 3e a4 50 82 3e
       0.25456682 0.25449657 0.2545199 0.2545215
000120 bc 2c 82 3e f1 21 82 3e 5b 57 82 3e 54 45 82 3e
       0.25424755 0.2541652 0.25457272 0.25443518
000130 c0 49 82 3e b7 52 82 3e 54 4d 82 3e fe 11 82 3e
       0.25446892 0.2545373 0.25449622 0.25404352
000140 1c 39 82 3e 62 fd 81 3e d1 51 82 3e 04 44 82 3e
       0.25434196 0.25388628 0.25453046 0.25442517
000150 32 4e 82 3e 38 52 82 3e 70 47 82 3e f9 48 82 3e
       0.25450283 0.25453353 0.25445127 0.254463
000160 62 58 82 3e 94 44 82 3e 56 59 82 3e 42 3e 82 3e
       0.25458056 0.25442946 0.25458783 0.25438124
000170 79 45 82 3e 3a 46 82 3e 00 4b 82 3e 88 47 82 3e
       0.25443628 0.25444204 0.25447845 0.254452
000180 c5 55 82 3e cc 42 82 3e 34 59 82 3e 34 54 82 3e
       0.25456062 0.25441587 0.25458682 0.25454867
000190 9f 56 82 3e 80 6d 82 3e 85 3f 82 3e ca 5e 82 3e
       0.25456712 0.25474167 0.25439087 0.25462943
0001a0 26 52 82 3e e7 3f 82 3e d9 57 82 3e 4c 5a 82 3e
       0.254533 0.2543938 0.25457647 0.25459516
0001b0 43 53 82 3e 33 3f 82 3e a7 4d 82 3e 74 1e 82 3e
       0.2545415 0.25438842 0.2544987 0.2541386
0001c0 ab 51 82 3e 47 59 82 3e e1 51 82 3e 89 57 82 3e
       0.25452933 0.25458738 0.25453094 0.2545741
0001d0 20 5b 82 3e 0e 3c 82 3e 9e 5a 82 3e 26 5b 82 3e
       0.25460148 0.25436443 0.2545976 0.25460166
0001e0 18 4b 82 3e 6e 4a 82 3e 64 3f 82 3e 02 30 82 3e
       0.25447917 0.2544741 0.25438988 0.25427252
0001f0 9d 4e 82 3e 75 57 82 3e a9 53 82 3e cb 51 82 3e
       0.25450602 0.2545735 0.25454453 0.25453028
000200 a4 43 82 3e 37 4d 82 3e 63 4e 82 3e 8e 45 82 3e
       0.2544223 0.25449535 0.2545043 0.2544369
000210 3c 4e 82 3e 8b 4b 82 3e 55 5c 82 3e 41 44 82 3e
       0.25450313 0.2544826 0.2546107 0.254427
000220 30 46 82 3e 8b 51 82 3e a1 59 82 3e 81 33 82 3e
       0.25444174 0.25452837 0.25459006 0.2542992
000230 38 52 82 3e 28 c2 81 3e 72 25 82 3e c1 4a 82 3e
       0.25453353 0.25343442 0.25419194 0.25447658

bias f4 [144]
000000 68 0a 87 3b 05 98 58 3c 22 c9 e5 3b 20 8a ef 3a
       0.0041211136 0.013219838 0.0070125023 0.0018275417
000010 fe 47 e2 b9 90 94 91 3b 5a 5d 96 ba b7 01 16 3c
       -0.00043159717 0.004442759 -0.0011471913 0.009155682
000020 ca a8 19 3c 37 74 ae 3b c7 21 22 3c 53 3d 6d bc
       0.009378621 0.0053239125 0.009895748 -0.014479953
000030 e2 00 18 3b 22 c5 7c 3b f6 ac 16 3c 39 19 58 bb
       0.0023193886 0.0038569649 0.009196511 -0.0032974018
000040 dc 2c 0c bb a3 07 a9 3a 36 26 a4 3a 79 ce ad 3b
       -0.0021389043 0.0012895953 0.0012523595 0.0053041545
000050 a2 9a 8e 3a 0c ac 23 3c 05 fa 82 3b e2 0a 94 3b
       0.0010879824 0.00998975 0.00399709 0.004517899
000060 45 a1 36 3b 0e dd 4e 3c 1c 05 21 ba 71 87 95 bb
       0.002786712 0.012625946 -0.0006142424 -0.004563265
000070 aa 69 93 bb a3 c9 2b b9 ca 6f 8d 38 69 43 50 bb
       -0.00449868 -0.00016382946 6.744226e-05 -0.003177846
000080 e4 0a 4f 3b 40 86 f8 bb b2 a6 c5 3b c0 7a c1 ba
       0.0031592185 -0.007584363 0.0060318345 -0.0014761314
000090 7e 59 90 bb 73 a5 dc 3b ce 98 a2 bb 20 88 16 3b
       -0.0044051996 0.0067335903 -0.0049620634 0.002296932
0000a0 74 08 c3 ba 03 24 bf 3b 79 88 73 bb 52 e3 3b b8
       -0.0014879839 0.0058331504 -0.0037160201 -4.4795983e-05
0000b0 b4 1e cb ba 79 27 29 3c 89 5d e1 3b 5f 2a e3 39
       -0.0015496821 0.010324352 0.0068776053 0.00043328383
0000c0 ef 12 ad 3b f4 74 bd ba e4 89 b1 3a 2e 84 b0 3b
       0.005281798 -0.001445441 0.0013545123 0.005386851
0000d0 45 a7 a2 3b 66 62 01 3a 05 46 e2 ba e6 2f 5c bb
       0.0049637877 0.0004935622 -0.0017263299 -0.0033597886
0000e0 b2 9f d1 3b 94 f8 b8 3a 0b d1 40 bb a3 f3 e9 ba
       0.006397211 0.0014112168 -0.0029421474 -0.0017849099
0000f0 d8 94 a6 3a 2e 75 ec 3a dd d9 98 3b d5 f7 45 3a
       0.0012709154 0.0018040293 0.004664643 0.00075518835
000100 68 e7 00 3c f5 b3 ac bb cf 54 c4 3b 3e b0 63 3b
       0.007867672 -0.005270476 0.0059915553 0.00347425
000110 ae 9e 0e ba e9 c6 55 3b eb bf c8 3a d9 4b 8b bb
       -0.0005440515 0.003261978 0.0015315985 -0.004250985
000120 c8 c8 8f 38 0b 7f 5d 3c 12 01 e3 3b 4c d7 f3 bb
       6.85617e-05 0.013519059 0.006927618 -0.007441437
000130 48 a8 1a 39 0b 78 36 ba 63 38 9f 3b d6 36 f1 3b
       0.00014749274 -0.0006960637 0.0048590167 0.0073612733
000140 7d 73 49 3c 6e e1 77 3c d8 ed 9d 3b 85 47 9c 3b
       0.012295601 0.01512943 0.004819613 0.004769268
000150 71 35 2e 39 1c 56 a7 3b 46 05 bc 3b 12 40 b1 bb
       0.00016613842 0.0051067006 0.0057379333 -0.005409249
000160 98 d2 10 3b ff d7 6c 3b 1b fb e0 38 9b 6e b6 bb
       0.002209818 0.0036139486 0.000107279244 -0.0055673844
000170 b9 09 13 bc 64 e9 02 ba 56 7d 06 3b 16 4d 98 3b
       -0.008974486 -0.00049938844 0.0020521483 0.0046478612
000180 e1 57 91 3b b0 61 b6 3b 2d 21 be ba 4c 96 13 3b
       0.004435525 0.0055658445 -0.0014505737 0.0022520004
000190 72 b6 6c 39 2c c9 74 bb 97 bf 9b 3b 55 88 ef ba
       0.0002257468 -0.0037351353 0.004753064 -0.0018274883
0001a0 b9 39 8a 3b be 1a 7f 3b 00 01 e9 bb ba af fb b8
       0.004218307 0.0038925852 -0.007110715 -0.00012001344
0001b0 8e fc 79 3b eb b2 a7 bb e9 4e 7e 3b 35 c0 80 bc
       0.003814492 -0.005117764 0.0038804358 -0.015716651
0001c0 df a5 83 3b 7f 06 9d 3b 5f 34 47 bb 1c 26 75 3b
       0.004017576 0.004792034 -0.0030396206 0.0037406748
0001d0 61 fa 01 3a d5 65 16 3c 52 43 a3 3a fe 1b f5 ba
       0.0004958269 0.009179552 0.0012455976 -0.0018700359
0001e0 b5 20 f7 3b 99 7b 66 3b 01 98 ce 3b d8 14 5f 3b
       0.007541741 0.0035168885 0.0063047414 0.0034039523
0001f0 d4 13 8e 3b e2 7c 73 bb fb 06 9f 3b 35 d8 ca ba
       0.00433586 -0.0037153293 0.004853127 -0.0015475812
000200 7a 1f 94 3b 2c f5 a2 bb 48 a0 1a 3b 90 bc e5 bb
       0.004520354 -0.0049730744 0.002359407 -0.007011004
000210 cf 59 5d ba 5a 51 a3 3b 53 5a b1 b9 71 5d e9 bb
       -0.00084438635 0.004984063 -0.00033827368 -0.007121735
000220 9e 17 56 3b 65 6e 4f ba 01 18 9b ba 95 d3 1e 3c
       0.0032667886 -0.00079128734 -0.0011832715 0.009694
000230 46 af 34 3b 42 3d 39 bb 8a f8 81 bc b3 78 5f 3b
       0.0027570291 -0.0028265272 -0.015865583 0.0034099042

running_mean f4 [144]
000000 a3 0a 33 b5 4c 0c 3b 35 de 07 7c b5 cd ec b3 b5
       -6.6698175e-07 6.9680823e-07 -9.3888764e-07 -1.3405457e-06
000010 fa 8d 6a 34 33 1d 23 b5 d4 8a 84 b2 70 ff 14 35
       2.1844599e-07 -6.076472e-07 -1.5429954e-08 5.5506007e-07
000020 7f 3c 05 b5 35 36 07 b6 28 b1 4e b3 16 45 2a 35
       -4.9634394e-07 -2.014812e-06 -4.8124235e-08 6.343047e-07
000030 b3 9d 4b 35 dc 9f 8f 34 6f 1b 95 35 3a b4 98 35
       7.5852876e-07 2.675214e-07 1.1109349e-06 1.1377335e-06
000040 6f 12 75 b5 50 8d e5 b4 f5 1f dd 34 2e bc 5e b5
       -9.1296437e-07 -4.2757392e-07 4.118771e-07 -8.297528e-07
000050 40 04 55 35 52 b6 ba 34 33 dd ec 34 59 08 02 b6
       7.935487e-07 3.4777855e-07 4.411937e-07 -1.9376369e-06
000060 72 b6 a6 b5 c7 e3 a2 b5 6f 76 a7 35 a6 60 8a 34
       -1.2421062e-06 -1.2136232e-06 1.2476938e-06 2.5774824e-07
000070 e6 39 9a b3 5b 93 52 33 75 dc 7e 35 77 a6 00 b5
       -7.1817155e-08 4.9028454e-08 9.494318e-07 -4.7925954e-07
000080 ff 7e ec b4 fd 17 59 b5 b0 e7 17 b5 63 db ea b4
       -4.4050827e-07 -8.0873707e-07 -5.6589033e-07 -4.374552e-07
000090 f7 df 4a b5 44 fe 82 35 c5 5d 20 34 b1 6b 9b b5
       -7.5576776e-07 9.759756e-07 1.4935274e-07 -1.1579742e-06
0000a0 1a 52 db 35 75 07 a1 b4 a8 05 a2 b4 0d 35 ea 33
       1.6340666e-06 -2.9994013e-07 -3.0178967e-07 1.0906124e-07
0000b0 cc 05 36 b4 fa 65 1d b5 42 f3 3b b5 e8 b8 23 35
       -1.695218e-07 -5.8635453e-07 -7.0016915e-07 6.0991306e-07
0000c0 0c b7 99 35 26 01 13 32 17 ff bc 35 f3 4f 39 b5
       1.1452662e-06 8.556787e-09 1.4081332e-06 -6.903421e-07
0000d0 43 b7 9a b5 7f 5f b0 35 d2 99 00 36 52 98 0e b4
       -1.152723e-06 1.3140815e-06 1.9163022e-06 -1.3280194e-07
0000e0 be a2 cb b5 f2 28 96 35 05 9f 72 b5 e5 6b b9 b5
       -1.5172043e-06 1.1187788e-06 -9.038343e-07 -1.3814976e-06
0000f0 35 fa 22 35 3e 7f 17 36 a0 e1 b7 35 48 cb a9 34
       6.07138e-07 2.2574818e-06 1.3700228e-06 3.162661e-07
000100 78 45 77 b5 f3 1a a2 34 33 d5 e7 33 dc 62 9d b5
       -9.211576e-07 3.019446e-07 1.07955564e-07 -1.1726183e-06
000110 9b 7e 0e b5 71 b9 2b 34 8b 71 39 35 53 2f 8d 35
       -5.308336e-07 1.5993079e-07 6.90831e-07 1.0519092e-06
000120 48 b4 a9 b5 21 7a 1a 34 b6 57 cb b4 fa 09 e9 34
       -1.264395e-06 1.4386798e-07 -3.7875515e-07 4.340689e-07
000130 2c 27 ac 35 ef 88 da b4 96 84 9f 34 f9 e1 a7 35
       1.2826399e-06 -4.0705297e-07 2.9712527e-07 1.2508236e-06
000140 f1 1c ab b4 a6 89 4d b6 7b eb 07 b6 6e ed 6c 34
       -3.187229e-07 -3.0627502e-06 -2.0253635e-06 2.2065589e-07
000150 b8 30 b9 b5 15 52 7b 35 f7 ac 23 33 2c d7 b3 35
       -1.3797753e-06 9.362423e-07 3.8108706e-08 1.3399163e-06
000160 c9 e3 ab b5 c7 64 81 34 19 fd c0 35 70 2a 19 b5
       -1.2806787e-06 2.4101448e-07 1.4378776e-06 -5.7058696e-07
000170 cf de 25 b4 90 31 e7 34 34 e3 7d b4 68 bd f2 34
       -1.544788e-07 4.3063164e-07 -2.3645117e-07 4.5213824e-07
000180 cc fe 53 b5 37 eb cc 33 51 64 b4 b2 ed 02 a0 35
       -7.8974404e-07 9.5422756e-08 -2.1000377e-08 1.192178e-06
000190 8d 59 f6 b3 78 f7 7c 33 4c 5b 86 35 8c 61 06 b5
       -1.1471557e-07 5.8898394e-08 1.0010349e-06 -5.006084e-07
0001a0 48 43 48 b5 de c7 06 35 d0 69 17 b5 84 aa 8f b5
       -7.4603713e-07 5.0209735e-07 -5.640586e-07 -1.0703957e-06
0001b0 ca b3 ff 34 c7 08 7d b4 bc 97 39 b5 60 1e 09 b5
       4.7628265e-07 -2.3565654e-07 -6.9138673e-07 -5.108068e-07
0001c0 18 4c fd b4 ed b7 05 b5 84 b3 9f 34 cf cf 2b b5
       -4.7180288e-07 -4.981401e-07 2.9746673e-07 -6.4004865e-07
0001d0 4e 9a d5 b5 8c 80 85 35 8b 97 5c 35 66 b8 21 b4
       -1.5914645e-06 9.946684e-07 8.217691e-07 -1.5061377e-07
0001e0 69 ea 70 b5 68 c4 5f b5 ea 7f c7 b5 12 97 98 b5
       -8.974808e-07 -8.335978e-07 -1.4863883e-06 -1.136885e-06
0001f0 09 1a 88 b5 21 2a 6d b3 f5 43 b2 35 7b 80 c8 35
       -1.0140367e-06 -5.521918e-08 1.3281812e-06 1.4938554e-06
000200 8a 34 1a b5 cd 1a 68 34 66 9e 64 b5 9c ab a2 b4
       -5.7445925e-07 2.1616434e-07 -8.516712e-07 -3.0299714e-07
000210 6e fb e0 b4 59 c6 f1 b4 48 6d 84 35 70 5b 0e b4
       -4.190619e-07 -4.5034065e-07 9.866571e-07 -1.3258045e-07
000220 72 74 86 35 f0 b6 f4 b5 cf bf b3 b4 08 3f bf b4
       1.0017668e-06 -1.8232658e-06 -3.3480907e-07 -3.5622384e-07
000230 52 25 11 b5 fb 0e 8e b5 28 1a 81 b5 2a d5 c0 34
       -5.407102e-07 -1.0584184e-06 -9.618861e-07 3.5917884e-07

running_var f4 [144]
000000 1e 64 90 3b cd db 89 3b e7 e2 fe 3b de 3c 96 3b
       0.004406466 0.0042071105 0.0077785137 0.0045848927
000010 1c e6 7a 3b 5e 1e 8d 3b 62 8d bb 3b cc a8 04 3c
       0.0038284129 0.0043065986 0.0057236413 0.008096885
000020 99 7d 97 3b 92 04 9d 3b f2 e3 9f 3b 63 f0 fa 3b
       0.0046231267 0.0047918046 0.004879468 0.007658051
000030 be 26 bc 3b 9b 78 43 3b 7a b9 89 3b d9 50 2f 3b
       0.005741923 0.0029826525 0.0042030187 0.002675107
000040 3a 1e 53 3b 83 c3 66 3b b0 1d 01 3b 4a 6c 81 3b
       0.0032214061 0.003521175 0.0019701533 0.0039496766
000050 93 81 58 3b bb 2b 39 3b 12 3d 69 3b 5c 24 9f 3b
       0.0033036217 0.0028254825 0.003558938 0.0048566293
000060 09 4c 93 3b 4a 0e db 3b 48 7a 92 3b 72 9e 9b 3b
       0.004495148 0.006685053 0.0044701435 0.0047491128
000070 0a ba 68 3b 6a 55 71 3b 6c 67 05 3c a4 33 16 3b
       0.0035511279 0.0036824592 0.0081423335 0.0022918964
000080 48 be 7f 3b c3 01 76 3b 9e f7 aa 3b 68 bd 82 3b
       0.0039023329 0.003753767 0.0052175066 0.003989864
000090 53 80 bd 3b 5c 2c c9 3b d4 bb 63 3b 55 5b fb 3b
       0.0057831197 0.0061393213 0.0034749405 0.0076707997
0000a0 a8 a8 d7 3b 3e a1 c4 3b 32 fd 8f 3b c5 be 9b 3b
       0.0065813847 0.006000667 0.004394197 0.004752966
0000b0 69 5e bb 3b 48 12 c9 3b 4e 8f 9f 3b 62 5e 79 3b
       0.0057180417 0.0061362125 0.004869378 0.0038050641
0000c0 b2 67 80 3b f4 0e 9f 3b 27 2f 98 3b 47 81 b5 3b
       0.0039186114 0.0048540775 0.004644293 0.0055390927
0000d0 15 60 f2 3b c9 c5 b8 3b 0b dc f7 3b f4 68 0d 3b
       0.007396708 0.005638812 0.007564073 0.002157745
0000e0 53 2c 29 3b d5 cd 2b 3b c6 7b 6a 3b 99 94 bc 3b
       0.0025813773 0.0026215215 0.003577934 0.005755019
0000f0 06 da 90 3b 1f 87 e8 3b a5 c2 67 3b 08 c3 d4 3b
       0.0044205217 0.007096186 0.003536382 0.006492976
000100 92 11 83 3b 42 d5 70 3b d5 0b 84 3b f7 49 d5 3b
       0.0039998973 0.0036748205 0.004029731 0.0065090614
000110 d6 24 7f 3b 49 54 85 3b 8b 4e 7c 3b 9f 96 e1 3b
       0.0038931868 0.0040688855 0.0038498964 0.0068844105
000120 fa 5d be 3b 36 fb ae 3b 0c 86 dc 3b 32 0d 61 3b
       0.0058095427 0.0053400053 0.006729847 0.003434014
000130 fa 20 ff 3b b5 8b 7d 3b 65 41 d2 3b 5e 6d 10 3c
       0.0077859135 0.0038688008 0.006416487 0.008815138
000140 f9 de c1 3b a3 63 0a 3c b1 86 90 3b 90 c9 8c 3b
       0.005916473 0.008446607 0.0044105877 0.004296489
000150 e4 f0 b9 3b 15 eb 47 3b b6 9c be 3b 35 73 7e 3b
       0.0056744684 0.003050511 0.0058170212 0.0038825993
000160 ca cf 98 3b f0 25 77 3b 61 ef dc 3b 63 55 71 3b
       0.0046634423 0.0037711821 0.0067424034 0.0036824576
000170 53 05 5e 3b 69 f4 af 3b 13 5d a3 3b 2d 3a 01 3c
       0.0033877685 0.005369712 0.0049854605 0.007887405
000180 c4 9c 9e 3b 03 33 83 3b ae 37 95 3b 3b 90 94 3b
       0.0048404653 0.004003884 0.0045537567 0.004533795
000190 fd a0 d2 3b fb 9b e1 3b bd 58 9a 3b 7d 18 09 3c
       0.0064278827 0.0068850494 0.0047102855 0.008367655
0001a0 b4 42 9c 3b 0e 8f 66 3b 0c 9b 94 3b 2c 94 0d 3b
       0.004768694 0.0035180482 0.0045350846 0.002160321
0001b0 f0 c4 3c 3b ee c0 40 3b 50 42 13 3b eb fa d0 3b
       0.0028803907 0.002941187 0.0022469945 0.006377568
0001c0 a8 0e cc 3b 50 de 4d 3b 44 05 b5 3b 2a bb 74 3b
       0.006227333 0.0031413026 0.0055243094 0.0037343004
0001d0 d2 d8 86 3b 4d 2c 86 3b b8 35 2c 3b 7c 47 8f 3b
       0.0041152025 0.0040946365 0.0026277136 0.0043725353
0001e0 a1 78 d2 3b e1 ca 35 3b 11 0c c7 3b dd 9b 87 3b
       0.0064230715 0.0027739333 0.0060744365 0.0041384534
0001f0 40 8e d1 3b 92 4d 8c 3b 6e 68 90 3b 30 a2 48 3b
       0.0063951313 0.004281708 0.0044069802 0.003061425
000200 fa b6 09 3c 61 25 9d 3b 2d 1f fe 3a e0 8b 31 3b
       0.008405441 0.0047957157 0.0019387953 0.0027091429
000210 77 cd 19 3b 51 c3 8e 3b b2 fe 69 3b 8d 98 51 3b
       0.0023468414 0.0043567796 0.0035704789 0.0031981796
000220 0d f1 e7 3b ce 30 8d 3b ad a6 be 3b cc c1 bf 3b
       0.007078296 0.0043087965 0.005818209 0.00585196
000230 bc ef f2 3a 8e ab 89 3b 39 b8 ea 3b 57 62 12 3b
       0.0018534581 0.004201359 0.0071630743 0.0022336447
