experiments/model_repositories/indoor_smart_traffic/sign_recognition/model_files/block_28.pth (torch, 641785 bytes, 5 tensors)

weight f4 [960, 160, 1, 1]
0	0x3c0bc4ae	0.008530779
1	0x3ba4d97c	0.005030809
2	0x3c8207c0	0.015872836
3	0xbb52bf16	-0.0032157353
4	0xbbc414b8	-0.005983915
5	0xb98ad503	-0.00026480117
6	0xbc4f6080	-0.012657285
7	0xbba416e0	-0.0050076097
8	0x3ca5ecee	0.020254578
9	0xbbd6f900	-0.006560445
10	0xbc5e4304	-0.013565782
11	0x3b767dea	0.0037611672
12	0xbc623a6a	-0.013807872
13	0x3cafa35d	0.021440202
14	0x3c671f85	0.014106636
15	0x3c788903	0.015169385
16	0x3ac4acc7	0.0015005105
17	0xbc376a65	-0.0111948
18	0xbc9942d4	-0.018708624
19	0xbbf6136b	-0.007509639
20	0x3c66b980	0.014082313
21	0xbb6ecc9d	-0.0036437877
22	0xb831911c	-4.2335232e-05
23	0xbbf3428c	-0.0074237045
24	0x3bcf8897	0.0063334215
25	0x3ae7e660	0.0017692558
26	0x3bfe1ab9	0.0077546504
27	0x3c40c3f4	0.011765469
28	0xbca7c66b	-0.020480355
29	0x3c5c2c30	0.0134382695
30	0x3ad87dfa	0.0016517036
31	0xbc9bcb68	-0.01901789
32	0x3d0c75ea	0.03429214
33	0xbc694e45	-0.014239852
34	0xbcc8042c	-0.024416052
35	0xbd003111	-0.031296793
36	0xbbf5f57f	-0.007506072
37	0x3bc7afcf	0.006093956
38	0xbb2fc1df	-0.0026818437
39	0x3d0a3616	0.033742987
40	0x3c535de1	0.0129008
41	0x3c2e9550	0.010655716
42	0xbbd4fd00	-0.0064998865
43	0xbcf0dc25	-0.029401848
44	0x3c012ebf	0.00788468
45	0xbb01a155	-0.001978
46	0x3c5a393e	0.013319312
47	0xbc92e67b	-0.017932167
48	0x3c21d9e5	0.00987861
49	0x3af5c0c6	0.0018749468
50	0x3bd9fb25	0.006652253
51	0x3cfb2cc2	0.03066099
52	0xba58c3a9	-0.0008268902
53	0x3c823dbd	0.01589858
54	0x3bace72d	0.0052765817
55	0x3c1ff991	0.009764091
56	0xbb4f46f3	-0.0031627982
57	0x3c219e60	0.00986442
58	0xbc0b9f01	-0.008521796
59	0x3c0d953b	0.008641536
60	0x3ba407b5	0.0050058016
61	0xbb1c7024	-0.0023870552
62	0x3c5e5f26	0.01357249
63	0x3b0942f9	0.002094446
64	0xbc23cd32	-0.009997653
65	0xbc0a4f2a	-0.008441726
66	0x3c0c4950	0.008562401
67	0x3cabd754	0.0209767
68	0xbb4ee876	-0.0031571663
69	0x3b61348b	0.0034363593
70	0x3b456597	0.0030120367
71	0x3c6dd015	0.014514943
72	0xba1842d5	-0.00058082986
73	0xbc74f8a7	-0.014951861
74	0x3a9af9a8	0.0011823671
75	0xbc0bcd56	-0.008532843
76	0x39a1716d	0.00030792822
77	0xbbb3c3ff	-0.005486011
78	0x3b546c6c	0.0032413257
79	0x3bccbb04	0.00624788
80	0x3b7922bb	0.0038015086
81	0xbc992f05	-0.018699178
82	0xbc41cca6	-0.011828577
83	0xbc41c0f2	-0.011825787
84	0xbcde4a2f	-0.027134983
85	0xbb889be0	-0.0041689724
86	0x3a471e67	0.0007595778
87	0xbb882153	-0.004154363
88	0x3c6f86a6	0.014619505
89	0xbc1320c9	-0.008979985
90	0x3a4528f9	0.0007521059
91	0x3b14784a	0.0022654706
92	0x3c303fa3	0.01075736
93	0xbbab06b4	-0.005219305
94	0x3a9b87a6	0.0011865988
95	0x3ad22836	0.0016033712
96	0x3c4c6511	0.012475268
97	0xbbabb02d	-0.0052395076
98	0xbc3f41bc	-0.011673387
99	0x3c2586db	0.010102953
100	0x3b6fc12f	0.0036583652
101	0x3ba7951f	0.005114212
102	0xbc943926	-0.018093657
103	0xbc6d29af	-0.01447527
104	0x3b2c9fc2	0.002634034
105	0x3aeef832	0.0018231927
106	0xbcd1b136	-0.025597196
107	0xbb58999a	-0.0033050538
108	0xbbcf0c2d	-0.00631859
109	0xba8368a8	-0.0010025697
110	0x3cb647c5	0.02225102
111	0xbbfe23f4	-0.007755751
112	0xbc692f34	-0.0142324455
113	0xbc5798ba	-0.013158971
114	0x3caa17b4	0.020763256
115	0x3c767a36	0.015043786
116	0x3b641c6a	0.0034806975
117	0xbc051b02	-0.008124115
118	0xbba14201	-0.0049211984
119	0x3c14b479	0.009076231
120	0xbc826828	-0.015918806
121	0xbbc36238	-0.0059626363
122	0x3b868e5b	0.0041063256
123	0x3b7a697a	0.0038209842
124	0x3c6078c7	0.013700671
125	0xbb2080a4	-0.0024490738
126	0xbb869e0c	-0.004108196
127	0x3cdf376d	0.027248109
128	0xbb43b82b	-0.0029864411
129	0x3bbe9279	0.0058158007
130	0xb9259206	-0.00015790024
131	0x3c2afde8	0.0104365125
132	0xb99303e9	-0.00028040938
133	0xbc05afc2	-0.00815958
134	0x3bef7392	0.007307478
135	0x3ac34e9d	0.0014900748
136	0x3b5425bf	0.0032371131
137	0xb8f634f6	-0.00011740059
138	0xbbf6f434	-0.0075364355
139	0x3cb480b8	0.022034034
140	0xbb11138d	-0.0022136897
141	0x3c894a9e	0.016759213
142	0xbbe8148e	-0.0070825284
143	0x3b48776d	0.0030588761
144	0xbb56e6e9	-0.0032791442
145	0x3c1c6a89	0.009546884
146	0xbb3c0ee9	-0.002869541
147	0x3bf9844c	0.007614648
148	0xba9a2a92	-0.0011761955
149	0xbc312405	-0.01081181
150	0xbbcd74cf	-0.006270028
151	0x3c495663	0.012288663
152	0xbc46c27c	-0.01213133
153	0xbc437457	-0.011929593
154	0xbb9450c4	-0.0045262296
155	0x3bbc05af	0.005737982
156	0x3b9d6f04	0.004804494
157	0xbccffab2	-0.025388096
158	0x3b8ad4ae	0.004236779
159	0xbc0889b8	-0.008333616
160	0xbca8c7d1	-0.020603092
161	0xbbaae5d4	-0.005215386
162	0x3c4cb5e0	0.012494534
163	0xb80bd118	-3.3334916e-05
164	0xbb2384da	-0.0024951012
165	0xbc80c5d7	-0.015719337
166	0x3a105ed6	0.0005507296
167	0xb900abf4	-0.00012271089
168	0x3c952e43	0.018210536
169	0xbbddb86a	-0.0067663686
170	0x3bab4eb6	0.005227889
171	0xbc8f78d2	-0.017513666
172	0xbca6705a	-0.020317245
173	0xbb40b2fc	-0.0029403558
174	0x3ba63041	0.0050716703
175	0x3b4610ba	0.0030222372
176	0x3b1d7a6b	0.0024029266
177	0x39a7b4da	0.00031987467
178	0x3af73f20	0.0018863417
179	0x3af5205a	0.0018701658
180	0xbc8f583c	-0.017498128
181	0x3a64c3a4	0.00087266625
182	0x3bdadd1c	0.0066791903
183	0xbbcd3ed9	-0.0062635955
184	0x3c2e946e	0.010655506
185	0x3c610f65	0.0137365805
186	0xbb908531	-0.004410409
187	0xbcac042d	-0.020998085
188	0xbbb2083e	-0.0054331115
189	0x3ba7479a	0.005104971
190	0x3c3dc872	0.011583434
191	0xbc822639	-0.015887367
192	0xbcabe0f3	-0.020981288
193	0x3b91ec78	0.004453238
194	0x3cab3b61	0.020902338
195	0x3b91c4b3	0.004448497
196	0x3c74f68e	0.014951361
197	0xbb81d396	-0.0039619906
198	0x3b414e3d	0.0029496097
199	0xbc2a4d7e	-0.010394452
200	0xbb403f97	-0.0029334778
201	0xb98f1277	-0.00027288843
202	0xbc260a82	-0.010134341
203	0x3c0921f2	0.00836991
204	0xbb126bef	-0.0022342165
205	0xbc0130d0	-0.007885173
206	0xbc2fe2ca	-0.010735223
207	0xbca4b289	-0.020104663
208	0x3c5aee42	0.013362469
209	0x3b2a7da1	0.0026014822
210	0xbab713f0	-0.0013967734
211	0x3bf8d144	0.007593306
212	0xbbc8021b	-0.0061037666
213	0xbb08dca7	-0.0020883472
214	0x3c90bfff	0.017669676
215	0x3c12f4eb	0.008969526
216	0xbbde8aa7	-0.006791431
217	0x3ac7a7ac	0.0015232465
218	0x3c9d071c	0.01916843
219	0x3c7ab7cd	0.015302611
220	0x3c6a6d84	0.014308337
221	0x3caf02cd	0.02136364
222	0xbae49067	-0.0017438055
223	0xbc5fa604	-0.013650421
224	0x3ba2ac42	0.0049643824
225	0x3c3bfc3f	0.011473714
226	0xbc31403c	-0.010818537
227	0xbc878868	-0.016544536
228	0xbbd6d602	-0.0065562734
229	0x3c3ae3a9	0.0114068175
230	0xbbea17bd	-0.007143943
231	0x3b9a12f8	0.0047019683
232	0x3b8743d6	0.0041279597
233	0xbc044619	-0.008073353
234	0x3b0446dc	0.0020183837
235	0x3c85e74a	0.016345639
236	0xb8ffef93	-0.00012203972
237	0xbcabefb1	-0.020988317
238	0xb9b18d3b	-0.00033865296
239	0x3c492a35	0.012278129
240	0x3c139519	0.009007716
241	0x3bf76a5d	0.0075505213
242	0x3a5a1974	0.0008319833
243	0xbb85e277	-0.0040858346
244	0xbb1a7e94	-0.0023573982
245	0x3c5d9302	0.013523819
246	0xbb74bdcb	-0.003734457
247	0x3c8b524a	0.017007012
248	0xbb478dc1	-0.0030449482
249	0x3c31d468	0.010853864
250	0xbcea76fb	-0.028621187
251	0x3bf7cfaf	0.0075625996
252	0xba789dc1	-0.00094839564
253	0x39bda56a	0.00036172132
254	0xbc251bd6	-0.010077437
255	0x3a828735	0.0009958508

weight f4 [960]
0	0x3e823d3c	0.25437343
1	0x3e8238e0	0.25434017
2	0x3e825db9	0.2546213
3	0x3e8251cb	0.25453028
4	0x3e8243f7	0.25442478
5	0x3e824fec	0.254516
6	0x3e8227ec	0.25421083
7	0x3e822759	0.25420645
8	0x3e824c66	0.25448912
9	0x3e821b5f	0.25411507
10	0x3e827d07	0.25486013
11	0x3e8269ac	0.25471246
12	0x3e822985	0.25422302
13	0x3e825368	0.2545426
14	0x3e8212e3	0.25405034
15	0x3e826224	0.254655
16	0x3e826132	0.2546478
17	0x3e821e37	0.25413677
18	0x3e822d49	0.25425175
19	0x3e81f3f1	0.25381425
20	0x3e821cf6	0.2541272
21	0x3e824c31	0.25448754
22	0x3e82687b	0.25470337
23	0x3e8247e5	0.25445476
24	0x3e822a0e	0.2542271
25	0x3e823e91	0.2543836
26	0x3e824f4d	0.25451127
27	0x3e822314	0.25417387
28	0x3e823812	0.25433403
29	0x3e821f8c	0.25414693
30	0x3e8276f7	0.25481388
31	0x3e822f3b	0.2542666
32	0x3e825512	0.25455528
33	0x3e826982	0.2547112
34	0x3e826bd4	0.2547289
35	0x3e826588	0.25468087
36	0x3e81e8a8	0.25372815
37	0x3e824b79	0.25448206
38	0x3e821660	0.25407696
39	0x3e826bb9	0.2547281
40	0x3e822273	0.25416908
41	0x3e8285e0	0.25492764
42	0x3e82c641	0.2554188
43	0x3e824f18	0.2545097
44	0x3e81fa35	0.25386205
45	0x3e826f6e	0.2547564
46	0x3e81ef1e	0.25377744
47	0x3e82618a	0.2546504
48	0x3e823e24	0.25438035
49	0x3e823571	0.25431398
50	0x3e8225ec	0.25419557
51	0x3e822ebd	0.25426283
52	0x3e8266ef	0.25469157
53	0x3e8256ea	0.25456935
54	0x3e825248	0.254534
55	0x3e826abc	0.25472057
56	0x3e820b3a	0.2539919
57	0x3e824319	0.25441816
58	0x3e824816	0.25445622
59	0x3e82340a	0.25430328
60	0x3e825921	0.25458625
61	0x3e820fce	0.25402683
62	0x3e8238e4	0.2543403
63	0x3e821dd2	0.25413376
64	0x3e8217d2	0.25408798
65	0x3e82338e	0.25429958
66	0x3e821c5e	0.25412267
67	0x3e8216b6	0.25407952
68	0x3e8220cc	0.25415647
69	0x3e82360b	0.25431857
70	0x3e8208a1	0.25397208
71	0x3e8235aa	0.25431567
72	0x3e824cb3	0.25449142
73	0x3e8278a5	0.2548267
74	0x3e824388	0.25442147
75	0x3e826674	0.2546879
76	0x3e82614e	0.25464863
77	0x3e8236ea	0.2543252
78	0x3e82382d	0.25433484
79	0x3e82794a	0.2548316
80	0x3e825d16	0.25461644
81	0x3e823551	0.25431302
82	0x3e825ef2	0.25463063
83	0x3e823ed2	0.25438553
84	0x3e8226f1	0.25420335
85	0x3e82255f	0.25419137
86	0x3e822b6a	0.25423747
87	0x3e8267a3	0.25469694
88	0x3e820791	0.25396398
89	0x3e825e51	0.25462583
90	0x3e82065e	0.25395483
91	0x3e82150b	0.2540668
92	0x3e81e331	0.25368646
93	0x3e824f47	0.2545111
94	0x3e823a36	0.25435036
95	0x3e82467b	0.25444397
96	0x3e820b2e	0.25399154
97	0x3e822c4e	0.25424427
98	0x3e82055e	0.2539472
99	0x3e823243	0.25428972
100	0x3e823769	0.254329
101	0x3e8235bb	0.25431618
102	0x3e824e14	0.25450194
103	0x3e827226	0.25477713
104	0x3e828d79	0.2549856
105	0x3e823003	0.25427255
106	0x3e826150	0.2546487
107	0x3e824074	0.254398
108	0x3e824ae6	0.25447768
109	0x3e825283	0.25453576
110	0x3e825638	0.25456405
111	0x3e823e1c	0.2543801
112	0x3e82534c	0.25454175
113	0x3e8245c6	0.25443858
114	0x3e823a7a	0.2543524
115	0x3e823b15	0.254357
116	0x3e825c06	0.25460833
117	0x3e81fdd2	0.25388962
118	0x3e825e9c	0.25462806
119	0x3e824850	0.25445795
120	0x3e821375	0.2540547
121	0x3e826565	0.25467983
122	0x3e823da1	0.25437644
123	0x3e826a15	0.2547156
124	0x3e826eb4	0.25475085
125	0x3e8239fb	0.2543486
126	0x3e82151a	0.25406724
127	0x3e82325e	0.25429052
128	0x3e825a7d	0.25459662
129	0x3e8252b6	0.25453728
130	0x3e8242d6	0.25441617
131	0x3e8294fb	0.25504288
132	0x3e826299	0.2546585
133	0x3e822c5d	0.25424471
134	0x3e824a87	0.25447485
135	0x3e823b63	0.25435933
136	0x3e826777	0.25469562
137	0x3e824a2f	0.25447223
138	0x3e8254a8	0.25455213
139	0x3e826473	0.25467262
140	0x3e8228d0	0.25421762
141	0x3e826349	0.25466374
142	0x3e824895	0.25446
143	0x3e823fdd	0.2543935
144	0x3e825700	0.25457
145	0x3e827e5a	0.25487024
146	0x3e8242fd	0.25441733
147	0x3e8216f9	0.25408152
148	0x3e826805	0.25469986
149	0x3e8247a1	0.25445274
150	0x3e82426b	0.25441298
151	0x3e8234cc	0.25430906
152	0x3e828831	0.2549453
153	0x3e8211eb	0.25404295
154	0x3e82556d	0.254558
155	0x3e8231be	0.25428575
156	0x3e823c68	0.2543671
157	0x3e82870b	0.25493655
158	0x3e81f0c2	0.25378996
159	0x3e828d2d	0.25498334
160	0x3e82645e	0.254672
161	0x3e825e3e	0.25462526
162	0x3e8211b2	0.25404125
163	0x3e825b25	0.25460163
164	0x3e81f93e	0.2538547
165	0x3e82397d	0.25434485
166	0x3e825026	0.25451773
167	0x3e823a01	0.25434878
168	0x3e82447c	0.25442874
169	0x3e82429b	0.2544144
170	0x3e827b9a	0.25484926
171	0x3e8240b2	0.25439984
172	0x3e824647	0.25444242
173	0x3e827a57	0.25483963
174	0x3e82779b	0.25481877
175	0x3e81e866	0.25372618
176	0x3e826575	0.2546803
177	0x3e82419d	0.25440684
178	0x3e822db3	0.2542549
179	0x3e824410	0.25442553
180	0x3e8261f9	0.25465372
181	0x3e825421	0.2545481
182	0x3e825ec2	0.2546292
183	0x3e826943	0.25470933
184	0x3e82298f	0.25422332
185	0x3e825b75	0.254604
186	0x3e823850	0.25433588
187	0x3e823c1e	0.2543649
188	0x3e825b59	0.25460318
189	0x3e826619	0.2546852
190	0x3e82524e	0.25453418
191	0x3e820207	0.25392172
192	0x3e821b7f	0.25411603
193	0x3e82728c	0.25478017
194	0x3e8263bc	0.25466716
195	0x3e823b80	0.2543602
196	0x3e8275b0	0.25480413
197	0x3e825877	0.25458118
198	0x3e823cc0	0.25436974
199	0x3e82881e	0.25494474
200	0x3e828ef5	0.25499693
201	0x3e824303	0.2544175
202	0x3e822ecc	0.25426328
203	0x3e825714	0.2545706
204	0x3e8275e8	0.2548058
205	0x3e821929	0.2540982
206	0x3e81e67e	0.25371164
207	0x3e825ce9	0.2546151
208	0x3e8227a1	0.2542086
209	0x3e82384c	0.25433576
210	0x3e823016	0.25427312
211	0x3e8266c6	0.25469035
212	0x3e81fd1c	0.2538842
213	0x3e824b31	0.25447991
214	0x3e824ea8	0.25450635
215	0x3e822bfb	0.2542418
216	0x3e824b8b	0.2544826
217	0x3e8254df	0.25455377
218	0x3e824395	0.25442186
219	0x3e823ec8	0.25438523
220	0x3e823e24	0.25438035
221	0x3e825177	0.25452778
222	0x3e8246cc	0.2544464
223	0x3e826e9f	0.25475022
224	0x3e8221d2	0.25416428
225	0x3e826875	0.2547032
226	0x3e827057	0.25476333
227	0x3e82155e	0.25406927
228	0x3e81fe29	0.2538922
229	0x3e823b3b	0.25435814
230	0x3e822106	0.2541582
231	0x3e825991	0.2545896
232	0x3e825813	0.2545782
233	0x3e8236d1	0.25432447
234	0x3e8251aa	0.2545293
235	0x3e822f32	0.25426632
236	0x3e82391b	0.25434193
237	0x3e8252ae	0.25453705
238	0x3e81f20c	0.2537998
239	0x3e823edc	0.25438583
240	0x3e822bc0	0.25424004
241	0x3e827cbe	0.25485796
242	0x3e81f73f	0.25383946
243	0x3e825055	0.25451913
244	0x3e8234ef	0.2543101
245	0x3e8250e1	0.2545233
246	0x3e826f9d	0.2547578
247	0x3e820cd9	0.25400427
248	0x3e8252fc	0.25453937
249	0x3e823ef6	0.2543866
250	0x3e821cda	0.25412637
251	0x3e8252b0	0.2545371
252	0x3e8259fc	0.25459278
253	0x3e8245af	0.2544379
254	0x3e826b8b	0.25472674
255	0x3e824c48	0.25448823

bias f4 [960]
0	0xbb508ad9	-0.003182104
1	0xb8961a78	-7.1574876e-05
2	0xbad3a75e	-0.0016147902
3	0x3a30f0e7	0.00067497644
4	0xbae243c8	-0.0017262632
5	0xba2ec8ed	-0.00066675135
6	0xba67ebe0	-0.0008847099
7	0xbaa5844e	-0.0012627931
8	0xb9c72a0b	-0.00037987562
9	0xbb01a41a	-0.001978165
10	0x3a021e44	0.00049636164
11	0x3abaa818	0.001424077
12	0xbb4429af	-0.0029932072
13	0x3a426149	0.00074150093
14	0xb88a6c9e	-6.600584e-05
15	0xbb4be766	-0.0031113266
16	0xbb270ab2	-0.0025488553
17	0xb8dbd975	-0.00010483238
18	0x3a8183c1	0.0009881185
19	0x3a396401	0.00070720917
20	0xbb41f3ae	-0.0029594707
21	0xbb0055f8	-0.0019582491
22	0x3a59ae8d	0.0008303903
23	0xbb2f0919	-0.0026708303
24	0x38b42760	8.590403e-05
25	0xbb1364b2	-0.002249044
26	0x3a8f1092	0.0010914973
27	0xba5ee1f7	-0.00085022993
28	0x3a459a0e	0.00075379096
29	0xb9550374	-0.0002031455
30	0xb9ebefac	-0.00045001262
31	0xb9a07b9e	-0.0003060968
32	0xbb1b1e11	-0.0023669044
33	0xbb4d73eb	-0.003134961
34	0x3a457660	0.0007532593
35	0x3ae121c3	0.00171762
36	0xbac76ade	-0.0015214344
37	0x3b0cda0c	0.002149227
38	0xbb3dbbaa	-0.0028950968
39	0x3b1589e5	0.0022817787
40	0xba5283db	-0.0008030512
41	0x3a9fba0a	0.0012186181
42	0xbb93bf25	-0.00450887
43	0x3aeb3fc6	0.0017948083
44	0xba571f4c	-0.0008206263
45	0x3b0d3dbe	0.0021551694
46	0xba92d147	-0.0011201286
47	0x39c1b716	0.00036948238
48	0xbb3462c8	-0.0027524699
49	0xbab629dd	-0.0013897974
50	0xbaa41c56	-0.0012520652
51	0xba318734	-0.0006772161
52	0xbb901b51	-0.0043977876
53	0xb8956156	-7.123004e-05
54	0x3b252296	0.0025197617
55	0x3aff1e5b	0.0019464003
56	0xbab479c6	-0.0013769201
57	0x3a9d2077	0.0011987825
58	0xbac58d94	-0.0015072101
59	0xba84155f	-0.001007717
60	0xbb80d5b7	-0.003931727
61	0xba5a25df	-0.0008321683
62	0xbab98431	-0.0014153776
63	0xbafa6d21	-0.0019106009
64	0xb92f6d31	-0.00016729978
65	0xbaec99da	-0.0018051222
66	0xba5bb710	-0.00083814654
67	0xba82cc39	-0.0009979076
68	0xba87ce0f	-0.0010361093
69	0xbab54a06	-0.0013831265
70	0xba260d03	-0.00063343364
71	0xbba12d8f	-0.004918761
72	0xbbdd5fbf	-0.0067557986
73	0xbb53d65a	-0.0032323808
74	0xbb43be9a	-0.0029868246
75	0x3ae1ecec	0.0017236746
76	0x3a839e7b	0.0010041738
77	0xbab77d81	-0.0013999195
78	0xb8922f4d	-6.970633e-05
79	0x3ac1aa09	0.0014775406
80	0xbb74a83d	-0.0037331723
81	0xba0cc32e	-0.000536966
82	0xbb362c3d	-0.0027797364
83	0xba839874	-0.0010039941
84	0x38dac0b7	0.00010430946
85	0xba4b4c52	-0.0007755208
86	0xbb179c61	-0.002313398
87	0xbb59e6ed	-0.0033249215
88	0xba659711	-0.00087581674
89	0x3ad82044	0.0016489108
90	0xba1faa90	-0.00060907844
91	0xbb3334b3	-0.0027344644
92	0xbafe8163	-0.0019417222
93	0x3a778a3c	0.0009442901
94	0xbaa8c292	-0.0012875369
95	0x39e94660	0.00044493657
96	0xb9eb7eeb	-0.00044917254
97	0xb9c30161	-0.00037194326
98	0xbae8a22f	-0.001774853
99	0xba0120ff	-0.0004925876
100	0xb9bc491f	-0.00035912634
101	0xbbc393a7	-0.0059685293
102	0xba7a6d87	-0.0009553064
103	0x3b17e3d2	0.0023176563
104	0xbb80d057	-0.003931086
105	0xb982faff	-0.0002498254
106	0x373bc143	1.1191066e-05
107	0xb98d757b	-0.00026981145
108	0x39bb7d3c	0.00035760726
109	0xb8836590	-6.265484e-05
110	0x3b5833cf	0.0032989865
111	0xbaba470e	-0.001421185
112	0xbb5f68dc	-0.00340896
113	0xbb89df69	-0.004207541
114	0x391074ee	0.0001377647
115	0xbafa10b0	-0.001907846
116	0x39824a43	0.00024850862
117	0xba00fdca	-0.000492063
118	0x39e2cb2f	0.00043257463
119	0x39d58e03	0.00040732333
120	0xba0666f4	-0.00051270355
121	0x3aaa4b52	0.0012992418
122	0x3aae1fd6	0.0013284634
123	0x3ab6212e	0.0013895386
124	0x368ed447	4.256642e-06
125	0xbae7bd62	-0.0017680342
126	0xb9d2aa89	-0.0004018138
127	0xba8113dd	-0.0009847839
128	0x39aa46d2	0.00032477692
129	0x3a5c7a7b	0.0008410585
130	0xba929714	-0.0011183941
131	0x3ac8a98c	0.0015309318
132	0x3b3ecbd4	0.002911319
133	0xb7bcf45b	-2.2525133e-05
134	0xbb1077c1	-0.0022044035
135	0xbaf1d30a	-0.0018449735
136	0x3a5be3a1	0.00083881064
137	0x3b7c245e	0.0038473825
138	0xba73c1f0	-0.00092986133
139	0xbadfdc43	-0.0017079193
140	0xbb096d75	-0.0020969782
141	0x3ae49c63	0.0017441626
142	0x363e9909	2.8401284e-06
143	0xbb593cf5	-0.0033147905
144	0xb9f830e8	-0.00047338684
145	0x374f97ec	1.23735335e-05
146	0xba4d937b	-0.00078421057
147	0xba628639	-0.00086412166
148	0x395c3e93	0.00021004146
149	0x39d2dcd6	0.00040218857
150	0xba078999	-0.0005170345
151	0xbb807e92	-0.0039213384
152	0xbb373c1a	-0.0027959407
153	0xbafedc0c	-0.0019444241
154	0xbb2739ad	-0.0025516555
155	0xbadbc886	-0.0016768135
156	0x398f1550	0.00027290964
157	0x3acd109f	0.0015645212
158	0xb8ec59af	-0.00011270062
159	0xbb808e3e	-0.0039232066
160	0x39b68ec8	0.00034820125
161	0x3a0610ea	0.0005114215
162	0xbb1b2988	-0.0023675878
163	0x3a38efbb	0.00070547656
164	0xbaa0315e	-0.0012221744
165	0x3a601239	0.0008547637
166	0xbae12ef8	-0.0017180135
167	0xba91f6b5	-0.0011136146
168	0xbb9280ec	-0.004470935
169	0x3a22b622	0.00062069495
170	0x382ba271	4.0920862e-05
171	0xbb04a229	-0.0020238257
172	0x3a9bbdff	0.0011882185
173	0x3b0dbb64	0.0021626586
174	0xbb7661ad	-0.003759484
175	0xbacd1ba9	-0.0015648502
176	0x379aa19a	1.8433482e-05
177	0xbb1ae158	-0.002363285
178	0xba26a5cc	-0.0006357103
179	0xbbdbab32	-0.0067037577
180	0xbb40431a	-0.002933687
181	0xba41a81e	-0.0007387417
182	0xbbaae940	-0.005215794
183	0xb9c959ce	-0.00038404617
184	0x3ab2aaa7	0.0013631181
185	0x394a40ec	0.00019288406
186	0xba355d7e	-0.00069185335
187	0x39ebfc87	0.0004501084
188	0xbbdc7946	-0.006728324
189	0xbbceeded	-0.006314984
190	0xb99db59c	-0.00030080683
191	0xb9c6544f	-0.00037828318
192	0xbadd00a0	-0.0016861148
193	0x3aa70bad	0.0012744569
194	0x3ada6967	0.0016663492
195	0x38b08c18	8.4184285e-05
196	0xbb61ec2c	-0.0034473045
197	0x3ace3024	0.00157309
198	0xba8c2005	-0.0010690695
199	0x3b0390f4	0.0020075412
200	0xbb8e8b84	-0.0043501277
201	0xb797e6dd	-1.8108107e-05
202	0x38dfe994	0.00010676976
203	0x3a1c34f1	0.00059588166
204	0x3a946dfd	0.0011324283
205	0xbb1fecc2	-0.0024402593
206	0xbae0be47	-0.0017146551
207	0x3b2414e1	0.002503686
208	0xb9eb2219	-0.00044848098
209	0xba769e72	-0.00094077655
210	0xba31561f	-0.0006764847
211	0xba08e792	-0.0005222495
212	0xbad1d96e	-0.0016010234
213	0x3afb586a	0.001917613
214	0xba78d447	-0.0009492081
215	0xbb1c9b6a	-0.0023896345
216	0x3a68d49a	0.0008881778
217	0xbb7c8fc0	-0.003853783
218	0xbad319a7	-0.0016105667
219	0xb62a5e4e	-2.5386867e-06
220	0x3a936a8c	0.0011246963
221	0xbb9cac2c	-0.0047812667
222	0xb9c5bd00	-0.00037715584
223	0x3a88bd99	0.0010432481
224	0xbb732569	-0.0037101156
225	0x3ad9ac59	0.001660715
226	0x3b1b1934	0.0023666145
227	0xba8f880b	-0.0010950578
228	0xbab611b1	-0.001389077
229	0xbad9783d	-0.001659162
230	0xbb78e91e	-0.0037980746
231	0xbb03ef5f	-0.002013169
232	0xba2b8de3	-0.0006544275
233	0xb8cef745	-9.868903e-05
234	0xbbf978e1	-0.007613287
235	0xbb82be6e	-0.003989986
236	0x3a3c7af5	0.0007189953
237	0x3a15b54f	0.0005710916
238	0xba211d13	-0.0006145995
239	0x39a2cf71	0.00031053604
240	0xba42f4bd	-0.00074369815
241	0xbba9db55	-0.005183617
242	0xba318801	-0.00067722803
243	0xbb1a3404	-0.002352954
244	0xbb827ad6	-0.0039819283
245	0x3994a668	0.00028352742
246	0xbb353bde	-0.0027654092
247	0xba2276c9	-0.000619751
248	0xba593299	-0.00082854327
249	0x38aee5b3	8.3397514e-05
250	0xbaca9da6	-0.001545836
251	0x3a2eba54	0.00066653383
252	0x3aa10523	0.0012284856
253	0xbb876778	-0.0041322075
254	0x3ae1d9a9	0.0017231005
255	0xbaa26711	-0.0012390335

running_mean f4 [960]
0	0xb2ea5913	-2.7281692e-08
1	0x335114b5	4.8680437e-08
2	0x316a3ca6	3.4085956e-09
3	0x32331033	1.0422855e-08
4	0x31f811d0	7.219775e-09
5	0x322d9226	1.0103156e-08
6	0xb389b528	-6.412512e-08
7	0xb38499fd	-6.174739e-08
8	0x329279a5	1.7051955e-08
9	0x3340a84e	4.4856556e-08
10	0xb2a92335	-1.96902e-08
11	0xb3fa658d	-1.1660004e-07
12	0xaf650162	-2.082792e-10
13	0x33c83166	9.322211e-08
14	0x33284442	3.917763e-08
15	0x3249a29e	1.1736715e-08
16	0xb36f1d07	-5.5672924e-08
17	0xb22ae1cb	-9.946642e-09
18	0x33178b9a	3.5284394e-08
19	0xb3c0cf79	-8.978436e-08
20	0xb28d5bd3	-1.6456317e-08
21	0xb3970a84	-7.033398e-08
22	0xb364b349	-5.3248446e-08
23	0x33a4059d	7.637866e-08
24	0xb385544c	-6.2086286e-08
25	0x328a3706	1.6090336e-08
26	0xb32bd35c	-4.000627e-08
27	0x33bdb817	8.834484e-08
28	0xb33da253	-4.4152625e-08
29	0xb316e19d	-3.512979e-08
30	0xb3f341ae	-1.1327516e-07
31	0x33307668	4.1085883e-08
32	0xb3049341	-3.086757e-08
33	0xb2b9497f	-2.1570257e-08
34	0x33684b6f	5.4085316e-08
35	0x33abd1e1	8.000985e-08
36	0xb367fe2e	-5.4015054e-08
37	0xb33d8d65	-4.413359e-08
38	0xb3350ec6	-4.2155783e-08
39	0x330125ce	3.0069536e-08
40	0xb3c1af79	-9.019181e-08
41	0xb3d4acb9	-9.9034374e-08
42	0xb385d738	-6.232443e-08
43	0x33b8f6c7	8.613056e-08
44	0xb1a12f1d	-4.691073e-09
45	0x3285e389	1.5586709e-08
46	0xb44b2f89	-1.8923141e-07
47	0x339042a7	6.7176465e-08
48	0x3395c355	6.973884e-08
49	0x32204988	9.329945e-09
50	0x3327875a	3.900582e-08
51	0xb0e133ef	-1.6385665e-09
52	0xb1dc5e91	-6.4135937e-09
53	0xb32185a5	-3.7607283e-08
54	0x325c8db1	1.2837902e-08
55	0xb2f21637	-2.818261e-08
56	0x328f510a	1.6684243e-08
57	0x33637f5a	5.296838e-08
58	0xb29147ea	-1.6912924e-08
59	0xb337540d	-4.268445e-08
60	0xb327512f	-3.8956554e-08
61	0x33cac8d9	9.442892e-08
62	0x33897d9c	6.402408e-08
63	0x330c537f	3.267223e-08
64	0x334e988d	4.8101857e-08
65	0x3167b320	3.3716745e-09
66	0x32cd3194	2.3887686e-08
67	0x332428ff	3.822151e-08
68	0xb396bf00	-7.019662e-08
69	0x331c9f9c	3.6466744e-08
70	0x32ffc023	2.977328e-08
71	0xb3b5d1a6	-8.466604e-08
72	0x337eb9bf	5.930792e-08
73	0xb3e7ae67	-1.0788499e-07
74	0x33af0212	8.149449e-08
75	0x33aca56b	8.0394635e-08
76	0xb3a56918	-7.702528e-08
77	0x328035d6	1.4925643e-08
78	0x32a2bd64	1.8945407e-08
79	0xb2bf5eb1	-2.2278387e-08
80	0x33688b06	5.414315e-08
81	0x3366af03	5.371022e-08
82	0xb3805be6	-5.977181e-08
83	0x33813971	6.017479e-08
84	0xb3013fb7	-3.00931e-08
85	0x30ad149f	1.2593268e-09
86	0x32eeea94	2.781352e-08
87	0xb30cccbd	-3.27825e-08
88	0xb21f7904	-9.282534e-09
89	0x332e01c3	4.0514134e-08
90	0x32ddb65e	2.5810717e-08
91	0x33355701	4.2221476e-08
92	0x331e551a	3.686464e-08
93	0xb2ac3119	-2.0045762e-08
94	0xb2384c05	-1.07274944e-08
95	0x3336d194	4.2565787e-08
96	0xb338f5e4	-4.3064475e-08
97	0x34160a2e	1.3973542e-07
98	0x33df1491	1.0387988e-07
99	0x336de164	5.5385854e-08
100	0xb3c74191	-9.278586e-08
101	0x338e98be	6.640174e-08
102	0xb35cfc0c	-5.1451977e-08
103	0x33a612b2	7.733378e-08
104	0xb31f0cf4	-3.7031853e-08
105	0xb35fbbe9	-5.2092137e-08
106	0xb375202c	-5.7072768e-08
107	0x335c802f	5.1339324e-08
108	0xb373bc52	-5.6749123e-08
109	0xb380b036	-5.992517e-08
110	0xb22edca3	-1.01783e-08
111	0x33ab29cd	7.9704115e-08
112	0xb300a3a9	-2.995117e-08
113	0x32dbc071	2.5582468e-08
114	0x336d180f	5.5202744e-08
115	0xb36b84de	-5.4836043e-08
116	0xb393f308	-6.889428e-08
117	0xb275dbf0	-1.4310885e-08
118	0x33bbb5ae	8.7409134e-08
119	0x336becda	5.4930616e-08
120	0x331ee7d7	3.69981e-08
121	0xb3ab91b6	-7.989313e-08
122	0xb3232f07	-3.7994166e-08
123	0x33b12e97	8.2506794e-08
124	0x339e754f	7.378787e-08
125	0x31c3e40c	5.701173e-09
126	0xb2fcb930	-2.9420875e-08
127	0x33ae7838	8.124374e-08
128	0x32a14e07	1.877835e-08
129	0xb31f0737	-3.7026634e-08
130	0x32ec72c8	2.7526212e-08
131	0xb301ec55	-3.0250096e-08
132	0xb36bdab4	-5.491411e-08
133	0xb240c17f	-1.1219867e-08
134	0xb3bfd0d2	-8.932115e-08
135	0x328a8d4d	1.612957e-08
136	0x3409e327	1.2841757e-07
137	0x33419e45	4.508026e-08
138	0x3360b6b1	5.232022e-08
139	0xb3df17e4	-1.03885924e-07
140	0xb3be1f24	-8.853229e-08
141	0xb2cd33cf	-2.38887e-08
142	0xb313bf22	-3.439994e-08
143	0xb388dc55	-6.373072e-08
144	0xb33f5858	-4.4551e-08
145	0xb218be00	-8.8907655e-09
146	0x33a436dc	7.646824e-08
147	0xb3c9a8cf	-9.390498e-08
148	0x33c3fb98	9.12616e-08
149	0x33dabca7	1.0185732e-07
150	0x32d696c1	2.4981434e-08
151	0x32e1eb9c	2.630059e-08
152	0x335ff52d	5.214422e-08
153	0x3156feb7	3.1285887e-09
154	0x32ba8d5c	2.1717533e-08
155	0xb3876acb	-6.305853e-08
156	0xb2cfa7fb	-2.417436e-08
157	0xb2e50be9	-2.6664525e-08
158	0x3404ff7e	1.2386406e-07
159	0x3309b94a	3.2066318e-08
160	0x3396cab0	7.021788e-08
161	0x32c14a9f	2.250209e-08
162	0x3292fc86	1.7111471e-08
163	0x32960629	1.74651e-08
164	0x33b65138	8.489809e-08
165	0xb3ab707e	-7.98327e-08
166	0x331edb7d	3.6986865e-08
167	0x339cdde5	7.3046785e-08
168	0xb3d69083	-9.991438e-08
169	0xb1db366c	-6.379926e-09
170	0x33799419	5.8109524e-08
171	0xb3d2c754	-9.8151446e-08
172	0x3398e3ce	7.119489e-08
173	0x34004ea6	1.1949541e-07
174	0x329cca86	1.8252887e-08
175	0xb27e96f9	-1.4819073e-08
176	0xb329f408	-3.9570324e-08
177	0xb2c4d63a	-2.2914822e-08
178	0xb3206025	-3.7340346e-08
179	0xb39ed64b	-7.396428e-08
180	0x338a40ac	6.4378895e-08
181	0x333afce3	4.35365e-08
182	0x33b51417	8.4321236e-08
183	0xb273c837	-1.4189985e-08
184	0x32e58cca	2.6723132e-08
185	0xb43e2845	-1.7709779e-07
186	0x33cd5fe0	9.563496e-08
187	0xb3db9e4a	-1.0226775e-07
188	0xb0c3afa3	-1.4238036e-09
189	0x33cd4a5e	9.559584e-08
190	0xb40cc5ec	-1.311052e-07
191	0x33aac325	7.9517385e-08
192	0xb11975b3	-2.2331335e-09
193	0x339877fd	7.099877e-08
194	0xb32fde5c	-4.0947597e-08
195	0x32983756	1.7720293e-08
196	0xb353d55b	-4.932131e-08
197	0x32265305	9.681348e-09
198	0x33c7815b	9.290189e-08
199	0x33c94f33	9.374198e-08
200	0x320ce839	8.201874e-09
201	0x3250f6df	1.21633255e-08
202	0x336d8b8c	5.530778e-08
203	0x325fe7ba	1.3032997e-08
204	0x32b2f596	2.0833607e-08
205	0xb30f269b	-3.3329894e-08
206	0x325600a1	1.2456582e-08
207	0x33055ddf	3.105185e-08
208	0xb277fae1	-1.44343355e-08
209	0x3336649e	4.2466688e-08
210	0xb18a2592	-4.0206e-09
211	0xb2e8ea0a	-2.7114783e-08
212	0xb3aa7555	-7.9375845e-08
213	0x33123355	3.403996e-08
214	0x33869f13	6.268797e-08
215	0xb38b7d78	-6.4955145e-08
216	0x333147c8	4.127631e-08
217	0xb29c243f	-1.8177273e-08
218	0x33c85fd5	9.3306575e-08
219	0x32d8ac0a	2.5223944e-08
220	0x33581cdc	5.0317666e-08
221	0xb3e73aee	-1.0767495e-07
222	0xb34e885a	-4.8087124e-08
223	0xb399d815	-7.163923e-08
224	0x3391a434	6.781957e-08
225	0xb3ab4e5e	-7.977063e-08
226	0x33c666ec	9.238815e-08
227	0x33848ec1	6.172696e-08
228	0x32a96b5c	1.972301e-08
229	0x339306d4	6.846463e-08
230	0x329b052b	1.8046725e-08
231	0x32d85242	2.5183116e-08
232	0x322b577b	9.973401e-09
233	0xb36c3cf5	-5.5003472e-08
234	0x33276094	3.8970555e-08
235	0x3217ac81	8.82858e-09
236	0x33ec9b59	1.1017864e-07
237	0x3337c609	4.278812e-08
238	0xb34836c7	-4.661595e-08
239	0xb3d53117	-9.927515e-08
240	0x31a3d931	4.768616e-09
241	0x33a58f1e	7.709444e-08
242	0xb3255883	-3.8497557e-08
243	0xb3be2944	-8.8550706e-08
244	0x33210a6f	3.7495223e-08
245	0x33fc2c22	1.1742692e-07
246	0x338367bc	6.119032e-08
247	0xb3b4e508	-8.423564e-08
248	0xb3607b8e	-5.2266437e-08
249	0xb1493942	-2.9281897e-09
250	0x333f0d63	4.4482828e-08
251	0x329453a8	1.726751e-08
252	0x33fa1ae6	1.1646425e-07
253	0x332b558d	3.9891848e-08
254	0x336561d2	5.3407184e-08
255	0xb0dd5ca4	-1.6106196e-09

running_var f4 [960]
0	0x3bd2b069	0.006429721
1	0x3c025ae7	0.007956243
2	0x3be4f1f8	0.0069868527
3	0x3bd87534	0.0066057686
4	0x3c52e350	0.012871578
5	0x3be2388d	0.006903714
6	0x3c230be2	0.009951564
7	0x3bc74c3a	0.006082085
8	0x3bccfc9b	0.006255699
9	0x3c048943	0.008089366
10	0x3c1ee6ce	0.009698583
11	0x3bddbfaa	0.006767233
12	0x3c03c18f	0.008041753
13	0x3be093e8	0.0068535693
14	0x3ba80280	0.005127251
15	0x3be36295	0.006939242
16	0x3bcf9d61	0.0063358997
17	0x3c06f651	0.008237437
18	0x3c51e1d5	0.01281019
19	0x3c5e92dd	0.01358482
20	0x3c30037f	0.010743021
21	0x3c0f8fb0	0.008762285
22	0x3beee02c	0.007289907
23	0x3c2be014	0.010490436
24	0x3be789a7	0.00706597
25	0x3b82358a	0.0039736675
26	0x3c2d4948	0.010576554
27	0x3c0ddc1b	0.008658434
28	0x3bf48f99	0.0074634072
29	0x3bdb394b	0.0066901795
30	0x3ba4c8dd	0.0050288276
31	0x3bc00004	0.005859377
32	0x3bdeb4d4	0.0067964587
33	0x3c4aac69	0.012370207
34	0x3c073859	0.00825318
35	0x3c1df938	0.009641938
36	0x3b6d3d62	0.0036199917
37	0x3b8e51a4	0.0043432284
38	0x3c48ce19	0.012256169
39	0x3b75bd2f	0.0037496795
40	0x3bfc0b96	0.007691811
41	0x3bcd0382	0.0062565217
42	0x3c01a5d4	0.007913072
43	0x3c55720c	0.013027679
44	0x3baad89a	0.005213809
45	0x3bd1b02b	0.0063991747
46	0x3b76c490	0.0037653781
47	0x3bce43d3	0.0062947064
48	0x3c28ac43	0.010294977
49	0x3c54a9b8	0.012979917
50	0x3b7b4dd6	0.0038345954
51	0x3bc23292	0.0059264386
52	0x3bb8edb0	0.005643569
53	0x3c078e67	0.008273697
54	0x3c261622	0.010137113
55	0x3b562ef5	0.0032681797
56	0x3beaf594	0.0071703885
57	0x3c894d6e	0.016760554
58	0x3c64275b	0.013925399
59	0x3bb122ee	0.0054057753
60	0x3c52bb70	0.012862071
61	0x3c218c74	0.009860147
62	0x3bafd3c8	0.0053658225
63	0x3c200f06	0.009769207
64	0x3c606131	0.013695047
65	0x3b8d9f98	0.0043220036
66	0x3c37244e	0.011178089
67	0x3b853235	0.004064823
68	0x3c5c3b83	0.013441923
69	0x3c4929be	0.0122780185
70	0x3bbfcf6c	0.005853584
71	0x3c17bdd4	0.009261567
72	0x3c24f22f	0.010067507
73	0x3bc79725	0.006091016
74	0x3c193166	0.009350156
75	0x3ba8f0c3	0.005155654
76	0x3c30a86d	0.010782343
77	0x3bd5e4ac	0.006527504
78	0x3c13961f	0.00900796
79	0x3bc7a9f2	0.006093257
80	0x3c09d012	0.008411424
81	0x3be1d77f	0.006892144
82	0x3ba00bc5	0.0048842155
83	0x3c2a9f15	0.010413905
84	0x3c370b90	0.01117219
85	0x3b82831d	0.003982915
86	0x3c2069f2	0.009790884
87	0x3c1948f1	0.0093557695
88	0x3b568b5d	0.0032736876
89	0x3ba5e850	0.005063094
90	0x3ba72e07	0.0051019224
91	0x3c21a236	0.009865334
92	0x3bd18508	0.0063940324
93	0x3bc7a7ad	0.0060929866
94	0x3c517536	0.012784293
95	0x3c1bbe80	0.009505868
96	0x3c04e47d	0.0081111165
97	0x3bdd3420	0.0067505985
98	0x3bf8ec28	0.0075965114
99	0x3c02b96e	0.00797878
100	0x3c08cab1	0.008349107
101	0x3c73795f	0.01486048
102	0x3c01fea0	0.0079342425
103	0x3c38a4d7	0.01126977
104	0x3c1c95e8	0.009557225
105	0x3be915f6	0.0071132137
106	0x3c19d2e8	0.009388663
107	0x3baa29ae	0.005192957
108	0x3c0cf9fd	0.008604524
109	0x3be7e765	0.007077145
110	0x3bc14f51	0.005899348
111	0x3be1f365	0.00689547
112	0x3c1ebf94	0.0096892305
113	0x3be9336b	0.007116725
114	0x3c5cef9e	0.013484864
115	0x3c271f9c	0.010200407
116	0x3c05f826	0.008176839
117	0x3c766dc1	0.015040816
118	0x3b85d644	0.0040843803
119	0x3bcb48b2	0.0062037343
120	0x3be63236	0.0070250286
121	0x3bcb027c	0.0061953645
122	0x3b7b8121	0.0038376527
123	0x3b9b12a1	0.0047324453
124	0x3bfdefd3	0.0077495365
125	0x3c3d2d28	0.011546411
126	0x3bedae4c	0.007253444
127	0x3b992803	0.004673959
128	0x3bb59027	0.005540866
129	0x3bf97c1d	0.0076136724
130	0x3bda5131	0.006662511
131	0x3bc22399	0.0059246537
132	0x3bbdf879	0.0057974425
133	0x3bc186ee	0.0059059775
134	0x3c1bd8fb	0.009512181
135	0x3c3c8241	0.011505664
136	0x3bcdfe0e	0.006286389
137	0x3c0c54b2	0.008565115
138	0x3b897c76	0.004195745
139	0x3c1df052	0.009639816
140	0x3c06399d	0.008192447
141	0x3ba66f2f	0.005079172
142	0x3bfb9a77	0.0076783258
143	0x3bbc0e49	0.0057390076
144	0x3be035b4	0.0068423394
145	0x3ba7e410	0.0051236227
146	0x3bf303fc	0.0074162465
147	0x3c09f39e	0.008419899
148	0x3bee46e8	0.0072716363
149	0x3b8cfbd7	0.0043024826
150	0x3bdb8a21	0.006699816
151	0x3b9d59f4	0.004801983
152	0x3bed593e	0.0072433045
153	0x3bf63225	0.007513302
154	0x3bdc5e56	0.006725113
155	0x3c22b2d4	0.009930331
156	0x3c4c9282	0.012486102
157	0x3c146e9f	0.009059577
158	0x3c3657ca	0.011129329
159	0x3bb3461c	0.005471004
160	0x3b89546c	0.004190972
161	0x3bb057cb	0.0053815595
162	0x3bc552ba	0.0060218247
163	0x3bf16b85	0.0073675537
164	0x3bd4aeda	0.0064905705
165	0x3b62a555	0.003458341
166	0x3c87287c	0.016498797
167	0x3c17a985	0.009256725
168	0x3bc85e8c	0.0061147865
169	0x3b8ce5d0	0.0042998567
170	0x3beeb7e9	0.0072851074
171	0x3c3347d2	0.010942416
172	0x3b602e44	0.0034207264
173	0x3be53fc4	0.006996127
174	0x3c546da8	0.012965597
175	0x3bc4df1d	0.0060080425
176	0x3bb46ed4	0.005506376
177	0x3c291ab4	0.010321308
178	0x3bc38fa9	0.0059680534
179	0x3c01dac9	0.007925698
180	0x3c370875	0.01117145
181	0x3c4988b6	0.012300661
182	0x3c12a2d2	0.008949952
183	0x3bfe6e5e	0.0077646216
184	0x3c1fba26	0.009748971
185	0x3bc10926	0.005890983
186	0x3c46443c	0.012101229
187	0x3c1db928	0.009626664
188	0x3c196d4a	0.009364435
189	0x3c58a958	0.013223968
190	0x3bca3fd4	0.0061721597
191	0x3c47827e	0.012177108
192	0x3c07869f	0.008271842
193	0x3bee7408	0.0072770156
194	0x3c293c65	0.010329341
195	0x3bc46ba3	0.0059942766
196	0x3c6fe209	0.014641293
197	0x3b842396	0.0040325625
198	0x3c332e58	0.010936342
199	0x3c1c45ab	0.0095380945
200	0x3bdb277a	0.0066880556
201	0x3bbd2fe6	0.005773532
202	0x3c734d60	0.014849991
203	0x3b9fd734	0.004877949
204	0x3be2874c	0.0069131013
205	0x3bf08817	0.007340442
206	0x3c3d7c52	0.011565285
207	0x3b9bb0d3	0.0047513037
208	0x3c039721	0.008031637
209	0x3c212aee	0.009836895
210	0x3bb713bd	0.00558707
211	0x3bf40981	0.007447422
212	0x3bc4aab3	0.0060017942
213	0x3c44cb67	0.0120113855
214	0x3c2e743a	0.010647828
215	0x3c2dd1f2	0.010609137
216	0x3bdac426	0.0066762147
217	0x3c80a047	0.015701426
218	0x3c39d18e	0.011341466
219	0x3b1f47ef	0.002430435
220	0x3c564933	0.0130789755
221	0x3c4ad30c	0.012379419
222	0x3c0f3c0a	0.008742342
223	0x3c282ecd	0.010265064
224	0x3bf6f2b7	0.007536258
225	0x3bc8a94b	0.006123697
226	0x3b96b070	0.0045986697
227	0x3b729755	0.003701647
228	0x3bbe718f	0.005811877
229	0x3bae2314	0.00531424
230	0x3c07e5f6	0.008294573
231	0x3bea3662	0.007147596
232	0x3b9d8ab1	0.004807793
233	0x3bba76b8	0.005690422
234	0x3bf6eeb3	0.0075357794
235	0x3c2690e4	0.010166381
236	0x3c30b738	0.01078587
237	0x3c062605	0.0081877755
238	0x3b3acfc9	0.0028505197
239	0x3ba575e8	0.005049456
240	0x3c06dc30	0.008231208
241	0x3c3684b6	0.011140039
242	0x3bd2345e	0.006414934
243	0x3c152d34	0.009105016
244	0x3c74e540	0.014947236
245	0x3b33ee17	0.0027455145
246	0x3c259cb8	0.010108165
247	0x3c1e6f5b	0.009670104
248	0x3bdc4d9b	0.0067231185
249	0x3bdc5b13	0.006724724
250	0x3c09de11	0.008414761
251	0x3c25b160	0.01011309
252	0x3c005698	0.007833146
253	0x3bbfad2c	0.005849501
254	0x3c20bef3	0.009811151
255	0x3c3bc909	0.011461505
