experiments/model_repositories/indoor_smart_traffic/sign_recognition/model_files/branch_24.pth (torch, 972910 bytes, 7 tensors)

weight f4 [384, 576, 1, 1]
00000000: a100 263c 6996 80bd e9a1 7a3d 2c60 01bd
00000010: c9de 75bd 0f92 9d3c ea74 48bd 4aa7 0ebc
00000020: dd0d 34bc 05b6 363d 136f edbc ec37 9ebb
00000030: dde1 833b c095 443d 5668 d7bd b47f 7d3c
00000040: e162 003d bdb8 8fbd 64b6 ae3d 8b77 13bd
00000050: de27 65bd 86c5 27bd 9c6c 38bd 54c0 80bc
00000060: 854f 093c b12a 283b ca30 1abb 3029 663c
00000070: 5d1b bfbc 5d19 92bc 41dd 9d3c 61f7 ea3c
00000080: 6cf3 423c 1878 c0bd f70d 5c3a ac5d be3c
00000090: d2f2 903c 1836 fbbc fdb2 dc3c e2c4 85bd
000000a0: ab43 753c c8e7 e83c 5cf6 313d ee06 613d
000000b0: d16a 4c3d 998b 4dbc 4530 a33c 9c34 f2bb
000000c0: 3d08 fabb 2b3f b13d 02e3 553d 63e3 163c
000000d0: d6a4 5939 3f0b 433d 6ca7 883c c5e6 723d
000000e0: 66f4 633d 8d05 a3bc aacf 8b3c d5de 03bc
000000f0: 3721 c3bb 0a15 bdbc 4ab9 0c3d 526b 1b3c
00000100: 73e9 c2ba 5120 52bc c3a3 033d 7c61 ab3c
00000110: 4fe6 e73c ed31 913d 0053 9fbc 7c9d 98bb
00000120: 43c2 5f3d 7e90 babc 41e6 1abc 9eff abbb
00000130: dfaf afbc e12b 08bd 9ab8 c9bd 4729 893c
00000140: 00c2 0ebd 7431 953b 4068 78bc a1c6 033d
00000150: c3d6 6c3d 7950 3ebc b5cb 253d 1dd8 c3bb
00000160: e2a6 c0bc 3c63 543c 5e34 2bbd 7d5c 813c
00000170: e2f5 94bd f155 123c 80d0 99bc 45b2 9cbc
00000180: 9b32 f53c e173 d53c 2f5b 0abd cac4 8a3c
00000190: 4318 aebc 7a2a 8b3c 93b0 183d 5734 71bc
000001a0: 304d c03c 31f2 e2bb f7fe 48bd 2c74 36bc
000001b0: 9829 a6bc 6f11 01bd 5e2d 1dbc d54f a9bb
000001c0: 1726 a5bd a1ca 29b9 cdbd 9ebc aef8 cfbc
000001d0: 96b3 2abd 1088 41bc 5b02 e53c 116f cabc
000001e0: a0c7 04bd 17bd 17bd 31ec 8d3b 0fb6 c2bd
000001f0: f2c7 af3d c437 cd3c 35ca 06bb 3561 c23c
00000200: b469 ba3c 965d 8bbc 8b1b 833d e72c a2bd
00000210: 5d95 713c bc45 7ebd afe8 ba3c f985 463d
00000220: cfed 4abc a7a3 7d3c 6a2a aebb 78a7 60bd
00000230: ce2a 4e3d 1475 a6bc 8d4e 53bc 4ca5 31bc
00000240: 29e6 86b9 d511 773c d983 973d 65f7 233d
00000250: d0a6 89bd 53fb aebc 9fd2 bf3c b0b8 b2bc
00000260: 145c 74bc 2ba3 b3bc 5c9c d83b 9447 c4bb
00000270: 242b 4d3c a676 cfbd 5ffa 61bc 7e5c 913c
00000280: f96d 913d 8cd8 bc3b 6c92 8d3b 4b8b db3c
00000290: 96ac a23c 5944 453c c912 5bbd 1792 1f3d
000002a0: 0bbc 63bd 1d2e bebc 2999 0c3d 4459 febb
000002b0: 1c60 bc3c 3880 a23a c98e 92bb 03f9 5d3c
000002c0: 2b20 8bbc f7c4 6ebd 82af 0cbd 343a 383c
000002d0: 5932 653b b7b4 13bc 3d96 35bc 0b4c 863d
000002e0: 2adf 193d 1fd7 783b fd4a d13c 2f6a 373d
000002f0: bf0d ecbc 810d 293c 6bdf 04bd f608 923d
00000300: 0649 37bd 33d6 10bd 6fca 6ebc 9bfd 203c
00000310: 7944 afbc fb45 0bbc 7e3c 923c 8df9 8c3c
00000320: 13a8 61bd 9b4c 44bd b0f9 5b3d a277 21bd
00000330: 0eb4 e93c 190c 3dbd 31bb 75bd 3f68 283d
00000340: 966c 443d 80d3 fe3a e9ef d83c e3d2 413c
00000350: 463b cc3c 50ad e6bc 793d 553d d8a9 543c
00000360: 3248 533d a984 f0bb f9a5 6dbc 6d01 243c
00000370: c9d6 ee3c 006b 1c3d 2a21 d9bc 0f43 0f3d
00000380: 08d7 6a3d 66f6 73bd 97fc 33bc f026 863c
00000390: 6b09 b73c 2acb b23c 818b 5fbd 1aaa 22bd
000003a0: 4d1b 793c ab48 9abc b3ad 6dbd d847 fa3c
000003b0: 685c 603d c1e3 5e3d 6ea3 b03c e7c2 273d
000003c0: be97 ee3c 0d0b a6bc 6886 81bc 9338 ae3b
000003d0: 13c9 093c edbb 44bc d1a6 093b 564e 64bc
000003e0: 5f81 42bd 0aa0 18bc bd38 71bd d44e 503c
000003f0: 0e51 13bc 2342 48bc 90d4 eebc 29f5 01bb
0.010131986 -0.062786885 0.061189566 -0.031585857 -0.060026918 0.019234685 -0.048939623 -0.008706877
-0.010989633 0.04460718 -0.028983628 -0.0048284438 0.0040247277 0.047994375 -0.105179474 0.015472341
0.0313443 -0.07017658 0.08530882 -0.036002677 -0.055946223 -0.040959857 -0.045025453 -0.01571671
0.008380775 0.0025660212 -0.0023527616 0.014047906 -0.023328478 -0.01783436 0.019270541 0.028682413
0.011898857 -0.09397906 0.0008394415 0.023238026 0.01769391 -0.030665442 0.026940817 -0.06531693
0.014969747 0.028430834 0.043447837 0.05493825 0.049906556 -0.01254549 0.019920478 -0.0073915254
-0.0076303766 0.086546265 0.052218445 0.009209487 0.00020756139 0.047618147 0.016681395 0.05930211
0.055653 -0.019900108 0.017066795 -0.008048733 -0.0059548873 -0.023081321 0.034356393 0.009486036
-0.0014870599 -0.012825088 0.032138597 0.020920508 0.028308062 0.07089601 -0.019448757 -0.0046574455
0.05462862 -0.022773977 -0.009454311 -0.005248978 -0.021446167 -0.03324497 -0.09849663 0.016743315
-0.03485298 0.0045530144 -0.015161574 0.03217185 0.057822 -0.011615866 0.040477473 -0.0059766904
-0.023517076 0.012963112 -0.041797988 0.015791172 -0.07273461 0.008931623 -0.018776178 -0.019127974
0.029931357 0.026056232 -0.033778366 0.01693954 -0.021251803 0.016988028 0.03727777 -0.014721951
0.023474306 -0.006925844 -0.04907128 -0.011136096 -0.020283505 -0.031510767 -0.009593336 -0.0051669874
-0.08063906 -0.00016192581 -0.019377613 -0.025387134 -0.041675173 -0.011812225 0.027955225 -0.024711164
-0.03241694 -0.037045565 0.0043311347 -0.09507381 0.085830584 0.025051005 -0.0020567302 0.023727993
0.022755481 -0.017012399 0.06401738 -0.07918721 0.014745084 -0.062078223 0.02281603 0.04846761
-0.0123858 0.015480912 -0.0053151147 -0.05484721 0.05033379 -0.0203195 -0.012897146 -0.0108426325
-0.00025729954 0.015079935 0.07398195 0.040030856 -0.0672127 -0.021360075 0.023415862 -0.021816581
-0.014914531 -0.02192839 0.0066104364 -0.005989978 0.012522493 -0.10130052 -0.013792603 0.017744299
0.07101054 0.005763119 0.0043204334 0.026799819 0.019857686 0.012040221 -0.05348471 0.03895768
-0.055599254 -0.023215348 0.034325752 -0.007762106 0.022995047 0.0012397831 -0.0044725877 0.013548139
-0.016983112 -0.05829331 -0.034347065 0.011244345 0.0034972636 -0.009015254 -0.011083183 0.06557473
0.03756634 0.003797002 0.025548453 0.044779 -0.028815148 0.010318161 -0.03243963 0.071306154
-0.044747375 -0.035360526 -0.014574631 0.009826089 -0.021394955 -0.008500571 0.01785111 0.017208839
-0.05509193 -0.04792462 0.053704917 -0.03942073 0.02852824 -0.046154115 -0.059992973 0.04111504
0.047955118 0.0019441694 0.026481586 0.0118300645 0.024930608 -0.028158814 0.052060578 0.012979947
0.051582523 -0.007340033 -0.014504903 0.010010106 0.029155152 0.03818798 -0.026505072 0.03497606
0.057333976 -0.059561156 -0.010985515 0.016375989 0.022343358 0.021825392 -0.0545764 -0.039713003
0.015204263 -0.018833479 -0.05802698 0.030551836 0.054775625 0.05441642 0.021562304 0.040957358
0.02912509 -0.020268941 -0.01581116 0.0053168028 0.008409756 -0.012007696 0.0021003971 -0.013934692
-0.04748666 -0.0093155 -0.058892 0.012714107 -0.008991493 -0.0122227995 -0.029154092 -0.0019829965

weight f4 [384]
00000000: b466 283f 824a 3e3f 19f9 3e3f 26b1 3e3f
00000010: 0e4a 323f aed9 3e3f e30a 353f 8870 353f
00000020: 3f95 3f3f 8aa9 1f3f 0510 373f d46c 363f
00000030: 557a 2a3f 709b 373f cee2 373f 39bf 373f
00000040: 5ac7 333f 2f3d 3d3f c15c 343f 23a5 373f
00000050: 70cd 313f 4bc7 353f ec5f 443f 89cb 363f
00000060: 0c3e 353f aea9 373f 4eb6 3a3f 67e3 323f
00000070: df95 2e3f e22c 2c3f 420c 473f 7aaf 393f
00000080: 8ab8 303f 1a58 373f d403 213f 90b4 1e3f
00000090: 1db6 273f 59b9 313f 8c95 2f3f a2d6 373f
000000a0: 89e6 303f 2ab6 363f 1eff 333f eccb 253f
000000b0: e692 263f a5b3 3b3f d324 3f3f eda6 233f
000000c0: dc06 393f 6623 483f 241f 353f 60bf 333f
000000d0: a3d5 2c3f 5158 393f 0eda 353f 2d34 3f3f
000000e0: 9e4b 3f3f 0cb5 333f 92c0 2d3f 5b56 383f
000000f0: f70a 3d3f 9b25 293f 4bf9 523f a404 4c3f
00000100: c311 1e3f c123 4a3f 7c81 373f 4a2e 433f
00000110: 98cc 373f a063 3a3f 9860 333f 020d 313f
00000120: 0e20 2d3f 036c 293f ea09 323f 34e2 133f
00000130: ba1c 3a3f 49a6 1b3f d7a6 393f 598e 2f3f
00000140: 9c34 463f 9354 593f fd91 363f 59ea 283f
00000150: 893b 383f c3b3 2d3f 1571 403f 1c85 2b3f
00000160: 1172 373f ac15 2a3f f406 333f fbda 393f
00000170: c3b3 323f d4f0 313f 41b3 4d3f 1b8b 2d3f
00000180: 6904 2a3f 8fe3 3e3f 3d21 133f db58 253f
00000190: 5c71 343f 68ca 313f ca7d 353f 35a9 3e3f
000001a0: 4151 433f 5194 3e3f c0a5 3a3f e159 303f
000001b0: c091 2c3f c2ba 463f 44ce 363f 75b6 333f
000001c0: d891 353f 3d37 373f 7a0e 303f 0a87 363f
000001d0: 7a6d 483f a9f7 1b3f 231e 2b3f b931 563f
000001e0: dca7 353f a30b 2a3f caec 2b3f cfd5 223f
000001f0: 5c21 423f 55b6 2f3f d5c7 363f 0054 3e3f
00000200: 38f1 3a3f 946e 283f 3437 4b3f ea4f 3a3f
00000210: b907 333f 716d 2f3f d8ed 2c3f a7cc 303f
00000220: 39b4 343f 2f97 483f 18a6 3a3f e7cd 283f
00000230: a9c4 313f 3b67 583f c4b8 343f 56d1 303f
00000240: dc5c 383f c301 353f f2e5 2b3f 76e1 3f3f
00000250: 538f 3e3f 15ca 353f cd7f 343f f026 383f
00000260: eba0 2b3f 7b6e 3b3f 661c 453f 18c3 2f3f
00000270: 05c9 383f c606 3b3f ef1e 323f 19d2 3e3f
00000280: 7d3d 3b3f f05c 463f 5a4b 1e3f 27c2 363f
00000290: 46a9 333f 671d 2b3f cba5 3e3f f4c5 3f3f
000002a0: 40d4 373f db12 293f bdc4 2c3f a029 303f
000002b0: 18d4 353f 692c 323f cca1 3d3f d056 363f
000002c0: 57e9 383f a84e 2c3f 1d76 313f da7d 2d3f
000002d0: 7a08 483f 275b 203f f1ad 353f d52d 373f
000002e0: 8427 283f c01c 353f cc1a 333f c1d9 303f
000002f0: ef0f 393f 8b6b 413f 7878 2a3f 1382 3d3f
00000300: c215 253f 8781 343f 0d5c 383f 109f 2f3f
00000310: 26bf 313f 1563 2f3f 0db5 423f 7df8 3b3f
00000320: be90 373f 3e65 393f 8716 3f3f 6d9b 313f
00000330: 6c3d 293f 3e82 2b3f 5ca4 303f f436 303f
00000340: d42f 393f efba 383f aa8e 243f 7d8b 293f
00000350: 527e 383f ffba 443f 37b5 2b3f cc89 2d3f
00000360: 96b9 3f3f 497e 2c3f d242 3f3f 092d 433f
00000370: 4405 343f d11c 3d3f 75c2 1f3f 9c92 3f3f
00000380: e365 343f 782b 3f3f fd41 273f 926c 313f
00000390: 8e6e 4a3f 9705 323f 410d 2f3f 8a20 453f
000003a0: e5f7 333f 3141 363f f656 323f ea49 343f
000003b0: 9e91 343f c47b 4c3f c615 693f 4a24 4b3f
000003c0: baef 2c3f 6f41 3d3f d7c8 413f 42dc 443f
000003d0: d83a 373f fc9c 4a3f d7db 443f 4f2d 3e3f
000003e0: ccda 313f 627e 4b3f 80b3 333f c0c8 283f
000003f0: 690c 323f e875 253f 9307 3d3f 77ad 473f
0.6578171 0.7433244 0.7459884 0.7448906 0.6964425 0.745509 0.70719737 0.70874834
0.74837106 0.6236807 0.7150882 0.7125981 0.66592914 0.71721554 0.7183045 0.7177616
0.7022606 0.73921484 0.7045403 0.71736354 0.694541 0.7100722 0.76708865 0.7140432
0.707978 0.71743286 0.72934425 0.6987824 0.68197435 0.67255986 0.7775308 0.7253338
0.69031584 0.7161881 0.62896466 0.61994267 0.6551226 0.69423443 0.68587565 0.7181188
0.6910177 0.7137171 0.7031115 0.64764285 0.650679 0.7332099 0.74665564 0.63926584
0.7227609 0.78179014 0.7075064 0.7021389 0.67513484 0.72400385 0.7103585 0.7468899
0.7472476 0.7019813 0.67871964 0.7200677 0.73844856 0.66073006 0.8241164 0.7969458
0.6174585 0.78960806 0.7168195 0.76242507 0.7179656 0.72808266 0.70069265 0.69160473
0.67627037 0.6618044 0.6954638 0.57767034 0.72700083 0.60800606 0.725202 0.6857658
0.77424026 0.84894675 0.7131651 0.65982586 0.71965843 0.6785242 0.7517255 0.66999984
0.71658427 0.6643932 0.69932485 0.7259976 0.69805545 0.695081 0.80351645 0.67790383
0.6641298 0.74565977 0.5747259 0.6458871 0.7048547 0.6944947 0.70895064 0.7447694
0.7629586 0.7444506 0.72909164 0.68887144 0.67409897 0.7762872 0.71408486 0.7020028
0.70925665 0.7156866 0.6877209 0.71299803 0.7829205 0.60924774 0.6684286 0.8366962
0.7095926 0.66424006 0.67158186 0.63607496 0.7583215 0.6863759 0.7139867 0.74346924
0.7302432 0.6579373 0.7938111 0.7277819 0.6993366 0.6852637 0.6755042 0.69062275
0.705875 0.7835569 0.7290969 0.6593918 0.69440705 0.8453252 0.7059443 0.6906942
0.7201669 0.70705813 0.67147744 0.749534 0.74437445 0.7101148 0.7050751 0.71934414
0.67042416 0.73215455 0.7699646 0.68657064 0.7218173 0.7305721 0.6957845 0.74539334
0.731407 0.7748556 0.6183373 0.7139 0.70180166 0.6684174 0.7447173 0.7491143
0.7180824 0.66044396 0.674877 0.68813515 0.71026754 0.69599015 0.7407501 0.71226215
0.7223105 0.6730752 0.6932085 0.6777016 0.78137934 0.6263909 0.7096854 0.7155431
0.65685296 0.70746994 0.69962764 0.69082266 0.7228994 0.7555472 0.6659007 0.740266
0.64486325 0.70510143 0.7201546 0.68602085 0.69432294 0.6851056 0.7605751 0.7342604
0.71705234 0.7242011 0.7464375 0.69377786 0.6610935 0.6699561 0.6900079 0.6883385
0.72338605 0.7216024 0.6428019 0.6622847 0.7206775 0.76847833 0.67073387 0.67788386
0.74892557 0.67380196 0.74711335 0.76240593 0.70320535 0.73872095 0.6240609 0.74833083
0.70467967 0.74675703 0.65335065 0.6930629 0.79074943 0.6953978 0.683796 0.77002776
0.7030013 0.71193224 0.6966394 0.70425284 0.70534694 0.7987635 0.9104885 0.7935225
0.67553294 0.7392797 0.7569708 0.76898587 0.71574163 0.7914579 0.7689795 0.74287885
0.6947448 0.7948972 0.7019577 0.6593132 0.69550186 0.64633036 0.7383968 0.7799906

bias f4 [384]
00000000: 194c 8f3d 535b 9d3d 7fe3 873d 8258 a73d
00000010: bb2c 943d fee7 9b3d cbb0 c23d d245 873d
00000020: 5371 d33d 570d 713d 9fe2 8a3d ba03 ce3d
00000030: 2a8f b83d 61cb 903d 10c6 863d 93ce af3d
00000040: 9826 a63d 6be7 ac3d 0daa df3d 6a11 ba3d
00000050: 8496 ac3d 5aeb d43d 4be6 f13d c592 d13d
00000060: c1f4 943d 0497 d83d 6a01 c93d a06e 8a3d
00000070: d6b5 983d d98c 993d c6ec d63d a48a b63d
00000080: 5e41 9c3d 7de0 923d 8a70 6e3d b60b a03d
00000090: 17f7 b63d 3c66 b73d 062b b53d abcc b93d
000000a0: e029 bc3d bd60 953d c29f e03d f00c b73d
000000b0: f041 9b3d 3e2a f13d 908b b43d d671 713d
000000c0: a961 be3d 3bf3 bf3d e3b8 c93d 1e3a b83d
000000d0: da01 a03d 14ee b23d 571a 9f3d 912f cc3d
000000e0: 981d c93d 07a2 883d d197 c83d 109c 933d
000000f0: 0406 a63d 01c1 a23d 3c02 963d 7e3d ae3d
00000100: 7e5e c23d 174d 953d fc57 c93d 1973 973d
00000110: c977 c33d b19a a13d 60c9 a43d c783 a93d
00000120: 04e1 873d 220f 863d 783b a73d d52c 8e3d
00000130: 63bb 663d 91a2 863d 9a4a d03d 4eb5 c93d
00000140: b4ed e83d 1efc f23d 64ca a93d b92a 833d
00000150: f3f5 903d c6b5 b83d bd8b 6a3d 0d9d a83d
00000160: 4b46 ac3d aafb 9a3d 8a1d 973d 7b85 f33d
00000170: f021 933d 348a a23d df01 a83d b20e 993d
00000180: 5ca3 a23d bd16 cd3d 0754 863d dfe2 833d
00000190: 66c1 8f3d c7d1 ad3d 48aa a23d 49c7 833d
000001a0: 7371 993d c229 bf3d 192b a53d 9c1a df3d
000001b0: 1ed3 c93d 4a5e f53d 4c97 0b3e 410a b63d
000001c0: 7976 b03d b1f4 ac3d 952c af3d 36d0 b63d
000001d0: a554 0f3e ca59 5f3d 03d0 dc3d 0a64 f43d
000001e0: 0378 873d acbb 9a3d 4b20 833d 8983 6d3d
000001f0: ee88 ba3d 610f 753d 13e1 4d3d 415f 9b3d
00000200: 239d a83d 51ad 963d aa6c 023e 7c31 c23d
00000210: 5afa d73d 07d9 be3d 2e2a 913d cc6d 943d
00000220: 4065 953d 61b8 e93d b5ab aa3d 77ad d43d
00000230: 6460 af3d 76fb 983d ba59 cd3d 507a 993d
00000240: 99a3 aa3d 7891 ab3d b1dd cc3d 22c9 fa3d
00000250: a9de 943d 1d2c c13d 799e ab3d 9016 943d
00000260: 1d54 b23d 1e60 9c3d bf69 0a3e c3ef 883d
00000270: 1d93 fa3d e4a3 933d 4216 833d 2644 823d
00000280: 4332 b43d 962f 9f3d da46 963d 92c4 8a3d
00000290: f65b b93d e475 a23d cebe b93d f750 b13d
000002a0: 521c aa3d 6b11 803d 4a5b ae3d b481 c23d
000002b0: 3b0a 913d 39c4 c63d dd87 993d 936c a53d
000002c0: 3e33 c83d fb8c ac3d 7e7d bb3d 6aed 973d
000002d0: 3835 cd3d 522c 2e3d cc06 b83d 2e5f 963d
000002e0: 4cd2 983d e599 873d deb2 943d 3f8a cd3d
000002f0: 2fd1 e13d 1d86 ab3d 9468 9c3d 92ac c03d
00000300: f9f9 773d 9155 973d 64cf a83d 9902 b13d
00000310: 6feb 953d 223c 973d c281 813d b96d c13d
00000320: b467 b83d 1f58 b93d 44a3 dc3d cdab e63d
00000330: a012 cc3d 6ad3 7c3d b4d9 b33d 41d0 c43d
00000340: 260e b23d 8704 b73d aba6 8b3d 4a72 8f3d
00000350: fc99 dc3d 9be7 a53d 3f18 9f3d a8ad 993d
00000360: 9611 b93d c9ff ae3d 28d1 b33d fccd e43d
00000370: 72cc ab3d 14ae de3d 26ef b03d fc7d a03d
00000380: 4f96 a43d 691d b43d 67b3 b63d bb1a 9d3d
00000390: b784 f13d 48c1 9b3d 5224 803d 06ad 003e
000003a0: d36f b73d 622e 9f3d 7879 a43d 94a4 bb3d
000003b0: 1ab3 993d 6f1b fa3d d33b e33d 34f3 ef3d
000003c0: d87a a13d d6cc 903d b2f0 b53d 9adb 763d
000003d0: c3e5 863d 90ea d13d b31f bb3d c6c4 cc3d
000003e0: 2f7b 8f3d 01e0 a93d 3b5b 9d3d 347d bc3d
000003f0: 7043 673d f1e6 ab3d 70e0 a83d 8799 ff3d
0.06996936 0.07683434 0.06635188 0.081711784 0.07235094 0.076126084 0.09506377 0.06605114
0.10324349 0.058850612 0.06781506 0.100593045 0.090116814 0.070700414 0.06580746 0.08584323
0.0811283 0.08442577 0.109211065 0.09085353 0.08427146 0.10396452 0.11811503 0.10233072
0.072732456 0.10575679 0.09814723 0.06759381 0.074565575 0.07497568 0.1049438 0.08913162
0.07629655 0.07171724 0.058212794 0.07814734 0.089338474 0.089550465 0.08846097 0.090722404
0.091876745 0.07293842 0.109679714 0.089380145 0.07580936 0.11775635 0.08815682 0.058946453
0.09295971 0.093725644 0.098497175 0.0899546 0.07812853 0.08736816 0.07768696 0.0997001
0.09820098 0.06671529 0.09794582 0.07207501 0.08106616 0.07946969 0.07324645 0.085078225
0.09490679 0.07290094 0.09831235 0.07395 0.095443316 0.07890833 0.08046222 0.08277088
0.06634715 0.06545855 0.0816564 0.06942145 0.05633105 0.06573976 0.10170479 0.09849034
0.11373463 0.11864494 0.08290556 0.06404633 0.07078161 0.090190455 0.05726217 0.0823308
0.08411845 0.07567532 0.07378681 0.11890694 0.071842074 0.079365164 0.08203482 0.07473506
0.079413146 0.100141026 0.06558996 0.064397566 0.0701931 0.084872775 0.07942635 0.06434495
0.07492342 0.093341365 0.08064861 0.10893747 0.098547205 0.11980875 0.13631934 0.088886745
0.08616347 0.08445109 0.08553425 0.08926432 0.13997133 0.05452899 0.107818626 0.119331434
0.06614687 0.07555327 0.06402644 0.05798677 0.091081485 0.05982912 0.050263476 0.075865276
0.082330965 0.07357276 0.12736765 0.09482095 0.10545798 0.093187384 0.07088123 0.072475046
0.072947025 0.114121206 0.08333532 0.10384648 0.08563307 0.07469837 0.100268796 0.074940324
0.08331985 0.08377355 0.10003222 0.12245394 0.072690316 0.09432242 0.08379836 0.07230866
0.087074496 0.076355204 0.13516901 0.06686356 0.12235091 0.07208994 0.0640073 0.063606545
0.08798649 0.07772748 0.073377326 0.06775774 0.09050743 0.07932642 0.09069596 0.08658021
0.08306183 0.06253322 0.08513506 0.09497395 0.070820294 0.09705395 0.07496617 0.080773495
0.09775399 0.084253274 0.09154795 0.0741833 0.10019916 0.042522736 0.089856714 0.07342373
0.07461986 0.0662115 0.07260679 0.10036134 0.11026227 0.083751895 0.07637134 0.09407915
0.060541127 0.07389367 0.082426816 0.086430736 0.07320296 0.07384516 0.063235775 0.09444756
0.09004155 0.09050011 0.10773328 0.11263237 0.0996449 0.061725058 0.08781758 0.09610034
0.08694105 0.089364104 0.06818899 0.07004221 0.10771558 0.08100816 0.077682965 0.075038254
0.090365574 0.08544881 0.08780128 0.11172101 0.08388604 0.108730465 0.08639364 0.078365296
0.080364816 0.08794672 0.08920937 0.07671114 0.117928915 0.07605225 0.062569275 0.12566003
0.08956876 0.07772519 0.08030981 0.0916225 0.07504864 0.12212264 0.11095395 0.11716309
0.07884759 0.07070319 0.088837996 0.060268022 0.06586792 0.10249817 0.091369055 0.09998469
0.07005917 0.082946785 0.076834165 0.09203568 0.056460798 0.08393658 0.08245933 0.12480455

running_mean f4 [384]
00000000: 1040 213c 5e36 93bd 8c97 9e3d 0bab 9e3c
00000010: 3c0e 1abe b0c0 86bd 3587 efbc bf2d 32bd
00000020: 4d30 9dbd 07b0 2f3d cf83 d5bc 52b4 053d
00000030: d4e5 d03d fd1b c2ba 4b2b b1bc 6ffb 0fbd
00000040: db0e 1cbc 6187 09bd 3956 6b3c 24f9 9bba
00000050: 1561 dfbc 7a8a 203d 454c 5ebc 8b6d 96bd
00000060: a22b 833d 5ef5 c1bc 481f 4bba 4888 92bc
00000070: 7063 59bc 7e3c 1e3d 5c10 8ebd 96ff 13bd
00000080: 4fd8 26bd 5f99 bb3d ce51 7c3c f93c 173d
00000090: 0f17 833d 631d 6bbd 8759 783c a586 c13d
000000a0: d490 a0bc be5d 59bd 977a 60bd 1bef 8cbd
000000b0: 2b1c 39bb 95b2 16bd 6d77 cbba 411e a6bd
000000c0: cfa0 27bd f978 223d 6274 f4bc 5919 28bd
000000d0: 1326 b23c 56ae 5fbd 2d9d 993d 3b19 4a3d
000000e0: 5e5d 39bd 5b60 aebc cde4 acbc c478 7a3c
000000f0: 0966 37bd 085f f8bc 6e25 6dbd 2742 d3bc
00000100: a781 16bd 7b25 023d 55c1 acbd a3fa 063d
00000110: 055d a8bc 57cb c8bc e020 7c3c ee43 37bd
00000120: 9adf 4c3c afb8 81bb 634f d93d 07e5 50bd
00000130: 11b0 0bbc 101a b93c e1a2 2ebc 31bb 48bd
00000140: 9106 b9bd fe16 53bc 01e6 343b f8fa 42bd
00000150: 792a 973c b428 30bd fa2f 19bd e665 03bd
00000160: 4ecf 0d3d b988 eabd 9fec d4ba 8ecb bebd
00000170: 3433 9b3a ecbd 323d 6914 023d 65fb dabc
00000180: 7f14 0f3d d7d4 30bd 5525 1a3d f257 4bbc
00000190: ad27 8e3c 9bcd 50bc 0307 d3bc e3a7 28bb
000001a0: 818d 263d 0686 84bd a8a8 8cbb 2c52 623d
000001b0: b2db 30bd a1ae b3bd 29b5 6abd 9d36 febc
000001c0: 7a59 6a3d 6428 75bc 80da d3bc b090 5d3d
000001d0: 51d1 4f3b 9d6c 8fbd d0aa 273d f49d 1e3e
000001e0: 090b a7bb 9320 49bc 5d2e e63b bf1d 503c
000001f0: 763c 4bbd c7de e73c b246 813c d329 b3bb
00000200: dc8a 89bc ae85 363d c8fb 9f3c 50a1 89bc
00000210: 4b07 d4bd 888f 5e3d 98e9 883c 39d2 083e
00000220: 6a49 f7bc ec2c 21bd f3f4 3b3d c5ee 373d
00000230: 58b0 8abd 2d4d 813b c8a1 99bd 9098 0cbd
00000240: 5fd8 9f3c 0744 113d 913a 64bd d4b9 3abd
00000250: 1fed 30bd 1402 99ba fc42 e33c 8ff4 123d
00000260: fd60 17bd 21c4 73bd 8f26 b7bd 2920 20bc
00000270: 9049 a23c f82a e3bc d24d c73c 7bc9 7c3c
00000280: 8ed5 0c3d e143 62bc 359c adbc 548c 3fbc
00000290: 240a 393b eb4a f2bc 4613 ea3c 3bc1 74bd
000002a0: e81e 47bc 3c46 d43d a52b 583c fdef 13bd
000002b0: 8ead 943d 5c1e 573d 15f4 edbc f84c bf3c
000002c0: 6c77 5e3c 7174 22bd 802b 0fbc 1cd7 c63c
000002d0: 3cd1 70bd 62b6 e13d f240 8439 a49e bebd
000002e0: f0e3 80bc 4ea6 853c ea15 06b9 5fb0 14bc
000002f0: c6e2 36bc fe9e 6ebd ea5b 1dbd 0dd2 eabd
00000300: 5a7d 0fbd 44b3 533a 74b1 8c3d aa8d 783a
00000310: 5d11 b83c 3f52 913d a527 5a3d b753 18bc
00000320: 7acf e53c 7ee5 d73c e66d 74bd 5e9f 92bd
00000330: f25b 82bb dfbc 923c 9155 bd3c ab67 44bd
00000340: c63c fcbc 3162 e43d f9a7 3b3c 4401 8fbb
00000350: 785e 84bb 307f f7bc 6b6e efbd 7f81 69bd
00000360: 2a45 afbc 2df0 7a3d b236 903d 7045 99bd
00000370: 3415 263d c5bf 4ebd 6370 40b9 da7f 73bb
00000380: 6791 26bd 84a2 b6bd b6d4 f1bd 734b 1b3d
00000390: 75a7 a0bc 65dc 993d 8501 8dbd b21f bebd
000003a0: df6c 053c 8dff acbd 75ae 983d 3cec afbd
000003b0: 866c 54bd 2fd7 92bd 76ab b3bc 9d77 83bd
000003c0: bf88 933d 330d b9bd ebf6 b6bc 5e83 cdbc
000003d0: 4789 87bd 9afa 30bd 64ea 43bd 499c dbbd
000003e0: df74 073d 7b4a 33bd 0e77 f23c 0944 78bd
000003f0: 533c 483d 34ff 3ebc d020 d0bc 8469 83bd
0.009841934 -0.07188104 0.07743749 0.019368669 -0.15044492 -0.06579721 -0.029239276 -0.043500658
-0.07675228 0.042892482 -0.026063828 0.03264267 0.10200086 -0.0014809367 -0.021627089 -0.035151895
-0.009525026 -0.033576373 0.014363819 -0.0011899811 -0.027267972 0.03919456 -0.013567989 -0.073451124
0.06404807 -0.02367657 -0.0007748497 -0.01788725 -0.013268337 0.03863191 -0.06936714 -0.036132418
-0.04073363 0.091601126 0.015400363 0.036923382 0.064008825 -0.057401072 0.015158064 0.094495095
-0.01960031 -0.053067915 -0.05480441 -0.06881543 -0.002824555 -0.036791403 -0.0015523263 -0.08111239
-0.040924843 0.03966615 -0.029840652 -0.0410398 0.02174667 -0.05460962 0.07500682 0.049340468
-0.045255058 -0.02128618 -0.021105194 0.015287582 -0.044775043 -0.030318752 -0.057897024 -0.02578838
-0.03674474 0.031774025 -0.08435313 0.03295387 -0.020552168 -0.024511022 0.015388697 -0.044742517
0.012504483 -0.0039587836 0.10610845 -0.050999667 -0.008525864 0.022595435 -0.010658951 -0.049006645
-0.090344556 -0.0128839 0.0027602913 -0.047602624 0.01845287 -0.043007568 -0.03739927 -0.0320796
0.03462153 -0.11451859 -0.0016244835 -0.09316169 0.0011840821 0.043638155 0.031757746 -0.026731202
0.034931656 -0.04317173 0.03763326 -0.0124111045 0.017352903 -0.012744333 -0.02576018 -0.0025734834
0.040662292 -0.064708754 -0.0042925663 0.055254146 -0.043178268 -0.08773542 -0.057301674 -0.031031901
0.057214238 -0.014963243 -0.025861025 0.054093063 0.0031710456 -0.07003138 0.040934384 0.15489942
-0.005097751 -0.012275833 0.00702457 0.0127024045 -0.049618207 0.02830447 0.01578078 -0.0054676323
-0.016789846 0.04456108 0.019529238 -0.016800553 -0.103529535 0.0543361 0.016712949 0.13361444
-0.030186374 -0.03934948 0.0458879 0.044905443 -0.06771916 0.0039459676 -0.075015604 -0.034325182
0.019512353 0.035465267 -0.055719916 -0.045587376 -0.043194886 -0.0011673593 0.027741902 0.03587776
-0.03695773 -0.059513215 -0.08942901 -0.009773293 0.019810468 -0.02773045 0.0243291 0.015428896
0.03438335 -0.013810129 -0.02119265 -0.011691172 0.0028234804 -0.02957674 0.028573643 -0.05975459
-0.012153365 0.10364959 0.013193999 -0.036117543 0.072596654 0.052519187 -0.029047051 0.023352131
0.013578277 -0.03966183 -0.008738399 0.024272494 -0.05879329 0.11021115 0.0002522539 -0.09307602
-0.01573369 0.016314652 -0.000127874 -0.009075253 -0.011162465 -0.058257096 -0.038417734 -0.11465845
-0.035031654 0.0008075724 0.06869784 0.0009481559 0.022469217 0.07095765 0.053260464 -0.009297303
0.028053034 0.026354548 -0.05967512 -0.07159303 -0.003978246 0.017912326 0.02311209 -0.047950428
-0.030790698 0.11151541 0.011453622 -0.0043641645 -0.004039582 -0.030212015 -0.116909824 -0.057008263
-0.021395285 0.061264206 0.07041682 -0.07483947 0.040547565 -0.050475854 -0.00018352414 -0.0037155063
-0.04066601 -0.08917716 -0.118081495 0.03791375 -0.0196111 0.0751274 -0.068850555 -0.09283389
0.008143633 -0.0844718 0.0745515 -0.0858998 -0.05186131 -0.07169949 -0.021932345 -0.06419299
0.072038166 -0.09035721 -0.022334537 -0.025087055 -0.066179805 -0.043207742 -0.047830954 -0.107231684
0.03307044 -0.043772202 0.029597785 -0.06061176 0.048885655 -0.011657525 -0.025406271 -0.0641661

running_var f4 [384]
00000000: 72ab 5d3c 0da8 443c 26da 133c 3630 873c
00000010: fee9 683c 080c 633c a894 5e3c c364 c63c
00000020: 1b2b 153c de86 483c a1fe 7f3c b682 643c
00000030: 5491 9d3c c6d8 663c c026 463c 4dab 643c
00000040: c593 703c 4725 6a3c 185c f13c 01dd 543c
00000050: ead9 613c c393 873c 60b7 673c e6b0 803c
00000060: 5dea 043c 64b9 503c 5235 b23c c9b2 553c
00000070: e892 4c3c d5c6 ab3c c2e9 1c3c be67 af3c
00000080: f69a 9d3b 82a5 623c 888a 6b3c d951 323c
00000090: 817b 833c 037a 6a3c 153a 4f3c 2c8a 473c
000000a0: 82bf 1e3c d177 3b3c bd06 9c3c 2fd2 ad3c
000000b0: 86b3 b03c 7efc 6d3c 3bf0 783c b218 8e3c
000000c0: 6219 343c 3479 353c c9a0 913c 1dba 3b3c
000000d0: ae46 8f3c 853e a73c d1db 8b3c 1344 9c3c
000000e0: 76d8 613c a519 023c 1d36 ed3c 7e9b 4e3c
000000f0: cf1a 1e3c 106b 693c a5b3 0f3c e2d0 1d3c
00000100: 95af 6b3c cd0e 0e3c 7b66 8a3c bc11 503c
00000110: 2cb0 843c 46ab 483c 93b8 273c 899f 3b3c
00000120: 3e42 853c 267e 963c 0fd9 883c eb1a b43c
00000130: 70d2 083c a798 2d3c a7ed 943c 5979 633c
00000140: e5e8 383c eca4 073c 93c5 703c 0587 4b3c
00000150: 6df6 db3b 7374 563c a1e8 1f3c a53f 493c
00000160: 06c1 5e3c 5c49 823c 38d1 803c 6e0d 7c3c
00000170: fb72 5f3c a0a8 633c dd13 203c 8cb4 a33c
00000180: c730 953c 1202 8c3c 3693 323c 8817 9b3c
00000190: 5db4 533c 9580 b63c a01d 4f3c 6e5b 353c
000001a0: 1ef6 4e3c 8620 1b3c e932 1c3c b919 563c
000001b0: db84 853c 07b9 1b3c 0700 253c 55b4 373c
000001c0: 7b01 533c 0efd 143c 9f70 603c 85c1 713c
000001d0: 5774 143c 4333 8a3c 890c 823c 9fe7 2b3c
000001e0: ee5d 3b3c edf4 263c ef11 f93c 1058 903c
000001f0: 8155 123c 1d56 593c 6d03 2e3c 4b9a 3d3c
00000200: 65cd 3d3c cec3 ac3c 791a 2e3c 0cb6 693c
00000210: 51ea 943c 4899 593c 8ce6 7c3c 483e 603c
00000220: 35d8 323c 9b4b 253c f9d0 a73c be19 983c
00000230: 233a 1e3c 70de 013c 6296 6e3c b002 2e3c
00000240: ad88 943c 5521 463c ef20 6d3c 675e 433c
00000250: c190 2b3c eb1f b33c 58b8 263c 8e5c 2b3c
00000260: 87b6 6f3c c6f2 863c 3db8 0d3c c71a 923c
00000270: 1002 883c efd5 293c 87b5 ba3c 5369 623c
00000280: 4713 263c eac1 fe3b 2ed5 383c 0b22 643c
00000290: 7c9c 533c 9847 d83c 3572 b63c 1a4a 483c
000002a0: e556 483c 2dce 523c 8f90 523c b862 6e3c
000002b0: 9cda 963c b41d 7e3c 75a9 243c c345 873c
000002c0: a512 443c b078 763c 6ab3 6b3c 4d78 b23c
000002d0: 3526 483c 6224 713c 3f27 ce3c 3204 1f3c
000002e0: 360a 473c e4b6 323c 2f94 653c fdbd de3c
000002f0: 4690 783c a50d 4a3c d7aa 503c 3ac7 0e3c
00000300: 3cc8 9e3c 17e3 7e3c 9d2e 283c 82ea 723c
00000310: e86f 903c b327 3f3c 9b64 6a3c 3f03 543c
00000320: 3c6d 623c a110 463c e36c 203c 62e8 543c
00000330: 0bc9 993c 60a7 ec3b 4635 cc3c a844 603c
00000340: 10ee 203c e39d a73c a14a cf3c 59e4 883c
00000350: f14d 723c d608 2a3c b6e7 963c d71c 7c3c
00000360: 6775 c83c c4dd 853c 1d93 603c 7b8b 4d3c
00000370: 5a4d c43c 164a 263c b2f6 853c abd4 3f3c
00000380: 8db6 6c3c aff9 003c 7369 cd3c ff30 343c
00000390: bc0c 023c 743f 393c 4d6b 1a3c 9b68 2b3c
000003a0: 1f46 423c 9a13 233c 9857 573c 6f53 383c
000003b0: c661 813c 745e 073c b5af 0a3c 6791 4a3c
000003c0: 1c7a 793c e3d3 343c d149 013c 3165 243c
000003d0: 322b 903c 484f 1d3c 8b71 b43c d871 8b3c
000003e0: c8cf 563c 6f63 133c 67f4 303c ddae 553c
000003f0: 0b70 a13c fad3 aa3c 44ef 973c 0055 173c
0.013529645 0.012002957 0.009024179 0.016502481 0.014215944 0.013857849 0.013585247 0.024217969
0.009104515 0.012239186 0.015624673 0.01394718 0.019234337 0.014089769 0.0120942 0.013956857
0.0146836685 0.014291114 0.029462859 0.012992145 0.013784865 0.01654995 0.014142841 0.015709352
0.008112517 0.012739513 0.02175394 0.013043114 0.012486197 0.020968834 0.009577217 0.021411773
0.0048097325 0.013833405 0.01437629 0.010883772 0.016050102 0.014311316 0.012648125 0.012178939
0.009689214 0.011442141 0.019046182 0.021218387 0.021569978 0.014525531 0.015193994 0.01734576
0.01099238 0.01107626 0.017776864 0.011457947 0.017489757 0.020415554 0.01707259 0.019075429
0.013784518 0.007940684 0.028956467 0.012610314 0.009649946 0.014246717 0.008770858 0.009632321
0.014385124 0.008670521 0.01689457 0.012699541 0.016197287 0.012247866 0.010236877 0.01145161
0.016266938 0.0183707 0.016705064 0.021985492 0.008350953 0.010595477 0.018179728 0.013883912
0.011285995 0.0082790665 0.014695543 0.012422328 0.006712726 0.013089287 0.009760053 0.01228324
0.013595825 0.015904121 0.015724763 0.015384061 0.013638253 0.013895184 0.009770361 0.019983552
0.018211735 0.017090831 0.010899356 0.018932119 0.01292142 0.02227811 0.0126413405 0.011069162
0.012631921 0.009468203 0.009533622 0.013067656 0.016298702 0.009504563 0.010070807 0.011212428
0.012878771 0.009093536 0.013698726 0.014755611 0.009060941 0.016870147 0.015875118 0.0104922345
0.011435969 0.010190231 0.03040406 0.017620116 0.0089315185 0.01326516 0.010620934 0.011572431
0.011584614 0.02108946 0.010626429 0.014264595 0.018178137 0.013281174 0.015435826 0.013686724
0.010915806 0.0100888265 0.020485388 0.018566962 0.009657416 0.007926568 0.014562221 0.010620758
0.018131578 0.012092908 0.014473184 0.011924363 0.010471524 0.021865806 0.010175787 0.0104590785
0.01463092 0.016473185 0.008649883 0.017835034 0.016602546 0.010365947 0.022791637 0.013819057
0.010136432 0.007774581 0.011281295 0.013924132 0.012915727 0.026401326 0.022271255 0.012224698
0.0122277485 0.012866539 0.012851848 0.014549904 0.018414788 0.015510011 0.010050167 0.016512757
0.011967336 0.015043423 0.014386037 0.02178588 0.0122161405 0.014718147 0.025165198 0.00970559
0.012148431 0.010907862 0.0140123805 0.027190203 0.015171116 0.012332355 0.012736044 0.0087144915
0.019382589 0.015557072 0.01026502 0.014826419 0.017631486 0.01166718 0.014306213 0.012940227
0.013819989 0.012088926 0.009791586 0.0129948575 0.018772623 0.007222101 0.024927747 0.013688244
0.0098223835 0.020461028 0.02530414 0.016710447 0.0147890905 0.010378083 0.018421035 0.015387735
0.024470044 0.016341098 0.01370695 0.012545462 0.023962665 0.010149499 0.016352985 0.011708419
0.01444782 0.007872029 0.025074696 0.01099801 0.007937606 0.011306632 0.009424997 0.010461952
0.0118575385 0.009953404 0.013143443 0.011250361 0.015793692 0.0082622655 0.008464743 0.012363768
0.015226867 0.011036846 0.007891134 0.010033892 0.017598722 0.009601422 0.022026798 0.017022058
0.013111062 0.008995875 0.010800458 0.013042179 0.019706747 0.020853031 0.018546708 0.009236574

weight f4 [43, 384]
00000000: 2dd7 91bd 220e 05bd 14e4 323e 778b c0bc
00000010: b9cf 68bd 78d3 323e 4c4d 71bd d400 37bd
00000020: b8f0 283d dde3 e23c ef97 eebc f8d9 603c
00000030: 3dcb 12ba e15b 7d3d d05a 543e ce44 9dbd
00000040: 14bd 80bd ec8d 4b3e e13b 633d d8bb 57bd
00000050: 38ff 3bbd 133a 7ebd 6061 0abd 1990 03bd
00000060: a2d4 e73d 34a2 8d3c 4508 3ebd 5def 50bd
00000070: 0c4d 54bd 3887 d83d 2f57 c2bc 82e1 26bd
00000080: 1fa9 1fbd 5dc3 7bbd dbe0 28bd 4aea f2bc
00000090: 0288 d8bc c95c e5bc 31a3 813d 6ab3 043e
000000a0: 85e5 6cbd 32eb 38ba 60b5 64bd c763 20bd
000000b0: 04f1 a13c c7ab 11bc bffd de3d e3cf 2dbd
000000c0: f875 823d ed17 57bd f577 f33c ee62 d6ba
000000d0: d2ee 15bd 5dd5 c73d 1e0f 223c 50cd 42bd
000000e0: ad72 e03d b6d3 1d3e 5ba4 d63a ce59 d63c
000000f0: d22b 7a3d 2487 7fbc 80b9 0a3e c080 16bd
00000100: 802e 86bc 75bb d03c 4d15 073e 951b 53bd
00000110: 3044 3fbd fd8b 15bd d221 debc bb1b 193d
00000120: 14b6 59bd b029 0abb c458 0dbc fe11 efbc
00000130: dc88 af3d 2a5c 50bc e035 3fbd 2ac4 5abd
00000140: 0073 1d3e be21 223e d435 47bd cab8 93bd
00000150: 4c77 523d 91fa 82bd 0ebe 98bc 069a 80bc
00000160: ef18 6ebd b3e5 26bd 6be9 26bd 5632 ee3d
00000170: f5fa 513e 3599 52bd e267 44bd a8f4 55bd
00000180: f076 3ebc 937d cbbb 2fe3 d5bc ab63 56bc
00000190: 965d 543d b64d 4abd 241a 8abd c57c 4dbd
000001a0: a18a 6fbc a35e 673d 3b4e 92bd e287 8bbc
000001b0: 8c89 2bbd 8331 933d a7d7 cabc 06d3 49bc
000001c0: 71ae bdbc 25ec 183d 1e60 24bd 3110 31bd
000001d0: 4799 b5bd 6d7c 733b e4c6 cabb 2fec a8bd
000001e0: bded 5b3e 93e1 5dbd 8bf0 443b 347b c2bc
000001f0: e82d b9bc 5c37 75bd abfc 223d f9b9 98bd
00000200: 2671 78bd a118 30bd c7b8 89bd 5b29 90bd
00000210: a027 033e 60a8 0cbd 227b 043d 014b 91bc
00000220: 7045 4abd 6c5b 48bd 37b7 923d 2f36 ad3d
00000230: 08bb 36bd 9fd3 5bbd 5858 8cbd 7e8a 113d
00000240: d8cb 6dbd b8ea 123d 5715 47bb e38e 73bd
00000250: 6c06 323d 22ae 9bbd 3670 eb3c 07b6 99bd
00000260: 0924 3ebd 2e53 0c3d 538f b6bc 9d8b 4abd
00000270: 005f 22bd 7877 41bd 6c1e ed3d e0a8 1abd
00000280: 5b25 ff3b 559a e13d 9c42 ca3d cb36 b53c
00000290: a597 8bbd 9bb4 fd3b 19d8 46bd 62b5 39bd
000002a0: 45c1 29bd 6cf4 44bd 8d99 733d 8924 ae3d
000002b0: ee95 ed3d dcaa 23bd 266b 58bd 0e79 eebc
000002c0: 973e 4cbd 2883 21bc 1715 2abd 6c09 a93d
000002d0: 1153 2c3e f566 62bd 7ba2 b33d 41a5 88bd
000002e0: 00c3 87bd ef4e 4cbc 6ff8 2f3d bbea da3d
000002f0: de2e a5bc 4bae 58bc 3cb7 863d 4c8a be3d
00000300: 938d 1bbd a766 70bd ea5e cd3b 4891 623c
00000310: 30b0 633d 89ac 5dbc 865b b53b 29cf 223e
00000320: 6038 65bd f512 4bbd e015 943d eaa5 24bd
00000330: b234 2abd 5540 2f3d 60d3 3dbd 18e7 3bbd
00000340: cdbd 1bbd 54d5 39bd d22b 433d c53c af3c
00000350: 9d96 cfbd fa4f c6bc 3f83 fbbc eb0e 8fbc
00000360: fa8d 153c 581c 0dbd 0929 33bd b74f 583c
00000370: cfe3 e33b 6769 203d 8746 3dbd cb50 3a3d
00000380: 06f3 26bd 83f1 96bd 722f 253d d54a 91bc
00000390: cb10 86bd fcaa fcbc d4aa 933d c1d2 63bd
000003a0: 4ae7 46bd 4fd0 61bd caab 1dbd db01 4abc
000003b0: d98e 823d a31b 113d de86 e03d d4d2 71bd
000003c0: db3b 92bc 266b 82bd e058 90bd 0e4a c8bb
000003d0: 06e1 7ebd 4d49 89bd 11bc 143e 8c40 3dbd
000003e0: b272 d7bb 9f49 79bd 56aa 9a3d e37e 66bd
000003f0: 8ae9 88bc cecc 5abd fc96 d23d 150c 99bd
-0.0712112 -0.03248418 0.17469817 -0.023504002 -0.056838725 0.17463481 -0.058911607 -0.044678524
0.041245192 0.027696544 -0.029125182 0.013723843 -0.0005599743 0.0618552 0.20737767 -0.07679139
-0.06286064 0.19878358 0.055477027 -0.052669376 -0.045897692 -0.062067103 -0.03378427 -0.032119844
0.11319853 0.017289259 -0.046394605 -0.051009525 -0.05183129 0.10572666 -0.023723213 -0.040742405
-0.038979646 -0.06146561 -0.041230064 -0.029652733 -0.026432041 -0.027998345 0.063299544 0.12959066
-0.057836074 -0.000705409 -0.055837035 -0.039157655 0.019768246 -0.008891053 0.10888242 -0.042434584
0.06370157 -0.05251305 0.029720286 -0.0016356388 -0.03660471 0.09757493 0.0098912995 -0.047559083
0.10959373 0.15412793 0.0016375886 0.02616587 0.061076947 -0.015596185 0.13547325 -0.03674388
-0.016379595 0.025480011 0.1319172 -0.051539976 -0.046695888 -0.036510456 -0.027115736 0.03737996
-0.05315216 -0.0021081977 -0.00862712 -0.029183384 0.08571026 -0.012717286 -0.04668224 -0.053409733
0.153759 0.15833184 -0.04863532 -0.0721298 0.0513833 -0.06395448 -0.018645313 -0.015698444
-0.058129247 -0.040746402 -0.04074995 0.116306946 0.20505889 -0.05141564 -0.047950633 -0.052235276
-0.011625037 -0.006210038 -0.026109306 -0.013085286 0.051847063 -0.049390517 -0.06743267 -0.050167818
-0.014620454 0.056486737 -0.071438275 -0.017032567 -0.04187922 0.07187178 -0.024761034 -0.012318378
-0.02315447 0.03733458 -0.040130727 -0.043228332 -0.08867126 0.003715302 -0.0061882604 -0.082481734
0.21477409 -0.054170202 0.0030050601 -0.023740388 -0.022604898 -0.059867248 0.039791744 -0.074573465
-0.06065478 -0.042992238 -0.067246966 -0.07039138 0.12808084 -0.034340262 0.03234399 -0.01773596
-0.049382627 -0.04891531 0.07163852 0.084576 -0.04461196 -0.053668614 -0.06852788 0.035532467
-0.05805573 0.035868376 -0.003037771 -0.05946244 0.043463156 -0.076015726 0.02874003 -0.07505422
-0.046421085 0.034259014 -0.02228514 -0.04944955 -0.03964138 -0.047233075 0.11578068 -0.037758708
0.0077864355 0.110157646 0.09875986 0.022120854 -0.06816033 0.007742477 -0.04854593 -0.045338996
-0.04144408 -0.04808466 0.05947261 0.08503062 0.116008624 -0.039957866 -0.05283656 -0.029110458
-0.049864378 -0.00985793 -0.04152402 0.0825375 0.16828562 -0.05527397 0.08771225 -0.06672145
-0.0662899 -0.012469991 0.042961534 0.106893025 -0.02016395 -0.013225148 0.06577918 0.09303722
-0.037976813 -0.058691647 0.006267418 0.013828583 0.055587947 -0.013529905 0.005534592 0.15899338
-0.055961967 -0.049578626 0.07230735 -0.04019729 -0.04155416 0.04278596 -0.04634416 -0.045874685
-0.038022805 -0.04536946 0.047649212 0.021391282 -0.10136149 -0.024208058 -0.030702231 -0.017463168
0.009128088 -0.03445086 -0.043740306 0.013202599 0.006954647 0.03916302 -0.04620984 0.045487206
-0.04075911 -0.073702835 0.04032845 -0.017735878 -0.06546172 -0.03084325 0.07210317 -0.055620912
-0.04856042 -0.0551303 -0.03849391 -0.012329544 0.06374902 0.035426747 0.10963224 -0.059038952
-0.017850807 -0.06368093 -0.070482016 -0.0061123436 -0.062226318 -0.06703434 0.14524867 -0.046204135
-0.006574952 -0.060861226 0.0755202 -0.056273352 -0.016712923 -0.053417973 0.10282704 -0.074730076

bias f4 [43]
00000000: b85b 81bc 5c8e ed3c 2528 cc3d 3208 f63d
00000010: 95ca 883b 3db7 fa3d bfc8 33bc a2b1 773c
00000020: 0e40 153d c849 0bbd e8ff ca3c 649f 93bb
00000030: 2f5e 963d 1747 823d ec8f 9fbc 66e5 283d
00000040: d388 4b3d c2b7 97bb 8e8d 85bb fbc6 2cbd
00000050: 15e6 4f3d e27a eebc 9d20 8bbd 4fe8 46bd
00000060: 75f2 3cbd bdd8 dfbc 0b0f 86bc 67af 84bd
00000070: f506 e7bb 5e52 b33d 6b5f 193b 2a95 13bd
00000080: 5a6f eabc fafa 50bd 9bc1 f63b 2e37 8fbc
00000090: cb7c 40bd b4d0 33bd fd46 7b3d fa18 cabd
000000a0: 355f 10bc 8e60 95bd 6578 2bbd
-0.015790805 0.028998546 0.099685945 0.12013282 0.0041745403 0.12241981 -0.010973155 0.015118035
0.03643804 -0.03400591 0.024780229 -0.004505085 0.07342183 0.063612156 -0.019477807 0.041234396
0.049691033 -0.00463006 -0.0040757125 -0.04218195 0.050756533 -0.02911133 -0.0679333 -0.04856139
-0.046129663 -0.027325029 -0.016364595 -0.06478768 -0.00705039 0.08755945 0.002340282 -0.036030926
-0.02861755 -0.0510206 0.007530404 -0.017482366 -0.04699401 -0.043900207 0.061346997 -0.09868045
-0.008811762 -0.07293807 -0.041862864
