experiments/model_repositories/indoor_smart_traffic/object_detection/model_files/block_13.pth (torch, 22009 bytes, 5 tensors)

weight f4 [192, 1, 3, 3]
00000000: a608 313d 151c 923d 5d57 a83d ced5 b53d
00000010: 2f05 313e a8a7 213e 3361 8f3d 0454 ee3d
00000020: f5fa f43d fd6b 3cbd 76c7 9dbd 1a56 71bd
00000030: e290 a6bd 2a4f 14be ee84 f0bd 0138 7cbd
00000040: 80be f8bd 66e7 b6bd d28e 4fbd 4c97 94bd
00000050: c40b 50bd 8444 f3bd a7da 55be 4a7b cdbd
00000060: e3d0 9cbd d5e5 0dbe f159 5ebd fa97 653d
00000070: 7d51 cc3d 22ab a33d f416 cc3d 0694 413e
00000080: 0ce7 143e 41f9 963d 462b 143e ff93 da3d
00000090: fd27 f2bc 8e3d 83bd cd33 6ebd d7a0 8ebd
000000a0: bde8 53be 6355 42be 3429 4ebd add8 34be
000000b0: 5540 29be c1a0 05bd 8fb4 88bd 6ab9 c7bc
000000c0: 71b8 82bd b7b2 1bbe 49ff c1bd 28f1 45bd
000000d0: 056f e1bd af20 a4bd b86a e4bc 1510 84bd
000000e0: 96f3 68bd ba16 80bd 2c82 14be 7f89 01be
000000f0: 85b1 8bbd 6104 01be 7e9d d4bd 0654 16bd
00000100: 7669 a5bd 6de3 80bd fcb4 a6bd d2c3 11be
00000110: da26 febd 7362 70bd 1727 debd 7fd3 a3bd
00000120: 0eef 63bd c9e1 c0bd 55fc aebd 5310 a6bd
00000130: b96d 1fbe ce73 06be a1fc 6cbd 7d4d d1bd
00000140: b8d1 a9bd 0f84 3fbd 7679 a1bd 54ad 58bd
00000150: ab15 92bd 4e0b 36be 98fc ffbd 74b2 71bd
00000160: d5ca ffbd 58f9 8dbd 37a2 2abd c6e4 cabd
00000170: 96e0 63bd 54cd c1bd 09bd 1ebe a9ef a7bd
00000180: 2e61 31bd 2512 babd 7665 29bd 61c1 34bd
00000190: ca39 a4bd bb43 9ebd ad44 bbbd 73ee 34be
000001a0: 58ae 0abe 74fd afbd e5ac 1abe 7b0b c2bd
000001b0: 56eb 15bd d1b1 8fbd 5063 40bd d6cf b1bd
000001c0: 9c1a 45be 5652 0bbe a2b1 95bd df8d 12be
000001d0: cd0e e9bd 7790 29bc d8f4 44bd 8d55 41bd
000001e0: e7a9 7cbd 10c1 11be f8b1 febd e592 5cbd
000001f0: c1da d8bd 8499 9dbd d8d9 c6bc 2ab5 1fbd
00000200: bc8c f1bc 6212 dfbd 472c 2dbe acbe b4bd
00000210: 3984 f0bd aa65 21be 476c a0bd 3cc0 253d
00000220: d5fa 613d ee10 863d 4ea6 903d 88b1 273e
00000230: b894 0f3e 5bf5 8a3d edfe 1b3e 7e14 0c3e
00000240: 0af5 c2bc 9cd8 dcbc b889 dfbc 873c 90bd
00000250: 7f40 ebbd 5236 a6bd d168 87bd 0698 afbd
00000260: e531 6cbd 5427 0e3d 5689 8a3d 5d88 7b3d
00000270: 2816 8a3d fe08 4a3e e81a 263e f1a5 623d
00000280: 010f 243e 9078 f53d c679 06bb a0f9 92bd
00000290: d983 cdbd 36e2 d2bd ad21 2cbe 3755 dfbd
000002a0: c5b4 01be cccc efbd 54bc c1bc ed38 253d
000002b0: 34c6 ac3d cc58 903d 1645 983d 3b35 403e
000002c0: 91b7 1f3e cd5f 833d 0118 123e db92 ef3d
000002d0: 61c7 133d 36c0 753d 0f56 493d 44f1 943d
000002e0: 8540 353e 8c05 0c3e b051 8f3d 763a 1a3e
000002f0: a219 fc3d 0e30 f0bc e968 91bd 5f13 6abd
00000300: 7d1d 8fbd 6eb0 00be 182c dfbd 0ffd 70bd
00000310: f515 e0bd d4af b6bd cac6 3cbc cbfe 58bd
00000320: bd48 1dbe 3e9b 203d f67e 6ebd 6967 8abe
00000330: 9082 173d 6bcc 673d bc8d b6bd d40c 1c3d
00000340: fd35 f43d 8aed cd3d 8e55 cd3d 67bd 6d3e
00000350: 45e9 2e3e 7aa2 d03d 9f31 3b3e c097 d63d
00000360: 5d8d e4bd 3aef 9cbd e866 7cbb d613 bcbd
00000370: ba56 dabd 4efd c6bd 4da7 41bc dd6a dabd
00000380: b442 ecbd 6a83 68bd f2d6 81bd ffae f13d
00000390: 43ea cdbd 84ac 05be 58e9 583e d77a 96bd
000003a0: 6e32 d0bd 8533 043e 5688 a3bd de38 f4bd
000003b0: 7dab 50bc 686d f8bd 645b 75be b524 02be
000003c0: e8d5 0bbd 91b7 0cbe e0ac 05be d0c7 40bd
000003d0: b2b2 c2bd 2bff afbd e0ac 97bd 0b13 11be
000003e0: b64d f9bd be27 62bd 315c f2bd 137c c0bd
000003f0: 0a64 30bd 62c4 94bd e8b7 82bd dfb8 b0bd
0.04322114 0.071342625 0.08219788 0.08878671 0.17287134 0.15786612 0.07000961 0.116371185
0.11961929 -0.046001423 -0.0770406 -0.058920003 -0.08133103 -0.14483324 -0.11744104 -0.061576847
-0.1214571 -0.089308545 -0.050673313 -0.0725542 -0.05079247 -0.11878303 -0.2088419 -0.10033281
-0.076570295 -0.13857205 -0.054284994 0.05605314 0.0997648 0.07991625 0.099653155 0.18904123
0.14541262 0.0737176 0.14469633 0.10672759 -0.029560084 -0.06408225 -0.05815487 -0.069642715
-0.20694251 -0.18977885 -0.050332263 -0.1766078 -0.16528447 -0.03262401 -0.06675064 -0.024380405
-0.06382836 -0.15204893 -0.0947252 -0.048325688 -0.110075034 -0.080140464 -0.027882919 -0.0644838
-0.056872927 -0.06254335 -0.14502782 -0.12650107 -0.068209685 -0.12599327 -0.10381602 -0.036701225
-0.08076756 -0.06293378 -0.08139989 -0.14234856 -0.12409754 -0.05868764 -0.108472995 -0.07999324
-0.055647902 -0.09418065 -0.08544222 -0.08108582 -0.155692 -0.13130113 -0.057858113 -0.10219858
-0.08291954 -0.0467568 -0.07884495 -0.052899674 -0.07133039 -0.1777775 -0.1249935 -0.059008077
-0.12489859 -0.06932324 -0.041658606 -0.09906916 -0.055634104 -0.09462991 -0.15501799 -0.082000084
-0.04330557 -0.09085492 -0.041356526 -0.044129733 -0.08018835 -0.07727762 -0.09143958 -0.17669086
-0.1354307 -0.08593264 -0.15105017 -0.09474846 -0.036601387 -0.07016338 -0.04696971 -0.0868222
-0.19248432 -0.13605627 -0.073092714 -0.14311932 -0.11379776 -0.0103493845 -0.048085064 -0.04720073
-0.06168547 -0.14233804 -0.124362886 -0.053851027 -0.10588599 -0.076952964 -0.024273798 -0.03899113
-0.029486053 -0.10892178 -0.16911422 -0.0882543 -0.117439695 -0.15761438 -0.07833152 0.040466532
0.055170853 0.06546198 0.0706297 0.16376317 0.14021575 0.06785079 0.15233965 0.13679692
-0.023798484 -0.026958756 -0.02728735 -0.07042795 -0.11486911 -0.081158295 -0.06611789 -0.08573918
-0.05766477 0.034705475 0.06764476 0.061409343 0.06742507 0.19729993 0.16221201 0.055334035
0.16021349 0.11985886 -0.002051936 -0.071765184 -0.100349136 -0.102970526 -0.16809721 -0.10904925
-0.12666614 -0.11708984 -0.023649372 0.04033749 0.08436242 0.07048187 0.07435052 0.18770306
0.15597369 0.06414757 0.1426697 0.11697932 0.036078814 0.05999776 0.049154337 0.0727258
0.17700393 0.13673991 0.069980025 0.15061364 0.123095766 -0.02931979 -0.07100088 -0.05714738
-0.06988046 -0.12567303 -0.10897082 -0.058835085 -0.10941688 -0.08920255 -0.011522004 -0.052977365
-0.15359779 0.03921055 -0.058226548 -0.2703202 0.03698975 0.056591433 -0.089137524 0.03809817
0.1192436 0.100550726 0.10026084 0.23216783 0.17081173 0.1018724 0.18280648 0.10478163
-0.111597754 -0.07662816 -0.0038513485 -0.09183471 -0.10661073 -0.09716283 -0.011819673 -0.10664914
-0.1153616 -0.05676595 -0.06339826 0.11800956 -0.100544475 -0.1305409 0.21182764 -0.073476486
-0.10165869 0.12910278 -0.079849884 -0.11924909 -0.0127361985 -0.121302426 -0.23960644 -0.12709315
-0.034139544 -0.137419 -0.13054228 -0.047065556 -0.0950674 -0.08593591 -0.0740602 -0.1416742
-0.12173025 -0.055213682 -0.1183399 -0.09398665 -0.043064155 -0.072640195 -0.063827336 -0.08629011

weight f4 [192]
00000000: 5308 4f3e dd8c 153e c32a 863e 77f7 353e
00000010: bdb2 573e 6a4b 7f3e acd1 503e 4e63 9b3e
00000020: 8089 433e 4270 833e 48b3 233e d758 963e
00000030: 69db 393e d264 763e 18a1 663e 1e4b 6d3e
00000040: 81ce 793e 3f28 4b3e 4f4c d63e 7a0f 3a3e
00000050: 9888 323e faf4 6b3e 1da9 593e 5603 713e
00000060: 0c8a b53e 27dc 803e 0eda 8f3e f93b 223e
00000070: 6ac2 2a3e 91ee 393e 30b7 4c3e c6af a13e
00000080: e88a 4c3e eb4f 703e 7ca2 273e 8afc 7d3e
00000090: a932 2a3e 155b 7c3e fe9b 293e 8f8c 813e
000000a0: 88c4 693e 00bd 8d3e 1b69 3d3e 1c21 833e
000000b0: 29e8 793e c801 8e3e f9d8 423e 84ef 833e
000000c0: 8622 5c3e 37a7 4e3e 6619 f03d 12e0 8f3e
000000d0: 3358 4f3e eb11 e63d b746 543e fe7b 863e
000000e0: 9ac0 803e cd5d 2b3e 29c7 633e 13fa 8a3e
000000f0: df1c 593e c93f 9e3e c189 173e bfad 353e
00000100: a0a0 783e c779 523e f972 773e 48b2 5d3e
00000110: c324 463e 4ae2 e03d da04 513e 128e 4f3e
00000120: c5d0 923e 5a55 513e ca19 703e 6985 6f3e
00000130: 7e4c 853e 8a7d 283e 0898 773e fab9 483e
00000140: 496a 763e cfcd 5f3e ca57 863e 91a2 6c3e
00000150: 2393 193e 260d 873e 3c9e 713e 96f7 6d3e
00000160: e1ed 313e 5b30 803e ac6e 0f3e 3ae1 6c3e
00000170: fe99 443e 0918 233e ce62 0e3e 0878 833e
00000180: 0865 403e 73ad 0c3e b8f5 5d3e 5422 823e
00000190: faed 703e ce12 7c3e 383a 3e3e 1122 4f3e
000001a0: d9e0 623e 34d2 623e 0cc8 a13e a1b0 5c3e
000001b0: b09d 453e be50 b73e 191b 643e 2866 4a3e
000001c0: 2eac 2d3e 2377 7b3e 7d68 233e d5f8 943e
000001d0: ccf6 533e 4c5c 2d3e c7ad 953e 3894 1c3e
000001e0: ed93 4a3e fea3 393e 165b 893e 9bba 383e
000001f0: 0716 a93e 1f92 3b3e c9b1 4f3e 6dc4 7d3e
00000200: 7622 933e c6a2 833e 35ee 743e 07ae 3c3e
00000210: c1c4 383e a0e8 5c3e f00a 503e 0f96 853e
00000220: a0d0 083e 5ae7 3f3e dca6 8a3e 8f4b 3c3e
00000230: ab6f 6b3e 514c 483e de60 433e cff1 363e
00000240: 58ce 443e fb7c 723e 4275 733e ed2f 563e
00000250: 516a 3b3e 1cc0 8c3e 4bd6 8a3e 1b2c 5b3e
00000260: 2394 7b3e 84c9 523e 9951 5c3e dcd4 6d3e
00000270: 1a1c 623e 9aee 713e e0db 5d3e b85d 483e
00000280: 3136 4d3e eac7 7f3e c329 fd3d 5013 313e
00000290: ad31 813e 197e 9b3e 224b 6a3e d36d 923e
000002a0: 2778 423e e545 2c3e 559c 693e 9158 ad3e
000002b0: c0f8 133e 87dc 333e 54b3 473e 5ccb 3d3e
000002c0: 8be6 e63d 0a45 583e 1f74 703e 15b0 613e
000002d0: 0f02 7c3e 2827 133e ce5c 773e b99b 183e
000002e0: 63b0 493e 8b79 8c3e ff6f 6b3e 7f7b 633e
000002f0: 9928 6e3e 1dc2 583e 7163 6e3e 3b4b 583e
0.20218019 0.14604516 0.262045 0.17770182 0.21064277 0.24931112 0.20392483 0.303492
0.19095421 0.25671583 0.15986359 0.29364654 0.18150105 0.24061897 0.2252239 0.23173186
0.24395181 0.19839571 0.41855094 0.18169966 0.17434919 0.2304267 0.21255918 0.23536429
0.35456884 0.25167963 0.2809605 0.1584319 0.16675726 0.18157412 0.19991755 0.31579417
0.19974864 0.23467986 0.16370577 0.24803367 0.16620888 0.2464412 0.16563413 0.2530255
0.22828877 0.27683258 0.18497126 0.25611198 0.24404968 0.27735734 0.19028081 0.25768673
0.21497545 0.20180975 0.11723594 0.2810064 0.20248489 0.11233886 0.207301 0.26266474
0.25146943 0.16735001 0.22243942 0.27143916 0.2120242 0.3090804 0.14798643 0.1774206
0.24280024 0.20554267 0.24164952 0.2165004 0.19349961 0.10980661 0.20412007 0.2026904
0.28674904 0.20442715 0.23447338 0.23390736 0.2603492 0.1645414 0.24179089 0.19602194
0.24063982 0.21855853 0.26238853 0.23108889 0.14997534 0.2637722 0.23595518 0.23238978
0.173759 0.25036892 0.14007062 0.23132792 0.19199368 0.15927137 0.13904878 0.25677514
0.1878854 0.1373804 0.21675766 0.25416815 0.23528281 0.24616548 0.18576896 0.20227839
0.22156085 0.22150499 0.31597936 0.21551754 0.19298434 0.3580379 0.22275962 0.19765532
0.16960213 0.24557166 0.15957828 0.29096094 0.20699614 0.1692974 0.29234144 0.15290916
0.19782992 0.18128964 0.26827306 0.18039934 0.33024618 0.1831746 0.20282663 0.24781962
0.2873723 0.25710124 0.23918994 0.18425761 0.18043806 0.21573114 0.20316672 0.26091048
0.13360834 0.18740597 0.2708043 0.18388198 0.22991817 0.19560362 0.1907992 0.1786568
0.19219339 0.23680489 0.23775199 0.2091672 0.18302275 0.27490318 0.27116618 0.21403544
0.24568228 0.20584685 0.21515502 0.2322573 0.22081032 0.23626176 0.21665907 0.19567001
0.20040204 0.24978605 0.12361481 0.17292523 0.25233212 0.30369642 0.22880223 0.28599414
0.18991147 0.16823538 0.22813542 0.33856633 0.1445036 0.17564593 0.19502002 0.18534607
0.11274441 0.21120086 0.23481797 0.22039826 0.2461016 0.14370406 0.24156496 0.14903153
0.19696192 0.2743648 0.22991942 0.22215079 0.23257674 0.21167798 0.23280121 0.21122448

bias f4 [192]
00000000: 86b6 4f3e 742b 023f 051a 9c3e e3a6 323e
00000010: cfd2 1d3f e287 7c3c aa64 fe3e 4959 c33d
00000020: f5f1 053f 6ae2 0e3e 81e1 ab3e 0bcf 973e
00000030: 339d 8d3e 5555 a53d 9e5f 533e d357 2d3e
00000040: 9433 173d 2374 013e 7924 a1bd 6462 c73e
00000050: f680 093e f44f e63d 8ea8 423e e67e 423e
00000060: 2648 393d 17c8 7fbd c4c2 bf3e 8f5b 1b3f
00000070: 0785 303f fc4d 693e ab52 783e ce67 b53e
00000080: be2d 213e e6bc 603e 16c6 233e efb8 2d3f
00000090: 374a 1f3f 0b1c 2a3e 3594 f93e 8959 093f
000000a0: 5595 f53c 1de4 cebc 21a6 973d 9aea a43e
000000b0: f346 4e3e 2509 d0bc 5f30 473e 08f2 563e
000000c0: 4897 853e d010 0b3f 7b94 2e3e 3d27 8e3e
000000d0: 553a be3e 1582 123f b7c4 de3d 1b14 593d
000000e0: a001 103e 89ff 263e 4615 0a3f 5684 183e
000000f0: 6b72 ac3e 11e6 3c3c 6ccd a23e a4c6 153e
00000100: 39da c53e d25c 3d3e 5e9b 953e bf41 e33d
00000110: 4902 2a3e d26e 9c3e cf30 5c3e 9e6b 1d3e
00000120: 9e78 4f3e 5132 0c3f ab82 863e 02d4 823e
00000130: 7fb5 7bbd f409 113f 035a d93e 573f 7c3e
00000140: f8d3 bc3e 5618 833e 366c 763e 3719 b13d
00000150: 43db 9a3e f9a2 85bd f0e4 2d3e c799 8f3e
00000160: 7885 0b3f b67c 4d3e 8163 cc3e 81a3 9f3e
00000170: 284a 2a3e 0105 1a3e ab4d 193f 7566 8f3c
00000180: 61b6 443e 7c23 883e af09 f73d 027c 973e
00000190: 00d1 4b3e f1d3 133f bb97 e43d 685a 953e
000001a0: 851a 193e 896e 363e 664d aa3d b61b 043f
000001b0: ad0f 0b3e ace1 d93d 9b72 db3d f0d9 073f
000001c0: dc11 293f 4e73 323e d197 5a3e 2380 513d
000001d0: e289 443e f3f8 053e 3405 be3c dd54 063e
000001e0: 4848 9f3e 00dd 663e 5539 0b3e 26d2 873e
000001f0: e287 143d ae1a 053f 5834 8e3e 447a 803e
00000200: e23b 5f3d bcaa 483e 87ac 713e ce49 a23d
00000210: 412b 3a3e d090 443e 0a37 4a3e 6a7d c33e
00000220: be04 5e3e 05c6 6e3e 11d0 c93e 059d b63c
00000230: 9324 bf3d 77d6 66bc 916b 703c 2f9f 133e
00000240: e721 333e fb1a b13e d116 9b3e e33e 5e3e
00000250: 5e7a 383e 1535 fc3d cf40 733e d10c 793e
00000260: 3d50 693e fb6a 2b3e 2471 d03e 5cb3 683e
00000270: e096 f83e 58a0 703e 2da5 ff3d 4fdc 213f
00000280: a33a b33e 54cb 123e 3985 c33d f5c7 233e
00000290: 53ab 573e 41ec 493e f368 f63d 7396 bf3d
000002a0: 2649 c23e 9239 693e b6ac 393e 3e29 423c
000002b0: 2909 513d f3bf 613e ab8a 633d 1cf1 273e
000002c0: 976f 103e a596 993e 34c9 4c3e 5520 0b3f
000002d0: 8308 273e ec29 e33d 79dc c43d b32f 143e
000002e0: 88bd af3d af3c b3bc f250 793e c0d6 31bc
000002f0: 1453 f53d 5a2d ad3e 3619 323f 4790 c53d
0.20284471 0.50847554 0.304886 0.17446475 0.61649793 0.015413256 0.49686176 0.09538514
0.5232232 0.13953558 0.33570483 0.2965015 0.27658996 0.080729164 0.20641944 0.16928034
0.036914423 0.12641959 -0.07868285 0.38942254 0.13428101 0.112457186 0.19009611 0.1899372
0.04523482 -0.06244668 0.37453282 0.6068658 0.68952984 0.22783655 0.24250285 0.3543076
0.15740106 0.21947059 0.15993533 0.6786031 0.6222262 0.1661226 0.48745885 0.53652245
0.029978434 -0.025255257 0.074047334 0.32210237 0.20144252 -0.025394985 0.19452046 0.20990765
0.2609198 0.5432253 0.17048828 0.2776431 0.3715388 0.5722974 0.10877364 0.05299769
0.1406312 0.16308416 0.5393871 0.14894232 0.33681044 0.0115294615 0.3179735 0.14626557
0.38643053 0.1849244 0.29220098 0.110965244 0.16602434 0.305533 0.21502994 0.15373084
0.20260856 0.54764277 0.26271567 0.25552374 -0.061452385 0.5665581 0.42451486 0.24633537
0.3688047 0.25604504 0.24064717 0.086473875 0.30245408 -0.06525225 0.16981864 0.2804701
0.5450053 0.20067105 0.39919665 0.3117943 0.16629851 0.15040971 0.59884137 0.01750491
0.19210197 0.26589572 0.12062394 0.29586798 0.19903946 0.5774527 0.11161753 0.29170537
0.14951523 0.17815603 0.08315544 0.51604784 0.13580199 0.106387466 0.10715219 0.5306692
0.66042876 0.17426798 0.21346976 0.05114759 0.19193223 0.13083248 0.02319584 0.1311831
0.31109834 0.22545242 0.13596089 0.26527518 0.0362624 0.51993835 0.2777431 0.2509328
0.054500468 0.1959638 0.2360097 0.079242334 0.18180563 0.19195867 0.19747558 0.3818162
0.21681497 0.23317726 0.39416555 0.02229167 0.09333148 -0.014089218 0.014674083 0.14416192
0.17493401 0.34590897 0.30290845 0.21703677 0.1801543 0.12314812 0.23755191 0.24321295
0.22784515 0.16740029 0.4071132 0.2272467 0.48552608 0.23498666 0.12482677 0.6322679
0.35005674 0.14335376 0.095468946 0.15994246 0.21061449 0.1971903 0.12031736 0.09354868
0.37946433 0.22775868 0.1813229 0.011850653 0.051034126 0.22045879 0.055552166 0.1640057
0.14105068 0.29997745 0.19998628 0.5434621 0.1631184 0.1109198 0.09612364 0.14471321
0.08581072 -0.021879522 0.24347284 -0.010854423 0.119787365 0.33823663 0.6956972 0.09646659

running_mean f4 [192]
00000000: 6ed4 873d 9cb9 b3bd 8768 59be a910 6f3d
00000010: 9ab6 84be 901f 02be 2c6b 3ebd 9c1d 84bd
00000020: 8738 92bd c16f 1cbe a049 9abd 3b34 a0bd
00000030: bfde 43be 386f d7bd 15b4 2fbe 5880 2c3d
00000040: a8b8 74bd 2f26 113d 769f 5cbe a19c 353e
00000050: 1520 243d ee69 a6bd 075b 06be b8ee 833d
00000060: 62cc 81bd 4ed3 02bc a3c7 3ebe d38c 83bd
00000070: 0cce 4cbd d501 983d fbe8 8dbd b4c3 093e
00000080: ef7f 313d c371 1a3d b1a8 2d3d ac09 843d
00000090: ac85 11bd 1714 2e3d 0253 53bd 8de2 abbe
000000a0: f14a 12be 1e73 a63c ee26 2f3c 53e1 043e
000000b0: 54a2 973d 22f1 823b 03f5 183d 5d78 d03d
000000c0: a7f9 a43d 62f7 44be 5943 8e3d c45c c6bd
000000d0: a5ed 043d 4e1a 26bc c2ed 76bd 3ce6 80bd
000000e0: eae5 d6bd f9a0 593d 4623 e6bd 3f29 b2bd
000000f0: 027d f13d 9b50 cb3c f188 dcbc 4d2a 0e3d
00000100: 9e22 fbbd 074b 683d d0d7 bdbd e7c6 8d3c
00000110: 16de 5b3d 7080 f1bc 24a7 753d 9f10 9b3d
00000120: a8b2 a93d 26eb d8bd 97d7 693d 3a54 33be
00000130: 078a dcbb 18d8 db3b 426b c1bc 27f3 7f3d
00000140: 3d16 07be 4193 a43d 08e9 5d3d 55c5 b13c
00000150: 40a0 063e 3691 d1bb b3e0 9abd 8001 973d
00000160: cd4b 55bd 7f28 983d 1627 e4bc 2d5e 84bd
00000170: 7959 c33d cdb4 223d 99d1 a63c ad85 9b3b
00000180: f995 133d 86d2 2b3e 071f e03c e7f3 133e
00000190: 7f48 973d 1b4a 813e 15ec c33c 88c4 a0bd
000001a0: 14a6 a13c e698 913d f2e2 65bd c34f 35be
000001b0: 71e4 2e3d 549a 5ebd 4416 2abe 6f01 6cbe
000001c0: 06b8 c2bd 802f 2cbe c9e5 873d 9816 aabd
000001d0: 9467 97bd d8a4 fb3c e841 c0bd 749b e83c
000001e0: e900 09bd 85b2 243d d10e febd 0573 83bd
000001f0: 304a 81bd b6bd a9bd 7524 83be 462b fdbd
00000200: 7c2b 08be 08ba 2c3d f538 8b3d 4d7b 873b
00000210: 7ab8 3d3d ce73 e4bd 9163 623d f67c 633d
00000220: 7588 263e 1876 32bd a92f 113e 6c3b b33b
00000230: 49b4 00be 8343 ffbb 4570 ca3a 43d0 0a3d
00000240: 7323 133d d6db 4ebe 7d11 153e 592f 9c3d
00000250: 37cd 373d 02db 193d 0bde a23c 8420 8b3d
00000260: b846 3dbd 163b d13c ba15 e6bc db26 44bd
00000270: c7aa 383c dd16 e93d d264 20be f08d a4bd
00000280: 2ed8 7abd 15ce a83d 5cea 333c 15e5 353d
00000290: 6dab 803d 54a5 843d cd12 b53c e251 86be
000002a0: 25f0 90bd 38a2 b4bd 14e6 0abe 70d4 45be
000002b0: f987 6a3b 6f15 83bd 3a06 31be ac43 083d
000002c0: e460 4e3d 34cd d33d 42a7 9e3d ff74 4cbe
000002d0: e52f 83bd a20a 4f3d ec2a 94bd af92 ff3c
000002e0: d86a 22be 1c80 17be b42d 813d 4cf3 12bc
000002f0: f14e a9bd 16f6 c63d 6a1e c8bd 76e5 f73b
0.066323146 -0.087756366 -0.2123128 0.058365498 -0.25920564 -0.12707353 -0.046488926 -0.0645096
-0.07139688 -0.15277006 -0.07533574 -0.07822462 -0.1912794 -0.1051926 -0.1715854 0.042114586
-0.059746414 0.035436805 -0.21545205 0.1773553 0.04006966 -0.08125673 -0.13120662 0.06442016
-0.06337811 -0.007984949 -0.18630843 -0.064233445 -0.05000119 0.074222244 -0.06929203 0.13453561
0.043334898 0.037706148 0.042397205 0.06447157 -0.03552787 0.042499628 -0.051592834 -0.33571282
-0.142864 0.020318564 0.010690434 0.1297658 0.074040085 0.0039960304 0.037343036 0.101792075
0.0805543 -0.19234994 0.06946439 -0.096856624 0.032453198 -0.010138107 -0.060285337 -0.06293914
-0.104930714 0.05313203 -0.112371966 -0.08699273 0.117914215 0.02481871 -0.026920768 0.03470831
-0.12262462 0.056712177 -0.092696786 0.017306758 0.053678595 -0.02948019 0.05997385 0.075715296
0.08286029 -0.10591726 0.057090368 -0.17512599 -0.0067303213 0.00670911 -0.023610715 0.062487748
-0.13192077 0.08035899 0.054177314 0.02170054 0.13147068 -0.0063954843 -0.07562389 0.07373333
-0.052074242 0.07429599 -0.027850669 -0.06463275 0.0953855 0.039723206 0.020363616 0.00474616
0.036031697 0.16779527 0.027358545 0.1444851 0.073868744 0.2525185 0.023916284 -0.07849985
0.019732513 0.07109241 -0.056124635 -0.17706208 0.042698327 -0.054346398 -0.16610056 -0.23047422
-0.09507756 -0.16814995 0.06635625 -0.08305091 -0.07392803 0.030718252 -0.093875706 0.028394438
-0.033448134 0.040209312 -0.1240517 -0.064184226 -0.06312978 -0.082881376 -0.25613752 -0.123617694
-0.13297838 0.0421696 0.06797973 0.0041345716 0.04631851 -0.111549005 0.055270735 0.055539094
0.16262992 -0.043569654 0.14178337 0.00546973 -0.12568773 -0.0077900304 0.0015444836 0.03389002
0.03592248 -0.20201048 0.14557452 0.07626218 0.044873443 0.037562378 0.019881269 0.06793311
-0.04621002 0.02554087 -0.028086532 -0.047888618 0.011271185 0.11381314 -0.1566346 -0.08034885
-0.06124132 0.08242432 0.010981169 0.044407923 0.06282697 0.06476846 0.022103691 -0.26234347
-0.07077054 -0.08820003 -0.1356433 -0.1931932 0.0035786612 -0.064005725 -0.17287531 0.033267662
0.05038537 0.10341874 0.07746746 -0.19966505 -0.064056195 0.05054725 -0.07234749 0.031197874
-0.1586107 -0.14794964 0.06307545 -0.008969139 -0.0826701 0.09714906 -0.09771426 0.0075651957

running_var f4 [192]
00000000: 8931 293c 2695 733b f640 423b 4f49 ae3b
00000010: 0be8 fb3b 9e4e 753b 14ee ad3a d9d9 bf3b
00000020: 912b 853b 0a09 a63b d498 093b 8363 013c
00000030: bdaf 593b 9011 eb3a 95dc 323b d9eb ad3b
00000040: dfab 093b e69d 853b ee43 b23b 28a3 373c
00000050: d59f 6d3b 4fff a23b f265 503a 042a 5f3c
00000060: f697 9a3b 870c 2a3a f3a7 833c 2b23 aa3b
00000070: 8c3e b63a 5d8c 2a3c 9ced bd3b f368 ba3c
00000080: 2b33 a93b e5c3 ce3a f33d 853b 4b78 943b
00000090: 4ce4 223b afe1 e83b 56ce b33a d968 d33b
000000a0: 49ce 9a3b aaff 8c3a 29e9 913a 562f 993c
000000b0: f6f0 0c3c eda6 d13a 88be 533b ec87 533c
000000c0: 39f8 103c fdfb c23b 2b4a 153c 1dad 413c
000000d0: cca6 853b e48d 3f3b d2bb 473b 132e 583b
000000e0: f3b0 d83b 068b e03b b611 cc3b 2217 8e3b
000000f0: e94b cb3b 2431 a03a 2f1e 3d3b 47b6 793b
00000100: 4113 3e3c 8779 703b fd72 993b 8c13 713a
00000110: f759 dc3b 25d0 cf3a 7e41 353b 3ed9 553c
00000120: 8a1e 9c3c ba8b 123c 1826 8d3b d124 c33b
00000130: bf31 e039 a7c8 293b 3f81 633a dfff c93b
00000140: 96d6 763b 2ae3 233c bfe0 193c 7aba 823a
00000150: 42d8 773b ef48 653a 7570 b73b 3d92 263c
00000160: a129 5c3b 319a 9b3c f946 ca3a 565c cf3b
00000170: b07f b93b cba1 703b 4cbf 783b 8632 233a
00000180: 341b 0e3b 4c24 e23c f95d 3a3b eeb2 e93c
00000190: ee88 ce3c bda9 bc3b 585b 143b 6e9d 513b
000001a0: 1917 e13a 60cc 543c d624 943b 8c25 8f3b
000001b0: 7167 873b 8eca b93b 7ca2 643b 81a2 7f3b
000001c0: 3ebf 1c3c c831 a03b 707e b73b f558 ba3b
000001d0: 1186 b73b 40c6 283b 4384 863a 2c5c 0d3b
000001e0: 2251 093b beef f13a aede df3b 8dd9 2d3b
000001f0: e158 a43b 3779 f53b 6afe ef3b 297e c03b
00000200: a1ea 1d3c b3fa e33b e4c7 103c c2a7 0639
00000210: c2b5 073c d963 253b 80c2 933b fd50 e93b
00000220: 116d e43c aa8f 3b3b 8b73 453c dc77 3b3a
00000230: d7a0 083b 23ee c33a 78d8 473a 78d8 8d3b
00000240: df2f 7a3b 3578 503c 1a1d a43c 7a9a 4e3c
00000250: 9886 883b 1165 913a ed80 ad3a d0a2 3b3b
00000260: a4ef c63b 8ebb 993a e3b3 3d3b 6499 223b
00000270: 2d55 1f3b 428b 463c 6e64 6a3b eb3b 353c
00000280: b714 c33b ed9c 213c 5109 393a 73d5 c83b
00000290: 06d1 da3b 28a9 3b3c 62b8 483b 047a 853c
000002a0: 2455 713b c020 2d3b d4dd 9e3b 08f7 ee3a
000002b0: c0a4 2439 b90e 693b 5b05 0a3c 4ef7 053b
000002c0: 04a3 1b3c 535a 083c 5bec 693c 260d 7d3c
000002d0: 20c0 a03b eb31 1e3c f4d6 c33b d99f 0a3b
000002e0: c2c0 ab3b 3572 a83b cd76 473b c76a 873a
000002f0: 032c 253b e288 913b 3ee4 893b 88cd 9839
0.0103267515 0.0037167757 0.002964077 0.0053187977 0.007687574 0.0037430893 0.0013269805 0.005854827
0.0040640314 0.0050669955 0.0020995634 0.007897261 0.003321632 0.0017934311 0.0027292122 0.0053076562
0.0021006984 0.004077661 0.0054402268 0.011208333 0.0036258597 0.004974283 0.00079497613 0.013620857
0.004717822 0.0006486852 0.016071295 0.0051921806 0.0013904138 0.010409442 0.0057961475 0.022755122
0.0051635704 0.0015774934 0.004066223 0.0045309416 0.0024855314 0.0071069817 0.0013718109 0.006451708
0.004724298 0.0010757346 0.0011132109 0.01869933 0.008602371 0.0015995182 0.003230961 0.012910824
0.008848243 0.0059504495 0.009111921 0.011821059 0.0040787216 0.002922886 0.003047694 0.0032986447
0.006612891 0.0068525104 0.0062276972 0.0043362537 0.0062041176 0.0012221676 0.0028857102 0.003810303
0.01160127 0.003669353 0.004682897 0.0009196333 0.006724592 0.0015854879 0.0027657445 0.013052283
0.01905753 0.008944446 0.0043075196 0.0059553166 0.00042761673 0.0025906952 0.0008678622 0.0061645354
0.0037664524 0.010002891 0.009391963 0.0009973787 0.0037818109 0.00087465247 0.0055981227 0.010166702
0.0033594149 0.018994423 0.0015432528 0.006328146 0.0056609735 0.003671753 0.0037955819 0.0006225485
0.0021683695 0.027605198 0.002843736 0.028527703 0.025211778 0.005757539 0.0022637453 0.0031984705
0.0017173021 0.01298818 0.0045209927 0.0043684896 0.004132204 0.0056698984 0.0034886887 0.0039006772
0.00956708 0.004888747 0.0055997893 0.005686874 0.0056006988 0.0025752932 0.0010262806 0.0021569831
0.00209529 0.001845829 0.0068319654 0.0026527375 0.005015478 0.0074912566 0.0073240297 0.0058744145
0.009638459 0.006957376 0.00883672 0.0001284173 0.0082830805 0.0025236516 0.00450927 0.0071202503
0.027884038 0.0028619566 0.012051473 0.00071513443 0.002084782 0.001494829 0.0007623504 0.0043287836
0.0038175506 0.012723972 0.020033408 0.012610072 0.0041664355 0.0011092742 0.0013237275 0.002863098
0.006071048 0.0011728869 0.0028946332 0.0024810666 0.0024312243 0.012118163 0.0035765427 0.011061649
0.005953397 0.009864074 0.0007058578 0.0061289608 0.0066777496 0.011453904 0.003062748 0.016293533
0.003682443 0.0026417226 0.0048482213 0.001823158 0.00015701633 0.0035561754 0.008424128 0.0020441595
0.009499315 0.008322316 0.014277543 0.015445029 0.0049057156 0.009655456 0.005976552 0.0021152406
0.0052414844 0.0051405677 0.00304358 0.0010331505 0.0025203235 0.0044413665 0.004208117 0.00029144832
