experiments/model_repositories/indoor_smart_traffic/object_detection/model_files/block_19.pth (torch, 31993 bytes, 5 tensors)

weight f4 [384, 1, 3, 3]
0.006126203 0.017022483 -0.06310954 0.18380456 0.16383778 -0.32664973 -0.032763127 -0.032242574
-0.1650248 0.067255095 0.3289384 0.12752156 0.032394223 -0.25053832 -0.0042574867 -0.0030247923
-0.061613668 -0.030658513 -0.022464965 0.002445467 -0.02061776 0.03311972 0.23329641 0.09794413
-0.02506218 0.07936735 0.008010214 -0.008982493 -0.012839898 -0.0066135884 -0.087332815 -0.15110725
-0.14734547 -0.06499789 -0.0005231105 -0.05248424 0.024383307 0.06074763 0.042731766 0.0026117952
0.21922515 0.085920624 0.019864902 0.06623609 0.03587742 -0.03736497 -0.031164424 -0.058163237
-0.04335854 -0.10076885 -0.083741724 -0.036797494 -0.08282924 -0.045099564 -0.022321386 -0.29240808
-0.07177225 -0.0858448 0.33039254 0.023948232 -0.018087272 0.14810936 0.04270314 -0.056695808
-0.03002953 -0.049934357 -0.005140896 -0.17544387 -0.07047735 -0.08505446 -0.02998122 -0.062145747
0.0074207555 0.055137288 0.020159552 0.082836956 -0.27800387 -0.05007141 0.006920809 -0.103975065
-0.06910346 0.04347863 0.14098604 0.05518159 -0.004752856 -0.1556178 -0.04547356 -0.04281395
-0.22248486 -0.096473135 0.0047193877 0.029275618 -0.008903056 0.04973543 -0.35711253 -0.014926904
0.03727582 -0.041067548 0.029930698 0.025414927 -0.07382372 -0.13205518 -0.081368275 -0.07116416
-0.062342558 -0.0826001 -0.08324145 0.024878314 -0.022209277 -0.077905886 -0.05769734 -0.06527736
-0.020552127 -0.054073196 -0.027067117 -0.05884275 -0.035685617 -0.0081841145 0.01689058 0.068400145
-0.029517109 -0.11948043 0.17497379 0.013908555 0.075419605 0.12013644 0.04851792 0.20142065
0.0879289 0.10638393 -0.12960583 0.12335176 -0.0052389004 -0.09540118 -0.006742418 0.01673592
-0.029082997 -0.006617131 0.14563805 0.25545478 -0.04078486 -0.022590632 -0.054796986 -0.008496637
0.027026014 0.02711682 0.028204866 -0.0025500804 0.28653085 0.07206187 0.0025608148 -0.0330205
-0.012423486 0.014103327 -0.064437315 0.019890007 -0.08528616 0.40815556 0.008322466 0.0036425751
0.054302145 0.032696515 -0.01350636 -0.056202367 -0.1154702 0.11175708 0.13200092 -0.3414558
0.012971097 0.012330423 -0.09393276 -0.05806617 -0.046013057 0.029371655 -0.18066101 0.075636506
0.2339394 -0.063761376 0.007119365 0.13750851 0.014794391 -0.002312348 0.01628155 0.0014932931
0.23198989 0.04528362 0.0117761325 0.07277673 0.03660777 0.027310474 0.018059276 0.012012942
-0.008269331 0.28506735 0.04900823 0.0003426572 0.053724296 0.019757366 0.06609178 0.0906723
-0.19009529 -0.042299453 0.22001825 0.12662588 0.027929317 -0.042031363 0.056558065 -0.055627644
-0.04409273 -0.06481397 -0.046510413 -0.055312637 -0.060717847 -0.045194633 -0.023575652 -0.05560711
0.034918834 -0.07550114 0.02222392 0.028719928 0.29432693 0.09605776 0.034456164 -0.113539666
-0.011144299 0.0016195325 0.076613955 -0.034494832 0.09769153 0.4178628 0.07704099 -0.034766078
0.09113745 0.008427396 0.018622788 0.24838686 0.04156474 -0.0017454685 -0.0654835 -0.027410705
-0.012077666 -0.029839367 -0.021622282 0.04672307 -0.002766068 0.030612826 0.0006510191 0.2607997
0.052075855 0.027639579 0.04844494 0.032634895 -0.023233067 -0.07821542 -0.029682614 -0.09388319
00000000: 51be c83b bc72 8b3c 933f 81bd 4337 3c3e
00000010: 17c5 273e a23e a7be a132 06bd ca10 04bd
00000020: 43fc 28be 0abd 893d 9d6a a83e 0395 023e
00000030: ceaf 043d 8f46 80be 6382 8bbb 983b 46bb
00000040: 9d5e 7cbd 9027 fbbc 7208 b8bc 2144 203b
00000050: 94e6 a8bc 8ba8 073d 41e5 6e3e ef96 c83d
00000060: 334f cdbc 598b a23d 463d 033c 4e2b 13bc
00000070: 6f5e 52bc cdb6 d8bb 8cdb b2bd dcbb 1abe
00000080: bbe1 16be 9d1d 85bd 5a21 09ba b7f9 56bd
00000090: 80bf c73c 82d2 783d 8107 2f3d a72a 2b3b
000000a0: 8f7c 603e 27f7 af3d b8bb a23c caa6 873d
000000b0: 34f4 123d 030c 19bd 894c ffbc 933c 6ebd
000000c0: b998 31bd e65f cebd c880 abbd f8b8 16bd
000000d0: 60a2 a9bd 52ba 38bd 57db b6bc 83b6 95be
000000e0: 54fd 92bd 66cf afbd 3629 a93e 152f c43c
000000f0: c22b 94bc fba9 173e 7de9 2e3d dd39 68bd
00000100: 7d00 f6bc f887 4cbd f674 a8bb 8fa7 33be
00000110: 6e56 90bd 0831 aebd 2d9b f5bc 8a8c 7ebd
00000120: cf29 f33b a3d7 613d a525 a53c 6ca6 a93d
00000130: 8656 8ebe ae17 4dbd f4c7 e23b e1f0 d4bd
00000140: 1d86 8dbd a616 323d a55e 103e 1706 623d
00000150: d9bd 9bbb 465a 1fbe 7c42 3abd ae5d 2fbd
00000160: 12d3 63be b593 c5bd 18a5 9a3b 6cd3 ef3c
00000170: 20de 11bc 61b7 4b3d 74d7 b6be f98f 74bc
00000180: 88ae 183d 7236 28bd 3931 f53c f732 d03c
00000190: e430 97bd 7939 07be 69a4 a6bd 84be 91bd
000001a0: e95a 7fbd 3e2a a9bd 7e7a aabd 9bcd cb3c
000001b0: 3bf0 b5bc 1f8d 9fbd 0c54 6cbd 23b0 85bd
000001c0: ef5c a8bc db7b 5dbd dcbb ddbc 1805 71bd
000001d0: 152b 12bd aa16 06bc 1d5e 8a3c 6015 8c3d
000001e0: ddcd f1bc 28b2 f4bd 542c 333e b5e0 633c
000001f0: 9875 9a3d 180a f63d baba 463d 3741 4e3e
00000200: 1114 b43d d1df d93d 64b7 04be d99f fc3d
00000210: 15ab abbb b261 c3bd 80ef dcbb c519 893c
00000220: 773f eebc 85d4 d8bb 2422 153e f8ca 823e
00000230: 060e 27bd fd0f b9bc ce72 60bd 7b35 0bbc
00000240: a965 dd3c 1824 de3c e40d e73c 401f 27bb
00000250: 2cb4 923e 2c95 933d 58d3 273b 8140 07bd
00000260: e18b 4bbc a411 673c b6f7 83bd 5ef0 a23c
00000270: 83aa aebd c4f9 d03e f45a 083c 45b8 6e3b
00000280: ed6b 5e3d c8ec 053d c849 5dbc 7434 66bd
00000290: a47b ecbd e5e0 e43d 402b 073e 4bd3 aebe
000002a0: b984 543c 8b05 4a3c d25f c0bd cbd6 6dbd
000002b0: 3078 3cbd d39c f03c 33ff 38be 50e7 9a3d
000002c0: cf8d 6f3e 5395 82bd 9049 e93b 08cf 0c3e
000002d0: 2c64 723c c38a 17bb e360 853c 9aba c33a
000002e0: c28e 6d3e 517b 393d aef0 403c f70b 953d
000002f0: 07f2 153d 37ba df3c 0cf1 933c eed1 443c
00000300: 177c 07bc 59f4 913e dbbc 483d aca6 b339
00000310: 020e 5c3d 33da a13c 215b 873d 66b2 b93d
00000320: 57a8 42be 3142 2dbd 774c 613e 37aa 013e
00000330: 06cc e43c 1429 2cbd 6ea9 673d d0d9 63bd
00000340: 949a 34bd 30bd 84bd b481 3ebd 818f 62bd
00000350: 47b3 78bd 021e 39bd ba21 c1bc 48c4 63bd
00000360: 0d07 0f3d 57a0 9abd f00e b63c 0e46 eb3c
00000370: 05b2 963e eeb9 c43d e821 0d3d 7c87 e8bd
00000380: 9496 36bc 7e46 d43a c7e7 9c3d 744a 0dbd
00000390: 7f12 c83d 1df2 d53e abc7 9d3d e066 0ebd
000003a0: 45a6 ba3d 1013 0a3c d18e 983c 2059 7e3e
000003b0: ca3f 2a3d 34c8 e4ba 371c 86bd 6a8c e0bc
000003c0: 67e1 45bc b071 f4bc 3621 b1bc b160 3f3d
000003d0: ec46 35bb c0c7 fa3c 27a9 2a3a 8a87 853e
000003e0: 7e4d 553d 666c e23c 346e 463d 2bac 053d
000003f0: 4653 bebc 682f a0bd f428 f3bc d445 c0bd

weight f4 [384]
0.18913674 0.25292918 0.15729746 0.18370914 0.2632416 0.19279617 0.23786633 0.20465307
0.13376582 0.23990864 0.22157617 0.18278308 0.15188923 0.2248876 0.17320222 0.20889193
0.19796827 0.183514 0.16916443 0.14556065 0.19060056 0.15135257 0.21234256 0.2021441
0.24883147 0.44295514 0.21281542 0.19389907 0.2690904 0.14726432 0.22999132 0.25305408
0.15573093 0.2199512 0.19204223 0.22573392 0.18840538 0.20785855 0.20993446 0.2039512
0.1981617 0.16298516 0.3179232 0.12478156 0.16862388 0.2254849 0.18305174 0.21819142
0.22549026 0.13948132 0.20834813 0.23764199 0.147345 0.25068882 0.20475198 0.20265722
0.27624518 0.24475303 0.23625393 0.23965214 0.24791048 0.15803845 0.170326 0.13139795
0.22842048 0.22375825 0.22957993 0.23206931 0.19096804 0.22724468 0.1415545 0.1951662
0.24355859 0.25201017 0.17975527 0.19838482 0.18218635 0.19872636 0.1744094 0.20683396
0.19981939 0.26728216 0.2087736 0.20762119 0.15465875 0.1488671 0.23492911 0.29510722
0.22234401 0.23998366 0.22236119 0.19120006 0.18081397 0.20937103 0.21189594 0.18457802
0.1405491 0.1767264 0.20968322 0.14417236 0.22696611 0.24857171 0.17688179 0.25665984
0.13805759 0.2631812 0.17907296 0.27851284 0.1788424 0.2473633 0.17041555 0.1937247
0.40798444 0.11409752 0.41619945 0.3184416 0.17006484 0.15236546 0.29058263 0.13761427
0.20057446 0.18909204 0.28943014 0.22223352 0.21240695 0.20707937 0.1417103 0.1560642
0.20322292 0.17410192 0.18299319 0.16674323 0.18749855 0.16105972 0.19753224 0.19577824
0.11878269 0.1548186 0.16156474 0.23547347 0.17216751 0.20638166 0.14471108 0.29187196
0.17868493 0.10284864 0.22557957 0.15877888 0.189545 0.23485664 0.19496801 0.16176149
0.1757868 0.22285628 0.20172647 0.19927403 0.25333816 0.32634187 0.13877697 0.19944231
0.16936377 0.2082212 0.17359973 0.20047161 0.33643264 0.31662926 0.1899031 0.2415967
0.27737078 0.2447364 0.21536402 0.22923903 0.2128942 0.20927022 0.19322872 0.13471958
0.1982122 0.24460712 0.19412081 0.21367301 0.19415663 0.14218947 0.25081274 0.40446812
0.27247205 0.24021415 0.1656234 0.14338335 0.16616265 0.1617067 0.19391185 0.2202532
0.13418163 0.22358876 0.16355032 0.19009341 0.14512391 0.18057086 0.25702468 0.18393931
0.17978558 0.2093931 0.10131386 0.22424811 0.18498668 0.20935905 0.18927535 0.22958161
0.29574338 0.18161637 0.20080353 0.23260726 0.14432281 0.16945577 0.19619414 0.21523498
0.13130048 0.17043552 0.20961264 0.20231938 0.20611626 0.19592223 0.29658252 0.12909383
0.2988384 0.15378459 0.17102091 0.16273054 0.16409224 0.2058548 0.16410993 0.19690399
0.19785437 0.14563009 0.27866533 0.22814111 0.23852663 0.43996292 0.30663973 0.20038213
0.19334218 0.23560126 0.1659421 0.1141469 0.18356444 0.23095484 0.17316028 0.25175267
0.15191361 0.19339679 0.3428257 0.28045774 0.20794697 0.20106775 0.15575962 0.24732088
00000000: 10ad 413e ef7f 813e 9612 213e 401e 3c3e
00000010: 9ac7 863e 5c6c 453e 3b93 733e 9390 513e
00000020: e8f9 083e 9caa 753e dde4 623e 7d2b 3b3e
00000030: da88 1b3e ef48 663e ec5b 313e c4e7 553e
00000040: 32b8 4a3e 18eb 3b3e 7139 2d3e da0d 153e
00000050: cb2c 433e 2bfc 1a3e 5470 593e ddfe 4e3e
00000060: adcd 7e3e 04cb e23e 49ec 593e 7a8d 463e
00000070: 38c6 893e 75cc 163e d882 6b3e 4e90 813e
00000080: ee77 1f3e e33a 613e b8a6 443e cb26 673e
00000090: 57ed 403e dfd8 543e 0ff9 563e 95d8 503e
000000a0: e7ea 4a3e 95e5 263e d4c6 a23e 798d ff3d
000000b0: bdab 2c3e 83e5 663e ea71 3b3e 926d 5f3e
000000c0: ebe6 663e 31d4 0e3e 3659 553e 6c58 733e
000000d0: 9ce1 163e 495a 803e 81aa 513e 6085 4f3e
000000e0: 0270 8d3e 8aa0 7a3e 8dec 713e 5f67 753e
000000f0: 3fdc 7d3e d5d4 213e f069 2e3e 2f8d 063e
00000100: 0fe7 693e e220 653e 0017 6b3e 94a3 6d3e
00000110: 208d 433e d4b2 683e aaf3 103e a6d9 473e
00000120: 6c67 793e 7a07 813e c411 383e 6425 4b3e
00000130: 0f8f 3a3e ec7e 4b3e 6198 323e 48cc 533e
00000140: 749d 4c3e 35d9 883e bfc8 553e a69a 543e
00000150: dd5e 1e3e 9e70 183e 4291 703e 4b18 973e
00000160: 26ae 633e 47be 753e a7b2 633e f3c9 433e
00000170: 4c27 393e 5c65 563e 40fb 583e 0502 3d3e
00000180: 1aec 0f3e c4f7 343e 33b7 563e eba1 133e
00000190: ce69 683e 9589 7e3e 8020 353e eb68 833e
000001a0: f85e 0d3e b0bf 863e e75e 373e 3c99 8e3e
000001b0: 7622 373e ce4c 7d3e 6a81 2e3e c55f 463e
000001c0: 56e3 d03e f6ab e93d 1818 d53e c70a a33e
000001d0: 7a25 2e3e b105 1c3e 3fc7 943e c1ea 0c3e
000001e0: 6463 4d3e 58a1 413e 3030 943e 2f91 633e
000001f0: 3581 593e 9d0c 543e 811c 113e 4bcf 1f3e
00000200: ab19 503e c647 323e 9162 3b3e bdbe 2a3e
00000210: 9fff 3f3e d7ec 243e e445 4a3e 177a 483e
00000220: 5744 f33d c488 1e3e 3a71 253e f51f 713e
00000230: ae4c 303e b755 533e 242f 143e 3e70 953e
00000240: 2ff9 363e 4fa2 d23d 55fe 663e ee96 223e
00000250: 1618 423e 427e 703e b2a5 473e cea4 253e
00000260: 7401 343e 7034 643e 6291 4e3e 7e0e 4c3e
00000270: 8ab5 813e 4816 a73e 8d1b 0e3e 9b3a 4c3e
00000280: b26d 2d3e f037 553e 21c4 313e 6e48 4d3e
00000290: e640 ac3e 3b1d a23e f575 423e 2065 773e
000002a0: 8b03 8e3e 2e9c 7a3e 6388 5c3e a3bd 6a3e
000002b0: f000 5a3e ef4a 563e c0dd 453e eef3 093e
000002c0: 24f8 4a3e 4a7a 7a3e 9bc7 463e 19cd 5a3e
000002d0: ffd0 463e 1e9a 113e 876a 803e 7216 cf3e
000002e0: 7581 8b3e b3fa 753e 2e99 293e 16d3 123e
000002f0: 8b26 2a3e 7196 253e d490 463e 0e8a 613e
00000300: e966 093e 74f4 643e bc79 273e d9a7 423e
00000310: 5d9b 143e 91e7 383e bd98 833e 965a 3c3e
00000320: b619 383e 256b 563e a47d cf3d 4ca1 653e
00000330: 266d 3d3e 3862 563e 66d1 413e 7117 6b3e
00000340: ad6b 973e a4f9 393e 719f 4d3e 9930 6e3e
00000350: 5cc9 133e d085 2d3e 1ee7 483e 8f66 5c3e
00000360: a273 063e a686 2e3e b2a4 563e d02c 4f3e
00000370: 2410 533e d69f 483e aad9 973e 2c31 043e
00000380: 5901 993e b579 1d3e 1b20 2f3e d6a2 263e
00000390: cc07 283e 9acb 523e 6f0c 283e 33a1 493e
000003a0: 569a 4a3e 0e20 153e 39ad 8e3e d39d 693e
000003b0: 5340 743e d242 e13e e2ff 9c3e f930 4d3e
000003c0: 7efb 453e 7541 713e baec 293e dac5 e93d
000003d0: 51f8 3b3e 6d7f 6c3e ee50 313e bae5 803e
000003e0: 3e8f 1b3e cf09 463e da86 af3e 2898 8f3e
000003f0: 0df0 543e b4e4 4d3e 737f 1f3e af41 7d3e

bias f4 [384]
0.41576475 0.11995909 0.053428892 0.074580275 -0.05855343 0.07422517 0.13224581 0.0092686005
0.44193497 0.1834243 0.06877616 0.15587977 0.102082394 0.07575381 0.17578553 0.04371802
0.082930595 0.2502839 0.35317534 0.16510665 -0.016165545 0.052780084 -0.05233771 0.02350562
0.029163765 -0.14196172 0.032023568 0.04353276 -0.02600942 0.042067554 -0.007152689 0.17109881
0.058802653 0.33289725 0.04855579 0.11387328 0.10923684 0.46501008 -0.01543416 0.014371764
0.03671384 0.25530303 -0.050303865 0.39097318 0.29142267 0.2747274 0.036468904 0.1752585
0.033142034 0.07676504 0.16930495 0.12046051 0.06253297 -0.015121966 -0.1370776 0.12394101
0.005366304 -0.069525324 0.1253922 0.07777546 -0.08494053 0.17820896 0.2843491 0.17338352
-0.106035374 0.052547537 0.34446445 0.24269418 -0.010998966 0.118373126 0.10184708 0.113729045
0.051533088 0.063386515 0.0900178 0.059146605 -0.03540596 0.0649251 0.44722214 -0.12726244
0.017172761 -0.09376036 -0.047139715 0.11841619 0.06405679 0.07287741 0.1151403 -0.043619655
-0.009316147 -0.003893323 -0.14835449 0.100680016 0.09746283 0.008096388 0.06259794 0.100951806
0.41084456 0.15853561 0.10517226 0.08623022 -0.016719876 -0.046825312 0.108764745 0.14010249
0.08795953 -0.01979793 0.036867023 0.09263558 0.08271185 -0.0200948 0.18840955 0.15132962
-0.20507108 0.40360028 -0.17121896 -0.058743104 0.12485293 0.29530168 -0.042636182 0.37935242
-0.05220582 0.12441562 -0.0053063687 0.03360345 0.43884647 0.18034008 0.3482562 0.3126552
0.030768182 0.23768674 0.25982434 0.07335679 -0.08949468 0.3103511 0.16534415 0.3098938
0.3049407 0.16094907 0.076741174 0.061684452 0.11379545 0.09092748 0.11408342 -0.24112846
0.12325364 0.39730293 0.15602024 0.09476532 0.058501523 0.074600175 0.04772972 0.12760903
0.06711113 -0.015405017 0.022219507 0.055275295 0.034189533 0.019981714 0.2108467 0.12523091
0.11700268 0.1299823 0.134514 0.17251118 -0.10652134 -0.17301375 0.096199915 0.28675678
-0.10639671 0.008362031 0.09709865 0.09278464 0.04981016 0.10470218 0.100057855 0.0483407
0.4630933 0.13567415 0.09134467 -0.009606076 0.04764381 0.37866965 0.01769386 -0.08655288
-0.15684387 0.10916582 0.036060836 0.02143423 0.17564675 0.025492132 0.11114559 0.04107057
0.08470077 -0.0347653 0.082230315 0.1076881 0.237922 0.062091492 -0.033694524 0.16001888
0.051553365 0.12569726 0.32069555 -0.011748963 0.089628 0.08890723 0.3755984 0.20778692
0.039401185 -0.0052111973 0.07591428 -0.028199645 0.08815378 0.0932833 0.07559157 0.031215796
0.45097184 0.07399008 0.04052942 0.056870833 0.43658277 0.12318843 0.017857715 0.30437806
-0.14387932 0.108002335 0.103697285 0.21957773 0.045527905 0.008403717 0.056031708 0.031522192
0.15053263 0.097225174 0.36597598 0.4643843 0.07178287 -0.21521074 0.022891436 0.012175491
0.045307264 0.011026104 0.05674769 0.39297506 0.32510558 0.0396436 0.27211568 0.06326191
0.24147384 0.02576169 -0.07325049 -0.23100682 0.20407468 0.045068428 0.09413189 0.20132959
00000000: 1edf d43e 1dad f53d 41d8 5a3d 8bbd 983d
00000010: b9d5 6fbd 5e03 983d 726b 073e 54db 173c
00000020: 4d45 e23e 94d3 3b3e 84da 8c3d f29e 1f3e
00000030: 9310 d13d d024 9b3d 1f01 343e ab11 333d
00000040: 84d7 a93d 3625 803e 66d3 b43e b811 293e
00000050: 9b6d 84bc ee2f 583d 1160 56bd dc8e c03c
00000060: d9e8 ee3c 6a5e 11be 252b 033d 684f 323d
00000070: b511 d5bc 074f 2c3d 1b61 eabb 8734 2f3e
00000080: 0ddb 703d 8271 aa3e 70e2 463d 6536 e93d
00000090: 90b7 df3d cd15 ee3e 8fdf 7cbc 8c77 6b3c
000000a0: 4061 163d 14b7 823e 6d0b 4ebd a32d c83e
000000b0: 5a35 953e 12a9 8c3e 6b60 153d f776 333e
000000c0: f1bf 073d fd36 9d3d 475e 2d3e 00b4 f63d
000000d0: 4911 803d 1fc2 77bc 125e 0cbe c9d4 fd3d
000000e0: d2d7 af3b 4b63 8ebd d066 003e be48 9f3d
000000f0: 4df5 adbd 697c 363e 3596 913e 738b 313e
00000100: 1329 d9bd 163c 573d a55d b03e d384 783e
00000110: 0235 34bc 9c6d f23d 3495 d03d c6ea e83d
00000120: 5c14 533d cad0 813d 415b b83d b643 723d
00000130: d705 11bd 73f7 843d 4dfa e43e 1651 02be
00000140: e4ad 8c3c 6e05 c0bd 9315 41bd 3084 f23d
00000150: 3530 833d c040 953d adce eb3d 86aa 32bd
00000160: c1a2 18bc 1f27 7fbb 3dea 17be 5331 ce3d
00000170: 989a c73d b6a6 043c 5933 803d d2bf ce3d
00000180: 385a d23e 2957 223e 8e64 d73d 7899 b03d
00000190: 1ff8 88bc e6cb 3fbd 0dc0 de3d 0777 0f3e
000001a0: 2024 b43d 452f a2bc e001 173d b9b7 bd3d
000001b0: d564 a93d da9d a4bc 6fee 403e 27f6 1a3e
000001c0: 27fe 51be b2a4 ce3e 0654 2fbe 9c9c 70bd
000001d0: e5b2 ff3d c831 973e 47a3 2ebd 7b3a c23e
000001e0: c5d5 55bd 9ecd fe3d 0ce1 adbb c5a3 093d
000001f0: 7cb0 e03e 12ab 383e a34e b23e 5814 a03e
00000200: 8e0d fc3c 2764 733e b207 853e 163c 963d
00000210: fd48 b7bd 57e6 9e3e fa4f 293e 66aa 9e3e
00000220: 3021 9c3e d5cf 243e 7a2a 9d3d d6a8 7c3d
00000230: 970d e93d 3038 ba3d 91a4 e93d 61ea 76be
00000240: 686c fc3d 4a6b cb3e c5c3 1f3e 5214 c23d
00000250: 4b9f 6f3d fac7 983d 3d80 433d f1ab 023e
00000260: 8f71 893d 5365 7cbc af05 b63c 5968 623d
00000270: 530a 0c3d b1b0 a33c 33e8 573e 883c 003e
00000280: 1a9f ef3d 141a 053e 0abe 093e c5a6 303e
00000290: dc27 dabd 842a 31be 7604 c53d c9d1 923e
000002a0: 85e6 d9bd e600 093c a8db c63d e005 be3d
000002b0: bd05 4c3d 196e d63d 22eb cc3d e600 463d
000002c0: 911a ed3e 2aee 0a3e ea12 bb3d ce62 1dbc
000002d0: 2826 433d fde0 c13e b7f2 903c a342 b1bd
000002e0: ae9b 20be 5492 df3d 87b4 133d d796 af3c
000002f0: bedc 333e e0d4 d03c 4da0 e33d 9d39 283d
00000300: 9977 ad3d 0f66 0ebd 5e68 a83d 948b dc3d
00000310: d3a1 733e a653 7e3d 4503 0abd fddb 233e
00000320: 9f29 533d c8b6 003e 3532 a43e b97e 40bc
00000330: e38e b73d fe14 b63d 6f4e c03e 18c6 543e
00000340: 2363 213d b1c2 aabb f278 9b3d f102 e7bc
00000350: f889 b43d 510b bf3d c1cf 9a3d 45b8 ff3c
00000360: c8e5 e63e 1c88 973d 2d02 263d 64f1 683d
00000370: c787 df3e 374a fc3d 584a 923c 71d7 9b3e
00000380: 1a55 13be 5430 dd3d 3e5f d43d fcd8 603e
00000390: 787b 3a3d beaf 093c 8181 653d 6a1d 013d
000003a0: 3a25 1a3e fe1d c73d 3461 bb3e c7c3 ed3e
000003b0: e602 933d 3460 5cbe d286 bb3c b67b 473c
000003c0: 1c94 393d d5a6 343c 4470 683d 0734 c93e
000003d0: 3d74 a63e 5461 223d bf52 8b3e 768f 813d
000003e0: eb44 773e 2e0a d33c 5a04 96bd 0d8d 6cbe
000003f0: f4f8 503e ac99 383d 38c8 c03d 5829 4e3e

running_mean f4 [384]
-0.035248756 0.023986759 0.020401765 -0.07891082 0.024605008 -0.047970727 0.010072206 -0.09681671
-0.028480701 -0.08003629 -0.0548817 -0.03823447 -0.023941025 0.006358407 0.018409444 0.007119264
0.018019147 0.046205323 -0.042154673 0.004461558 0.017688356 0.020543696 0.013260522 -0.027195986
0.024670124 0.137658 0.00796779 0.016867584 -0.045060743 0.0074813785 -0.018521693 0.021030845
0.014678415 -0.02889997 0.012927924 -0.11344613 0.030541044 -0.041446157 0.025688877 0.024554156
0.019440897 -0.012753819 -0.007504938 -0.023024263 0.020297807 -0.029742429 0.020091394 -0.08313142
-0.059925422 0.009232023 0.039346304 0.024319632 0.010204984 0.03802381 0.013368633 -0.09057286
0.0017274397 0.043411046 0.04191647 -0.06801838 0.025355525 -0.040222708 -0.063943185 0.014975772
0.027610349 -0.0054434803 0.07604651 0.0053926855 0.016444348 -0.11096216 0.015540828 0.025376555
-0.10930221 -0.090542465 -0.060915798 0.014447211 0.009435459 0.02851985 -0.03387594 0.0011961338
0.024153488 0.038843717 0.009029975 0.013423041 0.01581048 0.011451513 -0.022675272 -0.049804967
0.041268144 0.02567544 0.019856542 0.030606786 0.017154718 0.021113293 0.03284987 -0.18254866
0.0056965286 0.014868682 0.032166377 0.022880146 0.020420926 0.0023423808 -0.03346272 -0.067005366
0.011811164 -0.12302367 -0.0669546 0.058670525 0.051222496 -0.026842605 -0.050507396 0.023885615
-0.13715394 -0.015439683 0.1402769 0.016937317 0.05708196 -0.033100374 -0.098494716 -0.0010823715
0.015078997 -0.114450105 -0.11082807 0.020255039 0.01228174 -0.0019823697 -0.019442324 0.002912191
0.0088150045 -0.05187768 0.047893383 0.03069258 0.010225355 -0.0060233283 -0.050587624 -0.0048547564
-0.008799856 -0.06719467 0.023997342 0.021325132 -0.02661319 -0.03703021 0.021482032 0.028760428
-0.044233322 -3.3784985e-05 0.049377073 0.017528355 0.03570117 0.035984553 -0.062178794 0.011804718
-0.05720186 0.024905156 0.03394687 0.023243142 -0.025373634 -0.1490063 -0.03224446 -0.07495188
0.011439846 -0.07028062 0.02185091 -0.08270506 -0.035826292 0.035341606 0.031114336 0.021322858
0.04453357 -0.061114453 0.034815434 0.055570945 0.02760636 -0.06992939 -0.029853968 0.014688974
-0.051260356 0.031088362 0.022359673 0.009583349 0.019832393 0.026606286 -0.050882418 -0.17597358
0.01965173 0.02627423 0.004485227 0.032889325 0.03127427 0.011557961 0.030768257 0.05728152
-0.027536899 0.030391645 -0.047688182 0.026640227 -0.027371421 -0.06725913 0.026949553 -0.08996818
-0.05071272 -0.011152459 -0.023166101 -0.0016496615 0.023014328 0.010788017 0.008457979 -0.00955082
0.04860141 0.01077829 0.016390808 0.050066326 0.017551882 0.025770739 -0.040658064 -0.07946096
0.007614051 0.008367044 -0.013541663 0.030309664 0.04459915 0.033530068 0.049993083 0.007561729
0.042503398 -0.03896157 0.01938642 -0.025807211 0.0097279595 0.015190612 0.021105206 0.022803582
-0.07303651 0.01630569 -0.064001426 -0.004534119 0.015150506 0.11915257 -0.14529312 0.01762944
0.018939054 0.024761599 0.014942185 0.0048757857 -0.023188474 0.040408984 -0.032323126 0.028777136
-0.05047845 -0.03577585 0.03630879 0.045276694 0.014303289 -0.053158876 -0.043924347 0.050481867
00000000: 0061 10bd e17f c43c 9a21 a73c ff9b a1bd
00000010: 7190 c93c f47c 44bd e505 253c d747 c6bd
00000020: 5c50 e9bc 11ea a3bd a2cb 60bd bf9b 1cbd
00000030: f81f c4bc 2f5a d03b 67cf 963c b748 e93b
00000040: e49c 933c cb41 3d3d 61aa 2cbd 4332 923b
00000050: 2ce7 903c 414b a83c a942 593c 1eca debc
00000060: 0019 ca3c 38f6 0c3e 558b 023c e32d 8a3c
00000070: 9d91 38bd 5a26 f53b ceba 97bc e148 ac3c
00000080: bc7d 703c a1bf ecbc a5cf 533c 7256 e8bd
00000090: 3631 fa3c 72c3 29bd 7b71 d23c cc25 c93c
000000a0: 8442 9f3c 65f5 50bc fceb f5bb 619d bcbc
000000b0: 9647 a63c 65a6 f3bc b596 a43c ce40 aabd
000000c0: 5c74 75bd e941 173c 9729 213d f739 c73c
000000d0: ce32 273c dbbe 1b3d 1c08 5b3c 437e b9bd
000000e0: 426b e23a c8cf 313d 9bb0 2b3d 384d 8bbd
000000f0: 64b6 cf3c 91c0 24bd a5f4 82bd f15c 753c
00000100: 192f e23c 395f b2bb 46be 9b3d 20b5 b03b
00000110: 4cb6 863c 2140 e3bd f59e 7e3c 7ee2 cf3c
00000120: d6d9 dfbd 546e b9bd d882 79bd ffb3 6c3c
00000130: 2f97 1a3c 76a2 e93c 7fc1 0abd 97c7 9c3a
00000140: 89dd c53c 971a 1f3d 76f2 133c 51ec 5b3c
00000150: fb84 813c 209f 3b3c 7ec1 b9bc 4b00 4cbd
00000160: c908 293d 4d55 d23c 30aa a23c 15bb fa3c
00000170: 0d88 8c3c c9f5 ac3c 968d 063d 09ee 3abe
00000180: f2a9 ba3b c69b 733c e4c0 033d 256f bb3c
00000190: c949 a73c a182 193b 3510 09bd 1c3a 89bd
000001a0: 9d83 413c d5f3 fbbd 7e1f 89bd 8150 703d
000001b0: aece 513d 06e5 dbbc d8e0 4ebd c4ab c33c
000001c0: 1572 0cbe b9f6 7cbc bfa4 0f3e 21c0 8a3c
000001d0: c6ce 693d 4294 07bd 99b7 c9bd 5cde 8dba
000001e0: e60d 773c d164 eabd d4f9 e2bd e5ed a53c
000001f0: 5a39 493c a5ea 01bb 8245 9fbc 75da 3e3b
00000200: cf6c 103c b17d 54bd da2b 443d 016f fb3c
00000210: 3f88 273c 575f c5bb f834 4fbd a614 9fbb
00000220: 452d 10bc 5c9d 89bd 1396 c43c 0bb2 ae3c
00000230: e803 dabc fdac 17bd 16fb af3c fd9a eb3c
00000240: 002e 35bd 5ab4 0db8 9d3f 4a3d a097 8f3c
00000250: 643b 123d 8a64 133d 31af 7ebd 9368 413c
00000260: 7f4c 6abd e605 cc3c e00b 0b3d 6768 be3c
00000270: 5edc cfbc 1c95 18be c412 04bd 5f80 99bd
00000280: 316e 3b3c 49ef 8fbd ae00 b33c 4561 a9bd
00000290: 97be 12bd 5cc2 103d 7ee3 fe3c 46ad ae3c
000002a0: d568 363d 2653 7abd a19a 0e3d 5c9e 633d
000002b0: bc26 e23c 2437 8fbd 4f90 f4bc 06aa 703c
000002c0: 61f6 51bd 05ad fe3c a22b b73c 7b03 1d3c
000002d0: 8b77 a23c 6df5 d93c 156a 50bd 6b32 34be
000002e0: aafc a03c 0e3d d73c d0f8 923b f5b6 063d
000002f0: 7319 003d 9a5d 3d3c b60d fc3c 07a0 6a3d
00000300: 1095 e1bc e6f7 f83c af54 43bd 9b3c da3c
00000310: 083a e0bc 28bf 89bd 4fc5 dc3c 3d41 b8bd
00000320: 24b8 4fbd ceb8 36bc d6c6 bdbc 7439 d8ba
00000330: 8b88 bc3c 39c0 303c 5693 0a3c 0b7b 1cbc
00000340: 4612 473d 6d97 303c 0446 863c 5912 4d3d
00000350: f7c8 8f3c 281d d33c 1289 26bd 6ebc a2bd
00000360: 4a7f f93b ed15 093c dadd 5dbc f94b f83c
00000370: 99ad 363d d356 093d 8cc5 4c3d 61c8 f73b
00000380: 0b18 2e3d 2b96 1fbd 45d0 9e3c a569 d3bc
00000390: 0562 1f3c 0be2 783c d3e4 ac3c 94ce ba3c
000003a0: 2a94 95bd 8393 853c 2e13 83bd f292 94bb
000003b0: d439 783c 4306 f43d b8c7 14be 9e6b 903c
000003c0: 1326 9b3c d6d8 ca3c 11d0 743c 0ec5 9f3b
000003d0: c1f5 bdbc e483 253d 4165 04bd 07be eb3c
000003e0: 7ec2 4ebd b389 12bd 87b8 143d 0e74 393d
000003f0: 5858 6a3c 1fbd 59bd 04ea 33bd 13c6 4e3d

running_var f4 [384]
0.0031408693 0.0009257989 0.00050644594 0.0009141678 0.0011371729 0.0011318694 0.0021517577 0.0017624332
0.0012244609 0.0012073794 0.00013826607 0.0012464569 0.00048555853 0.00044620968 0.0008901123 0.00035970134
0.0013035754 0.002101753 0.0028182985 0.00035021687 0.00052570977 0.0011473647 0.000823211 0.0005256196
0.0015604735 0.0042039542 0.0006275184 0.000723565 0.0008817673 0.00048467267 0.00042330057 0.002168768
0.0005867766 0.0009044086 0.0003782939 0.001285633 0.0016727089 0.0019089439 0.00080871006 0.0006551262
0.0011545514 0.0012851348 0.00091392896 0.0005385217 0.0032640581 0.0016928958 0.0007682483 0.0013073131
0.0011855433 0.00033925305 0.00047492754 0.0011218977 0.00034316565 0.0010730826 0.00046556882 0.0009882831
0.0007864627 0.0019074067 0.0014014407 0.00045048943 0.00089524384 0.0010201549 0.00059145933 0.0010803523
0.0010030733 0.0021090528 0.0021497319 0.0007548908 0.0007295395 0.00080515555 0.0004944702 0.0021261522
0.0002723564 0.0024704689 0.00096789125 0.0009449404 0.00026633192 0.0012130727 0.0019414308 3.6542893e-05
0.00085368427 0.002284493 0.00067798403 0.0010264097 0.0005169851 0.00046999642 0.0010292823 0.0023264727
0.0018149896 0.0010419862 0.000483494 0.0014673066 0.0012177541 0.0010247421 0.0017312424 0.007723121
0.0006610536 0.00079219457 0.0018637378 0.0015091258 0.0009466447 0.00059706654 0.0006669661 0.00247633
0.00049014465 0.0028625468 0.0013156428 0.0033873077 0.0013298062 0.00069004874 0.0012887485 0.0006477151
0.0018428074 0.00085021247 0.0036886567 0.0020757497 0.0028974395 0.0009139286 0.0012800476 0.0005733597
0.0007438302 0.0019122275 0.0025886586 0.001089921 0.0023928836 0.0009135334 0.0012879504 0.0010365371
0.0007902939 0.0013774892 0.00062850595 0.001305661 0.0004745595 0.0011340379 0.0012958072 0.0072329207
0.00043274602 0.00095188344 0.00084032695 0.00097576407 0.0005550007 0.00148513 0.0015452005 0.001290578
0.0015449439 0.0017203346 0.0020631948 0.00069210597 0.0008455667 0.0033799945 0.0009921221 0.00061347784
0.0007874962 0.0007408784 0.0009149874 0.00108601 0.0008880795 0.0016834701 0.00131741 0.0008738981
0.0006046262 0.0011490918 0.000644131 0.0012048207 0.0030975547 0.00043769134 0.0014933611 0.0033310181
0.0019516428 0.0016755438 0.001007858 0.0016308875 0.0010285357 0.0009484897 0.0008410727 0.00029730864
0.0019280886 0.0010057074 0.0016125285 0.00050409633 0.00075394975 0.0009982339 0.0013142538 0.004490421
0.0009941851 0.0020648215 0.00027187204 0.0011652122 0.002182007 0.00037028312 0.0012407224 0.0022777042
0.00053957425 0.0017651186 0.0015130836 0.001406084 0.0014347222 0.0011751562 0.0023295018 0.0004873609
0.0005758307 0.00091779407 0.0005649219 0.00067268166 0.0019979563 0.00039309202 0.002469911 0.001296165
0.0011037905 0.00034233765 0.0006247247 0.0020160025 0.000544908 0.0017314857 0.0007794154 0.002137122
0.002047384 0.0003231451 0.0005054005 0.001709883 0.0026715845 0.0016910728 0.0026346627 0.0008415254
0.0005137752 0.0012501507 0.0011274812 0.00084230956 0.00047918383 0.0010374854 0.001150569 0.00091899093
0.0009951707 0.00070245424 0.0026318969 0.00067942234 0.00064586714 0.0057295267 0.0011733975 0.00089327904
0.0012374527 0.0007697824 0.00046658574 0.0007429843 0.0013279791 0.0014606199 0.0012352639 0.0016254346
0.0019658129 0.0014783235 0.0012463162 0.0010458773 0.0034335707 0.0014388656 0.00065057294 0.0032536618
00000000: 0bd7 4d3b 50b1 723a 03c3 043a c3a4 6f3a
00000010: 310d 953a 3c5b 943a 8104 0d3b 7201 e73a
00000020: 177e a03a ee40 9e3a 84fb 1039 2760 a33a
00000030: 9092 fe39 40f1 e939 6d56 693a 4c96 bc39
00000040: bbdc aa3a 90bd 093b 34b3 383b 509d b739
00000050: c9cf 093a 2c63 963a c1cc 573a bcc9 093a
00000060: cd88 cc3a 53c1 893b 0c80 243a a0ad 3d3a
00000070: 6726 673a aa1b fe39 71ee dd39 e421 0e3b
00000080: e9d1 193a d515 6d3a bf55 c639 af82 a83a
00000090: cc3e db3a 8735 fa3a 9dff 533a c6bc 2b3a
000000a0: 5154 973a f871 a83a bc94 6f3a 942b 0d3a
000000b0: cfe9 553b 28e4 dd3a 4564 493a 265a ab3a
000000c0: 3b64 9b3a c6dd b139 b2ff f839 a40c 933a
000000d0: eaea b339 ada6 8c3a 9717 f439 4789 813a
000000e0: 9e2a 4e3a f301 fa3a 8cb0 b73a ab2f ec39
000000f0: ccae 6a3a b8b6 853a 2a0c 1b3a 9c9a 8d3a
00000100: 8e79 833a 0938 0a3b 84e2 0c3b dde3 453a
00000110: 913e 3f3a 1311 533a 559f 013a ea56 0b3b
00000120: 0fcb 8e39 97e7 213b 15ba 7d3a e0b5 773a
00000130: 77a2 8b39 f7ff 9e3a 9c77 fe3a a245 1938
00000140: c8c9 5f3a 6fb7 153b bdba 313a 9888 863a
00000150: 4886 073a da69 f639 fce8 863a bc77 183b
00000160: f2e4 ed3a 4193 883a 777d fd39 a452 c03a
00000170: 0c9d 9f3a a450 863a dbea e23a 3c12 fd3b
00000180: 8e4a 2d3a 47ab 4f3a aa48 f43a dccd c53a
00000190: 4028 783a 7584 1c3a 56d7 2e3a ec49 223b
000001a0: 0d7d 003a 9199 3b3b a671 ac3a 98fd 5d3b
000001b0: e44c ae3a 63e4 343a 39eb a83a 6dcb 293a
000001c0: 5b8a f13a cbe0 5e3a 64bd 713b 4d09 083b
000001d0: f8e2 3d3b b694 6f3a 45c7 a73a 854d 163a
000001e0: 9afd 423a b5a3 fa3a 7ca6 293b aedb 8e3a
000001f0: edd1 1c3b 307a 6f3a 72d0 a83a 6adc 873a
00000200: ba2b 4f3a de8c b43a 52c2 243a b722 ab3a
00000210: 4cce f839 ffa3 943a 13d8 a93a 2302 ed3b
00000220: 30e2 e239 d187 793a 6349 5c3a 6bca 7f3a
00000230: 777d 113a b2a8 c23a 5388 ca3a 9d28 a93a
00000240: b77f ca3a da7c e13a aa36 073b 726e 353a
00000250: 05a9 5d3a e682 5d3b 180a 823a cdd1 203a
00000260: fa6f 4e3a 8237 423a c4db 6f3a 7358 8e3a
00000270: 02ce 683a e2a7 dc3a f2ac ac3a 4f16 653a
00000280: c77f 1e3a 1f9d 963a e6da 283a 13eb 9d3a
00000290: 5800 4b3b f079 e539 e2bc c33a 364d 5a3b
000002a0: 44ce ff3a ec9d db3a 1a1a 843a 81c3 d53a
000002b0: eecf 863a 11a4 783a 6f7b 5c3a 17e0 9b39
000002c0: ebb7 fc3a f1d1 833a 7a5b d33a 5525 043a
000002d0: b6a4 453a 2cd7 823a 0a43 ac3a 6224 933b
000002e0: 514f 823a f551 073b 0c8a 8e39 09ba 983a
000002f0: 0100 0f3b 8f22 c239 bc9f a23a 8945 153b
00000300: 3772 0d3a 8d5b e73a a952 c63a 5a4c b83a
00000310: 4a0d bc3a b307 9a3a 8eaa 183b 7984 ff39
00000320: 58f3 163a 1e98 703a 4417 143a e756 303a
00000330: 25f0 023b eb17 ce39 3bde 213b 15e4 a93a
00000340: 10ad 903a c87b b339 91c4 233a e91e 043b
00000350: 28d8 0e3a 05f3 e23a af51 4c3a f50e 0c3b
00000360: 672d 063b cd6b a939 da7c 043a 271e e03a
00000370: c015 2f3b fda6 dd3a 4eaa 2c3b d099 5c3a
00000380: dfae 063a 19dc a33a fec7 933a 70ce 5c3a
00000390: f73a fb39 3cfc 873a b0ce 963a 70e8 703a
000003a0: 6370 823a e824 383a e77b 2c3b 431b 323a
000003b0: 694f 293a c1be bb3b b0cc 993a f12a 6a3a
000003c0: 0632 a23a 39cb 493a 14a0 f439 d5c4 423a
000003d0: 960f ae3a 4572 bf3a 94e8 a13a 890c d53a
000003e0: ded4 003b 4ec4 c13a 6f5b a33a d215 893a
000003f0: c205 613b 5198 bc3a 368b 2a3a 633b 553b
