experiments/model_repositories/uav_sound/sound_classification/model_files/block_01.pth (torch, 127078 bytes, 6 tensors)

weight f4 [48, 24, 5, 5]
0	0xbb9be117	-0.0047570574
1	0xbafb4afe	-0.001917213
2	0xbcacd377	-0.021096928
3	0xbc5cd97b	-0.013479586
4	0xbd1dfe9e	-0.0385729
5	0xbbf0be52	-0.0073469067
6	0x3c7e3cdc	0.01551744
7	0xbc8d1a5d	-0.017224485
8	0x3c816f49	0.015800135
9	0xbd4806f4	-0.048834756
10	0xbc0925ec	-0.008370858
11	0x3c712894	0.014719147
12	0xbd4884c6	-0.048954748
13	0xbda57905	-0.08079723
14	0x3cb1f95a	0.021725345
15	0xbd75f88d	-0.06005149
16	0xbda58c1b	-0.080833636
17	0x3d0ecd1c	0.034863576
18	0xbc707fbc	-0.014678892
19	0xbbc02f7a	-0.0058650346
20	0x3d6baf53	0.05754025
21	0xbd1f2222	-0.03885091
22	0x3d067c16	0.03283318
23	0x39b8d90d	0.0003525693
24	0xbcb0b6ac	-0.02157148
25	0xbc50ec82	-0.0127517
26	0x3d9349e5	0.07191829
27	0x3a94e9ba	0.001136116
28	0xbd8408f7	-0.064470224
29	0x3b943152	0.004522481
30	0xbbc3db75	-0.005977089
31	0xbb8b29d6	-0.0042469306
32	0xbce1e3f2	-0.027574513
33	0x3a1d79fa	0.00060072506
34	0x3cc40919	0.02393012
35	0x3db5abd1	0.08870662
36	0xbcfbfed2	-0.030761156
37	0xbd4eb68d	-0.050467063
38	0xbcbac7d3	-0.022800362
39	0xbcd705b4	-0.026247837
40	0xbd7f08ab	-0.062264126
41	0x3da7a204	0.08185199
42	0x3d3b54a1	0.045735005
43	0x3cb07157	0.02153842
44	0xbcdc7cd5	-0.026914993
45	0xbda528f3	-0.08064451
46	0x3d425d12	0.04745204
47	0x3d605237	0.054765906
48	0x3c827fb1	0.015930029
49	0xbd914bb9	-0.07094521
50	0x3bd113be	0.0063805273
51	0xbc381176	-0.011234632
52	0xbda3dd28	-0.080011666
53	0xbd9f9e07	-0.07793813
54	0x3cf05659	0.029338049
55	0xbbb38928	-0.005478997
56	0xbd3878ca	-0.04503707
57	0xba93c0e2	-0.0011272694
58	0xbd88572a	-0.0665725
59	0x3c50a061	0.01273355
60	0xbcf4b164	-0.029869743
61	0xbd0a6f13	-0.033797335
62	0x3c1fa546	0.009743994
63	0x3c9d0e8c	0.019171976
64	0xbd4a78e9	-0.049431715
65	0x3d13b3cd	0.036060143
66	0x3ca99f65	0.020705888
67	0xbc2e25c4	-0.010629121
68	0x3b00b707	0.0019640343
69	0xbd3d89f0	-0.046274126
70	0xbccd98bc	-0.025097243
71	0xbdb3480e	-0.08753978
72	0x3c63ff43	0.01391584
73	0xbc9b3bf6	-0.01894949
74	0xbd5b68c9	-0.053566728
75	0xbd0f59f8	-0.03499791
76	0x3c4fe202	0.012688162
77	0xbbf4e930	-0.007474087
78	0x3cf26649	0.029589789
79	0xbd9739a1	-0.07384039
80	0xbd803cfb	-0.06261631
81	0xbd319708	-0.043356925
82	0xbd087120	-0.03331101
83	0x3c2ccdc8	0.010547109
84	0xbd2c5fdd	-0.04208361
85	0x3be42a1d	0.006963028
86	0x3bc72fb8	0.0060786866
87	0x3c394466	0.011307811
88	0xb9e75598	-0.00044123526
89	0x3d312ae2	0.043253787
90	0xbc491601	-0.012273313
91	0x3bb692e6	0.005571711
92	0x3cf82d3f	0.030295013
93	0xbc4cd2d4	-0.012501437
94	0xbcbd7c3a	-0.023130525
95	0xbc6d7d8f	-0.0144952675
96	0xbcde1ef6	-0.027114373
97	0xbd600329	-0.054690514
98	0x3c85a58b	0.016314289
99	0xbce8559d	-0.028361136
100	0xbd8147e3	-0.063125394
101	0x3ba1ab6c	0.004933765
102	0x3d20ab85	0.039226074
103	0xbc28ae3a	-0.010295445
104	0x3cf45d55	0.02982966
105	0xbb31a276	-0.002710489
106	0xbb2d3fe5	-0.002643579
107	0x3c756be0	0.014979333
108	0xbd8b07b6	-0.0678858
109	0xbdb0740e	-0.08615886
110	0x3d309c52	0.04311783
111	0x3c9fc4e5	0.019503066
112	0x3d799d4c	0.060941026
113	0xbb5b1f69	-0.003343547
114	0x3d37f43b	0.04491065
115	0x3cc76213	0.024338758
116	0x3dad860f	0.08472835
117	0x3c70988d	0.014684808
118	0xbc7b58bb	-0.015340979
119	0xbce44592	-0.027865205
120	0x3ca3682d	0.019947136
121	0x3d2d9727	0.04238048
122	0x3c600193	0.01367225
123	0xbca576f5	-0.020198325
124	0xbd46e9c9	-0.0485628
125	0x3d64dd08	0.055874854
126	0x3bff8b7c	0.0077986103
127	0x3d851e80	0.06499958
128	0xbc0558fd	-0.008138892
129	0x3bed0964	0.0072337855
130	0x3d069287	0.032854583
131	0x3bd924e5	0.0066267126
132	0x3d1a2c7a	0.037640072
133	0xbc8db64c	-0.01729884
134	0xbc9c3efd	-0.019073004
135	0xbcb67b3a	-0.022275556
136	0x3c59ef91	0.013301746
137	0xbd550006	-0.052001975
138	0x3d678557	0.056523647
139	0xbbf85d2e	-0.0075794673
140	0x3c322b3d	0.010874567
141	0x3c02ffc8	0.007995553
142	0x3d3ac578	0.045598477
143	0x3d0070a4	0.031357422
144	0x3d0b39bd	0.03399061
145	0xbd835967	-0.064135365
146	0x3cc9fcd8	0.024656698
147	0x3c7cb74e	0.015424563
148	0xbd205184	-0.03914024
149	0xbc178fa3	-0.009250554
150	0x3d14317c	0.036180004
151	0xbd4b4267	-0.049623873
152	0xbd5177b0	-0.051139534
153	0xbc734e42	-0.014850201
154	0xbd7edbce	-0.06222134
155	0x3d0e4f0f	0.034743365
156	0x3d0ca218	0.034334272
157	0xbbc4731a	-0.0059951665
158	0x3ca9c006	0.020721447
159	0xbccc3241	-0.024926307
160	0xbca054ce	-0.019571688
161	0xbd29282a	-0.04129807
162	0xbc46411a	-0.012100482
163	0x3ce04378	0.027375922
164	0xbd3162f2	-0.043307252
165	0xbade1d4d	-0.0016945988
166	0xbd46df8a	-0.048553027
167	0x3d69779c	0.056998834
168	0xb639fdf8	-2.7714977e-06
169	0xbca96ec8	-0.020682707
170	0x3c844abe	0.016148921
171	0x3c33e614	0.010980148
172	0xbb80766d	-0.0039203675
173	0x3d6bfadd	0.05761229
174	0xbd38b9a7	-0.045098927
175	0x3c4a3123	0.012340817
176	0xbb4687a8	-0.003029326
177	0xbbd4eed4	-0.006498197
178	0xbc3116c0	-0.010808647
179	0x3cc22410	0.023698837
180	0x3cfda061	0.030960264
181	0xbd3375b4	-0.043813422
182	0x3bb3f1da	0.0054914774
183	0xbcdeff8b	-0.027221462
184	0x3b10977e	0.0022062953
185	0x3d014745	0.03156211
186	0x3d93ffa2	0.072264925
187	0xbc9911b1	-0.018685194
188	0xbc4558b4	-0.012045074
189	0x3b778997	0.003777122
190	0x3c84764d	0.016169691
191	0x3a3ba8bc	0.0007158627
192	0xbc4c752a	-0.012479106
193	0x3c9a51a5	0.01883776
194	0xbcd5ea02	-0.02611256
195	0x3cc299d5	0.023754993
196	0xbd10c8e2	-0.035347827
197	0x3d28d476	0.041218244
198	0xbd263dea	-0.04058639
199	0x3b2b7e34	0.0026167752
200	0x3ccc658e	0.024950769
201	0x3c6c8121	0.014435084
202	0x3ada1ae4	0.0016640094
203	0x3a56c897	0.00081933424
204	0xbaea8414	-0.0017892146
205	0xbd7bce1c	-0.061475858
206	0x3d78e46a	0.060764708
207	0x3c30155b	0.010747279
208	0x3d036c15	0.032085497
209	0x3c17f467	0.009274579
210	0x399c0596	0.000297588
211	0x3d78777c	0.060660824
212	0x3d5a6382	0.053317554
213	0x3d376578	0.044774503
214	0x3c8fe0a9	0.017563181
215	0xbcf7ecb9	-0.030264245
216	0x3c8dd8af	0.017315237
217	0x3d8c6ca8	0.06856662
218	0x3da05a0e	0.078296766
219	0xbd6895d1	-0.0567835
220	0xbd32e69a	-0.04367695
221	0xbc04e4e0	-0.008111209
222	0x3d0fee5d	0.03513943
223	0x3daeb89e	0.08531307
224	0xbd2b41f5	-0.04181095
225	0xbd2f6ee4	-0.042830363
226	0xbcff2077	-0.03114341
227	0xbd24677c	-0.040137753
228	0xbd052a62	-0.032511123
229	0x3d51df1b	0.05123816
230	0xbd8a5270	-0.06754005
231	0xbd1e16b5	-0.038595874
232	0xbd6088ad	-0.054817844
233	0xbde40d21	-0.11135317
234	0xbcda5036	-0.026649576
235	0xbd1093ed	-0.035297323
236	0xbd928017	-0.071533374
237	0xbd571b8f	-0.052516516
238	0xbcf1c412	-0.029512439
239	0xbde8cdff	-0.11367416
240	0x3dcde22a	0.10052903
241	0x3c8d4066	0.017242622
242	0x3d4d11b5	0.050065715
243	0xbab1fa89	-0.0013578694
244	0x3d3ae971	0.045632783
245	0x3ba8f781	0.005156458
246	0x3d57c6eb	0.052679937
247	0xbd5a839a	-0.05334816
248	0xbdd70684	-0.1049929
249	0xbd40833e	-0.047000162
250	0xbc6a8e5d	-0.014316169
251	0xbda77bc1	-0.08177901
252	0xbc974821	-0.01846701
253	0xbcef922a	-0.029244501
254	0x3c613a3f	0.013746797
255	0xbd81ff59	-0.06347532

bias f4 [48]
0	0x31b4817c	5.25341e-09
1	0xb214dcec	-8.664966e-09
2	0xb10eb6b8	-2.0767583e-09
3	0xb18a7156	-4.0292134e-09
4	0x3107328e	1.9673823e-09
5	0x3102bb6a	1.9024022e-09
6	0x3281fae8	1.5131675e-08
7	0x32201b6d	9.319462e-09
8	0xb2080351	-7.916996e-09
9	0x329cbc65	1.8246462e-08
10	0x32104bad	8.39911e-09
11	0xb0d4d05d	-1.548425e-09
12	0xb0b3c0c4	-1.3078751e-09
13	0xaf70bdd8	-2.1895319e-10
14	0xb1e09dad	-6.5371837e-09
15	0x3085072f	9.679065e-10
16	0xb14cc9e3	-2.9800666e-09
17	0x2e940624	6.7313516e-11
18	0xb17372a9	-3.542633e-09
19	0xb2d1a7aa	-2.4407047e-08
20	0xb1622699	-3.2909269e-09
21	0xb1d4f52d	-6.1978853e-09
22	0x32fb15a6	2.923009e-08
23	0x2efb2d73	1.1422232e-10
24	0x301e02b4	5.7483907e-10
25	0x3237a93f	1.0690484e-08
26	0xb0666413	-8.3815727e-10
27	0x310f6474	2.086634e-09
28	0xb1ce590b	-6.005512e-09
29	0xb10e26bb	-2.0685735e-09
30	0xb209c5fb	-8.019465e-09
31	0x2fc4afce	3.577711e-10
32	0xb1de86aa	-6.47636e-09
33	0xb18ae5c1	-4.0424486e-09
34	0xb014556b	-5.396347e-10
35	0xb21bad49	-9.061588e-09
36	0xb1e857e4	-6.7620807e-09
37	0xb23ca3a8	-1.0980251e-08
38	0xb1fb8a9c	-7.3208195e-09
39	0x31f7fe1c	7.217535e-09
40	0x3188fa0a	3.986547e-09
41	0x30b8036f	1.3388738e-09
42	0x31ba1556	5.415738e-09
43	0x31ef4742	6.9639166e-09
44	0x31ac2588	5.0101256e-09
45	0xb167c0c8	-3.3724508e-09
46	0x3072967d	8.8252944e-10
47	0xb2ac0fe4	-2.0030662e-08

weight f4 [48]
0	0x3f70de1f	0.9408893
1	0x3f72cc13	0.9484264
2	0x3f6173bc	0.8806722
3	0x3f6d53a7	0.9270577
4	0x3f6d431f	0.92680544
5	0x3f678b74	0.90447164
6	0x3f74aacb	0.9557311
7	0x3f69f907	0.9139561
8	0x3f6d2bf1	0.92645174
9	0x3f785ea1	0.9701939
10	0x3f71ffd8	0.9453101
11	0x3f6213ff	0.8831176
12	0x3f5d621d	0.86477834
13	0x3f6915db	0.91048974
14	0x3f692bc1	0.9108239
15	0x3f67b3f6	0.90508974
16	0x3f6666d2	0.9000064
17	0x3f64b576	0.8933939
18	0x3f6963ed	0.911681
19	0x3f738cf4	0.9513695
20	0x3f6b5ffa	0.91943324
21	0x3f62773d	0.88463193
22	0x3f6c29e2	0.9225141
23	0x3f65900b	0.8967292
24	0x3f6c9488	0.9241414
25	0x3f685a6f	0.9076299
26	0x3f629990	0.8851557
27	0x3f6b3889	0.9188314
28	0x3f64bdad	0.8935192
29	0x3f656331	0.8960448
30	0x3f676300	0.90385437
31	0x3f5ed5c3	0.87044924
32	0x3f7d8d81	0.9904404
33	0x3f68bd52	0.9091388
34	0x3f6eaef9	0.9323574
35	0x3f676493	0.9038784
36	0x3f685d41	0.90767294
37	0x3f700125	0.93751746
38	0x3f5fef82	0.87474835
39	0x3f7b013b	0.9804875
40	0x3f644c43	0.89178866
41	0x3f68290b	0.90687627
42	0x3f6701a7	0.90236896
43	0x3f73f9ab	0.9530284
44	0x3f73e6e1	0.9527417
45	0x3f5f60ea	0.87257254
46	0x3f680676	0.9063486
47	0x3f771904	0.96522546

bias f4 [48]
0	0xbca574b9	-0.02019726
1	0xbcd7a2fe	-0.026322838
2	0xbd26b4cc	-0.040699765
3	0xbccc0f66	-0.024909686
4	0xbc14b17a	-0.009075517
5	0xbd2727b9	-0.040809367
6	0xbc8a65ab	-0.016894182
7	0x3c613f7c	0.013748046
8	0xbc40d1fd	-0.011768815
9	0x3c2b7c53	0.010466653
10	0xbcb44d49	-0.022009509
11	0xbd81b924	-0.06334141
12	0xbd2e8455	-0.04260667
13	0xbc4572d0	-0.012051299
14	0xbb834625	-0.0040061646
15	0xba88634e	-0.0010405572
16	0x3a58769d	0.0008257421
17	0xbd1c03ca	-0.03808955
18	0xbcfa6962	-0.030567829
19	0xbdc7d43a	-0.09757276
20	0xbd00940a	-0.03139118
21	0xbd26306d	-0.040573526
22	0xbd2528f1	-0.040322248
23	0xbd0c1166	-0.03419628
24	0x3bbd301e	0.0057735583
25	0xbba8dad6	-0.0051530404
26	0xbced48a0	-0.028965294
27	0xbd7bc93e	-0.061471216
28	0xbd311eba	-0.043242194
29	0x3b01ee48	0.0019825865
30	0xbcc22be8	-0.023702577
31	0xbd5095d6	-0.050924145
32	0xbd9586bf	-0.073010914
33	0xbd77311a	-0.06034956
34	0xbdd383d1	-0.10327876
35	0xbd8584a8	-0.06519443
36	0xbb5242e0	-0.0032083318
37	0xbcafb1d1	-0.021447094
38	0xbd10f427	-0.03538909
39	0x3a9968ca	0.0011704203
40	0xbd0d4c76	-0.034496747
41	0xbcf41586	-0.02979542
42	0x3cc0f4ab	0.023554167
43	0xbcb19102	-0.02167559
44	0xbd7e3022	-0.06205762
45	0xbdca1e13	-0.098690175
46	0xbcf9dc09	-0.030500429
47	0xbd03aa20	-0.032144666

running_mean f4 [48]
0	0xbf8e11e1	-1.1099206
1	0xc00dd91c	-2.2163763
2	0xbf78eded	-0.97238046
3	0xbf91ae80	-1.1381378
4	0xbf3eaec4	-0.7448542
5	0x3eec6057	0.4616725
6	0xbf3e066b	-0.74228543
7	0xbee26db0	-0.4422431
8	0xbf2fb46e	-0.6863469
9	0xbd76ea59	-0.060282085
10	0xbeee5057	-0.4654567
11	0xbea2fd88	-0.31834054
12	0xbdd18168	-0.102297604
13	0xbfb95de8	-1.4481783
14	0xbefac946	-0.48981684
15	0xbf2c4aa2	-0.6730138
16	0xbf77c0d0	-0.96778584
17	0xbe5ac5ed	-0.21364565
18	0xbe9b12ab	-0.3028768
19	0xbf212bde	-0.6295756
20	0x3c22a652	0.009927349
21	0xbf2b5426	-0.66925275
22	0xbf37c31e	-0.717821
23	0xbea76a21	-0.32698157
24	0xbf2028d5	-0.62562305
25	0xbe38fb9b	-0.1806473
26	0x3f823731	1.0173093
27	0xbf583188	-0.8445058
28	0xbf3eb599	-0.74495846
29	0xbe536b26	-0.20646343
30	0xbe9030fe	-0.28162378
31	0x3f4b5ad3	0.7943546
32	0xbe06770c	-0.1313135
33	0x3f53e515	0.82771426
34	0x3ff74caa	1.9320271
35	0x3ebdad3a	0.37046224
36	0xbf536346	-0.82573354
37	0xbee19be2	-0.44064242
38	0x3bf59b96	0.007495354
39	0xbeaf92f7	-0.34291813
40	0x3f8825ae	1.0636499
41	0x3d184917	0.03717908
42	0xbecb3a34	-0.39692843
43	0xbf4904b5	-0.7852281
44	0xbd7b7a69	-0.061396036
45	0x3faa850b	1.3321851
46	0xbf96894c	-1.176065
47	0xbf4728ed	-0.7779682

running_var f4 [48]
0	0x3f04dd6a	0.5190035
1	0x3f932ef6	1.1498706
2	0x3fae2721	1.3605691
3	0x3eefcc08	0.4683535
4	0x3f04d484	0.51886773
5	0x3f0732af	0.5281171
6	0x3efe3d2e	0.4965605
7	0x3eecbc76	0.46237534
8	0x3f335c1d	0.7006243
9	0x3f0b9f00	0.5453949
10	0x3eb6150d	0.35562935
11	0x3ef133f9	0.47109964
12	0x3f3f1426	0.7464012
13	0x3f9c0fcc	1.2192321
14	0x3f194eed	0.59886056
15	0x3ee74485	0.45169464
16	0x3f1f3d85	0.62203246
17	0x3eedd536	0.4645173
18	0x3efd8e4d	0.4952263
19	0x3f464777	0.77452797
20	0x3e8f1bf4	0.27951014
21	0x3f3375eb	0.70101804
22	0x3f0c6011	0.54834086
23	0x3f4b3b22	0.79387105
24	0x3f28b1d4	0.65896344
25	0x3f5ab857	0.8543753
26	0x3fa34109	1.2754222
27	0x3f0a7493	0.5408413
28	0x3f80241b	1.0011019
29	0x3ec9831f	0.3935785
30	0x3f798057	0.97461456
31	0x3ff17cc9	1.8866206
32	0x3f4fef53	0.81224555
33	0x3f0b2ec1	0.54368216
34	0x3f19436f	0.5986852
35	0x3f0d3ce6	0.5517105
36	0x3f20bca7	0.6278786
37	0x3f1c0841	0.60950094
38	0x3f57c3c2	0.8428308
39	0x3f240aa3	0.6407873
40	0x3f33d388	0.70244646
41	0x3f839fec	1.0283179
42	0x3f18b801	0.5965577
43	0x3f22728b	0.6345603
44	0x3f352789	0.7076345
45	0x3eff1a33	0.49824676
46	0x3f331b43	0.69963473
47	0x3f41c05b	0.75684136
