experiments/model_repositories/uav_sound/wildfire_detection/model_files/block_04.pth (torch, 17017 bytes, 5 tensors)

weight f4 [96, 1, 3, 3]
00000000: f514 9bbd d7ac 0ebe 37a9 7dbd f566 2cbe
00000010: e189 2cbe 6670 f1bd 6282 2abd 30bc dcbd
00000020: da23 4fbd 14f0 07be d3bd 8cbd 6d66 afbb
00000030: ef87 48be ff5c 9cbd 29f1 5abb 1739 25be
00000040: f89d 12be 9375 38bd 8e77 ecbd 7826 07bd
00000050: 548b a43d f6dd 313e 6df7 c03e 64ba 3d3e
00000060: e00b b8bc 21b9 14be 2398 b0be 1953 153e
00000070: f25a 703e 47a6 e2bc e260 4d3e 30dc 003f
00000080: dece 323b 3a5b 253d da65 093e 0b20 b6bd
00000090: 6ff2 b5bd 173e 82be 155b 1cbe d90b d1bd
000000a0: 2f3c e9bd 1ee7 8ebc dfc3 f83d 8199 cb3e
000000b0: 4d18 1e3e 2582 323d 8a72 903e dd18 6f3e
000000c0: d589 6fbd c21b 9dbd 5255 b53d 45f2 bcbd
000000d0: 2313 3bbe edb8 d9bd 5357 6d3c cf9a 8bbd
000000e0: 31ad cbbd 8810 953d c456 38be f05b 7fbe
000000f0: d629 a03d af79 40be 2a1e 64be 652d 09be
00000100: 0968 613d 503d f7bd 8ae4 00be 22e1 193e
00000110: 236e 14be 98b6 20be 59a8 cd3d cab2 eebd
00000120: 5d44 a33d 17e2 053e b15d ca3d cbfc ed3d
00000130: c81c 9b3e 3bfa 673e 9592 883d be8b 2e3e
00000140: 5cda 163e 8e47 c1bd 9e4a 5b3e fb27 8bbd
00000150: b1c4 1cbd 8758 e73d 89be 71bd 02ea 043e
00000160: 7825 abbe 7de4 073e b6e1 b13c b66e 623c
00000170: b2b8 333c 7694 cd3d 2df0 103e 5fc0 c03d
00000180: 1a3e 893d c5b5 0f3e d2d9 913d e297 2abd
00000190: 608a 2dbe 4652 42be 476a fbbc 4f25 6ebe
000001a0: 3823 5bbe d595 2d3c 64e7 71bc ec2d 52bd
000001b0: 636f bfbd 6f26 043e 704f 1bbd 116f 4e3e
000001c0: 7c5e a1be eb89 c63d 1c4d d5bd ae38 6f3e
000001d0: 45df a8bd e0ae e9bd 7857 14bc b5ea 503d
000001e0: c698 84be add4 a53e dccd 473c be63 493d
000001f0: bc33 5e3e 9e57 1bbe 66f4 24bd 99bf c0bd
00000200: 4826 91bd f58d d73d 7059 c33e da2b bb3d
00000210: 05b9 27bd e16a 8cbe fd5f 03bc 804f 8ebd
00000220: f175 e7bd 5fee c4bc 556b 32be 8da8 5bbe
00000230: fa8e cbbd 338b bbbd a4c6 42be ffba abbd
00000240: aae1 2bbe 22ea 2fbe fb2c 81bd 1a14 37bd
00000250: 542c 653d 6c3a 073e ce16 0a3d eb6b e13d
00000260: ed50 463e f483 da3d 7ab6 5d3e 060d 953d
00000270: 29bb 0e3e 050a 103e afbe 4b3c ff07 673d
00000280: 70ce cb3d 5f60 173d 2d81 cbbb 0b41 a2bd
00000290: 9ff3 313b 7229 9a3c 672e b4be 60d4 adbd
000002a0: 1e3f c23b 0b26 2abe d2a2 b43c 643c bcbc
000002b0: 04b5 ccbd b580 9cbd fb7e 9abd 70be 88be
000002c0: 300f 44be 791b 8bba 89db 55be d2a5 05be
000002d0: 14c9 083e ade6 1f3e 95a4 433b c865 4a3e
000002e0: 5a63 c83e 72c6 2c3c 50f9 f83d 7d55 f13d
000002f0: 4837 7dbd 0554 b3bd 951d cdbc 5bc2 093e
00000300: 2ec4 c2bd bdfb 53be ea4a a13e 8e42 8bbc
00000310: 7675 40be 51f6 253e 6475 ac3d 708f 80be
00000320: c1a1 f83d e944 89be bd64 ca3e dd25 19be
00000330: 4f5a 0c3e 6af8 20be 18e6 d63c 4625 87bd
00000340: 2ffb 323d 7d9c 1bbd 557a 8d3d 34ba d5be
00000350: e862 a13e 0f7a 85bd 6ca2 ad3e 44f7 9fbe
00000360: 1707 82bd 98f7 dabd 0472 003e 3214 533d
00000370: fa26 27be 932e a5be e263 363d 3f61 923e
00000380: 8e4a 833d c17f fb3c 74c9 033e 7975 793d
00000390: 0221 bf3d e72e aa3e 942b 1f3e 3827 0e3e
000003a0: b114 853e e697 e33d 683f aabb 96b1 83bd
000003b0: 6f43 0abd dbc0 383e c06f a33e 2423 243e
000003c0: 34cb 26bd 37d3 84bd 85c0 81bc 4b61 3f3d
000003d0: 47e6 ea3d 1bde f83d 2007 103d 8e75 fb3d
000003e0: 0cda 233e a363 c7bc ee5b 8d3d 7f56 b53d
000003f0: 55ae b23d 8627 273e 5b4c 963d ab12 bf3d
-0.075723566 -0.1393312 -0.061928954 -0.1683615 -0.16849472 -0.117890164 -0.04162825 -0.107780814
-0.0505713 -0.13275176 -0.068721436 -0.0053527863 -0.19583105 -0.07634925 -0.0033407903 -0.1613506
-0.14318073 -0.045034003 -0.11546241 -0.03299567 0.08034387 0.17369828 0.3768877 0.18528134
-0.0224666 -0.14523746 -0.3449107 0.1458248 0.23472193 -0.027667178 0.20056489 0.5033598
0.0027283947 0.040370204 0.1341776 -0.088928305 -0.08884131 -0.25437996 -0.1526912 -0.10207338
-0.11388432 -0.01744419 0.121467344 0.39765552 0.15438958 0.043581147 0.28212386 0.23349328
-0.058481056 -0.0767131 0.08854164 -0.09225897 -0.18269019 -0.10630975 0.014486152 -0.06816637
-0.09945143 0.07278544 -0.18001848 -0.24937415 0.078204796 -0.18796419 -0.22277132 -0.13396223
0.055030856 -0.12072241 -0.1258718 0.15027288 -0.14495139 -0.15694654 0.100418754 -0.11655195
0.07972024 0.13074528 0.098811515 0.11620482 0.30295396 0.22654049 0.06668583 0.17045495
0.14731735 -0.09437476 0.21415183 -0.06794735 -0.038273517 0.11296182 -0.0590196 0.12979892
-0.33427024 0.13270755 0.021714073 0.013820341 0.010969328 0.10038082 0.1415412 0.09411692
0.06701298 0.14034183 0.07121624 -0.041648753 -0.16947317 -0.18976697 -0.030690325 -0.2325642
-0.21400154 0.010594805 -0.0147646405 -0.051313326 -0.09347417 0.12905286 -0.037917554 0.20159556
-0.31517398 0.096942745 -0.10415098 0.23361465 -0.0824571 -0.11410308 -0.009054057 0.051005084
-0.25897807 0.3238882 0.012195077 0.049167387 0.21699423 -0.15170142 -0.04027214 -0.09411544
-0.0708738 0.10525123 0.38154173 0.091392234 -0.040947933 -0.27425292 -0.008018491 -0.06948757
-0.113017924 -0.024039445 -0.17423756 -0.21451016 -0.0993938 -0.091574095 -0.19021088 -0.08385276
-0.16785303 -0.17179158 -0.063074075 -0.044696905 0.055950478 0.1320588 0.033713154 0.11006912
0.19366808 0.10669699 0.2165164 0.07277875 0.13938583 0.14066322 0.012435599 0.05640411
0.09951484 0.03695714 -0.0062104673 -0.07922562 0.0027153266 0.01881859 -0.35191652 -0.08487773
0.0059279343 -0.16616075 0.022050295 -0.022978015 -0.099954635 -0.076417364 -0.07543751 -0.26707792
-0.19146419 -0.0010613046 -0.20884527 -0.13051537 0.13357955 0.1561534 0.0029852737 0.19765389
0.391383 0.01054536 0.121569276 0.11783884 -0.0618203 -0.0875626 -0.02503852 0.13453047
-0.095100746 -0.207015 0.31502467 -0.01699951 -0.18794808 0.16207244 0.08420828 -0.25109434
0.12140227 -0.26810387 0.39529982 -0.1495585 0.13706325 -0.15719762 0.026232764 -0.06598906
0.04369658 -0.037991036 0.069080986 -0.41743624 0.31520772 -0.065174215 0.3391298 -0.31243336
-0.063490085 -0.10691756 0.12543494 0.05153293 -0.16323462 -0.32262096 0.04452885 0.28589818
0.064107046 0.030700566 0.12869817 0.060903046 0.093324676 0.3323891 0.15543967 0.13882148
0.2599235 0.11112957 -0.005195547 -0.06430356 -0.033755716 0.18042319 0.31921196 0.1602903
-0.040721133 -0.064855985 -0.01583887 0.046723645 0.11469703 0.12151738 0.035163045 0.12278281
0.16001147 -0.024339503 0.069023 0.088543884 0.087246574 0.1632367 0.073387824 0.093297325

weight f4 [96]
00000000: c265 063f 9647 9e3e d2ab b93e f66e 713e
00000010: b8b3 9f3e 4789 ad3e f12f 1d3e efc9 a73e
00000020: 7a72 8e3e a533 943e a98d 1e3e e23c e33e
00000030: 4eca c83e d87e 853e 0936 793e 4c50 d93e
00000040: d14a 883e e60a 673e e950 fd3e 002d de3e
00000050: 59ff 813e a83d 873e 3dda cb3e 3aaf e83e
00000060: f262 a63e b3a3 af3e 785f a53e ef7f 823d
00000070: b636 413e a042 ba3e 4053 033f 5b77 563e
00000080: 37a8 aa3e 0a27 403e d792 653e a25a bd3e
00000090: 63bd 063e c7c3 9a3e df27 d23e d438 a13e
000000a0: e771 dc3e a5ef 5c3e 7c17 b83e 926c b63e
000000b0: 5084 af3e 05b7 8e3e 3b98 ae3e 1a14 933e
000000c0: 1cad 843e 88ed cf3e 3350 cc3d a9e6 7a3e
000000d0: 1e3c f03e 7fcb 473e 56bb ab3d 22be f93e
000000e0: 1a48 9a3e 405f 7f3e 8d68 c93e 47e5 c63e
000000f0: 5920 9b3e ecf9 9b3e c079 c73e a3a1 813e
00000100: 4d56 113f 49fb da3e ec29 833e fc83 2f3e
00000110: 1d29 8d3e 7514 ae3e b1f6 403e 2792 523f
00000120: 5d5a e13e d351 203e b06b ad3e 0ba9 733e
00000130: 00ec a43e a05f 013e f404 ed3e ef57 aa3e
00000140: ece5 ff3e 71eb ea3d 67d1 923e f65a a03e
00000150: 0fba 2d3f a8f9 b23e bd9d 6e3e a5be a03e
00000160: 5157 393e d049 be3e fec7 d03e 33c2 cc3e
00000170: dbf5 4c3e aef6 bc3d 8e14 523e 8233 c23e
0.5249902 0.3091399 0.362639 0.23577484 0.31191802 0.33893797 0.1535032 0.3277125
0.27821714 0.28945652 0.15483727 0.44382387 0.39216846 0.26073337 0.24337019 0.42444074
0.2661958 0.22562751 0.49475792 0.43393707 0.25390127 0.26414227 0.3981494 0.45446187
0.32497364 0.3430458 0.322994 0.06372058 0.18868527 0.36378956 0.51298904 0.20943968
0.33331463 0.18764892 0.22419296 0.3698321 0.13158183 0.3022749 0.41046044 0.3148867
0.4305565 0.21575792 0.35955417 0.35629708 0.34280634 0.27874008 0.34100518 0.28726274
0.25913322 0.4061091 0.09976234 0.24502052 0.46920866 0.19511221 0.08385341 0.48777872
0.30133134 0.24938679 0.39337578 0.388468 0.30298117 0.30464113 0.38960075 0.25318632
0.5677231 0.4276984 0.2561792 0.17140192 0.2757043 0.33999982 0.18844105 0.8225426
0.44014254 0.15656213 0.33871222 0.23794954 0.32211304 0.12634134 0.4629284 0.33270213
0.49980104 0.11470688 0.28675386 0.31319398 0.6786203 0.34956098 0.2330236 0.3139545
0.18099715 0.3716569 0.40777582 0.39991912 0.20015661 0.09226738 0.20515653 0.37929922

bias f4 [96]
00000000: 187c aabd 9125 ef3d d120 b6bc 1711 163f
00000010: 1456 093e bbf7 623d ad3d 383f 5b4a dabe
00000020: 9470 913e 49b2 173a a753 af3d 642e fa3d
00000030: 095c 123c 84df 5abc 6dd5 fabc cfb6 093d
00000040: 7f85 403d 6942 9a3c 8c23 fa3c 655d 6c3d
00000050: 7b07 283f 76c5 103d 29be 1cbb 1dcc 703c
00000060: c185 9b39 c859 7f3e eb0c de3c d681 0c3d
00000070: 60dd 853d 3151 cebc 0a98 14bd 5d13 09bc
00000080: 1f29 893b a97d 243f 753e 893f d9d7 df3c
00000090: ef45 b33e 73be 1d3e 281e 42bc cae6 673e
000000a0: 3c52 1f3e 18fa 183d b70d 0d3b ec4e 2d3d
000000b0: bac9 403c 356b 943e 5a83 103d b566 1a3c
000000c0: c3c6 6d3c c8c9 84bc ee17 2e3d c5f1 423f
000000d0: 2204 a4bc ecbe f03d bdf6 2e3f 563f 13bc
000000e0: 585f 883e 3cc4 ad3e bebe 493d 1fe7 c03d
000000f0: d9c0 5e3e a203 683e 24d5 1b3b 3406 c03d
00000100: 0ba6 b1bd f67a fa3b 35c8 cd3c 0422 773e
00000110: 1827 1b3e f0bf 0e3c f005 8a3d 0606 77be
00000120: 85d8 f03b 0f83 f33e 396d 973c 7b87 d63e
00000130: b568 9c3d 2d36 9a3e fda4 81bc b134 ec3d
00000140: 5837 30bd 0bd5 673e 2142 a33e d0a8 823e
00000150: ea76 a4bd ccc3 953e ee36 02bc 712c 933e
00000160: 0a0c 013e 75ba 4a3c 1067 8dbc b543 5f3d
00000170: ee0c af3f 1bec 073e 5bd6 ea3d b2ab 95bc
-0.0832445 0.11677087 -0.022232445 0.5861983 0.13411742 0.055412035 0.7196911 -0.42634854
0.28406203 0.00057867594 0.08560877 0.122158796 0.008933076 -0.013358954 -0.030619347 0.033621605
0.04700231 0.018830495 0.030534528 0.057706255 0.65636414 0.035344563 -0.0023917055 0.014697102
0.00029663558 0.24936593 0.02710577 0.03430351 0.065363646 -0.0251852 -0.03627781 -0.008366433
0.00418581 0.6425424 1.0722185 0.027324604 0.35014293 0.15404682 -0.01184801 0.22646633
0.15558714 0.037347883 0.0021523067 0.042311594 0.011766845 0.28988042 0.035281517 0.009423901
0.0145127205 -0.016209498 0.04250329 0.7615016 -0.020021502 0.117551655 0.6834524 -0.008987268
0.26635242 0.33938777 0.04925417 0.09419083 0.21753253 0.22657636 0.0023778165 0.09376183
-0.08674248 0.0076440526 0.02511988 0.2413407 0.15151632 0.008712754 0.06739414 -0.24123392
0.00735003 0.47560927 0.018484699 0.41900238 0.07637159 0.30119458 -0.015825743 0.115334876
-0.04302153 0.22639863 0.3188639 0.2551942 -0.080304936 0.29250944 -0.007947667 0.28744844
0.12602249 0.012373556 -0.017261058 0.05450793 1.3675821 0.13273661 0.11466666 -0.018270347

running_mean f4 [96]
00000000: 0453 ffbd 5e36 9bbd f696 183d 143b dd3e
00000010: c5b7 6bbc 8264 c03c 4a7a 03be 3963 02bd
00000020: e951 a33d e59f 67ba c73e cc3c 072a b9bd
00000030: 5321 b03b 23c1 db3c c129 f63b d4c3 00be
00000040: e4c9 093c ef96 853e 152b e6bd 391f c5be
00000050: 56ab dd3e 9b8b 98ba 7621 83bc c95d 19bd
00000060: 459e 05bc 32d2 fd3d 9372 583d 85ff 1b3b
00000070: e23b 503e a71b b3bc 09ef febd 3f78 dd3b
00000080: 3ffc 133d 4a6d 7dbd 6b0a 09be 7e22 2a3c
00000090: 2ba1 e6bd 42cb 87bd 77b8 543c 46f4 3b3e
000000a0: 9f6a 10be 603b 373e 3005 6ebb 23d8 183d
000000b0: 4e28 713c e649 683e 4360 6ebe b1c5 3c3c
000000c0: ea05 dfbc 4aa4 dcbb 1f94 263b 97ba aabd
000000d0: acdd 25be bfd6 1b3d dd25 ebbc eed4 dfbb
000000e0: d0db 1b3e cde9 79bf 457a f13c a43d 69bd
000000f0: 5978 163e 72a6 053e 4925 563b 613c 20be
00000100: 5275 bfbd 2835 43bb b304 75bc 69ae 98bd
00000110: 5d14 c4bb fa61 c1b9 e020 003e e548 73be
00000120: 7fb4 82bc 6231 24bc 25c3 693b 1179 2dbe
00000130: a033 4cbd e047 c1bd 4e58 8fbc 6188 8f3b
00000140: b118 edbd 9047 de3d 5cd5 4bbd 1a02 1c3e
00000150: a602 70be e977 163e 39ff ce3c ff0a 553e
00000160: 9136 abbd 68a0 013c e6b1 59bb 96ab b2bd
00000170: 595a e3bd c6c9 8a3d 67ea 81be 1b3b 06bc
-0.12467006 -0.07578729 0.037253343 0.43209136 -0.014387076 0.023485426 -0.12839618 -0.031832907
0.079746075 -0.0008835777 0.024932278 -0.09041219 0.0053750663 0.026825493 0.0075123017 -0.12574703
0.008409951 0.26091716 -0.11238686 -0.38500383 0.4329478 -0.0011638285 -0.016007166 -0.037442956
-0.00815541 0.12393607 0.05284364 0.0023803425 0.20335343 -0.021863772 -0.12447936 0.006758719
0.036129232 -0.061871804 -0.1338288 0.0103842 -0.11261209 -0.06630565 0.012983433 0.18354902
-0.14103173 0.17893744 -0.003631901 0.0373155 0.014719082 0.2268444 -0.23278908 0.011521743
-0.0272245 -0.006733452 0.0025417877 -0.083363704 -0.16197842 0.038046595 -0.028704578 -0.006830803
0.1522057 -0.97622377 0.029477248 -0.05694355 0.14694346 0.13051775 0.0032676032 -0.15648033
-0.09348549 -0.0029786322 -0.014954734 -0.07455141 -0.005983873 -0.00036884827 0.12512541 -0.23758276
-0.015955208 -0.010021539 0.0035669294 -0.16940714 -0.04985392 -0.09437537 -0.017498162 0.0043802713
-0.11576975 0.10853493 -0.049764022 0.15235177 -0.2343851 0.1469418 0.025268184 0.20804976
-0.08360017 0.007911779 -0.0033217608 -0.08724134 -0.11101217 0.067767665 -0.25374147 -0.008192803

running_var f4 [96]
00000000: 0f4e 123d 088e 3f3c db16 b93b c8b3 e93c
00000010: 0ef9 b63b d369 a83b f095 1f3c 4c80 e53a
00000020: 03fa a33c 5833 d83a a420 0e3b b46e fb3c
00000030: fab0 0e3b a619 a639 22c8 403a 5966 143d
00000040: 129c 153b 3542 103c a0d1 fb3c 8693 c93c
00000050: b803 933c d48d 2e3b ea47 873b 246c 923b
00000060: 36ce a23b 91b1 943d eb50 a63b 9309 1a39
00000070: 616d 743b 2d06 c73a c639 223d f027 113a
00000080: 5e72 7f3b 7e3a 523c 0833 303d d567 e93b
00000090: cb6b c73c a2fb 083c 489f 783b 1627 6d3d
000000a0: 2078 483d 1bdd f83b ea1c b33b e7ac bb3a
000000b0: 80cf 363b 6655 663d 9630 1c3c bada ec39
000000c0: ff3e dd39 6daa 673a d7c4 0139 94af 973c
000000d0: 3ec2 9b3c c809 5c3b da7d 893b 34ef 6b3b
000000e0: cbed 8d3d 0491 a93c 6966 bf3b bebb 5c3c
000000f0: ad55 693d 4762 603d 0eba 213b 21dc b93a
00000100: 2229 bc3c 1b31 783b b6de 743a 897d c03b
00000110: 11da c13b 46d0 743b d9fe b43b dbcc e63d
00000120: 3857 da3a 3f5a 5c3a 5022 5f3b 29a0 e13b
00000130: e3b3 6c3c b3dd 333c 1918 f33b 0e05 943b
00000140: 83fe e03c c9c7 123c 0543 293c e186 963d
00000150: 0237 a63d 96da 343d b8c1 8a3a c854 c63d
00000160: 5fa0 e83b 78e2 943b a85d 843b e971 983c
00000170: 05d4 2c3d 34de 983c 2b2b 6a3b 9938 1f3b
0.035718974 0.011691578 0.0056484765 0.02852811 0.005583889 0.0051395684 0.009740338 0.0017509549
0.020016676 0.0016494794 0.0021686936 0.030692436 0.0021772967 0.00031681097 0.0007354041 0.03623042
0.002282862 0.0088048475 0.030739605 0.024606477 0.01794611 0.002663483 0.004128446 0.004468458
0.00496843 0.072604306 0.005075564 0.00014690151 0.003729664 0.0015184336 0.03960588 0.0005537262
0.003897808 0.012831328 0.043017417 0.0071229734 0.024343392 0.008360775 0.0037936736 0.057898603
0.048942685 0.007594717 0.0054660933 0.0014318497 0.0027894676 0.056233786 0.009533068 0.00045176392
0.0004219934 0.0008837346 0.00012375727 0.01851634 0.01901352 0.0033575166 0.004195911 0.003600073
0.06930121 0.020699032 0.0058410657 0.013472496 0.056966472 0.054781225 0.0024677548 0.0014179983
0.022968832 0.0037871066 0.0009341048 0.00587434 0.005915888 0.0037355586 0.0055235443 0.11269542
0.0016658073 0.00084057817 0.0034047551 0.0068855477 0.014447185 0.01097815 0.007418644 0.004517204
0.02746511 0.008958765 0.01033092 0.07349945 0.08115961 0.044153772 0.0010586297 0.096841395
0.007099196 0.0045435987 0.004039485 0.018609004 0.042194385 0.018660642 0.0035731297 0.002429521
