experiments/model_repositories/uav_sound/wildfire_detection/model_files/block_14.pth (torch, 59843 bytes, 5 tensors)

weight f4 [64, 192, 1, 1]
00000000: cae6 c33d b9f3 c7bd f153 163e 1282 b8bd
00000010: 4dc9 893e 0c1d 66bc a6bf e2ba ad25 ff3d
00000020: 1071 113d e19f 193d 7809 e9bd 00a8 a7bd
00000030: 892a 5d3c 086c dfbd 6247 f03c 74c8 d4bd
00000040: ad5e d7bc fad1 59bd bffb f8bd 2d45 23bb
00000050: 7434 ecbc 4ee3 9dbc f2cb 093e 38c6 07be
00000060: 2743 84bd 86db ba3c 9157 523d 15df 6ebd
00000070: ead3 57bd 5287 fb3d bbd5 78bd d657 93bd
00000080: 1e52 37be 8512 033e b703 0a3e 26e1 69bb
00000090: a2ba 673d fc62 fd3b 91ce 9b3d ff0a 95bd
000000a0: 2305 26bd 7910 ce3c 6065 91bd 1685 cdbc
000000b0: 7df4 11bc 7b61 343c dfef bfbd 7fcf dabd
000000c0: b0be 55be d676 e1bc 70cd 54bd ef3b 85be
000000d0: 8235 88be 9a49 afbb bf75 173c 2ff8 b73c
000000e0: a613 efbd 293c b83c 24da a93d ae40 e43c
000000f0: e8c8 abbd d8a2 dcbc 9210 5c3d 3ebd cc3c
00000100: 1292 59bd 647f 363d ce7c a33b 6308 babd
00000110: 30ac 81bd 3900 43bc 5b63 5d3c fa0d 033b
00000120: 0c0b 2bbe babb 82be ab3f 1e3e 2dd9 98bd
00000130: b36a 81bd 1557 40be afbd e6bd f58c 2d3e
00000140: 5642 913d f123 223d e2f2 c43d 80ca c03d
00000150: c500 b6bd 63e3 d0bc 016e a6bb 12d3 b83d
00000160: 0012 433e d081 aabd 7993 9f3d 40c4 8d3d
00000170: 805b d2bd c48f 943d 9900 343e 58e7 363d
00000180: 3309 62bd 3473 193d f2d4 c23c 0543 2ebd
00000190: 0549 a9bd 87ad 4f3e a167 93bd 8582 813d
000001a0: cdad 45bc 19d8 3bbe 250c 00be bd6d 9e3d
000001b0: 6095 d5bc e63b f23d 2404 d63d b018 e33c
000001c0: 3b59 663d ee34 de3c 52bc ee3d 869d af3d
000001d0: 3d60 4bbc 94da 173e 78fc 13bd 71be 163d
000001e0: edf5 a73d 5653 cebd de37 aebd 9a0a aa3d
000001f0: 2d87 c23c e179 443d 9906 c3bc 05c9 773d
00000200: 5d5a df3d 75fd 453d 3e8c 39be 78f5 77bd
00000210: 4fe5 613d 1574 81bd 1236 573d 4553 8e3d
00000220: d2db c4bd 8cb5 0ebc f7b8 5cbd 699a c2bd
00000230: b49e 3fbc 85e0 e5bd 5152 653d 8a4c 85bd
00000240: 3c2d 0f3e c67a 0d3e 18be 193e 4853 213d
00000250: 2e20 dc3c d7a1 fa3d 318e cd3c 9155 fa3c
00000260: 5466 80bd 703f ef3d 0794 083e f9d9 a93d
00000270: ec12 9c3c ec3a 0b3d 6ab4 423d d10e 9abd
00000280: 3633 013c a248 c1bb 3343 8fbd 2f77 153e
00000290: c4af 973d fa84 7dbd d36a 223b a71c 453c
000002a0: eb62 8a3d f0dc 90bc 79b6 a93d 3ac7 e5bc
000002b0: a808 d5bb 74f9 b5bd f0db 96bb dd62 cdbd
000002c0: 90ed 9e3c f14c c63d ce0f 553e af64 fd3d
000002d0: 4401 56be bad3 15bd 19c5 193e 8cf6 723d
000002e0: ab09 13bc eb9c 8f3d 3b1d dabd d87b 08bc
000002f0: 9d58 16be ae00 f13c ed66 3fbc 7689 493e
00000300: df56 7bbd b326 1a3d 973e f8bc 4a44 113d
00000310: 4965 753e 5a33 2dbd 723d 343d ba0b 9cbd
00000320: 59a5 1bbd ca63 ba3d 4a29 a5bd 72e5 51be
00000330: 8df0 c93d 0e5b 483e 90c2 64be 0e31 36bd
00000340: 2c71 393c c178 05bd 79d5 14bc b9b3 b4bd
00000350: 9f19 f53c 2905 86bd 48e3 e2bd 2cc0 dcbd
00000360: 4a57 15be 002f d23b 2a7e 8b3e edf1 0e3e
00000370: 05e8 853d c43a 8dbe 0625 24be 26fe 3ebe
00000380: 90da d13d 1033 19bd 332c 863d 8027 5fbe
00000390: b02b c53d fa4b 25be 7081 31be 80fd 07be
000003a0: aa94 98bd 6210 c23d 3d79 8abe d062 b9bd
000003b0: 733c 543d edf6 983d 9aec 63bd c1f7 4bbe
000003c0: b04e 683d c41d aebd 8892 b03c 857a 733e
000003d0: f713 1ebd 9e3e 8f3d f829 48bb d65f 77bd
000003e0: fdf2 da3d fa9e f13c d6e7 3d3e e601 953d
000003f0: a231 1d3d 9a84 f63d 0e11 3abe 8aed 373b
0.09565504 -0.09763283 0.14680459 -0.09009184 0.26911393 -0.014045011 -0.0017299547 0.12458358
0.035508215 0.037505988 -0.11378759 -0.0818634 0.013498911 -0.10909277 0.029330913 -0.10389796
-0.026290262 -0.053178765 -0.12157392 -0.0024913058 -0.028833605 -0.019273426 0.13456705 -0.13259208
-0.06458121 0.022809755 0.05135304 -0.058318216 -0.05269233 0.1228167 -0.060750704 -0.07194488
-0.17902419 0.12800033 0.1347798 -0.0035687177 0.05657447 0.007732747 0.07607759 -0.07277488
-0.040532243 0.02515434 -0.07099414 -0.025087874 -0.008908388 0.011009569 -0.09371924 -0.10684108
-0.20873523 -0.027522486 -0.051953733 -0.26022288 -0.26603323 -0.00534935 0.009244381 0.02245721
-0.116736695 0.022489624 0.0829356 0.027862873 -0.08387929 -0.026933119 0.05372674 0.024992581
-0.05311782 0.044555083 0.004989243 -0.09083631 -0.0633167 -0.011901909 0.013512458 0.0019997344
-0.16703433 -0.2553385 0.15453975 -0.07463298 -0.063191794 -0.18783219 -0.11266648 0.16948302
0.07092731 0.039585058 0.09616639 0.09413624 -0.088868655 -0.025499051 -0.0050790315 0.090246335
0.19049835 -0.08325541 0.077918 0.06922197 -0.102713585 0.072539836 0.17578353 0.04465422
-0.055184554 0.037463382 0.02378318 -0.042544384 -0.082658805 0.20281039 -0.071975 0.06323723
-0.012065363 -0.18344153 -0.12504633 0.07735775 -0.026072204 0.11827831 0.104500085 0.027721733
0.05623744 0.027124848 0.11657013 0.08574967 -0.012413082 0.14829475 -0.036129445 0.036802713
0.082012035 -0.10074489 -0.085067496 0.08302803 0.023746097 0.047967795 -0.023806857 0.06049444
0.10905907 0.04833742 -0.18119904 -0.06053683 0.055150326 -0.06320969 0.0525418 0.06949476
-0.0961224 -0.008710276 -0.053887334 -0.09502108 -0.011695553 -0.11224464 0.055986706 -0.06508739
0.139821 0.13816366 0.15013921 0.039386064 0.026870813 0.122379 0.025092216 0.03055838
-0.062695175 0.116820216 0.13337718 0.08293528 0.019051991 0.03399174 0.047535338 -0.07522357
0.007885745 -0.005898551 -0.06995239 0.14596246 0.074065715 -0.061894394 0.002478291 0.012030757
0.06757148 -0.017683476 0.08286757 -0.0280491 -0.006501276 -0.0888547 -0.0046038553 -0.10028622
0.019400388 0.09682644 0.2080681 0.123727195 -0.2089892 -0.03657887 0.15016593 0.059317157
-0.008974473 0.070123516 -0.106501065 -0.008330308 -0.14682241 0.02941927 -0.011682254 0.19681343
-0.061362144 0.037634563 -0.030303283 0.035465516 0.23964418 -0.0422853 0.04400391 -0.07619424
-0.037999485 0.091010645 -0.08064516 -0.20497683 0.098603345 0.19565985 -0.22339845 -0.044480376
0.011318486 -0.032585863 -0.009084099 -0.08823342 0.029919444 -0.06543953 -0.11078507 -0.107788414
-0.1458408 0.0064142942 0.27244693 0.13959475 0.06538395 -0.27583897 -0.16029748 -0.18651637
0.102467656 -0.037402213 0.06551399 -0.21792412 0.09627473 -0.16142264 -0.17334533 -0.13280296
-0.074502304 0.09475781 -0.27045622 -0.0905205 0.05181546 0.07468972 -0.055645563 -0.1991873
0.056715667 -0.08501771 0.021554247 0.23777206 -0.03859326 0.06994365 -0.0030542593 -0.06039413
0.106908776 0.029494751 0.1854547 0.07275753 0.03837741 0.120370105 -0.18170568 0.0028065168

weight f4 [64]
00000000: 2104 da3e ce0f f23e 2727 e23e 8956 ca3e
00000010: 12fd eb3e 71a8 033f 2500 ef3e 368b db3e
00000020: 2e05 c23e 4e5f d43e 723e 033f ffbc f93e
00000030: 0060 0a3f 13cf e33e 810e 003f 3aae 0b3f
00000040: 6ba9 f23e cc9d 043f fa46 c43e 9178 0e3f
00000050: ffb3 0b3f 4464 ed3e b00a e23e c4f7 dc3e
00000060: 4cbc cd3e fb73 ea3e dc26 c83e 5431 ff3e
00000070: ef0a b43e 5b12 f23e 4ccb ba3e 39aa 043f
00000080: adf2 ec3e 2302 073f abb2 cf3e b0cc 313f
00000090: 7213 e23e 4a35 d53e 9a9f f93e 9e75 123f
000000a0: f466 003f 9ef7 e43e c64b 0d3f 4a9d d73e
000000b0: 1896 a23e 7bd7 0d3f 81b3 c93e a725 c53e
000000c0: f639 de3e 5ef5 143f 8804 c13e 2545 b63e
000000d0: 5aa2 dc3e d8ff e73e 3fe5 003f 0249 d43e
000000e0: 75b3 c53e 97f3 e73e 0570 e03e 72a8 a63e
000000f0: c7e3 b23e 9837 2c3f 49d2 093f bfd8 dd3e
0.42581275 0.47277683 0.44170496 0.39519146 0.46091515 0.51428896 0.46679798 0.42879647
0.37894577 0.41478962 0.5126716 0.48777005 0.54052734 0.44493923 0.5002213 0.54562724
0.4739488 0.5180328 0.383354 0.5565272 0.5457153 0.4636556 0.4414878 0.4315778
0.40182722 0.4579161 0.39092147 0.49842322 0.35164592 0.4727963 0.36483228 0.5182224
0.46278897 0.52737635 0.40566 0.69452953 0.4415546 0.4164222 0.4875458 0.5721072
0.50157094 0.44720167 0.55193746 0.4211219 0.31755137 0.5540692 0.39394763 0.3850529
0.43403596 0.581869 0.3769877 0.35599628 0.43092614 0.4531238 0.503498 0.4146195
0.38613477 0.45303032 0.43835464 0.3255039 0.34939405 0.6727233 0.53836495 0.43329427

bias f4 [64]
00000000: e3f6 e935 836f 2836 fd51 18b6 273c 9136
00000010: 17bf 9334 d04d 39b6 c8e0 79b6 6484 5136
00000020: a474 25b5 547d 2d36 23e7 8cb6 c756 0736
00000030: 964a dfb5 5530 5b36 3947 5e34 b653 fcb5
00000040: 9fcd bab5 411d ab36 4645 4034 cc8c a436
00000050: 119c 60b5 80d2 7136 5ad2 ea34 6358 14b6
00000060: 4a7c 65b6 3a9b 7db6 d57e 1fb6 8c5d c135
00000070: ae27 d335 41d6 71b6 ba94 3835 4f13 09b5
00000080: 8a31 60b5 5a76 3136 5745 1736 38ac 6cb5
00000090: dcf6 1bb6 c3fe 8cb5 b777 5db6 297d 0336
000000a0: 3cad 6836 fce4 0ab6 2898 3bb6 5a50 25b6
000000b0: 50d6 94b6 0765 7536 0a6e e6b4 6af1 98b4
000000c0: 659a 59b5 d218 80b6 5eed c835 50b8 dcb5
000000d0: e2dd 0fb6 0fe4 f1b6 8711 e936 5193 6a36
000000e0: e8d1 4e35 9ce6 deb5 4332 7235 7200 8336
000000f0: 9e7d b836 3ffe 13b5 ea48 8f36 cba2 59b6
1.7431706e-06 2.509886e-06 -2.2697488e-06 4.3283394e-06 2.751992e-07 -2.761244e-06 -3.7234731e-06 3.1220488e-06
-6.1637024e-07 2.585196e-06 -4.199233e-06 2.0167079e-06 -1.6636502e-06 3.2661676e-06 2.0701272e-07 -1.8799826e-06
-1.3917924e-06 5.0996027e-06 1.7906595e-07 4.903972e-06 -8.367361e-07 3.6034326e-06 4.3738947e-07 -2.2105166e-06
-3.4196005e-06 -3.7790292e-06 -2.3766672e-06 1.4406846e-06 1.5732273e-06 -3.603651e-06 6.8761767e-07 -5.1064575e-07
-8.351859e-07 2.6443945e-06 2.2541115e-06 -8.816746e-07 -2.324049e-06 -1.0504958e-06 -3.300125e-06 1.9593374e-06
3.467153e-06 -2.069689e-06 -2.7953738e-06 -2.4633687e-06 -4.435693e-06 3.656665e-06 -4.2920902e-07 -2.8487858e-07
-8.1063473e-07 -3.8175867e-06 1.4970244e-06 -1.6444919e-06 -2.1437813e-06 -7.208909e-06 6.9459816e-06 3.4954467e-06
7.7046434e-07 -1.6607405e-06 9.0225166e-07 3.904156e-06 5.498251e-06 -5.5131744e-07 4.2702204e-06 -3.2430278e-06

running_mean f4 [64]
00000000: c026 bc3e ddc5 da3d ea21 033f e705 2cbb
00000010: fa4c db3e 932a 543d 0b0e debd 4763 1c3f
00000020: 8b2f 713d 18d0 a3bf 8a9d 843f 7f3a 41bf
00000030: 20b1 20bd 1661 bf3e 9892 a8be c1fc d9bd
00000040: 75b2 633e d4de 763e d315 cf3d b52b 653e
00000050: 6b5d 993d fd0c 223f b4b2 03bf 952f a0be
00000060: f9b2 77bd dbc4 ef3d 8dfc 10bf c44f 203f
00000070: 4128 fbbd e3b7 733f fbae 82bd 8f44 54be
00000080: 03e5 44bf 4f6c babe 4b1a 8cbe 3c51 813d
00000090: a5c0 8f3d 1295 5d3d 26b1 633f ef57 813e
000000a0: 4b24 46bf 393a 16bf 4339 0e3f fc5d 093f
000000b0: 7d96 e83e b02c 943c deab aebd 2198 653e
000000c0: df5e f7be 929a 61be d6bd d4be 9b54 0abe
000000d0: 39bd 55bf c7e7 dabe 70cf 40bf 0258 283d
000000e0: 4239 3bbf d546 583f 5b92 63be 02fd 413e
000000f0: afb7 543e 79b7 c7be 62a1 5ebf 9971 403e
0.36748314 0.10682271 0.51223624 -0.0026248635 0.42832166 0.051798414 -0.10842522 0.61088985
0.05888323 -1.279788 1.0360577 -0.7547988 -0.03923142 0.37378758 -0.32924342 -0.10643912
0.22236045 0.2410844 0.101115845 0.22379954 0.07488521 0.6330107 -0.51444554 -0.31286302
-0.060473416 0.11707469 -0.5663536 0.6262171 -0.12263537 0.95202464 -0.06381031 -0.20729278
-0.76911944 -0.36410758 -0.2736381 0.06314322 0.07019166 0.054097243 0.8894218 0.252624
-0.7739913 -0.5868259 0.55556124 0.53659034 0.45427313 0.018087715 -0.08528875 0.22421314
-0.48314568 -0.2203162 -0.41551083 -0.13508837 -0.83491856 -0.42754957 -0.75316525 0.041099556
-0.73134243 0.8448308 -0.22223799 0.18944171 0.20773195 -0.39007166 -0.86965 0.18793334

running_var f4 [64]
00000000: 0c22 c73d 5881 373e 362d 143e 292a f23d
00000010: 7751 e83d 63b3 163e 01fb e93d 10a7 eb3d
00000020: 1954 cc3d bf9b eb3d 9694 283e 7f5d 063e
00000030: 48a0 7d3e 502e 203e aeb1 ac3e 958a 873e
00000040: 4f8a 133e 1ed5 613e 3357 943d 9d3c 213e
00000050: 3905 4c3e eb54 c53d 591f 043e 2ccc 263e
00000060: bfd8 253e 6d30 233e 27b3 c33d 5519 563e
00000070: 9af5 563d 5bb7 d53d 7f17 dc3d 2b56 173e
00000080: 8cbf 193e 0e47 5b3e de25 d63d 10e7 db3e
00000090: e83c 153e 88f0 b43d 6e00 df3d e0b3 2d3e
000000a0: 3ebd 023e 10ba 463e 6761 2e3e d397 1b3e
000000b0: 28bb 7a3d 20b7 043e c526 b33d f61d 943d
000000c0: 38a6 0b3e f24b a63e ed81 723d dfe6 9b3d
000000d0: 5bc6 e43d 209b 163e 4444 3d3e 3655 f93d
000000e0: 4cbb d03d 26c3 dc3d d734 483e a2df 163e
000000f0: 57ab 863d 3fce ca3e 6f9b 1f3e e33c 263e
0.09723291 0.17920434 0.14470372 0.11824448 0.11343663 0.14716868 0.11424828 0.11506474
0.09976978 0.115043156 0.16462931 0.13121603 0.24768174 0.15642667 0.3372931 0.26472917
0.1440823 0.22053954 0.072431944 0.15745778 0.19923867 0.096353374 0.12902583 0.16288823
0.16195963 0.15936442 0.09555655 0.20908101 0.052480318 0.10435363 0.10746669 0.14778964
0.15014476 0.21413824 0.10456441 0.42949724 0.14574015 0.0883494 0.10888754 0.16963148
0.12767503 0.19406915 0.17029344 0.15194635 0.061213642 0.12960482 0.08747629 0.07232277
0.13637626 0.32479817 0.059205938 0.076123945 0.11170646 0.14707613 0.18483073 0.12174456
0.10191974 0.10779409 0.19551407 0.14733747 0.06575649 0.39610478 0.15586637 0.16234164
