experiments/model_repositories/robot_sound/sound_classification/model_files/branch_03.pth (torch, 7596 bytes, 2 tensors)

weight f4 [10, 64]
0.06804211 -0.19409955 0.28777784 0.041917715 -0.17788397 0.35293508 -0.1758658 -0.3052305
-0.0068494724 0.29536492 -0.29779893 0.039802294 -0.06434015 0.3142511 -0.22804427 -0.08800271
-0.099388994 -0.16660942 -0.077068605 -0.027452653 -0.024315545 0.0077305837 -0.08169358 0.2182082
0.09278875 0.14830363 -0.23001516 -0.17007409 0.045381587 -0.033085242 -0.022887275 -0.051177632
-0.3786131 0.45851475 0.0026143547 -0.08050878 0.11367767 0.20460118 0.07831997 0.10534414
-0.004920381 0.114329964 0.016461518 0.11163894 0.19373414 -0.008484003 -0.014173857 -0.08323109
0.13379197 -0.004012763 0.08712771 -0.04089903 -0.046848115 -0.13810386 0.34948403 0.012195588
-0.14555775 -0.00059307367 -0.041588742 0.014089302 0.31128347 -0.45056424 0.22268449 0.010081358
0.12365669 0.123557195 0.08054393 -0.11938691 -0.14226975 -0.14530003 -0.013635235 0.264469
-0.019692546 0.049325276 0.008140359 0.13428102 -0.1443761 -0.06941445 0.32685262 -0.04799168
0.26156887 0.14005354 0.08969818 -0.00057388836 -0.09209982 -0.007103413 -0.0506426 -0.03776148
-0.03229154 -0.02445481 -0.3577264 0.0017835993 0.15952514 -0.0906864 0.097101875 0.069284156
0.06677897 -0.4331553 0.07092756 0.18318881 -0.18999106 -0.09184897 0.28785038 -0.09783472
0.0670562 0.21392265 -0.08715076 0.020303184 -0.047452983 0.18069449 -0.21368542 0.14580008
0.04438624 0.012785906 0.10318404 0.17199378 -0.012901951 -0.09588598 -0.22573815 -0.13118595
0.03330818 -0.0012644363 -0.06297069 -0.07257062 0.08423015 0.03261972 -0.18175058 -0.0086141955
-0.09151877 -0.111970365 0.004734946 -0.1585892 0.032554246 -0.21112119 -0.09594042 0.47558382
0.03416057 0.062766306 0.15140447 0.22931373 -0.055451766 0.059539825 -0.078848384 0.04276667
-0.099590234 -0.35589206 -0.17850536 0.0031631545 0.022607217 -0.007733074 -0.024697436 -0.08675028
-0.06569654 0.038637478 0.43915465 0.07905801 -0.24227916 0.096974485 -0.05648792 0.041796796
-0.070941895 -0.08923407 -0.35875165 0.14252187 -0.24754192 0.17292 -0.43022165 0.09957104
-0.022090131 -0.18266858 0.08855359 -0.00029302193 -0.15656184 0.2405232 0.5032391 -0.08072109
0.24472506 -0.00034133048 0.12442508 -0.29742372 -0.008003854 0.1762741 0.20119138 0.12558879
0.07995348 0.00521075 -0.09062855 -0.18120673 -0.13074324 0.010967446 -0.1364878 0.023873694
0.014232942 0.24004427 -0.07943211 0.054584768 -0.017311476 -0.03785274 0.0638859 -0.08356673
-0.09679183 -0.117295295 -0.28608528 -0.08779729 0.12204765 -0.20022492 -0.24882041 0.16575353
-0.3218501 0.21111669 0.1717596 0.005062084 0.16004968 -0.00111445 0.013667245 -0.059058834
0.05089994 -0.12918185 -0.002590591 -0.09384836 -0.15032943 5.180361e-06 -0.12765382 -0.04634526
-0.14482208 -0.14558806 0.12598836 -0.015064212 -0.11987685 -0.053600986 -0.12866688 -0.17179237
0.4522817 -0.11602443 0.20825803 0.022690091 0.005567683 -0.06342705 0.09094471 0.4748767
0.15323764 0.0126529485 -0.084429145 -0.0013229804 0.0328116 0.0044479542 0.33344397 0.07585919
-0.0159028 0.0029427218 0.056325406 0.25731388 -0.14317106 0.31521872 -0.06537202 -0.01141448
00000000: a959 8b3d 08c2 46be 9e57 933e e9b1 2b3d
00000010: 3727 36be e8b3 b43e 2a16 34be 2c47 9cbe
00000020: 8a71 e0bb 123a 973e 1a79 98be bb07 233d
00000030: c5c4 83bd 85e5 a03e 7084 69be c43a b4bd
00000040: 758c cbbd a99b 2abe 25d6 9dbd 63e4 e0bc
00000050: 6531 c7bc d650 fd3b f74e a7bd f871 5f3e
00000060: 0708 be3d e8dc 173e 1889 6bbe e727 2ebe
00000070: 0be2 393d 6484 07bd 187e bbbc a39f 51bd
00000080: 94d9 c1be 72c2 ea3e 9855 2b3b cae1 a4bd
00000090: d7cf e83d f982 513e 3866 a03d abbe d73d
000000a0: 263b a1bb d425 ea3d 4eda 863c f5a2 e43d
000000b0: 3e62 463e 7d00 0bbc 7739 68bc 1075 aabd
000000c0: c300 093e 7f7d 83bb 0370 b23d be85 27bd
000000d0: cfe3 3fbd 196b 0dbe 92ef b23e 01d0 473c
000000e0: 170d 15be 8078 1bba f558 2abd d1d6 663c
000000f0: 8c60 9f3e 5bb0 e6be 6707 643e 482c 253c
00000100: b83f fd3d 8e0b fd3d 37f4 a43d 2081 f4bd
00000110: 29af 11be 88c9 14be 5266 5fbc 7b68 873e
00000120: 4352 a1bc 4d09 4a3d 245f 053c f780 093e
00000130: 54d7 13be 2a29 8ebd 3a59 a73e ed92 44bd
00000140: 5bec 853e 326a 0f3e aeb3 b73d ff70 16ba
00000150: d59e bcbd bfc3 e8bb 9d6e 4fbd c8ab 1abd
00000160: 2244 04bd 7455 c8bc ea27 b7be a9c7 e93a
00000170: 8f5a 233e cbb9 b9bd 59dd c63d dae4 8d3d
00000180: 6ac3 883d 88c6 ddbe 7842 913d d995 3b3e
00000190: 048d 42be 501b bcbd 2061 933e 925d c8bd
000001a0: c354 893d 8a0e 5b3e 197c b2bd dd52 a63c
000001b0: 0f5e 42bd fa07 393e 5ad0 5abe 9e4c 153e
000001c0: 59ce 353d fa7b 513c 2752 d33d 231f 303e
000001d0: b462 53bc de5f c4bd e727 67be 9c55 06be
000001e0: 286e 083d 71bb a5ba c7f6 80bd e89f 94bd
000001f0: db80 ac3d 419c 053d d31c 3abe 8e22 0dbc
00000200: 316e bbbd b850 e5bd 9b27 9b3b 3565 22be
00000210: 9a57 053d 2730 58be 697c c4bd b97f f33e
00000220: f4eb 0b3d 9f8b 803d c609 1b3e 38d1 6a3e
00000230: 6421 63bd 08e0 733d 437b a1bd 1b2c 2f3d
00000240: f7f5 cbbd 7c37 b6be 1cca 36be ed4c 4f3b
00000250: c532 b93c ba65 fdbb 4752 cabc 21aa b1bd
00000260: e88b 86bd 5542 1e3d e1d8 e03e 2ae9 a13d
00000270: 0718 78be 8f9a c63d e15f 67bd 1e33 2b3d
00000280: fc49 91bd 5ac0 b6bd 4cae b7be 41f1 113e
00000290: a17b 7dbe f111 313e 0346 dcbe e7eb cb3d
000002a0: 5df6 b4bc 790d 3bbe 965b b53d bda0 99b9
000002b0: bf51 20be b74b 763e 47d4 003f 1951 a5bd
000002c0: 3599 7a3e 9af4 b2b9 94d2 fe3d ec47 98be
000002d0: 9922 03bc 3381 343e 1d05 4e3e 599a 003e
000002e0: a6be a33d f0be aa3b 769b b9bd 428e 39be
000002f0: 8ee1 05be cdb0 333c 75c3 0bbe c492 c33c
00000300: 4931 693c 2ace 753e 4dad a2bd 4794 5f3d
00000310: ccd0 8dbc 7a0b 1bbd 9cd6 823d 0925 abbd
00000320: cc3a c6bd 8438 f0bd c579 92be 11cf b3bd
00000330: 1ef4 f93d c307 4dbe c7ca 7ebe 4bbb 293e
00000340: 89c9 a4be f92e 583e c0e1 2f3e d7df a53b
00000350: 10e4 233e bd12 92ba 95ec 5f3c ade7 71bd
00000360: 757c 503d 3f48 04be e8c6 29bb 9233 c0bd
00000370: f5ef 19be f6d2 ad36 afb7 02be 87d4 3dbd
00000380: 3d4c 14be 0915 15be 1803 013e e2cf 76bc
00000390: fe81 f5bd b58c 5bbd 40c1 03be 57ea 2fbe
000003a0: 7891 e73e 379e edbd 9841 553e 92e0 b93c
000003b0: 1c71 b63b 0be6 81bd 3841 ba3d 0a23 f33e
000003c0: 54ea 1c3e 504e 4f3c 30e9 acbd db67 adba
000003d0: 7565 063d 25c0 913b 2bb9 aa3e 105c 9b3d
000003e0: 9746 82bc aeda 403b 78b5 663d a5be 833e
000003f0: 6f9b 12be 5964 a13e c4e1 85bd cd03 3bbc

bias f4 [10]
0.07971311 -0.04140261 0.057218406 -0.063154 -0.04614538 0.011644399 -0.026494088 0.0076370393
-0.02010633 0.04108902
00000000: a140 a33d c895 29bd d95d 6a3d e256 81bd
00000010: f002 3dbd 26c8 3e3c 210a d9bc 2140 fa3b
00000020: 08b6 a4bc f64c 283d
