experiments/model_repositories/obj_sign_sound/sign_recognition/model_files/block_10.pth (torch, 86347 bytes, 15 tensors)

weight f4 [32]
0	0x3e84493b	0.2583712
1	0x3e851d4f	0.25998923
2	0x3e7f1bee	0.24912998
3	0x3e83c7ea	0.2573846
4	0x3e837ac2	0.25679594
5	0x3e84f476	0.2596776
6	0x3e81767b	0.25285706
7	0x3e853bf0	0.2602229
8	0x3e80cf26	0.25158042
9	0x3e86005b	0.26172146
10	0x3e848d14	0.25888884
11	0x3e8260f9	0.2546461
12	0x3e885927	0.26630518
13	0x3e7b1457	0.24519478
14	0x3e808756	0.25103253
15	0x3e8496ed	0.25896397
16	0x3e7ba140	0.2457323
17	0x3e866bee	0.2625422
18	0x3e841def	0.25804088
19	0x3e86f761	0.2636061
20	0x3e80e8e4	0.2517768
21	0x3e7a3a45	0.2443629
22	0x3e7d79db	0.24753515
23	0x3e83874d	0.25689164
24	0x3e8782c4	0.26466954
25	0x3e70aaf4	0.23502713
26	0x3e8778a4	0.2645923
27	0x3e83d753	0.25750217
28	0x3e823cf7	0.25437137
29	0x3e8294c6	0.2550413
30	0x3e7e420b	0.24829881
31	0x3e7eb4f3	0.24873714

bias f4 [32]
0	0x30da1ec5	1.5870333e-09
1	0xb1af66bd	-5.1048503e-09
2	0xb11632f3	-2.1856834e-09
3	0xb080f47b	-9.382711e-10
4	0x3195664c	4.3481005e-09
5	0x313fc66a	2.7906943e-09
6	0x3180df42	3.7506718e-09
7	0x31523774	3.0590543e-09
8	0x31563636	3.1171914e-09
9	0x31315afd	2.580861e-09
10	0x31003558	1.8656774e-09
11	0x31eedbce	6.9517005e-09
12	0x31195466	2.2312405e-09
13	0x2f8341fd	2.387565e-10
14	0xb1b00966	-5.1233426e-09
15	0xb16e068a	-3.4637275e-09
16	0x310a441a	2.0120354e-09
17	0xafe0b136	-4.0871279e-10
18	0xb0897d4d	-1.0003675e-09
19	0x31e9e892	6.8076327e-09
20	0xb13d0fed	-2.7512173e-09
21	0xb1dfa0d0	-6.5084365e-09
22	0xb1c09f0e	-5.606018e-09
23	0xb0b10b28	-1.2881616e-09
24	0xb1a39d22	-4.7617883e-09
25	0x30e1619c	1.6398647e-09
26	0xb1f44ccc	-7.1100654e-09
27	0x309043a2	1.0496601e-09
28	0x30eeb816	1.73691e-09
29	0x2e69a395	5.3123356e-11
30	0x30260d97	6.040976e-10
31	0x309e933c	1.153786e-09

running_mean f4 [32]
0	0xbb1f5509	-0.002431216
1	0x3d11b510	0.035573065
2	0xbc9e01a2	-0.019287888
3	0x3c309cb7	0.010779551
4	0x3d17ab9e	0.0370289
5	0xbdfdf0f4	-0.12399474
6	0xbd355eee	-0.044279985
7	0x3c8beba5	0.017080138
8	0x3ddbf708	0.10740477
9	0xbd7e853b	-0.062138777
10	0xbdb45de9	-0.088069744
11	0xbc47b034	-0.012188006
12	0x3d32ebb1	0.043681804
13	0x3be837e0	0.007086739
14	0x39e5991d	0.00043792362
15	0x3cfe7485	0.03106142
16	0xbc5debc3	-0.0135449795
17	0x3d0e6fa4	0.034774438
18	0x3d3f15c0	0.0466516
19	0xbdfa14e5	-0.122110166
20	0xbd111e33	-0.03542919
21	0x3cb718ed	0.022350753
22	0x3c82a283	0.015946632
23	0x3d631af0	0.05544561
24	0x3bf54ea9	0.0074861837
25	0xbdbac592	-0.09119715
26	0xbd9e7290	-0.07736695
27	0xbbcbd4fb	-0.0062204576
28	0xbda921e2	-0.08258416
29	0x3cad9c6e	0.021192756
30	0xbce6d7f5	-0.028179148
31	0x3d487246	0.048937105

running_var f4 [32]
0	0x3cdc44f3	0.026888346
1	0x3ca1a2db	0.019730976
2	0x3cbce523	0.02305848
3	0x3cb0d6ca	0.021586794
4	0x3c981a59	0.018567251
5	0x3c92675b	0.01787155
6	0x3cd8560e	0.026408222
7	0x3c949f61	0.018142404
8	0x3c90105f	0.017585931
9	0x3ca009bc	0.019535892
10	0x3ce3dd5d	0.027815515
11	0x3c8af9c6	0.016964804
12	0x3cc9f42a	0.02465256
13	0x3c90422d	0.01760968
14	0x3d0f9dda	0.03506265
15	0x3c85e82a	0.016346056
16	0x3c9b2b4f	0.01894155
17	0x3caab9c8	0.02084054
18	0x3caf181a	0.021373797
19	0x3cf2c70a	0.029635925
20	0x3cc67cff	0.024229525
21	0x3cef8529	0.0292383
22	0x3d0b35d9	0.0339869
23	0x3ccc9470	0.024973124
24	0x3c877544	0.016535409
25	0x3cfef2ab	0.031121572
26	0x3ccf9f96	0.025344651
27	0x3cbd1a7e	0.023083922
28	0x3c8f3e44	0.017485745
29	0x3ca632de	0.020287927
30	0x3cc04f08	0.023475185
31	0x3cb671e3	0.022271102

weight f4 [32, 192, 1, 1]
0	0x3c99d15d	0.01877659
1	0xbc96e222	-0.018418375
2	0x3d775111	0.060380045
3	0xbd73dc47	-0.059536245
4	0x3d7831cc	0.060594365
5	0x3d801455	0.06253878
6	0xbdcb51cc	-0.09927711
7	0xbbfb5beb	-0.0076708696
8	0x3c7d8f47	0.0154760545
9	0x3de15ea4	0.110043794
10	0x3de46a5d	0.111531
11	0xbce59d68	-0.028029159
12	0xbdc5b3d1	-0.09653438
13	0x3d157183	0.036485206
14	0x3a22a851	0.00062048907
15	0x3df3a942	0.11897518
16	0xbcd9fd40	-0.026610017
17	0xbc2f4c4d	-0.010699344
18	0x3cb1e406	0.021715175
19	0x3d58637d	0.052829254
20	0x3d480f5d	0.048842777
21	0x3d81d476	0.06339352
22	0x3d4cc469	0.049992
23	0x3ca2a1df	0.019852577
24	0x3c4a0f26	0.012332713
25	0xbcf1d542	-0.029520635
26	0x3c881fea	0.01661678
27	0x3dab80e1	0.08374191
28	0x3cc39a7e	0.023877379
29	0xbdfe2700	-0.124097824
30	0x3ca1d97a	0.019757021
31	0xbbc42bfa	-0.0059866877
32	0xbcc785ab	-0.02435573
33	0xbd25fac0	-0.040522337
34	0xbd3015b9	-0.042989466
35	0xbe0362bd	-0.12830634
36	0xbd06a0bd	-0.032868136
37	0x3bf03dd2	0.0073315883
38	0x3da12780	0.07868862
39	0x3c6f1050	0.014591292
40	0x3dc6c2b2	0.09705104
41	0xbd51d38d	-0.05122714
42	0xbc47c20d	-0.012192261
43	0xbca1ad14	-0.01973585
44	0xbaf90be0	-0.0019000731
45	0x3cb40c36	0.021978479
46	0xbcf35d85	-0.02970768
47	0x3d5f471f	0.054511186
48	0xbd9c77ae	-0.076400146
49	0xbd6b34c6	-0.057423376
50	0xbcda2ba1	-0.026632132
51	0xbcd22d0a	-0.025656242
52	0xbb4c11c0	-0.003113851
53	0xbd4bb3f9	-0.049732182
54	0xbc7a6158	-0.015281998
55	0xbd143118	-0.036179632
56	0xbdd6a49e	-0.10480617
57	0x3dbef68c	0.09324369
58	0xbce0eb0f	-0.027455835
59	0xbbd6d4de	-0.0065561375
60	0x3c0a1dce	0.008429958
61	0x3d8d6b1b	0.06905194
62	0x3d7bb45d	0.061451305
63	0x3d283a38	0.041071147
64	0xbd1c7e7e	-0.03820657
65	0xbc2d8178	-0.01058995
66	0x3d18d845	0.037315626
67	0x3d82ca71	0.06386269
68	0x3cd32c1d	0.02577787
69	0x3adecc80	0.0016998202
70	0xbc7ab94d	-0.015302968
71	0x3bd2ad97	0.006429385
72	0xbcf19566	-0.029490184
73	0xbe131c2c	-0.14366215
74	0x3c0779dd	0.008268801
75	0x3b998c61	0.004685924
76	0x3e032f0e	0.12810919
77	0x3c968f91	0.018379005
78	0xbe07866c	-0.13234872
79	0x3d036337	0.03207704
80	0xbdcbcd1a	-0.099512294
81	0xbc9bbd32	-0.019011114
82	0xbd951c29	-0.07280762
83	0x3dda6f5b	0.106657706
84	0x3cb97cb8	0.022642478
85	0xbd9ac0d4	-0.0755631
86	0x3d15f4dc	0.03661047
87	0xbc598015	-0.013275166
88	0xbd2c6c3a	-0.0420954
89	0xbc7af181	-0.015316368
90	0xbc79ae16	-0.015239259
91	0xbdc9cb8a	-0.09853275
92	0x3dd51282	0.10403921
93	0xbc0594a7	-0.008153117
94	0xbd8102db	-0.06299373
95	0xbd5f0b4f	-0.054454144
96	0xbd8f2719	-0.06989879
97	0x3d8d21e1	0.068912275
98	0xbcad6b09	-0.021169202
99	0x3d99f3da	0.07517214
100	0xbd8ca64b	-0.06867655
101	0x3cf96a17	0.030446095
102	0x3d6ba1af	0.05752724
103	0xbcbbd31c	-0.022927813
104	0xbd81ce3a	-0.06338163
105	0x3b4de304	0.003141583
106	0x3dd7117a	0.1050138
107	0xbbe03638	-0.006842401
108	0x3cf08988	0.029362455
109	0xbc7dcf42	-0.015491309
110	0x3e03997e	0.12851521
111	0x3d70922c	0.05873315
112	0x3dd98279	0.10620589
113	0x3c615a4d	0.01375444
114	0xbd2c5069	-0.042068873
115	0xbd98a6c8	-0.07453686
116	0x3d857cab	0.06517919
117	0x3c842c1a	0.01613431
118	0xbd1ad1ac	-0.037797615
119	0xbc12774e	-0.008939577
120	0xbc18ba99	-0.009321832
121	0xbceea4cd	-0.029131318
122	0xbd9ae0c0	-0.07562399
123	0xbd601887	-0.05471089
124	0xbd163aa8	-0.036677033
125	0xbcacd233	-0.021096325
126	0xbd9911f7	-0.0747413
127	0xbcd51be1	-0.02601427
128	0x3d0f2f14	0.034957007
129	0xbd103374	-0.03520532
130	0xbc4c367f	-0.012464165
131	0x3d0e9cb1	0.0348174
132	0xbe0fccbf	-0.14042948
133	0xbe467b2e	-0.19382927
134	0x3d4d2f2f	0.050093826
135	0x3cb3dadd	0.021954948
136	0xbd943436	-0.07236521
137	0x3cc2eca8	0.023794487
138	0x3d16e7f6	0.03684231
139	0xbcdd9c85	-0.027052173
140	0x3bfd7632	0.0077350372
141	0xbd768c25	-0.060192246
142	0xbd8e8ca7	-0.06960421
143	0x3c413843	0.011793199
144	0x3caf8509	0.02142574
145	0x3befb26e	0.0073149716
146	0x3d906504	0.07050517
147	0x3db23524	0.08701542
148	0xbd4e9a20	-0.050439954
149	0xbe06d8e4	-0.13168675
150	0xbda21fab	-0.079161964
151	0xbcfde809	-0.030994432
152	0x3cac30b9	0.021019327
153	0x3d3046af	0.04303616
154	0xbc404b25	-0.011736666
155	0x3d131757	0.03591093
156	0xbd19c649	-0.037542615
157	0xbd29c04b	-0.04144315
158	0x3dd5c13c	0.10437247
159	0x3c6f11e9	0.014591672
160	0xbd750a25	-0.059824128
161	0x3e302b18	0.17203939
162	0xbda76002	-0.08172609
163	0xbc03378b	-0.008008848
164	0x3c9b29f3	0.018940901
165	0xbd7a0ab5	-0.061045367
166	0xbde4ef4a	-0.11178453
167	0x3d37bd52	0.044858284
168	0xbd05f0c2	-0.032700308
169	0xbd0f57f9	-0.034996007
170	0x3d3874ec	0.04503338
171	0x3d9a9f72	0.07549943
172	0xbd11a7c7	-0.035560396
173	0x3b179f8c	0.0023135869
174	0x3d5e418e	0.054261737
175	0x3bc8a3b9	0.006123033
176	0xbd4982c9	-0.049196992
177	0x3e14b218	0.14521062
178	0x3ce648af	0.02811083
179	0x3d5dd566	0.05415859
180	0x3d1ed8d3	0.038781
181	0x3dd0e1b5	0.101993
182	0x3d8da731	0.06916655
183	0x3e04982a	0.12948671
184	0xbda1834e	-0.078863725
185	0x39ed550b	0.00045267525
186	0x3c59c2bf	0.01329106
187	0xbe23531a	-0.1594967
188	0xbc6a1896	-0.014288088
189	0x3c9ba1a6	0.018997978
190	0xbc155e44	-0.009116713
191	0x3df2c8cb	0.118547045
192	0xbd8b33f3	-0.06797018
193	0x3e0588a6	0.13040408
194	0xbdf684f1	-0.12037075
195	0x3bc32b70	0.005956106
196	0x3caf41b0	0.021393627
197	0x3d59be1f	0.05315983
198	0xbc44d4d3	-0.012013632
199	0x3df0e805	0.11763004
200	0x3dbb9caa	0.09160741
201	0xb6cfaacd	-6.1889646e-06
202	0x3d232027	0.039825585
203	0xbd864604	-0.06556323
204	0xbb76b575	-0.0037644778
205	0xbd20f4c0	-0.03929591
206	0xbcc747a9	-0.024326162
207	0x3c692e4d	0.01423223
208	0x3e0288d8	0.12747514
209	0xbd34fe7d	-0.04418801
210	0xbd445c57	-0.047939625
211	0x3df4c0ac	0.11950812
212	0xbcca35a8	-0.024683788
213	0xbbae3552	-0.005316415
214	0x3d2cb6a1	0.042166356
215	0xbd240fd8	-0.040054172
216	0xbadfe0eb	-0.0017080581
217	0x3d9a7ca1	0.07543302
218	0x3dc2d8ce	0.095140085
219	0x3cb796b0	0.02241072
220	0x3de6e412	0.1127397
221	0xbd3aaef0	-0.04557699
222	0x3da1bf0d	0.07897768
223	0xbc75bbfb	-0.014998431
224	0x3d5b0284	0.053469196
225	0xbd8665ed	-0.065624095
226	0xbcc9415f	-0.024567304
227	0x3ca6f8c7	0.020382298
228	0x3d76968b	0.060202163
229	0x3cc87de2	0.024474088
230	0xbd3b9bd4	-0.045802906
231	0xbcd6ad88	-0.026205793
232	0xbd206a84	-0.03916408
233	0x3d7efb88	0.062251598
234	0xbc456569	-0.012048104
235	0x3d147138	0.036240786
236	0xbdbc0b87	-0.09181886
237	0xbc7becff	-0.0153763285
238	0xbc5f5f69	-0.013633587
239	0xbc8af8ce	-0.016964342
240	0xbd87b183	-0.066256545
241	0xbdd11447	-0.10208946
242	0x3b58f97d	0.003310769
243	0x3d9278fc	0.07151982
244	0xbbf7aab1	-0.00755819
245	0xbd9e537c	-0.07730767
246	0x3cbbfdf9	0.022948252
247	0x3c312354	0.010811646
248	0xbd8429b2	-0.06453265
249	0xbc76cad3	-0.0150630055
250	0xbdcbf914	-0.09959617
251	0xbc11ac11	-0.0088911215
252	0xbd83506b	-0.06411823
253	0xbdb07a8b	-0.08617123
254	0x3d76eabd	0.060282458
255	0xbd27a1ff	-0.040925976

weight f4 [192]
0	0x3e819e2d	0.2531599
1	0x3e826b4c	0.25472486
2	0x3e7e5e21	0.24840595
3	0x3e811df4	0.25218165
4	0x3e801772	0.25017887
5	0x3e83954e	0.25699848
6	0x3e808f23	0.25109205
7	0x3e7fef45	0.24993618
8	0x3e8071e8	0.25086904
9	0x3e80fba2	0.2519198
10	0x3e7e9df5	0.24864943
11	0x3e823a29	0.25434998
12	0x3e856cdc	0.26059616
13	0x3e7d9f5d	0.24767824
14	0x3e816e7a	0.252796
15	0x3e85fd45	0.26169792
16	0x3e826589	0.2546809
17	0x3e83ff95	0.2578093
18	0x3e851054	0.2598902
19	0x3e826b7d	0.25472632
20	0x3e83a834	0.25714266
21	0x3e81dc0d	0.25363198
22	0x3e7fbd5a	0.24974576
23	0x3e804d53	0.25058994
24	0x3e84b108	0.25916314
25	0x3e83af5a	0.2571972
26	0x3e806261	0.25075057
27	0x3e7f78e3	0.24948458
28	0x3e84e8ff	0.25959012
29	0x3e813b1b	0.25240406
30	0x3e807a13	0.25093135
31	0x3e823708	0.2543261
32	0x3e813a73	0.25239906
33	0x3e81048c	0.25198781
34	0x3e80b1b1	0.25135568
35	0x3e823a36	0.25435036
36	0x3e8246cd	0.25444642
37	0x3e83772e	0.25676864
38	0x3e80a272	0.25123936
39	0x3e80a501	0.25125888
40	0x3e8254f1	0.2545543
41	0x3e83a271	0.2570987
42	0x3e81c463	0.25345144
43	0x3e7d4721	0.24734165
44	0x3e7985c3	0.24367432
45	0x3e80cbd0	0.25155497
46	0x3e81cf9b	0.25353703
47	0x3e837a7e	0.25679392
48	0x3e812344	0.25222218
49	0x3e822fc6	0.25427073
50	0x3e80ab0b	0.25130495
51	0x3e825b2d	0.25460187
52	0x3e80121f	0.25013825
53	0x3e7f289a	0.24917832
54	0x3e820bf7	0.25399753
55	0x3e85c2d7	0.26125214
56	0x3e85918d	0.2608761
57	0x3e82fe25	0.25584522
58	0x3e86fe26	0.26365775
59	0x3e832028	0.2561047
60	0x3e7fef26	0.24993572
61	0x3e843fb0	0.2582984
62	0x3e817897	0.25287315
63	0x3e7d7779	0.24752606
64	0x3e802f02	0.25035864
65	0x3e849f33	0.2590271
66	0x3e846b2f	0.25863025
67	0x3e81df40	0.2536564
68	0x3e8301c6	0.2558729
69	0x3e803227	0.25038263
70	0x3e849a20	0.25898838
71	0x3e82f1b8	0.25575042
72	0x3e833b83	0.2563134
73	0x3e810cba	0.25205022
74	0x3e85922c	0.26088083
75	0x3e808951	0.25104764
76	0x3e83118a	0.2559932
77	0x3e741e6f	0.23839734
78	0x3e81a3da	0.2532032
79	0x3e828253	0.25490054
80	0x3e80bbf5	0.251434
81	0x3e8187d8	0.25298953
82	0x3e8278a8	0.25482678
83	0x3e7b6da6	0.24553546
84	0x3e82bb35	0.25533453
85	0x3e83e89b	0.257634
86	0x3e836ffb	0.25671372
87	0x3e83a3e3	0.25710973
88	0x3e815b24	0.25264847
89	0x3e848d73	0.25889167
90	0x3e83130b	0.25600466
91	0x3e84efee	0.25964302
92	0x3e87f18b	0.2655147
93	0x3e80c6a1	0.25151542
94	0x3e84d17a	0.25941068
95	0x3e8525ed	0.26005498
96	0x3e836c20	0.2566843
97	0x3e80d4e5	0.25162426
98	0x3e833250	0.25624323
99	0x3e8411b1	0.25794747
100	0x3e8238ca	0.25433952
101	0x3e81501f	0.2525644
102	0x3e80bd6b	0.25144514
103	0x3e843425	0.25821033
104	0x3e85e1e0	0.2614889
105	0x3e81556a	0.25260478
106	0x3e7bc95e	0.24588534
107	0x3e816e2a	0.2527936
108	0x3e830dc8	0.25596452
109	0x3e8029e8	0.25031972
110	0x3e82ab78	0.25521445
111	0x3e8287db	0.25494274
112	0x3e8323f2	0.25613362
113	0x3e83b1c9	0.25721577
114	0x3e823c35	0.2543656
115	0x3e847674	0.25871623
116	0x3e838574	0.25687754
117	0x3e7f76e1	0.24947692
118	0x3e81a5cd	0.25321808
119	0x3e8291bf	0.2550182
120	0x3e769add	0.24082513
121	0x3e80c9bd	0.25153914
122	0x3e891405	0.26773086
123	0x3e833699	0.25627592
124	0x3e881dd5	0.2658526
125	0x3e8260c4	0.2546445
126	0x3e8004e8	0.25003743
127	0x3e824459	0.2544277
128	0x3e823909	0.2543414
129	0x3e8252a4	0.25453675
130	0x3e7f89e5	0.24954946
131	0x3e7f22c9	0.24915613
132	0x3e832b5b	0.25619015
133	0x3e83d4a8	0.2574818
134	0x3e81cd6f	0.25352046
135	0x3e80c582	0.25150687
136	0x3e82c744	0.25542653
137	0x3e81d417	0.25357124
138	0x3e81d0db	0.25354657
139	0x3e823b2b	0.25435767
140	0x3e846145	0.2585546
141	0x3e802d5d	0.2503461
142	0x3e82d81a	0.25555497
143	0x3e831334	0.25600588
144	0x3e84b0ac	0.2591604
145	0x3e82d5aa	0.25553638
146	0x3e828f10	0.25499773
147	0x3e862662	0.2620116
148	0x3e80b507	0.25138113
149	0x3e8789a3	0.26472196
150	0x3e86e7e5	0.26348796
151	0x3e82d33e	0.2555179
152	0x3e8249cc	0.25446928
153	0x3e84757d	0.25870886
154	0x3e81f10e	0.25379223
155	0x3e80dbb4	0.2516762
156	0x3e827158	0.254771
157	0x3e7fa219	0.24964179
158	0x3e840572	0.25785404
159	0x3e8636f5	0.26213804
160	0x3e810149	0.25196293
161	0x3e815669	0.25261238
162	0x3e87655f	0.26444528
163	0x3e81850f	0.25296828
164	0x3e8282c3	0.25490388
165	0x3e80f3ba	0.2518595
166	0x3e82a941	0.25519755
167	0x3e800b00	0.25008392
168	0x3e8285fe	0.25492853
169	0x3e817b9b	0.25289616
170	0x3e83a4cc	0.25711668
171	0x3e82f659	0.25578573
172	0x3e801510	0.2501607
173	0x3e7fc4c8	0.2497741
174	0x3e80e62f	0.25175616
175	0x3e86a93c	0.2630099
176	0x3e8307c1	0.25591853
177	0x3e8381df	0.2568502
178	0x3e82273a	0.25420552
179	0x3e8574a2	0.26065546
180	0x3e81536f	0.25258967
181	0x3e85afc6	0.26110667
182	0x3e7f1b85	0.24912842
183	0x3e842f7b	0.25817475
184	0x3e80a5d9	0.25126532
185	0x3e83217c	0.25611484
186	0x3e8328f0	0.2561717
187	0x3e8298a2	0.25507075
188	0x3e7f6f07	0.24944697
189	0x3e836fda	0.25671273
190	0x3e809511	0.2511373
191	0x3e8439ec	0.2582544

bias f4 [192]
0	0xbb254332	-0.0025217053
1	0x38b6340a	8.688129e-05
2	0xbb1f7d22	-0.002433606
3	0x3b2bbd46	0.0026205345
4	0x389ce606	7.481505e-05
5	0xba740ca6	-0.0009309746
6	0xbb4a973f	-0.0030912904
7	0xb954c6b1	-0.00020291914
8	0xbba15820	-0.0049238354
9	0xbb7ded89	-0.0038746318
10	0xbaa96d2c	-0.0012926213
11	0x3b90de43	0.004421027
12	0xb9c264f2	-0.00037077774
13	0xbbbeee5f	-0.005826756
14	0x39814724	0.000246578
15	0x3b0d21e9	0.0021535105
16	0xbb6f1268	-0.0036479477
17	0xbb266b3c	-0.0025393507
18	0xba12cf84	-0.000560038
19	0x39ee086a	0.00045401166
20	0x3b893771	0.0041875173
21	0x38a7d7a0	8.003344e-05
22	0xba96a975	-0.0011494594
23	0x3a4efb93	0.0007895764
24	0x3bc3d8c5	0.0059767687
25	0x3aff4daf	0.0019478108
26	0xbaaf1598	-0.0013357876
27	0xbadfb408	-0.0017067203
28	0x3b1463a2	0.0022642394
29	0xb9bca5a8	-0.00035981578
30	0xbb98fa84	-0.0046685357
31	0x39c9a359	0.0003845941
32	0x39bd0edb	0.00036059957
33	0xbb416969	-0.0029512292
34	0xbb0dd6ef	-0.0021643003
35	0xba6b63e8	-0.0008979426
36	0x3a036aa1	0.00050131424
37	0xbb40ddd8	-0.0029429104
38	0xbb87c3b6	-0.0041432036
39	0xbb0a0b45	-0.0021063846
40	0xb8a836d5	-8.0210775e-05
41	0xb90cc8dd	-0.00013426268
42	0xbb16eba8	-0.0023028646
43	0xbc43c55c	-0.01194891
44	0xbbb3b04c	-0.0054836627
45	0xbbaf0d1e	-0.00534214
46	0xbb0fed59	-0.0021961539
47	0xba00a755	-0.0004907747
48	0xbbe2b6a7	-0.0069187465
49	0xba91c513	-0.0011121355
50	0xbb3ad8d7	-0.0028510594
51	0x3ad92203	0.0016565922
52	0xbb136b60	-0.002249442
53	0xbbf75d80	-0.007548988
54	0x3b06fea8	0.0020598564
55	0x3bf102a1	0.0073550497
56	0x3ad6a2f2	0.0016375466
57	0xba9ae762	-0.0011818225
58	0x3b12838a	0.0022356235
59	0xb8722ca6	-5.773888e-05
60	0xbb72ca3a	-0.0037046806
61	0x3b4284a1	0.0029681104
62	0xba89c232	-0.0010510145
63	0x3aa1ff53	0.0012359418
64	0xbbada204	-0.005298855
65	0x39d5f66a	0.0004081012
66	0x3bb51b4f	0.005526937
67	0xba74ba2f	-0.0009335605
68	0x3b3353a3	0.0027363084
69	0xbbb64758	-0.005562704
70	0x3b21c683	0.0024684973
71	0x3b71994d	0.0036865056
72	0x3a948178	0.0011330089
73	0x3a28b43b	0.0006435548
74	0x3bad4719	0.0052880165
75	0xba97c31c	-0.0011578533
76	0x3b043b45	0.002017693
77	0xbb2065fe	-0.0024474855
78	0xbaebba86	-0.0017984665
79	0x39be2e47	0.00036274103
80	0xbb1ff0e4	-0.0024405057
81	0xbaa1722d	-0.0012317352
82	0x35c21119	1.4459102e-06
83	0xbbd59a46	-0.006518635
84	0x3ae76c70	0.0017656218
85	0x3b23ecf3	0.002501306
86	0xbb105f57	-0.0022029483
87	0x3b403981	0.002933115
88	0xbada853e	-0.0016671789
89	0xb9fddd2b	-0.00048420703
90	0x3b408a79	0.002937941
91	0x3b46bc3e	0.0030324603
92	0x3b649573	0.0034879118
93	0xb9bcef70	-0.0003603655
94	0x3b290a39	0.0025793447
95	0x3a99fc93	0.0011748247
96	0x3ae37ae3	0.0017355349
97	0x3a9a4cf2	0.0011772199
98	0x39ae396c	0.0003323065
99	0x3b811ef3	0.003940457
100	0x3b451144	0.0030070106
101	0x3a544d69	0.0008098693
102	0xbaa2b42e	-0.0012413317
103	0x3b32bc3f	0.0027272848
104	0x3acb631b	0.0015517207
105	0xbad9d74c	-0.001661995
106	0xba5763b6	-0.0008216457
107	0xbba47783	-0.0050191297
108	0xba2122fe	-0.0006146877
109	0xbad5221d	-0.0016260777
110	0xbb2c8bcc	-0.0026328443
111	0xbb093f0a	-0.0020942115
112	0xbb880fd4	-0.0041522775
113	0x3b1d8e22	0.0024041017
114	0x3bbfc3e6	0.0058522103
115	0xb9c986b2	-0.00038438063
116	0x3bdc2b42	0.006719024
117	0xbb982bc1	-0.0046438877
118	0x3a360f30	0.0006945012
119	0xb55c8cf0	-8.216148e-07
120	0xbc23d961	-0.010000558
121	0x3b4f755b	0.0031655643
122	0x3b558cb1	0.003258508
123	0x3b58f7cb	0.003310668
124	0x3bd0b9ca	0.006369804
125	0xba46f4a4	-0.0007589555
126	0x3b290886	0.0025792434
127	0x3b095ddb	0.0020960483
128	0x3a40cdf7	0.000735491
129	0x32e7cc6e	2.6984903e-08
130	0xba422113	-0.0007405441
131	0xba9f0a90	-0.0012133885
132	0x3b0d8653	0.0021594956
133	0x3a5d92fc	0.00084523833
134	0xb9baf246	-0.00035657192
135	0xbbadc1d6	-0.005302648
136	0x3a9fd127	0.001219307
137	0x39bd7e99	0.00036143212
138	0x39833908	0.0002502876
139	0xbb3f8099	-0.0029220937
140	0x3b540c07	0.0032355802
141	0xbbabb2c4	-0.0052398164
142	0x3af2c466	0.0018521666
143	0xbb9f9e18	-0.004871141
144	0x3b3fc3db	0.0029261026
145	0xbac0c0cc	-0.0014705895
146	0x3badb3e4	0.0053009856
147	0x3bb1ca47	0.0054257247
148	0xbb3d1311	-0.0028850476
149	0x3afbc1e5	0.0019207565
150	0xbb252dbe	-0.0025204266
151	0xbb460ca5	-0.003021994
152	0x376d9e41	1.4163147e-05
153	0x3b51a0b6	0.003198666
154	0xba758875	-0.0009366342
155	0xb9164fad	-0.00014334796
156	0xbb8c2533	-0.0042768954
157	0xbbbb8e2d	-0.005723736
158	0x3a03a106	0.0005021248
159	0x3b8a7cda	0.0042263092
160	0xbbf775f5	-0.0075519034
161	0x3beb4c45	0.007180723
162	0x3bb1054f	0.005402244
163	0x3b3c19f8	0.0028702002
164	0xb947dbd0	-0.00019060005
165	0xb9f4d925	-0.00046701092
166	0x3a205ec1	0.0006117635
167	0xbb163569	-0.0022920019
168	0xbafc607d	-0.001925483
169	0xbb32e003	-0.0027294166
170	0x3b3d89b3	0.0028921186
171	0xbac416f0	-0.0014960449
172	0xbb0b3318	-0.002124017
173	0xbaf3503d	-0.0018563342
174	0xbb6b3cb2	-0.0035894332
175	0xbb6f9be8	-0.0036561433
176	0xbbc54b60	-0.0060209483
177	0x3b109be5	0.0022065577
178	0xba501270	-0.0007937318
179	0x3ab49ba3	0.0013779294
180	0xb988715c	-0.000260244
181	0x3bc3e1d0	0.0059778467
182	0xbb4367fe	-0.0029816623
183	0xbb28fe9a	-0.002578652
184	0xbb01399b	-0.0019718173
185	0x3ab6ef2f	0.001395678
186	0x3be5bb23	0.007010834
187	0xbb7c3e8d	-0.0038489432
188	0xbadfda8e	-0.0017078684
189	0x3985f064	0.00025546842
190	0xbab44dc9	-0.0013756092
191	0x3c0abba8	0.008467592

running_mean f4 [192]
0	0xbbe45831	-0.006968521
1	0x3a9a51cc	0.0011773645
2	0x3b7bc864	0.0038419003
3	0x3a88b5a6	0.0010430112
4	0xba0cc5cd	-0.0005370051
5	0xbaef031a	-0.0018235177
6	0x3b9242ef	0.0044635455
7	0xbbb40a03	-0.0054943576
8	0x3ac169ac	0.0014756224
9	0xbbbb1a7b	-0.005709944
10	0xbc050579	-0.008118981
11	0xbbddb4f4	-0.006765956
12	0x3b23788a	0.0024943673
13	0xbb7e3c32	-0.0038793203
14	0xbc06b240	-0.008221209
15	0x3b3752d3	0.002797295
16	0x3b22876b	0.0024799954
17	0x3bba19ef	0.005679361
18	0x3ac3c60d	0.0014936343
19	0x3b8c5ecc	0.0042837616
20	0xbc1c2b81	-0.0095318565
21	0xbbf93ce9	-0.007606138
22	0x3a90e57e	0.0011054722
23	0x3ba7b582	0.005118073
24	0x3a8343a4	0.0010014665
25	0xbb77bbc2	-0.0037801121
26	0x3bfe07e0	0.0077524036
27	0x3b4f65a3	0.0031646274
28	0x3b195cbe	0.0023401226
29	0x3c05efd0	0.008174852
30	0x3a7285da	0.0009251513
31	0xbb2f1051	-0.0026712606
32	0xbbbac935	-0.0057002553
33	0xb9ddafe3	-0.0004228345
34	0x3b80e85e	0.0039339503
35	0xb9b6dd6b	-0.00034878714
36	0x3b9a064d	0.004700458
37	0xbbf13ead	-0.007362208
38	0xbbb9f0f8	-0.0056744777
39	0xbbdaf073	-0.006681496
40	0xbae1ddcb	-0.0017232237
41	0x39e47585	0.00043575108
42	0xbbb14965	-0.0054103606
43	0xbab89fd7	-0.0014085722
44	0x3b90a1ad	0.0044138045
45	0xbbd4cf08	-0.0064944066
46	0x3924e059	0.00015723835
47	0xba8764ee	-0.0010329762
48	0x3b0848ed	0.002079542
49	0xbc1af6ae	-0.009458227
50	0xbbd3d393	-0.0064644306
51	0x3bc4d1a6	0.0060064374
52	0x3bf4e8e8	0.0074740537
53	0xb9d5f681	-0.00040810186
54	0xbbd7d986	-0.00658721
55	0xbc18cd17	-0.009326241
56	0x3aaf7bf1	0.0013388378
57	0xbbc4f178	-0.0060102306
58	0x3a5717fa	0.0008205172
59	0x3b803a8e	0.0039132303
60	0x3a7c93cf	0.00096350623
61	0xbb9cb960	-0.0047828406
62	0x3b0b3163	0.0021239154
63	0x3b6377b5	0.0034708802
64	0xbb855db0	-0.0040700063
65	0x3a89fb56	0.0010527174
66	0x3c18fa2b	0.009336988
67	0x3aa6a8f3	0.0012715146
68	0x3b042df5	0.0020168994
69	0xbb248ad8	-0.0025107171
70	0x3b3ca271	0.0028783346
71	0xbc021e9e	-0.00794187
72	0x3bc854e7	0.006113637
73	0xbb9bec48	-0.0047583915
74	0x3b57825c	0.0032884097
75	0xba59083c	-0.000827912
76	0xbb6e7f4f	-0.00363918
77	0x3c06fcfd	0.008239028
78	0x3b4347b1	0.002979737
79	0x3afbcc1f	0.0019210613
80	0x3a2d0bbe	0.0006601176
81	0x3b30c448	0.0026972461
82	0x3b979bbe	0.00462672
83	0xbc2a7df1	-0.010406003
84	0x3b821bfd	0.0039706216
85	0x3a606399	0.0008559763
86	0xbbc156b4	-0.0059002284
87	0xbbfd73eb	-0.0077347658
88	0xbb5c28d4	-0.0033593671
89	0x3c093853	0.008375245
90	0x3c1bbacc	0.009504985
91	0x3c2bb311	0.0104797045
92	0xba628a25	-0.0008641801
93	0xbb5b544f	-0.0033467
94	0x3bf85db1	0.0075795283
95	0x3b79c489	0.003811153
96	0x3c0022fd	0.007820842
97	0x3b689038	0.0035486352
98	0xbb9b936a	-0.0047477977
99	0xbbe64b11	-0.0070279916
100	0xbbbf9abf	-0.0058473046
101	0x3985b4f9	0.00025502572
102	0xbb085688	-0.002080353
103	0x3bb05deb	0.0053822896
104	0x3b94b4fa	0.0045381756
105	0xbc07bad6	-0.008284291
106	0x3bf8e47e	0.0075955978
107	0x3ae4c68e	0.0017454193
108	0xbb3ce01f	-0.002882011
109	0x39971d63	0.0002882286
110	0x3ad90752	0.0016557968
111	0x3ba9e48f	0.005184717
112	0xbb160f7b	-0.002289741
113	0x3bac0333	0.005249405
114	0xbbf4537d	-0.0074562416
115	0x3ba4c513	0.005028376
116	0x382c7943	4.112093e-05
117	0xbbf9511a	-0.007608545
118	0x3c18907b	0.009311791
119	0x3bf58475	0.0074925967
120	0x3b1311ef	0.002244111
121	0xbafb5296	-0.0019174393
122	0x3a5128a0	0.0007978771
123	0x3ab07ff2	0.0013465865
124	0x3b2b6115	0.0026150395
125	0xbabd7aa3	-0.0014456104
126	0xbbc1a883	-0.0059099807
127	0xbba0126b	-0.004885008
128	0xbc0449d9	-0.008074247
129	0xbae29fca	-0.0017290052
130	0xbafda7ca	-0.0019352373
131	0xbbc31499	-0.005953383
132	0x397a8b56	0.00023893765
133	0x3b82d9f3	0.0039932667
134	0x3b04e3c0	0.002027735
135	0x3b151ee0	0.0022753999
136	0xbbc1bbaf	-0.005912266
137	0xbc1ec766	-0.009691095
138	0x3c28f96d	0.010313374
139	0x3b2111f3	0.002457735
140	0x3a19ba01	0.00058642036
141	0x3b56d7fa	0.003278254
142	0x3be0c57f	0.006859481
143	0x3bbb0a91	0.0057080467
144	0xbb8ec010	-0.0043563917
145	0xba38382d	-0.0007027414
146	0xbb0b6c4f	-0.0021274274
147	0xbc07bce2	-0.008284779
148	0xbba26715	-0.004956136
149	0x3b8386c2	0.004013867
150	0x3a98f15e	0.0011668613
151	0x3b8002e0	0.0039065927
152	0x3a5a4b8e	0.00083272986
153	0x3b1e3e55	0.002414604
154	0xbbe1cbc2	-0.006890745
155	0xbb7b981b	-0.0038390222
156	0x3bb3fee4	0.005493032
157	0xba91c9d4	-0.0011122772
158	0xbbfb1688	-0.007662598
159	0x3b950768	0.004548002
160	0xbb4071d8	-0.002936473
161	0x3ba65db4	0.0050770883
162	0x3c05281f	0.008127241
163	0xbbdc23e6	-0.0067181466
164	0xba871851	-0.001030693
165	0xbbd6c8e8	-0.0065547116
166	0xbb094f85	-0.0020951938
167	0xbbdb8767	-0.006699491
168	0xba9775a8	-0.001155545
169	0x3add70d6	0.001689459
170	0x3a4729b8	0.0007597464
171	0xbba05bcb	-0.004893755
172	0x3bf9e36f	0.007625989
173	0xbc071b9d	-0.00824633
174	0xbb028066	-0.0019912957
175	0x3bdd7452	0.006758251
176	0xbb36fa37	-0.0027920136
177	0xbbef73d6	-0.00730751
178	0x3a8b8b2f	0.0010646338
179	0x3b501711	0.003175203
180	0xbbb63543	-0.0055605485
181	0x3ba09b8f	0.0049013565
182	0xbbeaee9d	-0.007169558
183	0x3b478a14	0.0030447291
184	0x3ba3a218	0.0049936883
185	0xba68cf17	-0.00088809564
186	0xbc135fdd	-0.008995024
187	0x3b84ac2c	0.004048845
188	0x3b013821	0.0019717293
189	0x3ba2a34f	0.0049633156
190	0xb9fceb1f	-0.00048240364
191	0xbba72dd7	-0.0051019

running_var f4 [192]
0	0x3882d84b	6.239171e-05
1	0x389ad51d	7.382988e-05
2	0x38a6a105	7.945489e-05
3	0x38a097b6	7.657653e-05
4	0x389c1fc1	7.444574e-05
5	0x38bc9323	8.991945e-05
6	0x38be6452	9.078592e-05
7	0x38cf1c0b	9.8757526e-05
8	0x382ca483	4.116121e-05
9	0x38634be6	5.4191703e-05
10	0x3870fb9f	5.74548e-05
11	0x388bc330	6.664393e-05
12	0x38974437	7.212947e-05
13	0x38c065aa	9.17421e-05
14	0x388e56af	6.787234e-05
15	0x38a2ff6f	7.77234e-05
16	0x389b11f5	7.394321e-05
17	0x39058f6f	0.00012737302
18	0x38b613e0	8.682138e-05
19	0x38ba52e6	8.884612e-05
20	0x38d307bb	0.00010062704
21	0x38b769b1	8.7458066e-05
22	0x38a147a3	7.6904216e-05
23	0x385c77ea	5.2563766e-05
24	0x3887f96b	6.483759e-05
25	0x38795bb8	5.9451646e-05
26	0x38f142d5	0.00011504224
27	0x39578a8e	0.00020555613
28	0x3867bec8	5.525237e-05
29	0x390b1910	0.0001326541
30	0x38c1414d	9.2151204e-05
31	0x38f880e0	0.00011849566
32	0x387ea96d	6.071611e-05
33	0x3854e4bd	5.0757768e-05
34	0x38f08c58	0.00011470233
35	0x38346f5e	4.3019063e-05
36	0x389746f5	7.213458e-05
37	0x38915b19	6.931107e-05
38	0x385e781b	5.304078e-05
39	0x38ace868	8.244888e-05
40	0x388ec3c7	6.807554e-05
41	0x3887e14d	6.479267e-05
42	0x38d77004	0.000102728634
43	0x38c87d94	9.560134e-05
44	0x3886684a	6.409043e-05
45	0x38898c42	6.558794e-05
46	0x3813f2e5	3.5273744e-05
47	0x387eaddd	6.0720242e-05
48	0x3873f4b6	5.816362e-05
49	0x38979313	7.227636e-05
50	0x3823c690	3.9047154e-05
51	0x38858c94	6.368119e-05
52	0x38ecba35	0.00011288041
53	0x38b579d1	8.653443e-05
54	0x38e6b43e	0.00011000827
55	0x38c32772	9.305672e-05
56	0x38b6ff1d	8.725955e-05
57	0x38f2bb91	0.00011574396
58	0x386082fe	5.3527758e-05
59	0x3856f2de	5.1247764e-05
60	0x38df2670	0.00010640628
61	0x39411126	0.00018412303
62	0x387702b1	5.8891896e-05
63	0x38a67904	7.938038e-05
64	0x382e7031	4.158932e-05
65	0x38f6b169	0.00011763239
66	0x38c41ef0	9.351771e-05
67	0x38a20384	7.725417e-05
68	0x38d6a333	0.000102347134
69	0x37f09993	2.8681743e-05
70	0x383dde46	4.526812e-05
71	0x38f14b6a	0.000115058225
72	0x383105b0	4.2205385e-05
73	0x38ce6188	9.841012e-05
74	0x38bd6a71	9.0320485e-05
75	0x38db85e9	0.000104676765
76	0x38abd128	8.192874e-05
77	0x389ad86f	7.383606e-05
78	0x386cee87	5.648893e-05
79	0x38a8581f	8.027278e-05
80	0x389e1a61	7.5389406e-05
81	0x38d8ffc3	0.00010347322
82	0x389f7cd3	7.604961e-05
83	0x38e795df	0.00011042854
84	0x386f8168	5.710256e-05
85	0x38857376	6.3634405e-05
86	0x38eef5af	0.000113944865
87	0x388d29b2	6.73117e-05
88	0x38aa3bb0	8.117349e-05
89	0x38df1d8f	0.00010638974
90	0x38ebf029	0.000112504065
91	0x39243880	0.00015661307
92	0x38bba2b9	8.947164e-05
93	0x38298778	4.0418905e-05
94	0x390d1f7e	0.0001345854
95	0x387971bc	5.947215e-05
96	0x38fe7dd6	0.000121351026
97	0x38787b9d	5.924293e-05
98	0x38d636a1	0.000102144906
99	0x386e1283	5.6760862e-05
100	0x38c2a543	9.281423e-05
101	0x38c3a39c	9.328799e-05
102	0x384b1646	4.8419715e-05
103	0x38d3a8a4	0.00010092676
104	0x3904773b	0.00012632918
105	0x388e4ce3	6.785409e-05
106	0x38ce2222	9.829203e-05
107	0x385e392c	5.298217e-05
108	0x3906f81b	0.00012871662
109	0x38785803	5.9209775e-05
110	0x388e2884	6.778634e-05
111	0x38c27720	9.2728296e-05
112	0x38803fa8	6.1153725e-05
113	0x389910f9	7.29877e-05
114	0x38eb1e61	0.00011211332
115	0x3872b581	5.7866335e-05
116	0x390a6577	0.00013198504
117	0x38820926	6.200587e-05
118	0x39174738	0.00014427013
119	0x390e994f	0.00013599287
120	0x38bf1d50	9.1130496e-05
121	0x38d5276b	0.00010163974
122	0x38f7cc08	0.000118158816
123	0x38807bf4	6.126604e-05
124	0x38d821fb	0.00010306012
125	0x37fc9dba	3.0114188e-05
126	0x38e268ac	0.000107960164
127	0x38a6e2e4	7.9577585e-05
128	0x39176131	0.00014436689
129	0x38987d8b	7.271309e-05
130	0x38d855a0	0.000103156315
131	0x38aa56af	8.122378e-05
132	0x3899a60a	7.326536e-05
133	0x389ea8fa	7.5655014e-05
134	0x38adf579	8.295006e-05
135	0x389adb83	7.3841795e-05
136	0x3859a62a	5.1891584e-05
137	0x38a6519a	7.930696e-05
138	0x3903a97a	0.00012556268
139	0x38aa4f47	8.120998e-05
140	0x390c9e5c	0.00013410434
141	0x389d51c4	7.5015734e-05
142	0x38b28e42	8.514199e-05
143	0x3908ff0f	0.00013064987
144	0x38d612de	0.000102078295
145	0x388db340	6.756792e-05
146	0x38907e81	6.890018e-05
147	0x38bacd67	8.90743e-05
148	0x384aadad	4.83223e-05
149	0x38b7646a	8.7448236e-05
150	0x3875eaec	5.863134e-05
151	0x3836e6c7	4.360711e-05
152	0x3821992b	3.852804e-05
153	0x38dff31a	0.0001067875
154	0x387d894a	6.044776e-05
155	0x38de21a0	0.00010592048
156	0x38b2ac27	8.519767e-05
157	0x38a4c5c9	7.85697e-05
158	0x38c6ab5e	9.473295e-05
159	0x38f7becf	0.00011813419
160	0x3902a886	0.00012460546
161	0x38a7bf7e	7.998849e-05
162	0x38f6c72a	0.00011767291
163	0x38677ec4	5.519275e-05
164	0x385a1338	5.199315e-05
165	0x3902bd7f	0.00012468359
166	0x38c0fc53	9.2022725e-05
167	0x38a406e3	7.821412e-05
168	0x38ffc7a0	0.000121965306
169	0x38a6b095	7.948388e-05
170	0x38c318a2	9.302913e-05
171	0x386ba22f	5.617941e-05
172	0x38cf2a80	9.8784454e-05
173	0x3904cf3b	0.000126657
174	0x38a750f6	7.978261e-05
175	0x394c3f24	0.00019478478
176	0x38ab37fc	8.164343e-05
177	0x38d49e14	0.00010138392
178	0x38f44f38	0.00011649582
179	0x38b82156	8.780013e-05
180	0x38a25d2a	7.742115e-05
181	0x387bb1e4	6.0008737e-05
182	0x38a6d501	7.955172e-05
183	0x38902834	6.8739435e-05
184	0x38af3302	8.354151e-05
185	0x38908752	6.8916605e-05
186	0x38f49038	0.000116616895
187	0x38eece9f	0.000113872105
188	0x3881a647	6.182171e-05
189	0x38760604	5.8656573e-05
190	0x38a20074	7.7248464e-05
191	0x38c958fe	9.601003e-05

weight f4 [192, 1, 3, 3]
0	0xbc4c9aef	-0.012488111
1	0x3b619640	0.0034421831
2	0xbbfad650	-0.0076549426
3	0xbc72daf2	-0.014822708
4	0xbc5043dd	-0.012711492
5	0xbd0ce8e4	-0.03440179
6	0xbc0efeb0	-0.008727714
7	0x3c007c4b	0.007842134
8	0xbb806be2	-0.0039191106
9	0xbcf5bc67	-0.029997064
10	0x3d0d3ec9	0.034483705
11	0x3cb40619	0.021975564
12	0xbd2795d1	-0.04091436
13	0x3c8c8158	0.01715152
14	0x3babe661	0.005245969
15	0xbbe1b3b8	-0.006887879
16	0x3c6b4943	0.014360729
17	0xbb39d7d7	-0.002835741
18	0xbb96ed69	-0.004605938
19	0xbc7923b4	-0.015206266
20	0xbd0da7d6	-0.03458389
21	0x3d1245d8	0.03571114
22	0x3c9bbddf	0.019011436
23	0x3c020b51	0.007937268
24	0x3c97fb64	0.01855249
25	0x3c80a0e2	0.015701715
26	0xbae3c432	-0.0017377196
27	0xbc599bf3	-0.01328181
28	0x3bacb4f0	0.005270593
29	0x3ca1dd22	0.019758765
30	0xbc1d5b17	-0.009604237
31	0x3c931b9d	0.017957503
32	0x3c9dc4de	0.019258913
33	0xbcda7666	-0.026667785
34	0xbca20d53	-0.019781744
35	0x3c90af1d	0.017661626
36	0xbce11034	-0.027473547
37	0x3bc2ecff	0.0059486623
38	0x3c1393b7	0.009007386
39	0x3b67f396	0.0035392991
40	0x3c3e3410	0.011609092
41	0x3cde7cc8	0.02715911
42	0xbcd2377f	-0.025661228
43	0xbca72247	-0.020402087
44	0x3bfed2f5	0.007776613
45	0xbc1b01f0	-0.009460911
46	0x3b7031f7	0.0036650875
47	0xbbb79693	-0.0056026666
48	0xbbe72fa3	-0.0070552393
49	0xbcde8c82	-0.027166609
50	0x3bc2e022	0.005947129
51	0xbcf9f064	-0.030510135
52	0x3c237b8f	0.009978189
53	0x3d1cb6bd	0.03826021
54	0xbc2479dd	-0.01003882
55	0x3c52ff62	0.012878271
56	0x3c7e47bc	0.0155200325
57	0x3c3b6ba1	0.011439235
58	0x3b615395	0.0034382094
59	0x3d25c649	0.040472303
60	0xbd0250f7	-0.031815495
61	0x3c2839dd	0.010267702
62	0xbb9f09d9	-0.004853469
63	0x3c6a2fa1	0.014293582
64	0x3bd4a594	0.006489465
65	0xbd09cd2b	-0.03364293
66	0x3c73580b	0.014852534
67	0xbc89e5e6	-0.016833257
68	0xbcfe285a	-0.0310251
69	0x3b79d821	0.0038123208
70	0xbcafe0bf	-0.021469472
71	0x3ab321c7	0.0013666683
72	0x3c39a53c	0.011330899
73	0xbc96e596	-0.018420022
74	0x3c9b100b	0.018928548
75	0x3c9fcb94	0.019506253
76	0xbcc5f1e8	-0.024163201
77	0x3cb974af	0.022638647
78	0xbc7ffc7e	-0.015624164
79	0x3cb51aca	0.0221075
80	0xbc8f535d	-0.017495805
81	0xbc985ad5	-0.018598
82	0xbb8e138c	-0.0043358263
83	0xbc93e1f9	-0.018052088
84	0x3ccd3175	0.025047997
85	0xbc0019db	-0.007818664
86	0xbc4b2959	-0.012399995
87	0xba000123	-0.0004882982
88	0xbc900ac8	-0.017583266
89	0xbc8ae5be	-0.016955253
90	0xbc3b6cd5	-0.011439522
91	0x3bcdf5a3	0.0062853857
92	0x3b4703c0	0.0030367225
93	0xbc6389eb	-0.013887863
94	0xbcd5bd03	-0.026091104
95	0xbcbf7281	-0.02337003
96	0xbbe17cac	-0.006881317
97	0xbcba2f43	-0.022727614
98	0x3c1924b0	0.009347126
99	0x3bcd5f6c	0.0062674787
100	0xbcc855fb	-0.024455061
101	0xbca4dd58	-0.020125076
102	0x3c61f39a	0.013790989
103	0xbcadf3e7	-0.021234466
104	0x39f0a6ae	0.00045900553
105	0x3c1f3292	0.009716647
106	0xbcc6443f	-0.024202464
107	0xbc472e0c	-0.0121569745
108	0x3c07cee3	0.008289072
109	0xbd2c86e0	-0.042120814
110	0x3bcf9381	0.0063347225
111	0x3c6c5e6f	0.014426812
112	0x3ce14fd2	0.027503882
113	0x3bfabf68	0.007652212
114	0x3bc5e13e	0.006038814
115	0x3caabd32	0.020842168
116	0xbcbc0881	-0.022953274
117	0xbce768e8	-0.028248265
118	0xbcafd3f9	-0.021463381
119	0xbceac1d9	-0.028656887
120	0xbbabdfa9	-0.005245168
121	0xbc15c4ed	-0.009141189
122	0xbb8f6c02	-0.004376889
123	0x3c2cc53e	0.010545073
124	0x3d04d28f	0.032427367
125	0x3c4cc3a8	0.01249782
126	0x3a53214a	0.00080539717
127	0x3b89965f	0.004198834
128	0xbbd9833a	-0.006637958
129	0xbbe34c94	-0.006936619
130	0xbc1872e2	-0.009304734
131	0xbccb4fb5	-0.02481828
132	0xbc9e9696	-0.019358914
133	0xbc9f3b52	-0.019437466
134	0xbc85abc3	-0.016317254
135	0x3be27e4c	0.0069120284
136	0x3c5ed257	0.013599954
137	0x3cd97ad2	0.026547823
138	0x3c89cf33	0.016822433
139	0x3cdf8945	0.027287135
140	0xb9f91159	-0.00047505906
141	0xbc1971e8	-0.009365536
142	0xbcfb3aa8	-0.030667618
143	0xbcb27ed6	-0.021788996
144	0x3c7cb64a	0.0154243205
145	0x398d71f3	0.00026978515
146	0xbb36ebef	-0.0027911623
147	0x3bf26df7	0.0073983627
148	0xbbd650fe	-0.0065404167
149	0xbcb907b1	-0.022586675
150	0x3d09c313	0.033633303
151	0x3a96619a	0.0011473179
152	0x3c74326a	0.014904598
153	0x3c7d5afa	0.015463585
154	0xbcad2bde	-0.021139082
155	0xbbe836ff	-0.007086634
156	0x3d0a0c5f	0.033703204
157	0x3cd698b3	0.02619586
158	0x3cc37834	0.023861028
159	0xbb9a771d	-0.0047139064
160	0xba9b0a41	-0.0011828617
161	0xba2fa68f	-0.00067005394
162	0xbcd08b34	-0.025457002
163	0x3b7f7467	0.0038979293
164	0x3cfb458b	0.03067281
165	0xbbe57c08	-0.007003311
166	0xbb892133	-0.004184866
167	0xbbfdf6a1	-0.0077503477
168	0x3cf100c0	0.029419303
169	0x3cf9a314	0.03047327
170	0xbd096627	-0.033544686
171	0xbc60129a	-0.01367631
172	0xbcee6551	-0.029101046
173	0xbb6ec431	-0.0036432857
174	0xbbb7c3de	-0.005608066
175	0x3c8f2cfb	0.017477503
176	0x3cbdec9f	0.023184119
177	0x3cc868d4	0.024464048
178	0x3baa3c26	0.0051951585
179	0x3d009a69	0.031397257
180	0xbc2f72e2	-0.010708543
181	0xbc9eaa7e	-0.019368406
182	0xba9624cb	-0.0011455057
183	0xbcc94335	-0.02456818
184	0xbca1bdf4	-0.019743897
185	0x3c80b191	0.01570967
186	0xbccad13c	-0.024757974
187	0xbcfb31ce	-0.030663397
188	0x3ca7e99e	0.02049714
189	0xbc048c29	-0.008090057
190	0xbc76d82a	-0.015066186
191	0xbc8507ed	-0.01623913
192	0xbc8e2fc3	-0.017356759
193	0x3b1cec4d	0.0023944557
194	0xbc23b119	-0.009990954
195	0xbbb452a1	-0.005503014
196	0xbb85ad01	-0.0040794616
197	0xbc5c7885	-0.0134564685
198	0x3d03eeef	0.032210287
199	0x3cc6b080	0.024254084
200	0x3d246c81	0.04014254
201	0xbb66c6b2	-0.0035213646
202	0xbcc691b0	-0.024239391
203	0xbc3816b1	-0.011235879
204	0xbb323af3	-0.002719578
205	0xbc4a3e38	-0.012343936
206	0xbcf4e8de	-0.029896196
207	0x3bddd1f5	0.0067694136
208	0xbc1f462a	-0.009721318
209	0x3c9c8c71	0.019109936
210	0x3cc5bfba	0.024139274
211	0x3cc35638	0.023844823
212	0xbb63ae8b	-0.0034741487
213	0x3b142095	0.0022602428
214	0x38e186c9	0.00010753942
215	0xbc122356	-0.008919558
216	0x3c80fb60	0.015744865
217	0x3a86f6fe	0.0010296998
218	0xbcc9e2eb	-0.024644336
219	0x3c6dcfb3	0.014514851
220	0x3b16a5ec	0.002298708
221	0xbccbcf25	-0.024879048
222	0x3cb30f15	0.021857778
223	0x3c73e0cc	0.014885139
224	0xbc3baf7c	-0.011455413
225	0xbc2c81ab	-0.010528962
226	0xbc5b7b76	-0.013396135
227	0xbc7aded1	-0.015311913
228	0xbca3b5ed	-0.01998421
229	0xbc45ba72	-0.012068378
230	0xbcc460fa	-0.023972023
231	0x3c96b6a1	0.018397631
232	0x3c84d968	0.016216949
233	0x3c984589	0.018587844
234	0x3ae702cd	0.0017624736
235	0x3b2d285c	0.002642176
236	0x3969eabb	0.00022308055
237	0x3c044758	0.00807365
238	0x3cf86bb5	0.030324796
239	0x3c8fc414	0.017549552
240	0x3c81a1c6	0.01582421
241	0x3c000ec6	0.007816022
242	0x3b80356e	0.0039126193
243	0xbcc8e847	-0.024524821
244	0x3bdda67c	0.0067642312
245	0xbc5b0ae6	-0.013369298
246	0xbcaf5f7c	-0.021407835
247	0xbbe97740	-0.0071248114
248	0x3c5553d4	0.013020474
249	0x3ce0c448	0.027437344
250	0x3cbdc27c	0.023164026
251	0x3d01436e	0.031558447
252	0x3ca2981f	0.019847928
253	0x3cbc7ccb	0.023008725
254	0xbc639a98	-0.0138918385
255	0x3af2ed48	0.001853385

weight f4 [192]
0	0x3e825689	0.25456646
1	0x3e8246fb	0.2544478
2	0x3e824856	0.25445813
3	0x3e823dba	0.2543772
4	0x3e824f33	0.2545105
5	0x3e825988	0.25458932
6	0x3e824cfc	0.2544936
7	0x3e824fd4	0.2545153
8	0x3e8255d0	0.25456095
9	0x3e825114	0.25452483
10	0x3e823300	0.25429535
11	0x3e8245f0	0.25443983
12	0x3e8256ae	0.25456756
13	0x3e824ac9	0.25447682
14	0x3e82401f	0.25439546
15	0x3e82638c	0.25466573
16	0x3e8243be	0.25442308
17	0x3e82672b	0.25469336
18	0x3e825330	0.25454092
19	0x3e825cb9	0.25461367
20	0x3e8256a2	0.2545672
21	0x3e82460f	0.25444075
22	0x3e822f30	0.25426626
23	0x3e823d67	0.2543747
24	0x3e8258b9	0.25458315
25	0x3e8255bf	0.25456044
26	0x3e824602	0.25444037
27	0x3e829596	0.2550475
28	0x3e826756	0.25469464
29	0x3e8242df	0.25441644
30	0x3e8241fc	0.25440967
31	0x3e82420c	0.25441015
32	0x3e824f58	0.2545116
33	0x3e8247f3	0.25445518
34	0x3e824bea	0.25448543
35	0x3e824754	0.25445044
36	0x3e824df6	0.25450104
37	0x3e825bf9	0.25460795
38	0x3e8249f8	0.2544706
39	0x3e8244ad	0.2544302
40	0x3e8253cd	0.2545456
41	0x3e825290	0.25453615
42	0x3e824c6c	0.2544893
43	0x3e8238a3	0.25433835
44	0x3e823a0c	0.2543491
45	0x3e823d6a	0.2543748
46	0x3e823d78	0.25437522
47	0x3e825a27	0.25459406
48	0x3e82423b	0.25441155
49	0x3e824d90	0.254498
50	0x3e8246e8	0.25444722
51	0x3e825202	0.25453192
52	0x3e8243f7	0.25442478
53	0x3e824156	0.25440472
54	0x3e824617	0.254441
55	0x3e826cf7	0.2547376
56	0x3e826741	0.254694
57	0x3e823e8e	0.2543835
58	0x3e82771b	0.25481495
59	0x3e8268c9	0.2547057
60	0x3e8234f8	0.25431037
61	0x3e8258a6	0.25458258
62	0x3e824500	0.25443268
63	0x3e823a2a	0.25435
64	0x3e822e65	0.2542602
65	0x3e8259e0	0.25459194
66	0x3e825107	0.25452444
67	0x3e82525d	0.25453463
68	0x3e824cce	0.25449222
69	0x3e822efa	0.25426465
70	0x3e8281be	0.2548961
71	0x3e825177	0.25452778
72	0x3e82537c	0.2545432
73	0x3e824863	0.25445852
74	0x3e8255e2	0.25456148
75	0x3e823b9b	0.254361
76	0x3e823b49	0.25435856
77	0x3e8219a2	0.2541018
78	0x3e824d40	0.25449562
79	0x3e824ee3	0.2545081
80	0x3e823cb0	0.25436926
81	0x3e824c53	0.25448856
82	0x3e823e7f	0.25438306
83	0x3e824430	0.25442648
84	0x3e82466e	0.2544436
85	0x3e82605b	0.25464138
86	0x3e8250df	0.25452325
87	0x3e824f47	0.2545111
88	0x3e8248c6	0.25446147
89	0x3e825977	0.2545888
90	0x3e824e56	0.2545039
91	0x3e825736	0.25457162
92	0x3e82728b	0.25478014
93	0x3e823426	0.2543041
94	0x3e8247ca	0.25445396
95	0x3e82616d	0.25464955
96	0x3e825134	0.25452578
97	0x3e824fc2	0.25451475
98	0x3e8250ac	0.25452173
99	0x3e825b84	0.25460446
100	0x3e824574	0.25443614
101	0x3e82405f	0.25439736
102	0x3e824297	0.2544143
103	0x3e827526	0.25480002
104	0x3e82577b	0.25457367
105	0x3e82499a	0.2544678
106	0x3e824035	0.2543961
107	0x3e8245ab	0.25443777
108	0x3e824f9a	0.25451356
109	0x3e824bd8	0.2544849
110	0x3e824c3e	0.25448793
111	0x3e8248ad	0.25446072
112	0x3e824520	0.25443363
113	0x3e825aea	0.25459987
114	0x3e824e3b	0.2545031
115	0x3e825d3f	0.25461766
116	0x3e822686	0.25420016
117	0x3e82448d	0.25442925
118	0x3e825e01	0.25462344
119	0x3e823b3e	0.25435823
120	0x3e8224d6	0.2541873
121	0x3e824711	0.25444844
122	0x3e828479	0.25491694
123	0x3e825d66	0.25461882
124	0x3e825fb7	0.2546365
125	0x3e8255ca	0.25456077
126	0x3e823d20	0.2543726
127	0x3e82509a	0.2545212
128	0x3e824e1f	0.25450227
129	0x3e824eab	0.25450644
130	0x3e824c9e	0.2544908
131	0x3e824054	0.25439703
132	0x3e825543	0.25455675
133	0x3e8244ce	0.2544312
134	0x3e825576	0.25455827
135	0x3e823ef2	0.25438648
136	0x3e824f6d	0.25451222
137	0x3e824a17	0.2544715
138	0x3e825f9b	0.25463566
139	0x3e826413	0.25466976
140	0x3e8241b8	0.25440764
141	0x3e824705	0.2544481
142	0x3e824d2f	0.2544951
143	0x3e825140	0.25452614
144	0x3e824f43	0.25451097
145	0x3e825499	0.25455168
146	0x3e823f76	0.25439042
147	0x3e824b6e	0.25448173
148	0x3e823d49	0.25437382
149	0x3e826db3	0.2547432
150	0x3e82785e	0.25482458
151	0x3e826008	0.2546389
152	0x3e825184	0.25452816
153	0x3e8256cd	0.2545685
154	0x3e824690	0.2544446
155	0x3e82490e	0.2544636
156	0x3e8259a1	0.25459006
157	0x3e823fdd	0.2543935
158	0x3e825128	0.25452542
159	0x3e8256a7	0.25456735
160	0x3e824f86	0.25451297
161	0x3e82474b	0.25445017
162	0x3e8254d2	0.25455338
163	0x3e824d49	0.2544959
164	0x3e825273	0.2545353
165	0x3e8246d3	0.2544466
166	0x3e823e73	0.2543827
167	0x3e824505	0.25443283
168	0x3e824e30	0.25450277
169	0x3e825172	0.25452763
170	0x3e82484b	0.2544578
171	0x3e82490d	0.25446358
172	0x3e824399	0.25442198
173	0x3e82544c	0.25454938
174	0x3e824752	0.25445038
175	0x3e82547c	0.2545508
176	0x3e824fa5	0.2545139
177	0x3e824b6e	0.25448173
178	0x3e824dc5	0.25449958
179	0x3e825c29	0.25460938
180	0x3e824c59	0.25448874
181	0x3e825746	0.2545721
182	0x3e823c07	0.25436422
183	0x3e825fc2	0.25463682
184	0x3e8243f8	0.2544248
185	0x3e82490d	0.25446358
186	0x3e825677	0.25456592
187	0x3e825bc7	0.25460646
188	0x3e822f38	0.2542665
189	0x3e82542c	0.25454843
190	0x3e824438	0.25442672
191	0x3e824863	0.25445852

bias f4 [192]
0	0x3b570b7a	0.0032813237
1	0x3afa99e1	0.0019119346
2	0x397b029a	0.00023938194
3	0x3bc67c13	0.0060572713
4	0x3b0137f8	0.0019717198
5	0x3b7535b5	0.0037416045
6	0x38cb58d8	9.696343e-05
7	0x3a7474c8	0.0009325263
8	0x3b01ed06	0.0019825115
9	0xbad721a0	-0.0016413219
10	0x3ac0697b	0.0014679873
11	0x3ba72165	0.0051004165
12	0xbb40e7b2	-0.0029434976
13	0x3b110bed	0.0022132352
14	0x38f3953d	0.00011614941
15	0x3ae0d09f	0.0017152018
16	0xbb8e02d0	-0.0043338314
17	0xbad03c13	-0.0015887044
18	0x3c15e601	0.0091490755
19	0x3aa0a983	0.001225755
20	0x3be8f626	0.0071094213
21	0xbb4124e1	-0.0029471444
22	0x3bb50a9e	0.0055249473
23	0x3ab08b10	0.0013469178
24	0x3b579238	0.003289355
25	0x3b51b3f1	0.0031998123
26	0x39e3d6b7	0.0004345679
27	0x3b2f18b9	0.0026717617
28	0x3ae7fcad	0.0017699205
29	0x3b535be9	0.0032250828
30	0x3bc162c7	0.0059016678
31	0x3b0daa9a	0.002161658
32	0xb7cf9e5e	-2.4750068e-05
33	0x3b02312f	0.0019865741
34	0x3a32d9f6	0.000682264
35	0x3bb0bc89	0.005393569
36	0x3b4481dc	0.0029984629
37	0x3b9d5a6f	0.0048020403
38	0x3a7f67be	0.0009742937
39	0xbb34b750	-0.0027575083
40	0x3b2e4848	0.0026593376
41	0x3b3daf67	0.002894366
42	0xba4a6d05	-0.00077219337
43	0x3b6ca7cc	0.0036110757
44	0x38e20566	0.00010777525
45	0x3bb85eb0	0.005626522
46	0x39f9aaad	0.00047620144
47	0xbb0da607	-0.0021613853
48	0xbaa63440	-0.0012680367
49	0xbab50b95	-0.0013812656
50	0x3a8f081c	0.0010912451
51	0x3b59f4c3	0.0033257462
52	0x3b016d1a	0.0019748867
53	0x3b87534e	0.0041298037
54	0x3aac08d8	0.0013125194
55	0x3a3019c9	0.00067177095
56	0x3a625a60	0.0008634683
57	0x3be744aa	0.007057746
58	0x3bbe162b	0.0058009825
59	0x39676b58	0.00022069865
60	0x3b5dab3d	0.003382399
61	0x3c06f2d0	0.008236602
62	0xbac08dd9	-0.0014690711
63	0x3b5f98c5	0.0034118157
64	0x3bdea2fe	0.0067943325
65	0x3b2abc36	0.0026052124
66	0x3b23391a	0.0024905861
67	0x3ad29cc8	0.0016068453
68	0x3a06622c	0.0005126323
69	0x3b8004dc	0.0039068293
70	0x3aa5cccb	0.0012649534
71	0xbaa518a4	-0.0012595844
72	0x3b31db5f	0.0027138812
73	0x3b26457f	0.0025371013
74	0x3bae8c2f	0.00532677
75	0x3b178004	0.0023117075
76	0x3c13e634	0.009027053
77	0x3bfdf858	0.007750552
78	0xba2dc695	-0.00066290173
79	0xba531164	-0.00080516026
80	0x3b4fff9a	0.0031738044
81	0x3b56f618	0.0032800492
82	0xba86f56a	-0.0010296528
83	0xba57207d	-0.000820644
84	0x3b4c03ba	0.003113015
85	0x3b0bef0c	0.00213522
86	0x3a1a3f8f	0.0005884105
87	0x3ad5decc	0.0016317009
88	0xba543462	-0.0008094964
89	0xbabbc115	-0.0014324511
90	0x397613a2	0.00023467702
91	0x3a1ed52e	0.0006058988
92	0x3b1ed5e6	0.002423638
93	0x3b9546f4	0.0045555774
94	0x3b33a5f2	0.0027412144
95	0xbb3a662a	-0.0028442242
96	0xbb0253dd	-0.0019886412
97	0x3b24b373	0.0025131374
98	0x3abb9cc6	0.001431369
99	0x3bcf89f3	0.0063335835
100	0x3b2b6aea	0.0026156255
101	0x3a9cdc35	0.0011967482
102	0x3b315940	0.0027061254
103	0xba474a49	-0.0007602317
104	0x3adfb0f6	0.0017066288
105	0x3b41e59f	0.0029586328
106	0xb9184a3e	-0.00014523507
107	0x3b81d838	0.003962543
108	0xbb145e30	-0.0022639148
109	0x3b03e760	0.0020126924
110	0x3bab8f25	0.00523557
111	0xba228604	-0.00061997795
112	0x3be5638b	0.007000392
113	0x38a49eea	7.8497294e-05
114	0xbb552bf5	-0.003252742
115	0x3aee754a	0.0018192914
116	0x3c499933	0.012304592
117	0xbb4925e5	-0.0030692753
118	0x3b830fbb	0.003999678
119	0x39c5abf0	0.00037702871
120	0x3a28de3a	0.0006441806
121	0x3a8f0ac8	0.0010913247
122	0xba2e45fa	-0.00066480006
123	0x3a87a389	0.001034842
124	0x3b97fcd7	0.004638295
125	0x3a1006ad	0.0005494159
126	0xbbb63802	-0.005560876
127	0x39ddd89d	0.00042313794
128	0x392ffd08	0.00016783562
129	0xb9f6dd7e	-0.000470858
130	0xbaf8a341	-0.0018969552
131	0xba52a4d5	-0.0008035426
132	0x3afd17cc	0.001930946
133	0x3b6dba51	0.0036274383
134	0x3b4b8007	0.0031051652
135	0x3ba0a0f9	0.004902002
136	0x3bb15651	0.005411901
137	0xbb4ee495	-0.003156935
138	0x3b18935d	0.0023281195
139	0x3b8615a8	0.004091937
140	0x3be7d199	0.0070745465
141	0x3aafd094	0.0013413602
142	0x3b733be5	0.0037114557
143	0xbaa9b525	-0.0012947662
144	0xbbd42ffb	-0.0064754463
145	0x3b16bb1a	0.0022999705
146	0x3bd00946	0.0063487617
147	0x3c16665e	0.00917968
148	0x3aaea35a	0.0013323829
149	0x3ac8e95c	0.0015328336
150	0x393b31c4	0.00017852249
151	0x3a49daee	0.00077001646
152	0x3b5f1c74	0.003404406
153	0xbafcc7f3	-0.0019285664
154	0x3b6f3fe3	0.0036506585
155	0xba0c2540	-0.0005346127
156	0xbb894829	-0.0041895104
157	0x39fa0469	0.00047687002
158	0x3bd8325f	0.0065978016
159	0xbb6737ab	-0.0035280983
160	0x394daa9f	0.00019613885
161	0x3b96cad3	0.0046018152
162	0x3b744079	0.0037269874
163	0x3abeb92b	0.0014551034
164	0xb85d0082	-5.269098e-05
165	0x3b974ef3	0.004617566
166	0x3be3089f	0.006928518
167	0xb882f4d2	-6.2444844e-05
168	0x3ad9439a	0.0016575933
169	0x38bc4a81	8.978416e-05
170	0x3b2533d4	0.0025207894
171	0x3b97061b	0.004608882
172	0xbb818d9c	-0.0039536487
173	0x39bb9e23	0.0003578524
174	0x39bb42ed	0.00035717283
175	0x3ab3363f	0.0013672783
176	0x3b9ee609	0.0048491997
177	0x3b8d357b	0.004309354
178	0x3b45ffa7	0.0030212195
179	0x3a8876a1	0.0010411331
180	0x3b090b72	0.0020911363
181	0x3ae65f7b	0.0017576063
182	0x3b19e9ea	0.002348537
183	0x3b2234cf	0.0024750715
184	0x3b097377	0.0020973363
185	0x3ae06b25	0.0017121775
186	0x3b0d1fbb	0.0021533805
187	0x390d3246	0.00013465536
188	0x3b699cd1	0.0035646448
189	0xba3d0d40	-0.0007211752
190	0x3b2ac9e6	0.0026060282
191	0x3b8d3338	0.0043090843
