experiments/model_repositories/obj_sign_sound/sign_recognition/model_files/branch_26.pth (torch, 333934 bytes, 7 tensors)

weight f4 [384, 160, 1, 1]
0	0xbceff411	-0.029291185
1	0x3c8e7eef	0.017394511
2	0xbd1728c4	-0.03690411
3	0x3c5a22be	0.013313947
4	0xbd097b86	-0.033565067
5	0xbd7abd71	-0.06121582
6	0xbc2b7919	-0.010465884
7	0x3d051742	0.032492884
8	0xbc3dcbab	-0.011584203
9	0x3b8cef87	0.004301015
10	0xbb4a0001	-0.0030822756
11	0xbd1746e0	-0.036932826
12	0xbd30d245	-0.04316928
13	0x3c05fe70	0.008178338
14	0x3b99008b	0.004669254
15	0xbcc64782	-0.02420402
16	0xbd74996a	-0.05971662
17	0xbd771ecb	-0.0603321
18	0xbc7d5979	-0.0154632265
19	0x3c73588b	0.014852653
20	0x3d47f41f	0.048816796
21	0xbd5969bf	-0.053079363
22	0x3c07abfa	0.0082807485
23	0x3c9ed73c	0.019389741
24	0xbce3dcba	-0.027815212
25	0xbdcf56af	-0.101239555
26	0xbd137e03	-0.036008846
27	0x3cded8af	0.027202932
28	0x3d2320ce	0.039826207
29	0xbd27c63b	-0.04096053
30	0xbd5528b5	-0.052040774
31	0xbcefb247	-0.029259814
32	0xbbc961c1	-0.0061456864
33	0xbbd768d1	-0.0065737744
34	0x3d3c399d	0.04595338
35	0xbc557d29	-0.013030329
36	0xbd442b6e	-0.04789298
37	0xbd5c101b	-0.053726297
38	0xbd007b5a	-0.031367637
39	0x3ccb84c5	0.024843583
40	0xbce535ce	-0.027979758
41	0x3d0120d0	0.031525433
42	0xbd4585ae	-0.04822319
43	0xbd50657a	-0.050878026
44	0xbda230cc	-0.079194635
45	0xbc87cecf	-0.016578106
46	0x3d243e4c	0.040098473
47	0x3cc26723	0.02373082
48	0xbd489dae	-0.0489785
49	0x3cfd1933	0.030895805
50	0x3cdb601d	0.026779229
51	0xbc2017ee	-0.00977133
52	0xbccafb43	-0.024778014
53	0x3c0a847f	0.008454441
54	0xbc11739f	-0.008877664
55	0x3c737b3d	0.014860925
56	0xbc1d855e	-0.009614317
57	0xbd242cb4	-0.040081695
58	0xbc7cc588	-0.0154279545
59	0xbd02748e	-0.031849436
60	0xbcd5659e	-0.026049431
61	0xbbe8d3c0	-0.0071053207
62	0xbcd02528	-0.025408342
63	0x3ae23c14	0.0017260336
64	0x3afb8423	0.001918916
65	0x3d6d6354	0.057956055
66	0xbcd565e3	-0.02604956
67	0xbd10040c	-0.03516011
68	0x3d127acd	0.035761643
69	0x3c493790	0.012281314
70	0xbcd7cb08	-0.02634193
71	0x3c967704	0.018367298
72	0x3c8d7060	0.017265499
73	0x3d558ef5	0.052138288
74	0xbb93d810	-0.0045118406
75	0x3cbbbf07	0.022918237
76	0x3b4c3162	0.0031157364
77	0xbcd15078	-0.025551066
78	0xbbb6405f	-0.005561873
79	0x3d708326	0.058718823
80	0x3d34914f	0.04408389
81	0x3cf0219b	0.0293129
82	0xbc3173a9	-0.010830798
83	0x3c0abff4	0.008468617
84	0x3956d31c	0.00020487275
85	0x3cc01a19	0.023449944
86	0xbd69ddb4	-0.0570962
87	0x3cbf33d4	0.023340143
88	0xbcf5dbd7	-0.030012054
89	0x3bb14dc7	0.005410883
90	0x3d72e8ad	0.05930393
91	0xbcd98a69	-0.026555257
92	0xbcce77ad	-0.02520355
93	0x3c697746	0.014249628
94	0x3d3e73e8	0.046497256
95	0x3d820837	0.06349223
96	0xbcbfa3c5	-0.023393521
97	0x3c80ee9a	0.015738774
98	0xbd11d2df	-0.035601493
99	0x3c8f6117	0.01750235
100	0xbcfd4223	-0.030915326
101	0x3cabae28	0.020957068
102	0x3c331e02	0.010932447
103	0x3c23d0ae	0.009998484
104	0x3c91f492	0.017816816
105	0x3dc61490	0.09671891
106	0xbd74c65d	-0.059759486
107	0x3d6a80c9	0.057251725
108	0xbb18b7c9	-0.0023302904
109	0xbb9410a7	-0.0045185867
110	0x3bfba757	0.0076798606
111	0xbd6c6edb	-0.057722908
112	0x3cc63a8f	0.024197845
113	0xbd000076	-0.03125044
114	0x3d72b59a	0.05925522
115	0xbd835cbf	-0.06414174
116	0xbcfb1d65	-0.030653665
117	0x3c9f645b	0.019457033
118	0x3ca6af97	0.0203474
119	0xbca93220	-0.020653784
120	0x3bed1e66	0.00723629
121	0xbda3dbf6	-0.080009386
122	0x3d182bd7	0.037151184
123	0xbcad3422	-0.021143023
124	0xbd2de54b	-0.042455
125	0x3d928e4f	0.071560495
126	0x3ab49cda	0.0013779656
127	0xbd57e7b0	-0.05271119
128	0xbd4bac62	-0.049724944
129	0xbcb904a6	-0.022585224
130	0xbd57812b	-0.05261342
131	0xbca600e4	-0.020264097
132	0x3cca93ca	0.024728674
133	0xbba13485	-0.004919591
134	0xbccded26	-0.025137495
135	0xbd1ccaf6	-0.038279496
136	0xbd28d294	-0.041216448
137	0x3cd71ebc	0.026259772
138	0x3cc11c6e	0.023573127
139	0x3c886bf6	0.016653042
140	0x3b84723c	0.004041938
141	0x3b067d6a	0.002052153
142	0xbd1191ef	-0.035539564
143	0x3c98cfb5	0.01865373
144	0x3b16bf33	0.0023002147
145	0xbb60fc7b	-0.0034330178
146	0x3d85e1ba	0.065371946
147	0xbbf26c38	-0.0073981546
148	0xbd139123	-0.036027085
149	0x3b19f677	0.0023492852
150	0x3c44c3dd	0.012009588
151	0xbcb035ce	-0.021510031
152	0xbcf4b56d	-0.029871667
153	0xbc47fa74	-0.012205709
154	0x3aa64cb8	0.0012687659
155	0xbd30b3ad	-0.043140102
156	0x3c43bb95	0.0119465785
157	0x3cc45d98	0.02397041
158	0xbd0fa6db	-0.035071235
159	0xbb9d9199	-0.0048086164
160	0xbd8749a5	-0.066058435
161	0xbc7eea3a	-0.015558774
162	0xbc2061de	-0.009788958
163	0xbce8fb1d	-0.028440053
164	0x3d435e9b	0.047697645
165	0x3b7cea48	0.003859179
166	0x3b3c0663	0.002869033
167	0x3d3d6468	0.046238333
168	0xbddfbd89	-0.10924823
169	0x3b2c4836	0.0026288158
170	0xbcde063b	-0.02710258
171	0xbba05656	-0.0048931045
172	0x3c7bc3e9	0.015366533
173	0x3d32b65d	0.043630946
174	0xbc6b953c	-0.014378842
175	0x3d1b5ccf	0.037930306
176	0x3c8052be	0.015664455
177	0xbd7c15d7	-0.061544266
178	0xbc75c87b	-0.015001412
179	0xbc67c3b2	-0.0141457785
180	0xbd0329f1	-0.03202242
181	0x3d19da35	0.037561614
182	0xbd988666	-0.074475095
183	0xbd1b2f51	-0.03788692
184	0x3b90c5e8	0.0044181235
185	0xbd9806f4	-0.07423201
186	0x3ccd4dd8	0.025061533
187	0xbaa3d3f2	-0.0012499078
188	0x3b7e2c7c	0.003878384
189	0xbc9da8dc	-0.019245557
190	0xbbe96494	-0.0071225855
191	0xbda442bd	-0.08020542
192	0x3c8ae4fa	0.016954888
193	0xbb65dd92	-0.0035074693
194	0x3c13c7f2	0.009019839
195	0x3ce31550	0.027720124
196	0x3d312b9b	0.043254476
197	0x3c23cf4a	0.009998152
198	0xbcc7c708	-0.024386898
199	0x3d439337	0.047747817
200	0x3d0a5b24	0.033778325
201	0x3d070d4c	0.032971665
202	0xbb1baaca	-0.0023752921
203	0x3c9812e0	0.018563688
204	0x3d4c251b	0.049840074
205	0xbbc88821	-0.0061197435
206	0xbd612ad6	-0.054972492
207	0x3b4c321e	0.0031157802
208	0x3cad7098	0.021171853
209	0x3d47e458	0.04880175
210	0xbca4241b	-0.020036748
211	0x3caf3b2f	0.021390526
212	0xbc15f869	-0.009153464
213	0xbac31cf4	-0.0014885948
214	0x3d8569aa	0.065142944
215	0x3c29869e	0.010347037
216	0x3d601da3	0.054715764
217	0xbcca31a1	-0.024681868
218	0x3d3da06b	0.046295565
219	0x3cc5a6e2	0.024127427
220	0x3d4d5c3d	0.050136793
221	0xbbf75e52	-0.0075490857
222	0x3be06d7f	0.0068489905
223	0x3ce61a9b	0.028088858
224	0xbd063985	-0.0327697
225	0x3d31b844	0.04338862
226	0xbd65b584	-0.05608131
227	0x3d04157c	0.03224705
228	0xbccc5961	-0.024944963
229	0xbb8e367c	-0.004339991
230	0xbc30af37	-0.010783962
231	0x3c4c3f78	0.012466304
232	0xbd52cb44	-0.05146338
233	0xbbfd2a54	-0.007725993
234	0x3d227019	0.039657686
235	0x3d8bf0fe	0.06833075
236	0x3d2de7f3	0.042457532
237	0xbbf0507c	-0.0073338132
238	0x3d17e74c	0.037085816
239	0x3be54a46	0.0069973795
240	0x3d47d0df	0.04878318
241	0x3c44bf41	0.012008489
242	0x3a2a1847	0.0006488603
243	0x3d64e871	0.055885736
244	0x3cadecd9	0.021231102
245	0xbd6286fa	-0.055304505
246	0xbca9014c	-0.020630501
247	0xbcceb3b9	-0.025232183
248	0xbd8af4d1	-0.06784976
249	0xbd5c5996	-0.053796373
250	0x3bffc8f5	0.0078059384
251	0xbd03ebe1	-0.032207374
252	0x3d0389f3	0.03211398
253	0xbb6765e3	-0.0035308532
254	0xbdb037a0	-0.086043596
255	0x3cea0ad8	0.028569624

weight f4 [384]
0	0x3f1e76cd	0.61900026
1	0x3f247e87	0.64255565
2	0x3f278459	0.6543632
3	0x3f30c133	0.690448
4	0x3f1fd56d	0.62435037
5	0x3f23cb45	0.6398204
6	0x3f28924f	0.6584825
7	0x3f232ce6	0.63740385
8	0x3f1d3ac1	0.61417776
9	0x3f2796c1	0.6546441
10	0x3f27511a	0.65358126
11	0x3f241194	0.6408932
12	0x3f2cd9f8	0.67520094
13	0x3f28cb0c	0.65934825
14	0x3f2e8dc5	0.68185073
15	0x3f258720	0.6465931
16	0x3f288ad2	0.65836823
17	0x3f34c4a8	0.70612574
18	0x3f235b74	0.6381142
19	0x3f1e1e35	0.6176484
20	0x3f2243c4	0.6338465
21	0x3f2bc796	0.6710142
22	0x3f2282ff	0.63481134
23	0x3f1d2c99	0.61396176
24	0x3f1f99f8	0.6234431
25	0x3f1f226d	0.62161905
26	0x3f2f2e4c	0.6843002
27	0x3f25cafa	0.6476284
28	0x3f27b30e	0.6550759
29	0x3f2565a1	0.646082
30	0x3f2517a1	0.6448918
31	0x3f1bd2b5	0.6086839
32	0x3f1ef915	0.6209882
33	0x3f257b93	0.64641684
34	0x3f2840fb	0.6572415
35	0x3f398961	0.7247525
36	0x3f24fc29	0.64447266
37	0x3f29d3bb	0.663387
38	0x3f27bf6e	0.65526474
39	0x3f22be09	0.6357122
40	0x3f27193f	0.652729
41	0x3f1c6143	0.6108591
42	0x3f21cd67	0.63204044
43	0x3f171642	0.5901834
44	0x3f21a9a5	0.6314948
45	0x3f29e3d8	0.66363287
46	0x3f21c49c	0.6319063
47	0x3f2527b6	0.6451372
48	0x3f22eb65	0.63640434
49	0x3f2929a5	0.6607917
50	0x3f2baedd	0.67063695
51	0x3f23631c	0.63823104
52	0x3f25e58b	0.6480338
53	0x3f2507ac	0.6446483
54	0x3f2ae6e3	0.66758555
55	0x3f2d47ac	0.6768749
56	0x3f257980	0.6463852
57	0x3f2dff0b	0.6796729
58	0x3f280250	0.6562853
59	0x3f25b361	0.64726835
60	0x3f286ff4	0.65795827
61	0x3f3296d1	0.6976138
62	0x3f2d18a5	0.6761573
63	0x3f321ac6	0.69572103
64	0x3f21a91e	0.6314868
65	0x3f1820fb	0.59425324
66	0x3f34cf16	0.7062849
67	0x3f282dc1	0.65694815
68	0x3f32fc3b	0.69916123
69	0x3f20b91d	0.6278246
70	0x3f2169b6	0.6305193
71	0x3f283b97	0.65715927
72	0x3f27becf	0.65525526
73	0x3f33ef7b	0.70287293
74	0x3f2e9f21	0.6821156
75	0x3f293871	0.6610175
76	0x3f197be9	0.59954697
77	0x3f216a0b	0.63052434
78	0x3f23ee77	0.64035743
79	0x3f2c732f	0.67363256
80	0x3f1ca079	0.6118236
81	0x3f190870	0.597785
82	0x3f321dd8	0.6957679
83	0x3f28c071	0.6591864
84	0x3f25e9e1	0.64809996
85	0x3f2cb8c1	0.6746941
86	0x3f1ed2e5	0.6204055
87	0x3f1c377e	0.61022174
88	0x3f24acdd	0.6432627
89	0x3f2f1988	0.6839833
90	0x3f2ef52e	0.68342865
91	0x3f2bc2e5	0.6709426
92	0x3f1dd6fb	0.6165616
93	0x3f17974c	0.59215236
94	0x3f285cef	0.65766805
95	0x3f1b01fb	0.60549897
96	0x3f1896dc	0.59605193
97	0x3f298a8e	0.6622704
98	0x3f31592a	0.6927668
99	0x3f3c2a54	0.7350209
100	0x3f232eb4	0.6374314
101	0x3f26fb4b	0.6522719
102	0x3f256298	0.6460357
103	0x3f22d546	0.6360668
104	0x3f196ad8	0.59928656
105	0x3f264ac3	0.6495783
106	0x3f287091	0.6579676
107	0x3f28f0b7	0.659923
108	0x3f2e2862	0.6803037
109	0x3f2d8e4f	0.6779527
110	0x3f2780ff	0.6543121
111	0x3f25bc3a	0.64740336
112	0x3f29675f	0.66173357
113	0x3f273c93	0.65326804
114	0x3f213c17	0.62982315
115	0x3f2b7caf	0.6698713
116	0x3f2ee860	0.68323326
117	0x3f1eec25	0.6207908
118	0x3f1dc498	0.61628103
119	0x3f1c81d2	0.6113559
120	0x3f23e0a5	0.64014655
121	0x3f228541	0.6348458
122	0x3f23459a	0.6377808
123	0x3f1d0d3d	0.61348325
124	0x3f25a200	0.6470032
125	0x3f252d2f	0.6452207
126	0x3f18718b	0.5954825
127	0x3f2bb7e7	0.6707749
128	0x3f373302	0.71562207
129	0x3f348f45	0.7053111
130	0x3f22d804	0.63610864
131	0x3f1aafeb	0.6042468
132	0x3f2c1fe7	0.6723618
133	0x3f2a61ca	0.66555464
134	0x3f168e7f	0.5881118
135	0x3f2222c0	0.63334274
136	0x3f31143a	0.6917149
137	0x3f222857	0.63342804
138	0x3f258fe4	0.64672685
139	0x3f38e670	0.7222662
140	0x3f26fc69	0.652289
141	0x3f2d4986	0.6769031
142	0x3f272b32	0.65300286
143	0x3f24f736	0.64439714
144	0x3f24af7e	0.6433028
145	0x3f2ebed3	0.68259925
146	0x3f29d439	0.6633945
147	0x3f2c9822	0.67419636
148	0x3f1e2f3f	0.6179084
149	0x3f26c7cb	0.6514861
150	0x3f3c34c7	0.7351803
151	0x3f263fd8	0.6494117
152	0x3f252c41	0.6452065
153	0x3f25376d	0.645377
154	0x3f1e57ba	0.6185261
155	0x3f2172ed	0.6306599
156	0x3f1adf1f	0.60496706
157	0x3f2e743b	0.68146104
158	0x3f225764	0.634146
159	0x3f1f0895	0.6212247
160	0x3f20fc1f	0.62884706
161	0x3f193732	0.59849846
162	0x3f2623b1	0.6489821
163	0x3f31b798	0.69420767
164	0x3f283c41	0.6571694
165	0x3f21501b	0.63012856
166	0x3f21b45e	0.63165843
167	0x3f23c464	0.63971543
168	0x3f2301a5	0.63674384
169	0x3f242b41	0.641285
170	0x3f32a126	0.69777143
171	0x3f183076	0.59448946
172	0x3f248c44	0.6427653
173	0x3f20c5be	0.6280173
174	0x3f2472be	0.6423758
175	0x3f1cecc5	0.6129878
176	0x3f223190	0.63356876
177	0x3f3b6b56	0.73210657
178	0x3f1e2279	0.6177135
179	0x3f250608	0.6446233
180	0x3f28cbe9	0.6593614
181	0x3f17586f	0.59119314
182	0x3f236e72	0.638404
183	0x3f267286	0.650185
184	0x3f227074	0.6345284
185	0x3f2afc99	0.66791683
186	0x3f22f3de	0.6365336
187	0x3f258a50	0.64664173
188	0x3f21d120	0.63209724
189	0x3f255446	0.64581716
190	0x3f30798a	0.68935454
191	0x3f1ebd9d	0.62008077
192	0x3f2d5222	0.6770345
193	0x3f2aa8f0	0.6666403
194	0x3f2b5fb0	0.6694288
195	0x3f217855	0.6307424
196	0x3f2e8d6a	0.6818453
197	0x3f21deb6	0.63230455
198	0x3f24d512	0.6438762
199	0x3f22e364	0.6362822
200	0x3f1649f1	0.58706576
201	0x3f32b6ad	0.6980999
202	0x3f1be377	0.6089396
203	0x3f2926e7	0.66074985
204	0x3f2e85f3	0.6817314
205	0x3f285b6c	0.657645
206	0x3f254773	0.6456215
207	0x3f37d257	0.7180533
208	0x3f377565	0.71663505
209	0x3f241c23	0.64105433
210	0x3f2a55a6	0.6653694
211	0x3f2fc5b8	0.6866107
212	0x3f22e70f	0.6363382
213	0x3f23ba81	0.6395646
214	0x3f2ce9bc	0.6754415
215	0x3f2aba84	0.6669085
216	0x3f2d3ff9	0.6767574
217	0x3f2b58cd	0.66932374
218	0x3f1ec830	0.6202421
219	0x3f23a2b4	0.6392014
220	0x3f2019ea	0.6253954
221	0x3f2c910c	0.67408824
222	0x3f306e88	0.6891866
223	0x3f1ad703	0.6048433
224	0x3f22ebc2	0.6364099
225	0x3f1912ec	0.597945
226	0x3f2f4434	0.68463445
227	0x3f2aadf2	0.6667167
228	0x3f25d2e2	0.64774907
229	0x3f203e48	0.62595034
230	0x3f2b88a0	0.6700535
231	0x3f1758f6	0.5912012
232	0x3f20b5d2	0.62777436
233	0x3f16f999	0.58974606
234	0x3f24ffc8	0.6445279
235	0x3f326e6d	0.69699746
236	0x3f33dea4	0.702616
237	0x3f2bc490	0.67096806
238	0x3f31c4b3	0.69440764
239	0x3f2456bd	0.6419485
240	0x3f255dfa	0.6459652
241	0x3f2eb548	0.68245363
242	0x3f226863	0.6344053
243	0x3f28860f	0.6582956
244	0x3f2ab577	0.66683143
245	0x3f247f0e	0.6425637
246	0x3f287e88	0.6581807
247	0x3f25fc2c	0.6483791
248	0x3f10294e	0.56313026
249	0x3f2fb747	0.68639034
250	0x3f1ed254	0.62039685
251	0x3f2a90b6	0.6662706
252	0x3f1c42ac	0.61039233
253	0x3f1ec2be	0.62015903
254	0x3f2a818c	0.6660392
255	0x3f22f94d	0.6366165

bias f4 [384]
0	0x3d9db1b9	0.076999135
1	0x3dc0c2b1	0.094121344
2	0x3da59af5	0.08086196
3	0x3dd4adac	0.10384688
4	0x3d9d538e	0.076819524
5	0x3dd17cf9	0.10228915
6	0x3d7e264c	0.06204824
7	0x3d95617e	0.07293986
8	0x3dabc6d7	0.08387535
9	0x3dad2fed	0.08456407
10	0x3d7e0fde	0.06202685
11	0x3db17ed5	0.086667694
12	0x3dae2154	0.085024506
13	0x3da8bed3	0.08239522
14	0x3db81efd	0.089902855
15	0x3d9d0abf	0.07668065
16	0x3d989476	0.07450192
17	0x3da917c1	0.08256484
18	0x3dcc6ab2	0.09981288
19	0x3d77fe03	0.06054498
20	0x3d6a68b5	0.057228763
21	0x3da7fefd	0.08202932
22	0x3db244d3	0.087045334
23	0x3d93a627	0.072094254
24	0x3da0a045	0.07843069
25	0x3da19818	0.07890338
26	0x3db6a468	0.08918077
27	0x3d867b76	0.06566517
28	0x3d92bc28	0.07164794
29	0x3d9fd45f	0.078041784
30	0x3da9df55	0.0829455
31	0x3d6ce4c2	0.057835348
32	0x3d94cd37	0.07265704
33	0x3d85f173	0.065401934
34	0x3d876771	0.06611527
35	0x3dbace1c	0.091213435
36	0x3daaf2db	0.08347102
37	0x3d296dae	0.041364364
38	0x3db3e612	0.08784117
39	0x3dacda71	0.08440102
40	0x3da4c899	0.080460735
41	0x3db75e59	0.08953542
42	0x3da00c18	0.07814807
43	0x3d890a21	0.06691385
44	0x3da99211	0.08279813
45	0x3db19aa8	0.086720765
46	0x3d933480	0.07187748
47	0x3d994f4c	0.07485828
48	0x3d6f7a38	0.058466166
49	0x3d88c10a	0.06677444
50	0x3d8d3c79	0.068963
51	0x3d9d6c30	0.07686651
52	0x3db6f99c	0.08934328
53	0x3dad0182	0.08447553
54	0x3de7a36c	0.11310467
55	0x3d817735	0.06321565
56	0x3d86afc9	0.06576497
57	0x3db3d43e	0.08780716
58	0x3dba909f	0.091096155
59	0x3dba43f2	0.09094991
60	0x3d8d7a00	0.06908035
61	0x3d8e706a	0.06955035
62	0x3d6ab18c	0.05729823
63	0x3dacc2a4	0.08435562
64	0x3dc0b1d7	0.0940892
65	0x3d642cbb	0.05570672
66	0x3d8bb5fb	0.068218194
67	0x3dbca7c4	0.09211686
68	0x3db91961	0.09038044
69	0x3d94de8d	0.07269011
70	0x3d48b821	0.049003724
71	0x3da3e0de	0.080018744
72	0x3d9b28dc	0.07576153
73	0x3dca20bd	0.098695256
74	0x3db7fe38	0.08984035
75	0x3da78de6	0.08181362
76	0x3d81aebe	0.063321576
77	0x3d93df2a	0.072202995
78	0x3da39f59	0.079893775
79	0x3db809d1	0.08986247
80	0x3d97b0d4	0.07406774
81	0x3d88bec4	0.06677011
82	0x3da3eb53	0.08003869
83	0x3d7fa898	0.062416643
84	0x3dc3a578	0.09553045
85	0x3dbd39ac	0.09239516
86	0x3d78ff0c	0.060790107
87	0x3d5ff994	0.054681376
88	0x3d895671	0.067059405
89	0x3d99a385	0.07501892
90	0x3d94a3ad	0.07257781
91	0x3d8620cc	0.06549224
92	0x3d54243c	0.05179237
93	0x3d65fe02	0.056150444
94	0x3d9e7dca	0.07738836
95	0x3d712cbb	0.05888055
96	0x3da8a382	0.08234312
97	0x3d814b79	0.063132234
98	0x3d9febfc	0.07808682
99	0x3d8b2178	0.06793493
100	0x3d71f0bc	0.059067473
101	0x3da42fdd	0.08016942
102	0x3db52854	0.088455826
103	0x3d82bead	0.06384025
104	0x3d89c8a3	0.067277215
105	0x3d9a88ac	0.07545599
106	0x3dc19a2c	0.09453234
107	0x3db5b046	0.08871512
108	0x3d929815	0.071579136
109	0x3dab5b20	0.0836699
110	0x3da27fa0	0.07934499
111	0x3da3d930	0.080004096
112	0x3da04251	0.07825149
113	0x3d971a39	0.073780484
114	0x3d8b4a95	0.06801335
115	0x3db3a4c3	0.0877166
116	0x3da38a18	0.07985324
117	0x3d872143	0.06598141
118	0x3d964639	0.07337613
119	0x3d80a656	0.06281726
120	0x3da6e840	0.08149767
121	0x3d87dd33	0.06633987
122	0x3d889115	0.06668297
123	0x3d883f22	0.06652667
124	0x3db1b5c4	0.08677247
125	0x3db64842	0.08900501
126	0x3d1427e0	0.03617084
127	0x3dc7a65f	0.0974853
128	0x3daec442	0.08533527
129	0x3dc87d08	0.09789473
130	0x3d96ecdd	0.07369397
131	0x3d515dde	0.05111491
132	0x3d7f4679	0.062323067
133	0x3da54e5a	0.08071585
134	0x3d738ddc	0.05946146
135	0x3d8df987	0.06932359
136	0x3d91c10a	0.071168974
137	0x3d92c894	0.071671635
138	0x3da3cd26	0.07998113
139	0x3d762bbf	0.060100313
140	0x3d9da083	0.07696631
141	0x3dca5592	0.098796025
142	0x3d900446	0.07032065
143	0x3db4d696	0.088299915
144	0x3d453ea6	0.04815545
145	0x3d90d630	0.07072103
146	0x3da8690f	0.08223163
147	0x3d8b318e	0.06796561
148	0x3d88ab40	0.06673288
149	0x3db5a72a	0.08869775
150	0x3db41deb	0.08794769
151	0x3d862a4d	0.06551037
152	0x3d6dfe0b	0.058103602
153	0x3d93cce7	0.072168164
154	0x3d6f82d0	0.058474362
155	0x3d8e9619	0.069622226
156	0x3d7486ba	0.059698798
157	0x3db492f0	0.088170886
158	0x3d8c2c0f	0.06844341
159	0x3da01278	0.07816023
160	0x3da445b9	0.08021111
161	0x3d8b3791	0.06797708
162	0x3da6e69e	0.081494555
163	0x3dbb2951	0.0913874
164	0x3dace65a	0.084423736
165	0x3d8ac737	0.067762785
166	0x3d9bdf5e	0.07610963
167	0x3db1d7fb	0.08683773
168	0x3dc2024a	0.09473093
169	0x3d9167ff	0.07099914
170	0x3d968c8c	0.07351026
171	0x3d5fa059	0.05459628
172	0x3d74199e	0.059594743
173	0x3d90f4ae	0.07077919
174	0x3da56789	0.080763884
175	0x3d9df5bf	0.07712888
176	0x3d8b0282	0.06787588
177	0x3d8a5da8	0.06756145
178	0x3d748dd7	0.05970558
179	0x3d89b0ba	0.06723161
180	0x3da13db3	0.07873096
181	0x3da1a0d7	0.07892006
182	0x3da2edc2	0.07955505
183	0x3d92ec14	0.071739346
184	0x3d61d78a	0.055137195
185	0x3dce37c3	0.100692295
186	0x3d88c04b	0.06677302
187	0x3d81d23f	0.063389294
188	0x3da1d9e7	0.0790289
189	0x3da25f1a	0.079282954
190	0x3d76d07a	0.060257412
191	0x3d5d1234	0.053972438
192	0x3dc81818	0.097702205
193	0x3d9e8c0e	0.07741557
194	0x3d996db9	0.07491631
195	0x3d815042	0.06314136
196	0x3db911cc	0.090365976
197	0x3da5e0d0	0.0809952
198	0x3d6d378a	0.057914294
199	0x3d86867c	0.065686196
200	0x3d54c8c3	0.051949274
201	0x3db43ce1	0.08800674
202	0x3d872c55	0.066002525
203	0x3d84b233	0.06479301
204	0x3da9b0c7	0.08285671
205	0x3dab1ac4	0.083547145
206	0x3da25101	0.079256065
207	0x3da784cb	0.08179625
208	0x3d88229a	0.06647225
209	0x3d9ec0ff	0.07751655
210	0x3daf9b05	0.085744895
211	0x3dad6095	0.08465687
212	0x3dadd945	0.084887065
213	0x3d83ca75	0.064351
214	0x3d958999	0.07301635
215	0x3d9677d7	0.073470764
216	0x3dc6fa83	0.0971575
217	0x3d6a97eb	0.057273787
218	0x3d91ca76	0.071186945
219	0x3d877243	0.066135906
220	0x3dac5b46	0.084158465
221	0x3d9b7a07	0.07591634
222	0x3dad3d2c	0.08458933
223	0x3d831002	0.063995376
224	0x3d80bcf1	0.06286038
225	0x3d47ef7f	0.048812386
226	0x3dcb7808	0.099350035
227	0x3d9a5ed0	0.07537615
228	0x3d69d284	0.05708553
229	0x3d6fdb30	0.058558643
230	0x3d67eda5	0.05662312
231	0x3d89aa5c	0.067219466
232	0x3d82019f	0.063479654
233	0x3d4b6d32	0.049664684
234	0x3db2457d	0.0870466
235	0x3da3a288	0.07989985
236	0x3da0a5e4	0.07844141
237	0x3da260d2	0.07928623
238	0x3d89aa17	0.06721895
239	0x3dbeb213	0.09311309
240	0x3d890175	0.06689731
241	0x3d94808b	0.0725108
242	0x3d8580b7	0.06518691
243	0x3d9e8bed	0.077415325
244	0x3d880374	0.06641284
245	0x3db52994	0.08845821
246	0x3dc46dc9	0.09591252
247	0x3d9e7f5f	0.07739138
248	0x3d1d6f91	0.038436476
249	0x3dc1ab84	0.09456542
250	0x3d63dc4b	0.05563001
251	0x3d86b5d8	0.06577653
252	0x3d6ace79	0.057325814
253	0x3d959b90	0.07305062
254	0x3d98da26	0.074634835
255	0x3d8c51bf	0.06851529

running_mean f4 [384]
0	0x3406c676	1.2551922e-07
1	0xb29396ad	-1.7181572e-08
2	0x3495a24e	2.7871505e-07
3	0x34518ae5	1.9515171e-07
4	0x33a91c86	7.874864e-08
5	0x3445322e	1.836531e-07
6	0x34491bdd	1.872972e-07
7	0xb4327e09	-1.6623393e-07
8	0x3343e6f3	4.5612023e-08
9	0xb407e661	-1.2656666e-07
10	0x34e9dabd	4.3558785e-07
11	0xb3c8d4a9	-9.3519084e-08
12	0xb48f8a54	-2.6736473e-07
13	0x33f1a224	1.125193e-07
14	0x342eada5	1.6268184e-07
15	0x33b11aa5	8.2470514e-08
16	0x341ce215	1.461088e-07
17	0x33450097	4.5868173e-08
18	0xb4ba6187	-3.471616e-07
19	0xb4b0311f	-3.2818295e-07
20	0xb4a30d5c	-3.0370836e-07
21	0x32ce02c0	2.3982807e-08
22	0xb265908c	-1.33624205e-08
23	0x32606378	1.3061133e-08
24	0xb4170189	-1.406353e-07
25	0xb3895fad	-6.396963e-08
26	0x326b88d2	1.370991e-08
27	0x340a9be6	1.2908967e-07
28	0xb45cfab8	-2.0580308e-07
29	0x3371d6f9	5.63077e-08
30	0xb22a1e5b	-9.902204e-09
31	0xb482ff6d	-2.4400234e-07
32	0xb4b5d99e	-3.3872215e-07
33	0x3497fa6a	2.8308142e-07
34	0xb3306047	-4.1065757e-08
35	0xb3f2a4f6	-1.12990094e-07
36	0xb48e9074	-2.6554665e-07
37	0xb3a77101	-7.797099e-08
38	0x348e81dd	2.654405e-07
39	0xb4213487	-1.5013403e-07
40	0x3389c07e	6.414574e-08
41	0xb37fada4	-5.952974e-08
42	0xb4445a84	-1.8286852e-07
43	0x348fda33	2.6794586e-07
44	0x3284989a	1.5436218e-08
45	0x33d61489	9.968887e-08
46	0x34d3c072	3.9441835e-07
47	0xb3c2dd1b	-9.074048e-08
48	0x34f8a40b	4.6312957e-07
49	0x33b58299	8.452225e-08
50	0xb434f984	-1.685458e-07
51	0x344abe9c	1.888206e-07
52	0x33d30754	9.826786e-08
53	0x34654ddb	2.135561e-07
54	0xb328c8fa	-3.9298335e-08
55	0xb3cf6be4	-9.658814e-08
56	0xb4c43b6d	-3.6551083e-07
57	0x3427df21	1.5634261e-07
58	0x33f80748	1.15497244e-07
59	0x3523b7e9	6.0989856e-07
60	0xb389a96d	-6.410378e-08
61	0x32ecdb6e	2.7573801e-08
62	0xb3fb7f59	-1.1711263e-07
63	0x33f1e702	1.1264457e-07
64	0xb3cb9770	-9.4804705e-08
65	0x342e5039	1.6234198e-07
66	0xb42bbe99	-1.5994955e-07
67	0x3469c183	2.1770215e-07
68	0x3360dfa5	5.2357468e-08
69	0xb4680068	-2.1606832e-07
70	0xb416ec15	-1.4055725e-07
71	0xb341cd7e	-4.512321e-08
72	0x3426efd1	1.55472e-07
73	0xb3b4f863	-8.4270845e-08
74	0x33863179	6.24886e-08
75	0x33f756a2	1.1517592e-07
76	0x334665e1	4.6193126e-08
77	0xb3bb5783	-8.7237844e-08
78	0xb498535b	-2.8372855e-07
79	0xb437457d	-1.7068483e-07
80	0xb4084cf2	-1.269398e-07
81	0xb40823b2	-1.2678973e-07
82	0xb2ac0bc8	-2.0028793e-08
83	0x341285fd	1.3646054e-07
84	0xb4e838e2	-4.3254755e-07
85	0xb485e617	-2.4940593e-07
86	0x336096f0	5.229134e-08
87	0xb2f8342e	-2.8894728e-08
88	0xb499f63b	-2.8677627e-07
89	0x34487f13	1.8672681e-07
90	0x327479e1	1.4230381e-08
91	0xb420c694	-1.4973403e-07
92	0x34b5fe22	3.3898783e-07
93	0x331e446a	3.6849464e-08
94	0x3202a9a2	7.605566e-09
95	0x323ac066	1.0870371e-08
96	0x34f4181c	4.5466084e-07
97	0xb3f593d2	-1.143559e-07
98	0x34164edc	1.3998527e-07
99	0x325f89c0	1.3011629e-08
100	0x3326b946	3.8818392e-08
101	0xb4e98405	-4.349569e-07
102	0x34e50c4d	4.2663524e-07
103	0x3487368b	2.5185395e-07
104	0x342b9104	1.5978372e-07
105	0x3414b2b8	1.3848592e-07
106	0xb49858de	-2.8376866e-07
107	0x33a642e5	7.7421454e-08
108	0x340c6ba4	1.3077675e-07
109	0xb3e0a2c8	-1.04604226e-07
110	0x341bf50e	1.452465e-07
111	0xb2443a33	-1.14219345e-08
112	0x343cec05	1.7594728e-07
113	0x34aa80c2	3.175865e-07
114	0xb43cb2c3	-1.7573898e-07
115	0xb4140e0a	-1.3788681e-07
116	0xb497c40b	-2.8268582e-07
117	0xb2f97dff	-2.9044712e-08
118	0xb418a5b0	-1.421638e-07
119	0x3463934c	2.1194609e-07
120	0xb3d3c69c	-9.86158e-08
121	0xb51846c5	-5.6727396e-07
122	0xb3a4c0ef	-7.6719395e-08
123	0xb32502fd	-3.8419774e-08
124	0xb3f671ee	-1.14759914e-07
125	0xb1c5e99d	-5.7600134e-09
126	0x33960730	6.986227e-08
127	0xb34d0fd3	-4.7744674e-08
128	0x32a6e025	1.9426873e-08
129	0x33d40f78	9.874833e-08
130	0x33bedadf	8.887377e-08
131	0x327e33c5	1.4796517e-08
132	0xb354f1f4	-4.958015e-08
133	0xb4498f62	-1.8771746e-07
134	0xb443c1a4	-1.8231236e-07
135	0x351ba913	5.7988035e-07
136	0x349097d7	2.6932568e-07
137	0xb3b0b564	-8.2286334e-08
138	0xb4e28b44	-4.219711e-07
139	0x34882c3b	2.5364156e-07
140	0xb5195d6e	-5.71329e-07
141	0x34d61dd8	3.988232e-07
142	0xb42e0802	-1.6207926e-07
143	0xb41046ac	-1.3436755e-07
144	0xb3e8d6a6	-1.0842386e-07
145	0xb45664be	-1.9966953e-07
146	0xb4afa71a	-3.2717873e-07
147	0xb4bdcb3a	-3.535186e-07
148	0xb30341be	-3.0560606e-08
149	0x33dfafd9	1.0416233e-07
150	0x33d5df24	9.9591745e-08
151	0xb4a2999a	-3.028661e-07
152	0xb404c647	-1.2365591e-07
153	0x33f66b83	1.1474824e-07
154	0x336f3970	5.5698763e-08
155	0xb38ffe76	-6.7052426e-08
156	0xb409b572	-1.2825129e-07
157	0x33e1e346	1.051872e-07
158	0x34b1bf91	3.3108202e-07
159	0x3463d0b5	2.121695e-07
160	0x33ff9d7b	1.19030084e-07
161	0xb344ee05	-4.5851284e-08
162	0x32ae849c	2.031657e-08
163	0x335f81b6	5.2039205e-08
164	0x337d6698	5.899946e-08
165	0xb3e81847	-1.0807758e-07
166	0x345c7497	2.0531512e-07
167	0x348be335	2.6056082e-07
168	0x34c79947	3.7178162e-07
169	0x33ed8bfc	1.10616355e-07
170	0xb3bf753f	-8.9154575e-08
171	0x34de9726	4.1460697e-07
172	0x34677841	2.15573e-07
173	0x338670d9	6.260388e-08
174	0x34729d67	2.2595269e-07
175	0x33e359fc	1.0586879e-07
176	0xb3542d8a	-4.9401514e-08
177	0x345cd1fd	2.056549e-07
178	0x339b73cb	7.2388126e-08
179	0xb36fb245	-5.580866e-08
180	0xb41859bf	-1.4188753e-07
181	0xb41d5209	-1.4651609e-07
182	0x3282200b	1.5148563e-08
183	0x34819796	2.4138416e-07
184	0x3299735c	1.7864004e-08
185	0xb482d37b	-2.436826e-07
186	0xb467146f	-2.1520985e-07
187	0xb2b020ad	-2.0503956e-08
188	0x32768cc4	1.4351091e-08
189	0xb26a4855	-1.3637039e-08
190	0x32f15f1b	2.8099342e-08
191	0x3425eb55	1.5452436e-07
192	0xb4979770	-2.8236127e-07
193	0xb2e7d66c	-2.6989447e-08
194	0x3425b98e	1.5434327e-07
195	0x3480c04b	2.398177e-07
196	0x3327d560	3.907678e-08
197	0x34e2310d	4.213147e-07
198	0x33bde9c7	8.843522e-08
199	0x3521011e	5.99788e-07
200	0xb4a4300f	-3.0582348e-07
201	0x33e337f4	1.0580689e-07
202	0xb3477f87	-4.6449284e-08
203	0x3403145c	1.2207732e-07
204	0x342425fa	1.5287506e-07
205	0xb4644125	-2.1257854e-07
206	0xb49c8717	-2.9155555e-07
207	0xb19a8ad6	-4.4977737e-09
208	0x3470e4a4	2.2434921e-07
209	0xb4381cb2	-1.7146775e-07
210	0xb50815f5	-5.06959e-07
211	0x340fe524	1.3401274e-07
212	0xb3f48fc5	-1.1388287e-07
213	0x33a99efa	7.8985934e-08
214	0x34ca98d6	3.7736635e-07
215	0x33b6bc7b	8.50932e-08
216	0xb42268aa	-1.5125502e-07
217	0x347c0b6b	2.3473483e-07
218	0x32f9984f	2.9056677e-08
219	0xb467038f	-2.1514846e-07
220	0xb217c06f	-8.833111e-09
221	0x3447ef6a	1.8620418e-07
222	0xb300b737	-2.9968955e-08
223	0xb3b69e85	-8.50387e-08
224	0x34a57887	3.082134e-07
225	0x33a1f8cd	7.542403e-08
226	0x2fd76b6a	3.9184594e-10
227	0x342c08c7	1.6021941e-07
228	0x342c31b8	1.6036836e-07
229	0xb453828f	-1.9698403e-07
230	0x3394325e	6.900949e-08
231	0xb4542070	-1.9755839e-07
232	0x351741f1	5.634784e-07
233	0xb4373b27	-1.7064723e-07
234	0xb41ea880	-1.4776197e-07
235	0x34b16080	3.3039032e-07
236	0x334f28e2	4.8233126e-08
237	0x3266d031	1.3435099e-08
238	0x33be1a2a	8.852324e-08
239	0x33c8e223	9.35436e-08
240	0xb3d262b1	-9.796839e-08
241	0x32f7ac8c	2.883305e-08
242	0x3406c441	1.2551119e-07
243	0x34588d1d	2.0167904e-07
244	0x3438ffb0	1.7229354e-07
245	0x34457adc	1.839175e-07
246	0xb3dcfdbc	-1.0290702e-07
247	0xb44c677c	-1.9036628e-07
248	0x33df2f1b	1.0392815e-07
249	0x3340c3bb	4.48815e-08
250	0x3459c849	2.0282563e-07
251	0xb3c4f4e6	-9.171508e-08
252	0xb41fec21	-1.4893932e-07
253	0xb4233cad	-1.5202632e-07
254	0x34b25b45	3.322149e-07
255	0x346cfdce	2.2071546e-07

running_var f4 [384]
0	0x3cc4b6bb	0.024012914
1	0x3ce03300	0.027368069
2	0x3c96b64e	0.018397477
3	0x3ccfa417	0.025346799
4	0x3c9ebeaa	0.019378025
5	0x3cd3fe83	0.025878197
6	0x3cf7990b	0.030224344
7	0x3c8f9f73	0.017532086
8	0x3d1494ef	0.036274847
9	0x3ce0f5b3	0.027460909
10	0x3c723f0d	0.01478554
11	0x3cfbbc81	0.030729534
12	0x3cdf816e	0.027283397
13	0x3c864196	0.016388696
14	0x3c6791b3	0.0141338585
15	0x3ca3546d	0.019937718
16	0x3c4b90f3	0.012424695
17	0x3c9ce96b	0.019154271
18	0x3d076512	0.033055373
19	0x3c996033	0.01872263
20	0x3ce3f719	0.027827786
21	0x3c9905bd	0.018679494
22	0x3c8b0a34	0.016972639
23	0x3c901c6d	0.01759168
24	0x3d07581f	0.033043023
25	0x3ce30557	0.027712507
26	0x3ca439d9	0.020047115
27	0x3cca8a81	0.024724247
28	0x3c92da4b	0.017926356
29	0x3cc67ff6	0.024230938
30	0x3cb872e0	0.022515714
31	0x3ce0445f	0.027376352
32	0x3cb9445a	0.0226156
33	0x3c86bb2e	0.016446676
34	0x3c971460	0.018442333
35	0x3c820af8	0.015874371
36	0x3cf9fec1	0.030516984
37	0x3c6ca7b7	0.014444283
38	0x3cda6cee	0.02666327
39	0x3ca5a86f	0.020221917
40	0x3ced597a	0.02897333
41	0x3ce411e0	0.027840555
42	0x3ce49aa4	0.02790577
43	0x3cf8de62	0.030379478
44	0x3c666689	0.014062532
45	0x3cd14454	0.025545277
46	0x3c7df6df	0.015500753
47	0x3d0b1674	0.03395696
48	0x3cb7a34c	0.022416733
49	0x3cb6a580	0.022295713
50	0x3c6720a3	0.014106902
51	0x3c940fab	0.018073877
52	0x3cc54eb2	0.024085376
53	0x3d007d23	0.03136934
54	0x3cad87dd	0.021182949
55	0x3c58ecaa	0.013240019
56	0x3c98ecdd	0.018667633
57	0x3ca36fcb	0.019950768
58	0x3cf0a243	0.029374247
59	0x3d1df5d1	0.038564507
60	0x3cec3fa6	0.028838944
61	0x3c5877ff	0.013212203
62	0x3d063637	0.032766547
63	0x3c82c5c8	0.01596345
64	0x3cc60326	0.024171423
65	0x3ca80c99	0.02051382
66	0x3c83c719	0.016086148
67	0x3cafb7b4	0.021449901
68	0x3cb3995e	0.021923717
69	0x3cfbe034	0.030746557
70	0x3d161435	0.036640365
71	0x3c7a6026	0.015281713
72	0x3cb9ba98	0.022671983
73	0x3cc6a06a	0.024246413
74	0x3caae1ae	0.020859566
75	0x3ca07a90	0.019589692
76	0x3d03a248	0.032137185
77	0x3c9f944a	0.01947989
78	0x3cbcd4bc	0.023050658
79	0x3cdf3d9f	0.027251063
80	0x3cde255b	0.027117422
81	0x3ce984d6	0.028505724
82	0x3c32a5a6	0.0109037515
83	0x3cb55ac2	0.022138003
84	0x3ce9e1c2	0.028550033
85	0x3cd036d0	0.025416762
86	0x3c9b81d1	0.0189828
87	0x3cdb77d2	0.026790533
88	0x3cf8ad2c	0.030356012
89	0x3c51ebcd	0.012812567
90	0x3c971c56	0.018446129
91	0x3ccda1a8	0.025101498
92	0x3cfdbc1b	0.030973485
93	0x3cf90240	0.03039658
94	0x3c924ceb	0.017858943
95	0x3ca111d7	0.019661827
96	0x3cca0bf7	0.024663908
97	0x3ca49f15	0.020095387
98	0x3c885b65	0.016645143
99	0x3c54d5f0	0.01299046
100	0x3ca39524	0.019968577
101	0x3caa7ccb	0.020811459
102	0x3ce10d36	0.02747212
103	0x3ca5286b	0.020160874
104	0x3cc0986c	0.02351018
105	0x3cfd1788	0.03089501
106	0x3c8b2338	0.016984567
107	0x3cb0bd86	0.021574747
108	0x3c849aa3	0.016187018
109	0x3c4342bc	0.011917766
110	0x3cf45cee	0.029829469
111	0x3ca1bc48	0.0197431
112	0x3ca70ccf	0.02039185
113	0x3ccc1be0	0.024915636
114	0x3cdcda99	0.026959704
115	0x3d06b3a4	0.032886162
116	0x3c7501ce	0.014954044
117	0x3cd92b86	0.026510011
118	0x3cd01446	0.025400292
119	0x3caf36ba	0.0213884
120	0x3cb51553	0.022104895
121	0x3d0713d6	0.0329779
122	0x3cfee605	0.031115541
123	0x3cf56c88	0.029958978
124	0x3d167310	0.036730826
125	0x3cd3158b	0.025767108
126	0x3c8e99ba	0.017407287
127	0x3cedd955	0.029034296
128	0x3c746158	0.014915787
129	0x3c953249	0.018212454
130	0x3cc199c9	0.0236329
131	0x3cafbda8	0.02145274
132	0x3cd063a2	0.025438134
133	0x3cb7582a	0.022380907
134	0x3d53ca29	0.051706467
135	0x3c4dfd8e	0.012572659
136	0x3c82a0d6	0.015945833
137	0x3c9c2e1d	0.019064957
138	0x3d12bc91	0.035824362
139	0x3c817495	0.015802661
140	0x3ceee35e	0.029161151
141	0x3d0356ac	0.03206508
142	0x3cacbcda	0.021086145
143	0x3cafbb72	0.021451686
144	0x3cdeb45d	0.027185613
145	0x3c61defa	0.013786072
146	0x3cdd760a	0.027033824
147	0x3cad8b44	0.021184571
148	0x3d07acfc	0.033123955
149	0x3ca9b9d7	0.020718498
150	0x3c9594ad	0.01825937
151	0x3c976ecb	0.018485447
152	0x3c7658d3	0.015035826
153	0x3c771027	0.015079535
154	0x3d05df0b	0.032683413
155	0x3cb3002b	0.021850666
156	0x3caf45d7	0.021395607
157	0x3c81a59e	0.015826043
158	0x3ce0a769	0.027423577
159	0x3cf1e46f	0.029527871
160	0x3d160fae	0.036636047
161	0x3cd520eb	0.026016673
162	0x3cc31411	0.02381328
163	0x3cc452b3	0.023965215
164	0x3c8f3831	0.017482849
165	0x3c8b3bef	0.016996352
166	0x3cf50586	0.02990986
167	0x3ce13aa5	0.027493784
168	0x3cbfcd05	0.02341319
169	0x3d170d1d	0.03687774
170	0x3caeb8f8	0.021328434
171	0x3d2ff20a	0.042955436
172	0x3c9c33cd	0.01906767
173	0x3c912330	0.017716974
174	0x3cfcb073	0.030845856
175	0x3d16cc94	0.036816195
176	0x3cd3c54b	0.025850913
177	0x3c2d743d	0.010586795
178	0x3cc206de	0.023684915
179	0x3c6e5deb	0.014548759
180	0x3ce35ed7	0.027755184
181	0x3ce31218	0.027718589
182	0x3d115626	0.03548255
183	0x3cdc1783	0.02686668
184	0x3c95d5c7	0.018290414
185	0x3ca06f1b	0.01958423
186	0x3cc575ca	0.024104018
187	0x3d009712	0.031394072
188	0x3cb733c1	0.022363545
189	0x3cdb6bd7	0.02678482
190	0x3c9b5d69	0.01896544
191	0x3d0e4a55	0.034738857
192	0x3c99f300	0.01879263
193	0x3d2ca378	0.042148083
194	0x3c9cdcc8	0.019148245
195	0x3cc2400a	0.023712177
196	0x3c906a19	0.017628716
197	0x3cefb490	0.029260904
198	0x3c8f24d8	0.017473623
199	0x3cb5a564	0.022173591
200	0x3cea1e01	0.02857876
201	0x3c62f967	0.013853407
202	0x3d0a87db	0.033820968
203	0x3cc724c6	0.024309527
204	0x3caa9e6e	0.020827498
205	0x3cc20675	0.02368472
206	0x3d050f74	0.03248544
207	0x3c572028	0.013130225
208	0x3c8e01cf	0.017334847
209	0x3c8dc08c	0.017303728
210	0x3cecf39f	0.028924761
211	0x3c698973	0.014253962
212	0x3cc3a48f	0.023882179
213	0x3cf7d58f	0.0302532
214	0x3ca433fa	0.020044316
215	0x3cc4863f	0.023989795
216	0x3c8c4f8d	0.017127777
217	0x3c845799	0.016155051
218	0x3cc230ab	0.023704847
219	0x3cc0c5a2	0.023531739
220	0x3d04bdb3	0.032407474
221	0x3c956e53	0.018241083
222	0x3c9501c4	0.018189318
223	0x3cc8d378	0.024514899
224	0x3ce7ce87	0.028296722
225	0x3d071c61	0.03298605
226	0x3cbeb3ef	0.023279158
227	0x3cda7ce9	0.02667089
228	0x3d020ae7	0.03174868
229	0x3d538402	0.051639564
230	0x3c8ea7c8	0.017413989
231	0x3d734d56	0.059399925
232	0x3cab6d8a	0.020926256
233	0x3ce3fe93	0.027831351
234	0x3cf2a95d	0.029621774
235	0x3c4adbf2	0.012381541
236	0x3c95d43c	0.018289678
237	0x3cc02c34	0.023458578
238	0x3c5b1318	0.0133712515
239	0x3cceb9a2	0.025235001
240	0x3cb300ea	0.021851022
241	0x3c88b764	0.01668901
242	0x3ca36272	0.019944403
243	0x3c8defa3	0.017326182
244	0x3c7ae5db	0.015313591
245	0x3d3c4dbd	0.045972575
246	0x3cac3915	0.021023313
247	0x3d51fe27	0.05126777
248	0x3cb4d3c8	0.022073641
249	0x3c885ee4	0.01664681
250	0x3c5435e1	0.012952299
251	0x3cac6ac7	0.02104701
252	0x3d19c718	0.037543386
253	0x3cf46788	0.029834524
254	0x3cd8aadc	0.02644866
255	0x3cac1e53	0.021010553

weight f4 [43, 384]
0	0x3d81209b	0.06305047
1	0xbd0c0600	-0.03418541
2	0x3d0e16e8	0.034689814
3	0xbca01922	-0.019543234
4	0x3d80c7c8	0.06288105
5	0xbd20cbbc	-0.039256796
6	0xbd0bf0e3	-0.034165274
7	0xbce49291	-0.02790192
8	0x3cf35819	0.029705094
9	0x3cd4d04d	0.025978232
10	0x3d96ae4f	0.073574655
11	0x3d7e9380	0.062152386
12	0xbd05828e	-0.03259521
13	0x3d07a3f7	0.033115353
14	0xbd5805f1	-0.05274004
15	0xbd21643a	-0.039402224
16	0x3e0f1988	0.13974583
17	0x3dc05de8	0.09392911
18	0xbcfc0750	-0.030765206
19	0x3d81eb27	0.0634368
20	0xbc7dc0ce	-0.015487863
21	0xbd2f7d38	-0.042844027
22	0x3c1dade6	0.00962398
23	0xbd2c8dea	-0.042127527
24	0xb9f9c54d	-0.00047639981
25	0xbd13bd42	-0.036069162
26	0xbd2e2cdc	-0.04252325
27	0xbd273730	-0.040824115
28	0xbd2c5426	-0.042072438
29	0xbd2c919a	-0.042131044
30	0xbca60299	-0.02026491
31	0x3d0a60a0	0.033783555
32	0xbcac7915	-0.02105383
33	0xbd7a5734	-0.06111832
34	0x3e3b4c13	0.18290739
35	0xbd29eaa6	-0.041483544
36	0x3d409b31	0.047023002
37	0xbd3e6486	-0.046482585
38	0xbcff00d8	-0.031128332
39	0xbcdbd19d	-0.02683335
40	0xbcf901cf	-0.03039637
41	0xbd0cb60e	-0.03435331
42	0xbd4e7fba	-0.05041478
43	0xbcf959ae	-0.03043827
44	0x3dc3239e	0.09528278
45	0xbd16b602	-0.03679467
46	0xbd21dadf	-0.039515372
47	0xbd2cc837	-0.042183127
48	0x3d0e3f96	0.03472861
49	0x3d017be3	0.03161229
50	0xbd01dd47	-0.031705167
51	0xbd246184	-0.04013206
52	0x3d174323	0.03692926
53	0x3c20227c	0.009773847
54	0xbd0b17cf	-0.033958253
55	0x3d91d704	0.07121089
56	0xbd1623ce	-0.03665524
57	0x3e25d60b	0.16194932
58	0xbc6c868d	-0.014436376
59	0xbcd3d7e3	-0.025859779
60	0x3d407f50	0.046996415
61	0x3e526f06	0.20550165
62	0xbcf9b8c4	-0.03048361
63	0x3e13a787	0.14419375
64	0xbb993407	-0.0046753916
65	0xbd1a269d	-0.03763448
66	0xbcbd8636	-0.023135286
67	0xbc82f083	-0.015983826
68	0x3db7a8fe	0.089677796
69	0xbcbc4c40	-0.022985578
70	0xbc9a1f42	-0.018813733
71	0x3dacb604	0.08433154
72	0xbc05971e	-0.008153705
73	0xbd02a08c	-0.03189139
74	0xbd3a312b	-0.045457046
75	0xbd21d00d	-0.039505053
76	0xbd655dab	-0.05599753
77	0xbcf25773	-0.029582715
78	0x3d5b4cb1	0.053539935
79	0xbd2bcba3	-0.04194225
80	0xbd2b22e7	-0.041781332
81	0xbd053865	-0.032524485
82	0x3c5d2a56	0.013498863
83	0xbc983795	-0.018581191
84	0x3cf34695	0.029696742
85	0x3d2f6ad4	0.04282649
86	0x3da3ac66	0.07991867
87	0xbd04f33c	-0.03245853
88	0xbd04785a	-0.03234134
89	0xbd373b00	-0.044734
90	0xbd14efdb	-0.036361557
91	0xbd19f3f0	-0.037586153
92	0xbcff87ce	-0.031192686
93	0xbd36cb5d	-0.044627536
94	0xbd09d3c6	-0.03364923
95	0xbd158fb6	-0.036514007
96	0x3d2884f4	0.04114242
97	0xbd139ef0	-0.036040246
98	0xbd3948a4	-0.04523529
99	0xbcf1e3bc	-0.029527538
100	0xbd4d6418	-0.050144285
101	0x3decf7bd	0.1157069
102	0x3cd1a92f	0.025593368
103	0x3b6fea89	0.00366083
104	0x3db04047	0.0860601
105	0xbc1d6537	-0.009606651
106	0xbd185ba4	-0.03719677
107	0xbcb9b13e	-0.022667523
108	0x3dc32764	0.095289975
109	0xbd818e77	-0.06326001
110	0xbd1d1d30	-0.038357913
111	0x3ceb3e1c	0.02871614
112	0xbcc17424	-0.02361495
113	0xbd1c8354	-0.03821118
114	0xbcc8d0c6	-0.024513613
115	0xbc5825e5	-0.0131926285
116	0xbd29ea7f	-0.0414834
117	0x3bbff331	0.005857848
118	0xbc322434	-0.010872889
119	0xbd3efe49	-0.046629224
120	0x3d61fae7	0.05517092
121	0x3d96f28d	0.07370482
122	0x3d6fd89a	0.058556177
123	0x3de14ab5	0.11000577
124	0xbcea7efd	-0.028625006
125	0xbad91f04	-0.001656503
126	0xbd215b69	-0.039393816
127	0xbcfb1556	-0.030649822
128	0xbcca9095	-0.024727145
129	0xbd30907d	-0.043106545
130	0xbc0502b7	-0.008118323
131	0x3d53ef91	0.05174214
132	0x3dc5cdc6	0.09658389
133	0xbd43e33d	-0.047824133
134	0xbc59c0cf	-0.013290598
135	0xbd797708	-0.060904533
136	0x3e247a0e	0.16062185
137	0x3e113699	0.14180984
138	0xbd03a6ef	-0.032141622
139	0x3da727a9	0.081618614
140	0xbd0c718b	-0.03428797
141	0xbcc46860	-0.023975551
142	0xbcea46a9	-0.028598147
143	0xbd1e2c27	-0.038616326
144	0xbd35e990	-0.044412196
145	0x3b594f1c	0.0033158725
146	0xbc54ca9c	-0.012987759
147	0x3d63febc	0.055662856
148	0xbcfa1e70	-0.030532092
149	0xbd03b89f	-0.03215849
150	0xbd05ff2c	-0.032714054
151	0xbd15458a	-0.03644327
152	0x3d9fed86	0.07808976
153	0xbd054509	-0.03253654
154	0xbcd1f9c4	-0.025631793
155	0xbd22a809	-0.039711032
156	0xbc8b529b	-0.017007163
157	0xbd976414	-0.07392135
158	0x3d5dd1e7	0.054155257
159	0xbd45fac5	-0.048334856
160	0xbcbe2bca	-0.02321424
161	0x3e0a758c	0.13521403
162	0x3d5e7aca	0.05431632
163	0xbd401159	-0.046891544
164	0xbd2aabd9	-0.041667793
165	0xbc55e35d	-0.013054696
166	0x3d911ef6	0.070859835
167	0x3d958d7c	0.07302377
168	0xbceb3e08	-0.028716102
169	0xbd131b5c	-0.035914764
170	0x3c85b72d	0.016322697
171	0xbd198013	-0.037475657
172	0xba920d7b	-0.0011142934
173	0xbc57c9d1	-0.013170675
174	0xbd01134d	-0.031512547
175	0xbd09762f	-0.033559974
176	0xbd6d5fcf	-0.0579527
177	0x3e30a8bc	0.17251867
178	0x3c8fa946	0.01753677
179	0xbce9e0bc	-0.028549545
180	0xbcc6bfc1	-0.024261357
181	0x3c4ed3a1	0.012623698
182	0x3c5b704b	0.013393472
183	0x3d3f8c66	0.046764754
184	0x3cd76ddd	0.026297504
185	0xbcae6a9c	-0.02129107
186	0xbd2ab6c2	-0.041678198
187	0x3b3fa1c3	0.0029240705
188	0xbd24ebf3	-0.04026408
189	0x3d7e505a	0.062088348
190	0x3c47c8ce	0.012193872
191	0xbc12c4e2	-0.008958073
192	0xbd2c180e	-0.042015128
193	0xbca1e00d	-0.019760156
194	0xbcafc167	-0.021454526
195	0x3d824577	0.063609056
196	0x3c7878ac	0.015165489
197	0xbd1ee59b	-0.038793188
198	0xbd68cc12	-0.05683524
199	0xba089436	-0.00052100734
200	0xbc8df953	-0.017330801
201	0xbd3b058a	-0.04565958
202	0x3d42ae5c	0.047529563
203	0x3c548152	0.0129702855
204	0xbd26a5eb	-0.040685575
205	0x3dec0b90	0.11525643
206	0x3d8c00ef	0.068361156
207	0xbd94243f	-0.07233476
208	0xbd6ae684	-0.057348743
209	0xbcd9a3d1	-0.026567372
210	0xbd036d88	-0.03208688
211	0xbd8f87be	-0.07008313
212	0xbcd230de	-0.025658067
213	0xbb76aa16	-0.0037638
214	0xbbed961b	-0.00725056
215	0xbd38226b	-0.0449547
216	0xbd1dd07a	-0.038528897
217	0x3e3a8d56	0.18217978
218	0x3d2c87f0	0.042121828
219	0xbcdc3bb5	-0.02688394
220	0x3dfa411e	0.12219451
221	0xbcc2fa1e	-0.023800906
222	0x3d15529a	0.036455728
223	0xbce934bd	-0.02846753
224	0xbd1d6847	-0.038429525
225	0xbd038bab	-0.03211562
226	0xbc841e3f	-0.016127704
227	0xbd37a2c2	-0.044832952
228	0xbd1e7453	-0.038685154
229	0xbd13681c	-0.03598796
230	0xbd1fabb8	-0.038982123
231	0x3db081c1	0.086184986
232	0xbcfcf802	-0.030879978
233	0x3d47ce1d	0.04878055
234	0xbd4449cf	-0.04792195
235	0x3d19787b	0.037468415
236	0xbcb22f1c	-0.02175098
237	0x3da93d76	0.08263676
238	0x3d9d1166	0.07669334
239	0xbd248658	-0.040167183
240	0xbd65f98c	-0.05614619
241	0xbd008409	-0.03137592
242	0xbd6cf5be	-0.057851546
243	0x3d697f83	0.05700637
244	0xbd0d3fca	-0.034484662
245	0x3db45060	0.08804393
246	0x3cd93fa0	0.026519597
247	0x3b85e4b8	0.0040861033
248	0x3cbecf30	0.023292154
249	0xbb9b90c8	-0.004747484
250	0xbd305114	-0.043046072
251	0xbd2f352a	-0.04277531
252	0xbd1ef72f	-0.03880995
253	0xbc9cb980	-0.019131422
254	0xbd0eb52c	-0.034840748
255	0xbd2a442d	-0.041568924

bias f4 [43]
0	0xbcd697f0	-0.026195496
1	0x3d409280	0.047014713
2	0x3d7dd36f	0.061969217
3	0x3d1fd316	0.039019667
4	0x3cc92d28	0.024557665
5	0x3d266bbb	0.040630084
6	0xbc9560b0	-0.01823458
7	0x3cbfdb9b	0.023420146
8	0x3cf891d1	0.030342968
9	0x3c67bb1c	0.014143731
10	0x3d0d7fe4	0.034545794
11	0x3bcc206a	0.00622945
12	0x3d79a9c9	0.060952935
13	0x3d7a939d	0.06117593
14	0xbab4a14f	-0.0013780984
15	0x3b9f518c	0.004862016
16	0xba441d7f	-0.0007481202
17	0x39e787c6	0.00044160913
18	0x3ae5a432	0.0017520247
19	0xbd032dda	-0.03202615
20	0xbbc6e9ae	-0.0060703373
21	0xbcc66db7	-0.024222238
22	0xbd34e4f7	-0.04416367
23	0xbc850a42	-0.016240243
24	0xbcfe8276	-0.031068068
25	0x3bfd10c6	0.007722947
26	0xbc83306e	-0.016014304
27	0xbd17219c	-0.036897287
28	0x3b1399c6	0.0022522076
29	0x3b4340f6	0.0029793358
30	0xbb525c70	-0.0032098554
31	0xbc630c23	-0.013857874
32	0xbcce3113	-0.025169885
33	0xbcacf7c6	-0.021114241
34	0xbc9398db	-0.018017223
35	0x3b7b1dba	0.003831728
36	0xbce9fcea	-0.028562982
37	0xbcf97aed	-0.030454123
38	0x3d3b962a	0.045797504
39	0xbd226e35	-0.039655883
40	0xbc5b3af6	-0.013380757
41	0xbd2b33a4	-0.041797295
42	0xbcce279c	-0.025165372
